Homework/HW2/results/quick_grid/run_05.pt (torch, 583917 bytes, 8 tensors)

network.0.weight f4 [256, 256]
0	0x3d7120fb	0.058869343
1	0x3b159285	0.0022822928
2	0x3c817f67	0.01580782
3	0xbcebb5f4	-0.028773285
4	0xbd21246b	-0.03934137
5	0x3d7f937d	0.062396515
6	0x3d334f6c	0.043776914
7	0x3d895ad3	0.067067765
8	0xbd5c37ae	-0.053764038
9	0xbd6d794f	-0.057977017
10	0x3d900d57	0.070337944
11	0x3d318ffc	0.043350205
12	0x3dd93deb	0.10607513
13	0x3d4f0ae9	0.050547514
14	0x3c6730cf	0.014110758
15	0xbc672dbc	-0.014110025
16	0xbce634a1	-0.028101267
17	0xbd97ec03	-0.074180625
18	0x3da6a988	0.08137804
19	0x3d02b511	0.03191096
20	0x3d07d50f	0.033162173
21	0xbd4fa735	-0.05069657
22	0xbc8d7b64	-0.017270751
23	0x3daf186d	0.08549581
24	0x3d32ea4a	0.043680467
25	0xbd3e6c8f	-0.04649025
26	0xbd8c66d4	-0.068555504
27	0xbd03b42a	-0.03215424
28	0xbdf570b8	-0.1198439
29	0xbd7fb21a	-0.06242571
30	0x3d02c2a1	0.031923894
31	0x3e3b124a	0.18268695
32	0x3c5f9016	0.013645193
33	0xbd9c5b64	-0.07634619
34	0x3dc8b12c	0.09799418
35	0x3ddf8b85	0.10915283
36	0xbe316310	-0.17322946
37	0xbd19986a	-0.03749887
38	0xbcc421c9	-0.023941891
39	0xbb77e3b6	-0.0037824935
40	0xbd40d9cd	-0.04708271
41	0xbe184a47	-0.14872085
42	0x3e177fe5	0.14794882
43	0x3cb14380	0.021638632
44	0xbca99ba3	-0.020704096
45	0xbc7dd970	-0.015493736
46	0x3da85d90	0.08220971
47	0x3e010470	0.12599349
48	0x3db4cc75	0.088280596
49	0x3c74405f	0.014907925
50	0x3cd69ab2	0.026196811
51	0xbd5e4560	-0.05426538
52	0x3d160fb5	0.036636073
53	0x3d770b5b	0.060313564
54	0x3da14f97	0.07876509
55	0xbccb6e71	-0.024832936
56	0xbc3727f3	-0.011178958
57	0xbc67bee1	-0.01414463
58	0x3d055d05	0.032559413
59	0x3d353e9d	0.044249166
60	0x3d7dc670	0.061956823
61	0x3b71b3ac	0.0036880774
62	0xbb836d8a	-0.004010861
63	0x3cceff43	0.025268203
64	0xbdaa0c8e	-0.08303176
65	0xbd8b63b1	-0.06806124
66	0x3c968a25	0.01837642
67	0x3cd4a317	0.025956674
68	0xbdb816cf	-0.089887254
69	0x3d7d6d09	0.061871562
70	0xbda1c02f	-0.07897984
71	0x3e1bdfea	0.15222135
72	0x3dab59db	0.08366748
73	0x3d26ec7c	0.040752873
74	0x3e1c3cf7	0.15257631
75	0x3dc7869a	0.0974247
76	0x3dd995ec	0.106242985
77	0xbd6c1666	-0.05763855
78	0xbddb7827	-0.107162766
79	0xbd7ef70f	-0.062247332
80	0x3d41aed0	0.047285855
81	0x3db5a07d	0.08868501
82	0x3d9da3d8	0.07697266
83	0xbd295cb5	-0.041348178
84	0x3c8b9b18	0.017041728
85	0xbcb1cd4d	-0.02170434
86	0x3d4d7cd8	0.05016789
87	0xbd19a905	-0.037514705
88	0x3d0ed488	0.034870654
89	0x3cd0bca7	0.025480581
90	0xbcb85cb8	-0.02250515
91	0xbd0bf021	-0.03416455
92	0xbcb79479	-0.022409664
93	0xbca3ede3	-0.020010894
94	0xbc284c45	-0.01027209
95	0x3d317ba2	0.043330796
96	0xbd9bd5d1	-0.076091416
97	0x3d72c0e7	0.059265997
98	0xbce59171	-0.028023453
99	0x3d41a39c	0.04727517
100	0x3d016032	0.03158588
101	0x3d1401c6	0.036134504
102	0xbccf34d5	-0.025293747
103	0xbcc8d86c	-0.02451726
104	0xbc91a22b	-0.017777523
105	0xbc952af8	-0.018208966
106	0x3b8e475e	0.0043420037
107	0xbd0ee9b6	-0.034890853
108	0x38a30c9f	7.7747965e-05
109	0x3cf05063	0.029335206
110	0x3c973863	0.018459504
111	0x3b515d45	0.0031946462
112	0x3d9eb4a0	0.07749295
113	0xbbcab08b	-0.0061855963
114	0x3ca63e98	0.020293519
115	0x3c9c3577	0.019068463
116	0x3da04919	0.07826442
117	0x3da2bdd2	0.079463616
118	0x3cc5ed89	0.024161117
119	0xbd7ce9a9	-0.061746273
120	0x3d5faaa9	0.054606114
121	0x3dea780f	0.114486806
122	0x3d8b458f	0.068003766
123	0x3d99d798	0.07511824
124	0x3ce2e0a2	0.027695004
125	0x3cfd7137	0.030937774
126	0x3d9e819b	0.07739564
127	0x3d22faa3	0.039789807
128	0xb47470e0	-2.2765335e-07
129	0x3e0df0e1	0.1386142
130	0x3704d773	7.917976e-06
131	0x35dca596	1.6439469e-06
132	0x3e0a7137	0.1351975
133	0xbe1a4413	-0.15065031
134	0xb65eb611	-3.3186554e-06
135	0xb7047704	-7.895524e-06
136	0x3600f7c4	1.9217705e-06
137	0x3e1666a9	0.14687599
138	0x3e1b64c1	0.15175153
139	0x3e05c3dd	0.13062997
140	0x35ed8fb0	1.7699695e-06
141	0x3703b6aa	7.850738e-06
142	0x36646b68	3.4037166e-06
143	0xb793227c	-1.7539824e-05
144	0x3e1a1cb3	0.1505001
145	0xb58d0c82	-1.0508959e-06
146	0x3706cb80	8.034403e-06
147	0xb7d796fb	-2.5700303e-05
148	0x3e1b665e	0.15175769
149	0xbe1b685c	-0.15176529
150	0xb714ad5c	-8.861851e-06
151	0xbe1b6826	-0.15176448
152	0xbe9b64f6	-0.30350465
153	0xb702abe2	-7.788623e-06
154	0x35bf65ca	1.4260233e-06
155	0xbe1b655a	-0.15175381
156	0x37162490	8.94921e-06
157	0xb5c8ee17	-1.4970454e-06
158	0x3e1b64c2	0.15175155
159	0x36b1aa06	5.2948044e-06
160	0x35edd37c	1.7719426e-06
161	0x3564badc	8.5208535e-07
162	0x3e1b6847	0.15176497
163	0xb57d8a10	-9.445075e-07
164	0x3e1a529e	0.15070578
165	0x370a4f0a	8.243844e-06
166	0xb7487e08	-1.1950273e-05
167	0x3e1b6315	0.15174516
168	0xb67fe2d6	-3.8129997e-06
169	0x3654ef7d	3.1729862e-06
170	0xbe181a84	-0.14853865
171	0xb73cb22f	-1.124716e-05
172	0xbe12a521	-0.14320804
173	0xb69f4122	-4.7461517e-06
174	0xbe1b61bd	-0.15174003
175	0xbe083261	-0.13300468
176	0xbe1a26ac	-0.15053815
177	0xb6d0deff	-6.224843e-06
178	0x352bc7e0	6.399332e-07
179	0xb6950be3	-4.44193e-06
180	0xb71cd37d	-9.3475655e-06
181	0x37585c44	1.28960855e-05
182	0xb6448972	-2.928628e-06
183	0x3712e670	8.755931e-06
184	0x37b696ba	2.1766278e-05
185	0xb7516552	-1.2480961e-05
186	0x368d54bf	4.211993e-06
187	0xb6e930b9	-6.949613e-06
188	0x3e0fa110	0.14026284
189	0x3621dcf9	2.4119493e-06
190	0xb7063216	-7.998684e-06
191	0x3e1b652d	0.15175314
192	0xb62fb6de	-2.6183475e-06
193	0x3781913d	1.544563e-05
194	0x35ef2ad7	1.7819356e-06
195	0x36c27650	5.795424e-06
196	0x3e057f28	0.13036788
197	0x37116570	8.666291e-06
198	0xbe155dbd	-0.1458654
199	0xb59711fc	-1.1255611e-06
200	0x360ed6f8	2.1284777e-06
201	0x36535bfc	3.1494992e-06
202	0x373a98f8	1.112208e-05
203	0xbe1ae6fa	-0.15127173
204	0x3e197a21	0.14987995
205	0x3673207e	3.6228735e-06
206	0xb6392612	-2.7589308e-06
207	0x3e0f697a	0.1400508
208	0x3704b4c0	7.909897e-06
209	0xbe089901	-0.13339616
210	0xb61fe1c0	-2.382425e-06
211	0x3e1b6461	0.1517501
212	0x36c2c7bf	5.804904e-06
213	0x36823256	3.880162e-06
214	0xb4c59298	-3.680077e-07
215	0x3e18ec32	0.14933851
216	0xb680efdc	-3.8426206e-06
217	0x361fbaba	2.3801535e-06
218	0x3695bfd2	4.462877e-06
219	0x3721bd1e	9.64038e-06
220	0x3e054b4f	0.13017009
221	0xb6fe26f1	-7.5743233e-06
222	0xb6e575bd	-6.8384384e-06
223	0x3e060ca5	0.13090761
224	0xb70de3ac	-8.457264e-06
225	0x3e1b6555	0.15175374
226	0x373b2580	1.11548e-05
227	0x37159ad2	8.917139e-06
228	0xbe14d6e1	-0.14535095
229	0xb7034678	-7.824616e-06
230	0xb69276b4	-4.364958e-06
231	0x36f8f042	7.4189456e-06
232	0xb498e3e0	-2.8478007e-07
233	0xb7028fee	-7.782115e-06
234	0xb7c1b5ab	-2.3091989e-05
235	0x3e0663cc	0.13124007
236	0xb5af94d4	-1.3081831e-06
237	0x3e1b64bc	0.15175146
238	0xbe1b65aa	-0.151755
239	0x3e0af5f7	0.1357039
240	0x35390368	6.892283e-07
241	0x3e1aecb2	0.15129355
242	0x3462ee60	2.113461e-07
243	0xb702d085	-7.797154e-06
244	0xb5749fb8	-9.1129505e-07
245	0x34de1cc0	4.137164e-07
246	0x3649eaf0	3.0088086e-06
247	0x352a3cb4	6.341827e-07
248	0xb4586580	-2.0153493e-07
249	0xb701294b	-7.698613e-06
250	0xb762441a	-1.3486506e-05
251	0x3e1a80d5	0.15088208
252	0xb5b41d50	-1.3419576e-06
253	0x3e1b6389	0.15174688
254	0xbe1b66c4	-0.1517592
255	0x36b9e44f	5.5400083e-06

network.0.bias f4 [256]
0	0x3d0e75f5	0.03478046
1	0x3cd210cc	0.025642775
2	0x3bc557f1	0.0060224463
3	0x3d3e1191	0.04640347
4	0x3d2fab46	0.04288795
5	0x3c80cb5d	0.015721971
6	0x3ccafd0f	0.02477887
7	0x3c95e8a0	0.0182994
8	0x3c72ab80	0.014811397
9	0x3d2ccf9f	0.04219019
10	0x3d08c21d	0.033388246
11	0x3cc54a7b	0.024083367
12	0x3d29c5bc	0.04144834
13	0x3c98dfe1	0.018661441
14	0x3d27eb5f	0.04099595
15	0x3ccfb807	0.025356306
16	0x3726c66c	9.94057e-06
17	0x3d162921	0.036660317
18	0x3d2b3cc6	0.041806005
19	0xbae6d161	-0.0017610007
20	0x3ca033d2	0.01955596
21	0x3cf4ad1a	0.029867698
22	0x3d7acb69	0.061229143
23	0x3cd5a4c9	0.026079552
24	0x3d895efc	0.0670757
25	0x3d6d6ad2	0.0579632
26	0x3ca79c8f	0.020460395
27	0x3d19c78b	0.037543815
28	0x3d07d780	0.0331645
29	0xba18ce2d	-0.00058290624
30	0x3c34624d	0.011009765
31	0x3c395d55	0.011313756
32	0x3d34d338	0.044146746
33	0x3c1e2c05	0.00965405
34	0x38602b1c	5.344591e-05
35	0x3d0ecb0e	0.034861617
36	0x3cd68da8	0.026190594
37	0x3d217e35	0.039427
38	0x3ceb8e2e	0.02875432
39	0x3ce36674	0.027758814
40	0x3ccad141	0.024757983
41	0x3d2d7f69	0.042357836
42	0x3d4dbd18	0.050229162
43	0x3c7c943f	0.015416204
44	0x3cd54987	0.026036037
45	0x3c58df8f	0.013236894
46	0x3d9f15d6	0.07767837
47	0x3b362d76	0.0027798093
48	0x3d0a9c4a	0.033840455
49	0x3cfbac62	0.030721847
50	0x3d53c1ba	0.051698424
51	0x3d0f7d2d	0.035031486
52	0x3d2e9813	0.042625498
53	0x3cfecd8a	0.031103868
54	0x3bd94ec6	0.006631705
55	0x3bfed57d	0.0077769146
56	0x3c4c993f	0.012487709
57	0x3cbeeba1	0.023305716
58	0x3ca2acf7	0.019857867
59	0x3be92582	0.007115067
60	0x3c9e35e5	0.019312808
61	0x3ce1102e	0.027473535
62	0x3cd7d90b	0.026348611
63	0x3d2342ff	0.039858814
64	0x3d2f64d2	0.04282076
65	0x3c5d26b9	0.013498002
66	0x3c444e9d	0.0119816335
67	0x3c800d1a	0.015631247
68	0x3d16e021	0.03683484
69	0x3d0db650	0.034597695
70	0x3cc9344c	0.02456107
71	0x3d2d56b4	0.042319015
72	0x3c8c1b11	0.01710275
73	0xb82882b0	-4.0176034e-05
74	0x3cf3c3b7	0.02975641
75	0x3d37e10f	0.044892367
76	0x394eb846	0.00019714338
77	0x3d1ad1e4	0.037797824
78	0x3cdc1e26	0.026869845
79	0x3d8f23df	0.06989264
80	0x3c416eba	0.011806184
81	0x3c95d71c	0.018291049
82	0x3d43bce8	0.047787577
83	0x3c31808e	0.0108338725
84	0x3d18181f	0.03713238
85	0x3d6f4a30	0.05842036
86	0x3d1d87cd	0.038459588
87	0x3c5c6818	0.013452552
88	0x3d1c1b90	0.038112223
89	0x3cc52e5c	0.024069957
90	0x3ced3f00	0.028960705
91	0x3d15929b	0.036516767
92	0x3d0a8217	0.03381547
93	0x3d178c9c	0.03699933
94	0x3d040788	0.032233745
95	0x3bddec12	0.0067725265
96	0x3bf3a6ef	0.0074356715
97	0xbca5b175	-0.02022622
98	0x3cfc5ae8	0.030805066
99	0x389ea474	7.564659e-05
100	0x3d0c728f	0.03428894
101	0x3d36a7ce	0.044593625
102	0x3d2db59a	0.042409517
103	0xbc123e69	-0.008926013
104	0x3cc2bd8e	0.023772027
105	0x3b2a43fb	0.002598046
106	0x3d63d325	0.055621285
107	0x3b4518f6	0.0030074692
108	0x3d19efbe	0.03758215
109	0x3c19aeb6	0.009380033
110	0x39abc63b	0.00032763355
111	0x3ca2cce7	0.019873096
112	0x3d22208c	0.03958182
113	0x39880f3a	0.00025951286
114	0xbb3846ea	-0.002811844
115	0x3bb10e91	0.005403348
116	0xba780789	-0.0009461572
117	0x3d26e988	0.040750057
118	0x3d07791d	0.033074487
119	0x3c93c873	0.018039918
120	0x3d0a7bdf	0.03380954
121	0x3b5f6c65	0.0034091708
122	0x3d34f11e	0.04417526
123	0x3d3a8c00	0.04554367
124	0x3ccd8f17	0.025092645
125	0x3cf68c43	0.030096179
126	0x3c5a952c	0.013341229
127	0x3d5011fe	0.05079841
128	0x3d13f281	0.03611994
129	0x3cfeba67	0.031094743
130	0x3cdd2f34	0.027000047
131	0x3cd30618	0.025759742
132	0x3d4b8f3c	0.049697146
133	0x3d13da9d	0.036097158
134	0x3d1a724e	0.037706666
135	0x3c892c49	0.01674475
136	0x3d18fc56	0.03735002
137	0x3d02d553	0.031941723
138	0x3c13d0b8	0.00902193
139	0x3c94c2da	0.018159319
140	0x3d8302fd	0.06397054
141	0x3c50f238	0.012753062
142	0x3d2e33bd	0.04252981
143	0x3d1c5778	0.038169354
144	0x3cea418c	0.028595708
145	0x3d27ca78	0.040964574
146	0x3ca0d9ed	0.019635165
147	0x3c7bb858	0.015363775
148	0x3cdccc19	0.02695279
149	0x3cb1e6ba	0.021716464
150	0x3cfa3228	0.030541494
151	0x3b8c1a60	0.004275605
152	0x3d016059	0.031586025
153	0x3d19c55a	0.037541725
154	0x3d35e67c	0.04440926
155	0x3cdedfb3	0.027206277
156	0x3d6736da	0.056448795
157	0x3d309fc5	0.043121118
158	0x3c6c9cdb	0.014441694
159	0x3cbae346	0.02281345
160	0x3d1371cf	0.03599721
161	0x3cd7593d	0.02628767
162	0xb8c12e90	-9.21163e-05
163	0x3cbb340e	0.02285197
164	0x3ce72670	0.02821657
165	0x3d2dc1a8	0.042421013
166	0x3d442bdb	0.047893386
167	0x3d50657b	0.05087803
168	0xb9354499	-0.0001728706
169	0x3d5c7a08	0.053827316
170	0x3d040eb6	0.032240592
171	0x3c71339d	0.014721778
172	0x3d52eee3	0.05149735
173	0x3cd27206	0.025689136
174	0x3c772b8b	0.015086065
175	0x3ce2c6e0	0.027682722
176	0x3d213942	0.039361246
177	0xbc0e0adc	-0.008669581
178	0x3d039db3	0.032132816
179	0x3ce95079	0.028480755
180	0x3cce6c55	0.025198141
181	0x3d4a272e	0.04935377
182	0x3ce78901	0.02826357
183	0x3cfd8435	0.03094683
184	0x3d0c7d2c	0.03429906
185	0x3c87bd50	0.016569763
186	0x3d664cc2	0.056225546
187	0x3c8f51fd	0.01749515
188	0x3d37b90f	0.04485422
189	0x3aa38aa6	0.0012477234
190	0x3d14b4a4	0.036305085
191	0x3d2bbeeb	0.04193012
192	0x3bc905dd	0.006134732
193	0x3d5a5c5b	0.053310733
194	0x3a56031b	0.0008163915
195	0x3ce16b67	0.027517034
196	0x3bbadf80	0.005702913
197	0x3cbe1bf7	0.023206694
198	0x3d388efb	0.04505823
199	0x3c8228b0	0.015888542
200	0x3d30bc63	0.04314841
201	0x3cfcd397	0.030862613
202	0x3abe563e	0.0014521552
203	0x3c51c2f6	0.01280283
204	0x3d160e5c	0.036634788
205	0x3d17f0a0	0.037094712
206	0x3d28b391	0.041186873
207	0x3ce9129e	0.02845126
208	0x3a9d8252	0.0012016988
209	0x3cbf47db	0.023349693
210	0x3d800dd1	0.06252635
211	0x3d1d71a4	0.038438454
212	0x3c7b4860	0.01533708
213	0x3c9ababd	0.018887872
214	0x3c5d649a	0.013512755
215	0x3cb335fb	0.021876326
216	0x3d3bcf07	0.045851734
217	0x3d1ad1ef	0.037797865
218	0x3d37a733	0.044837188
219	0x3d2055cc	0.039144322
220	0x3d32af6c	0.043624327
221	0x3d1762de	0.03695952
222	0x3d0f1337	0.034930434
223	0x39099d70	0.00013123988
224	0x3ce30a5c	0.0277149
225	0xba11275f	-0.0005537178
226	0x3d178fbf	0.03700232
227	0x39d5e844	0.00040799577
228	0x3c76a4af	0.015053912
229	0x3ced2247	0.028947009
230	0x3d5811c3	0.052751314
231	0x3c4d05d1	0.012513594
232	0x3c94a9ab	0.01814731
233	0x3d0a941d	0.033832658
234	0x3d0382a4	0.03210701
235	0x3c49ed09	0.01232458
236	0x3ccf2be8	0.02528949
237	0x3cc1f0f2	0.023674462
238	0x3c6d80dd	0.014496055
239	0x3b1d1761	0.0023970234
240	0x3d14f802	0.03636933
241	0x3d01b770	0.03166908
242	0x38d37696	0.000100833524
243	0x3cd9ca75	0.026585797
244	0x3d4a6067	0.049408343
245	0x3d5bf3cf	0.05369931
246	0x3d80188d	0.06254683
247	0x3ce01831	0.027355285
248	0x3cb66833	0.022266483
249	0x3cd115b4	0.025523044
250	0x3d209bd0	0.039211094
251	0x3d1fdf2c	0.039031193
252	0x3cd4276f	0.02589771
253	0x37de8194	2.6524802e-05
254	0x3d690e41	0.05689836
255	0x3cfdef32	0.030997846

network.2.weight f4 [192, 256]
0	0xbd6b11ff	-0.05739021
1	0x3cfb24c9	0.030657189
2	0x3c1e1c34	0.009650279
3	0x3d1557f9	0.03646085
4	0x3d3f2ba5	0.046672482
5	0x3d16e020	0.036834836
6	0x3ca8fc58	0.02062814
7	0x3baba313	0.005237946
8	0xbdb6f42c	-0.08933291
9	0x3dc0cf7a	0.09414573
10	0x3d849941	0.06474543
11	0x3d1d15be	0.038350813
12	0x3e319a03	0.17343907
13	0x3c6bd1d5	0.01439329
14	0x3cc969f0	0.024586648
15	0x3d2fe869	0.042946253
16	0x3dc1538c	0.094397634
17	0x3cae8fc0	0.02130878
18	0x3e1acc99	0.1511711
19	0xbb91985b	-0.004443211
20	0xbcaeda04	-0.021344192
21	0xbc49908f	-0.012302532
22	0x3e21a4ad	0.15785475
23	0x3c417c12	0.011809366
24	0x3c6d501d	0.0144844325
25	0xbda85a14	-0.08220306
26	0x3d9fd58f	0.07804405
27	0x3b84d674	0.004053885
28	0x3d9754b7	0.07389205
29	0x3c86a8d9	0.016437935
30	0x3cdc0a05	0.026860246
31	0xbc1b4656	-0.009477219
32	0x3e2be044	0.1678477
33	0xbb69481f	-0.0035595966
34	0xbd2e280f	-0.04251867
35	0x3c3e92d2	0.011631684
36	0x3dd13c73	0.10216608
37	0x3db1eeac	0.08688101
38	0x3cd4f19b	0.025994113
39	0x3de5247c	0.111885995
40	0xbdcec9ac	-0.100970596
41	0xbd976bb4	-0.073935896
42	0xbd3dd3b2	-0.046344467
43	0x3bd565f2	0.006512397
44	0x3de86cde	0.1134889
45	0x3d28f35f	0.04124772
46	0xbd88e7c6	-0.06684832
47	0xbd9a98a2	-0.07548644
48	0xba51bbc8	-0.0008000699
49	0x3d9d423c	0.07678649
50	0x3d37d781	0.044883255
51	0xbd7ab4b2	-0.06120748
52	0x3cc2bc86	0.023771536
53	0x3d64c794	0.055854395
54	0x3e1412a0	0.1446023
55	0x3d918a6b	0.07106479
56	0xbd9d7f49	-0.07690293
57	0x3c54f118	0.012996934
58	0xbce4e856	-0.027942818
59	0x3c210e9d	0.009830144
60	0xbc9bd988	-0.019024625
61	0xbca4a04a	-0.020095963
62	0x3df08785	0.11744598
63	0xbe2fb74a	-0.17159763
64	0xbd18c856	-0.03730043
65	0xbaa3acaa	-0.0012487371
66	0x3c821864	0.015880771
67	0x3d438e87	0.047743347
68	0x3d004a95	0.031321127
69	0xbd57ee5e	-0.05271756
70	0x3d745452	0.059650727
71	0x3cc6b36a	0.024255473
72	0x3d337789	0.04381517
73	0x3d186617	0.037206735
74	0xbd247864	-0.040153876
75	0x3e0b4399	0.13600005
76	0x3bb5dd7d	0.005550085
77	0xbc2147e0	-0.0098437965
78	0x3d441f40	0.047881365
79	0x3dfcddf6	0.12347023
80	0x3c953da5	0.018217871
81	0xbd56c835	-0.052437026
82	0xbad6ca74	-0.001638724
83	0xbe1351bc	-0.14386648
84	0xbd8d03cd	-0.068854906
85	0x3dcd61ef	0.10028445
86	0x3d54f1bc	0.05198835
87	0x3d0ebf29	0.034850273
88	0x3d9534ff	0.07285499
89	0xbc93de0c	-0.018050216
90	0x3cf88438	0.030336484
91	0x3c8f728a	0.017510671
92	0xbd1d3803	-0.038383495
93	0xbc002fe4	-0.007823918
94	0xbc9ca2bf	-0.019120572
95	0x3c8c1190	0.017098218
96	0xbdba82ea	-0.09107001
97	0x3df10b86	0.11769776
98	0x3e0a3aab	0.13498943
99	0xbcdd729d	-0.027032191
100	0xbbff4223	-0.0077898665
101	0xbc8d0bed	-0.0172176
102	0x3c153e10	0.009109035
103	0x3d55433c	0.052066073
104	0xbd178f91	-0.03700215
105	0x3c1c2278	0.009529702
106	0x3e00e716	0.12588152
107	0xbb9e92b5	-0.004839266
108	0x3da64625	0.08118848
109	0x3d0304d4	0.031987026
110	0xbc15ca29	-0.009142437
111	0x3cc4219d	0.02394181
112	0xbe14e3d9	-0.14540042
113	0xbd0f5a09	-0.034997974
114	0x3dc47286	0.09592156
115	0x3e11fa02	0.14255527
116	0xbd7d29ab	-0.061807316
117	0x38723460	5.7746074e-05
118	0xbc4713e5	-0.012150739
119	0xbd859be5	-0.06523875
120	0xbc9a1046	-0.018806588
121	0x3d908236	0.07056086
122	0x3d813cb1	0.06310404
123	0x3da0e05c	0.07855293
124	0x3cb6446d	0.022249425
125	0x3c03efd2	0.008052783
126	0x3c92b549	0.01790871
127	0x3c09ddd3	0.008414703
128	0x3de2cc06	0.11074071
129	0xbd8c01e8	-0.06836301
130	0x3e149aff	0.14512251
131	0x3cb21c6d	0.02174207
132	0x3d321a45	0.043482084
133	0x3cdbedc4	0.026846774
134	0x3db88acb	0.09010848
135	0x3d533891	0.051567618
136	0xbd5861ef	-0.05282777
137	0xbd09a5be	-0.03360533
138	0xbd481eba	-0.048857428
139	0x3c7f9a79	0.015600794
140	0x3b9f2cdc	0.0048576426
141	0x3d4ebb92	0.05047185
142	0x3c8af6a3	0.016963309
143	0xbad20cb4	-0.0016025514
144	0xbcb6237e	-0.02223372
145	0x3e2c5353	0.1682866
146	0x3c293f4d	0.0103300335
147	0x3c81630c	0.0157943
148	0xbd88761d	-0.06663153
149	0xbc638f62	-0.013889166
150	0x3ce6e9c5	0.028187642
151	0x3da2207a	0.07916351
152	0xbd9fb3d4	-0.07797971
153	0x3d8d0902	0.06886484
154	0x3dbeacd2	0.093103066
155	0xbd73ed3d	-0.05955242
156	0xbe4b601f	-0.19860886
157	0x3dffb5f7	0.12485879
158	0xbe15fe04	-0.1464768
159	0xba80bcb2	-0.0009821861
160	0xbd18a6b7	-0.037268367
161	0xbcc770a4	-0.024345703
162	0x3da5ef68	0.08102304
163	0xbd4e8c5e	-0.050426833
164	0x3ca88a01	0.020573618
165	0x3d6f2535	0.058385093
166	0x3d1cae43	0.038252126
167	0x3e12cd3c	0.14336103
168	0x3d841d9e	0.064509615
169	0xbc93ce06	-0.018042576
170	0x3cbf6e30	0.023367971
171	0x3d9a5d57	0.075373344
172	0x3d862e15	0.06551758
173	0xbd25b599	-0.04045639
174	0x3dc86ade	0.09786008
175	0xbdcd133b	-0.100134335
176	0xbc56aa20	-0.013102084
177	0x3cca2c17	0.024679227
178	0xbe169962	-0.14706948
179	0xbc4fc63b	-0.012681539
180	0x3caacdd5	0.020850101
181	0x3d4c736f	0.049914774
182	0x3cd10fc4	0.025520213
183	0x3d1eeb60	0.03879869
184	0xbc50e81b	-0.012750651
185	0x3cf74030	0.030181974
186	0x3cd4e5b6	0.025988441
187	0x3de5e415	0.11225144
188	0x3dfbf932	0.123033896
189	0x3c83e8b0	0.016102165
190	0xbabc777e	-0.0014378873
191	0x3d3042f4	0.0430326
192	0x3aa3dd25	0.0012501819
193	0x3dfc5ccb	0.12322386
194	0x3c3d0ebe	0.011539159
195	0x3db6f5bb	0.08933588
196	0x3cd6f0ac	0.026237808
197	0x3dc15807	0.09440618
198	0xbcba8710	-0.022769481
199	0x39dc9e5e	0.00042079663
200	0x3cbe3cbb	0.023222318
201	0x3c7c48e1	0.015398235
202	0x3d9d1868	0.07670671
203	0xbca35353	-0.019937193
204	0x3e2dbf97	0.16967617
205	0x3d9f24b6	0.07770674
206	0x3d445ab6	0.04793807
207	0x3d8ce5a9	0.06879742
208	0xbe206247	-0.1566249
209	0x3d8fd80b	0.07023629
210	0x3d26e2a5	0.04074349
211	0x3c087541	0.008328737
212	0xbcfe6035	-0.031051734
213	0x3c02d685	0.007985716
214	0xbc682f2c	-0.014171403
215	0xbda29512	-0.07938589
216	0xbd085e71	-0.03329319
217	0x3d9627a6	0.07331781
218	0xbd94b837	-0.07261699
219	0xbd71133b	-0.05885623
220	0xbdde6f6c	-0.10861096
221	0x3c888af1	0.016667815
222	0xbc24ace9	-0.010050991
223	0xbddf8112	-0.1091329
224	0x3ca987a1	0.020694556
225	0xbdbda71b	-0.092603885
226	0x3cb3ff66	0.02197237
227	0x3d62bcab	0.05535571
228	0x3d10851f	0.035283204
229	0x3cd260e7	0.025680972
230	0xbd6ed906	-0.05831244
231	0xbd8003fe	-0.062507614
232	0x3cd0e54b	0.02549996
233	0xbd901ab5	-0.07036344
234	0xbd87c8b1	-0.06630076
235	0xbc9d2329	-0.019181805
236	0xbcff0350	-0.03112951
237	0xbdb25b4b	-0.08708819
238	0x3bfd2f66	0.0077265976
239	0xbc1e2664	-0.009652708
240	0x3dbc5a4b	0.091969095
241	0x3db1091a	0.08644314
242	0x3d4f3f2a	0.050597347
243	0xbc5133c5	-0.0127686905
244	0x3c379bca	0.011206577
245	0xbd2838e8	-0.041069895
246	0xbd96a362	-0.073553815
247	0xbda36da8	-0.079799
248	0xbccb9dc0	-0.024855494
249	0xbc11eadc	-0.0089060925
250	0x3de6ffba	0.11279245
251	0xbdd3ec7a	-0.10347839
252	0xbd35a2b6	-0.044344626
253	0xbd0381ef	-0.032106336
254	0x3d8ceb23	0.06880786
255	0x3c84b9a4	0.016201802

network.2.bias f4 [192]
0	0x3ca90df2	0.020636532
1	0x3cdf32ad	0.027245844
2	0x3ba256b9	0.004954186
3	0x3cda457c	0.02664446
4	0x3cfd27b0	0.030902714
5	0x3c59d8a7	0.013296283
6	0x3c9cef19	0.01915698
7	0xbb84e496	-0.00405557
8	0x3d0598b3	0.03261633
9	0x3c80caaf	0.015721647
10	0x3d30b62c	0.043142483
11	0x3c39fba3	0.011351499
12	0x3cc90884	0.024540193
13	0x3b8192cc	0.003954267
14	0x3ca57f3e	0.020202275
15	0x3bf1743e	0.0073685935
16	0xbb6c160f	-0.003602389
17	0x3be704e6	0.0070501445
18	0x3b9b74fd	0.0047441707
19	0x3bf5b36d	0.007498196
20	0x3c4ef82b	0.01263241
21	0x3c093972	0.008375512
22	0x3c8995ff	0.016795157
23	0x3b295ce3	0.0025842718
24	0x3ba5d7b7	0.0050611156
25	0x3c55de16	0.013053438
26	0x3cf795c9	0.03022279
27	0x3be41812	0.006960877
28	0x3cb3b35b	0.02193611
29	0x3b82913e	0.0039845994
30	0x3c85a3ae	0.0163134
31	0x3c8ecd69	0.017431932
32	0x3ce5207b	0.02796959
33	0xbbc6d82a	-0.0060682492
34	0x3aa14fac	0.0012307069
35	0x3cea8a14	0.028630294
36	0x3c8f0dad	0.017462576
37	0x3cf0f4bd	0.029413575
38	0x3cf3fc1f	0.029783307
39	0x3d0361b2	0.03207559
40	0x3caa36cd	0.020778084
41	0x3c8e81e2	0.017395917
42	0x3be51dec	0.0069920924
43	0x3c87ac0c	0.01656153
44	0x3b29ba99	0.0025898574
45	0x3c6c0dd5	0.014407595
46	0xbbab8149	-0.005233918
47	0x3cb8b250	0.022545964
48	0x3d0142b2	0.031557746
49	0x3bf90cf3	0.0076004206
50	0x3d0cd93e	0.034386866
51	0x3b3993da	0.0028316886
52	0x3b824bc3	0.0039763167
53	0x3cba182e	0.022716608
54	0x3b7187a6	0.0036854534
55	0x3c5907f8	0.013246529
56	0x3cda53cc	0.026651286
57	0x3c4acdd6	0.012378177
58	0x3d3b393b	0.045708876
59	0xbc001e83	-0.007819775
60	0x3c8326bf	0.016009687
61	0x3b741c1c	0.00372482
62	0x3c6f6cf5	0.01461338
63	0x3c8af527	0.0169626
64	0x3d2e6a8e	0.042582087
65	0x3ce866fb	0.028369417
66	0x3ca551bc	0.020180576
67	0x3d50cbf3	0.05097575
68	0x3ca7fb4c	0.02050557
69	0x3b327c12	0.0027234596
70	0x3ca01b1c	0.019544177
71	0x3ce1679c	0.027515225
72	0x3c8e1025	0.017341683
73	0x3cc3c0fe	0.023895737
74	0x399de28d	0.00030114167
75	0x3c47b7a7	0.012189782
76	0x3cf52653	0.029925501
77	0x3c1463b1	0.009056971
78	0x3bca6a14	0.0061771963
79	0xbc92215d	-0.017838174
80	0x3c78bcc1	0.015181721
81	0xbacd9113	-0.0015683494
82	0x3ccdfcb5	0.025144914
83	0x3d007a4b	0.031366628
84	0x3ce1dedb	0.027572086
85	0x3b2d724e	0.0026465836
86	0xbc53693c	-0.012903508
87	0x3d1f78ba	0.038933493
88	0x3bce6196	0.0062982542
89	0x3c0f6bed	0.008753759
90	0x3cfe8539	0.031069385
91	0x3c49a2bc	0.012306865
92	0x3cb634f1	0.022242041
93	0x3b947ca4	0.00453146
94	0x3d29ccd3	0.0414551
95	0x3c33fc95	0.010985513
96	0x3be02488	0.0068402924
97	0x3cc7651a	0.024340201
98	0x3c59f3f6	0.013302794
99	0x3c437452	0.011929588
100	0x3c82d3bc	0.015970103
101	0x3cb12f0f	0.021628885
102	0x3d3379b8	0.043817252
103	0x3cb0e89a	0.021595288
104	0x3bff290f	0.007786877
105	0x3d082790	0.033240855
106	0x3bff83ca	0.007797693
107	0x3a2a6e46	0.00065014174
108	0x3c83c852	0.016086731
109	0x3cd0f827	0.025508953
110	0x3b57dce7	0.0032938065
111	0xbc705f8e	-0.0146712195
112	0x3cbe6c55	0.023245016
113	0x3cee8375	0.029115418
114	0x3cc7ba04	0.024380691
115	0x3cc7ad41	0.024374606
116	0x3cdea2df	0.027177272
117	0x3bae9d16	0.0053287847
118	0x3ba2ab82	0.004964293
119	0x3c3b197d	0.011419651
120	0x3cb75705	0.022380361
121	0x3d051e8e	0.032499842
122	0x3bf6dbe8	0.007533539
123	0x3c6cb740	0.014447987
124	0x3ae8ef9f	0.0017771608
125	0x3ce8fad7	0.028439922
126	0x3cc4b4c1	0.024011971
127	0x3c53e727	0.012933529
128	0x3c8b33af	0.016992418
129	0x3ab744f7	0.0013982345
130	0x3d14fa51	0.036371533
131	0x3cb83e8c	0.022490762
132	0x3c7f525d	0.015583602
133	0x3cff4664	0.031161495
134	0xbbe1e757	-0.006894033
135	0x3a015c8e	0.0004934751
136	0x3d139790	0.036033213
137	0x3c187414	0.009305019
138	0xb9916921	-0.00027734882
139	0x3d00854f	0.031377133
140	0x3c84630b	0.016160509
141	0xbbc522f5	-0.00601613
142	0x3cbcb801	0.023036959
143	0x3bf7cd53	0.0075623184
144	0x3ccecf48	0.025245324
145	0xbbe38e7e	-0.0069444766
146	0x3cdb2b89	0.026754158
147	0x3d054c35	0.03254338
148	0x3c06cd95	0.0082277255
149	0x3b839dfd	0.0040166364
150	0x3c573c1a	0.013136888
151	0x3c74f52c	0.014951032
152	0x3c1fe4e9	0.009759166
153	0x3c3ad4a4	0.011403237
154	0x3c70618c	0.0146716945
155	0x3ce4865e	0.027896103
156	0x3ceedd2e	0.029158201
157	0x3c7ea852	0.01554306
158	0x3c8f2805	0.017475137
159	0x3c716d09	0.014735469
160	0x3c9a0ab1	0.018803926
161	0x3c28c6f3	0.010301339
162	0x3cf7c3e3	0.030244773
163	0x3bfc0ea4	0.007692175
164	0x3c72c8fb	0.014818425
165	0x3c3e39a6	0.011610424
166	0x3b6ab502	0.0035813455
167	0x3c2f4404	0.0106973685
168	0x3cf48701	0.029849531
169	0x3b20cdf8	0.002453683
170	0xbc6f2bc3	-0.014597836
171	0x3ce187fb	0.02753066
172	0x3bfe9f5b	0.0077704615
173	0x3bc5d1e7	0.006036985
174	0x3c9e58ed	0.019329512
175	0xba81e4c9	-0.0009910102
176	0xba033876	-0.0005005667
177	0x3c662278	0.014046304
178	0x3c17cb81	0.009264828
179	0x3cb75b12	0.022382293
180	0x3d17c18e	0.037049823
181	0x3c7292bd	0.014805493
182	0x3c4ab51c	0.012372281
183	0x3d0640f6	0.032776795
184	0x3ce0e81c	0.027454428
185	0x3ad9b02b	0.0016608288
186	0x3c93b2fd	0.018029684
187	0x3b97deff	0.0046347375
188	0x3cd375ca	0.025813002
189	0x3c89d3e4	0.01682467
190	0x3bd1c9b6	0.0064022196
191	0x3d1d72e9	0.038439665

network.4.weight f4 [128, 192]
0	0x3cf9769d	0.030452067
1	0xbe12464e	-0.14284632
2	0xbb8e5ce0	-0.0043445677
3	0xbc79e2cc	-0.0152518265
4	0x3db41bb2	0.08794345
5	0xbc353de7	-0.011062122
6	0xbdbe13c2	-0.09281112
7	0xbdf064a7	-0.11737948
8	0x3e8c4860	0.27398968
9	0xbd55f5b8	-0.05223629
10	0xbdc27f79	-0.0949697
11	0x3d91255c	0.07087204
12	0xbd19b979	-0.037530396
13	0xbd9c4ff5	-0.07632438
14	0xbd73309e	-0.059372537
15	0xbdfd8d97	-0.12380522
16	0xbd44ab66	-0.04801502
17	0xbcff9939	-0.031200992
18	0xbb4f8577	-0.0031665245
19	0x3e03901e	0.12847945
20	0x3dfd3a71	0.123646624
21	0x3d5a4cd0	0.05329591
22	0xbd520038	-0.05126974
23	0x3da35ffb	0.07977291
24	0xbd9be067	-0.07611161
25	0x3ba2b4f4	0.004965419
26	0x3d91ce50	0.07119429
27	0x3adfb3b8	0.001706711
28	0x3cbd70ea	0.02312513
29	0xbc147d7c	-0.009063121
30	0xbcb30055	-0.021850744
31	0xbd911d14	-0.07085624
32	0x3ded037d	0.11572931
33	0x3d41b512	0.047291823
34	0xbdb93b4a	-0.090445116
35	0x3dc10bdf	0.09426092
36	0xbdb42d96	-0.08797757
37	0xbd130ffb	-0.035903912
38	0x3c9b2b5c	0.018941574
39	0x3daefea7	0.08544665
40	0x3d550b06	0.052012466
41	0x3dae51a2	0.08511664
42	0xbd156f1a	-0.036482908
43	0xbd21817b	-0.039430123
44	0xbd307d10	-0.04308802
45	0xbd7212da	-0.05910001
46	0x3c245b35	0.010031511
47	0x3c6d7b9b	0.014494802
48	0x3debf94e	0.115221605
49	0xbdf7aa20	-0.12092996
50	0xbd0da89f	-0.034584638
51	0xbd43d0bb	-0.047806483
52	0x3d0ca537	0.03433725
53	0x3d39106f	0.045181688
54	0xbdb90ef6	-0.09036057
55	0x3d78fd9b	0.060788732
56	0x3965e217	0.00021923367
57	0xbe215dcd	-0.15758438
58	0xbe0b3055	-0.13592656
59	0x3d4a2446	0.049351
60	0x3d8f5581	0.069987305
61	0x3e180941	0.1484728
62	0x3d0ffd33	0.03515358
63	0xbd267c06	-0.04064562
64	0x3df74f85	0.12075714
65	0xbdf460e3	-0.11932542
66	0x3ccf1fc0	0.025283694
67	0xbce7b006	-0.028282177
68	0x3d352cfe	0.04423236
69	0x3c1f5916	0.00972583
70	0x3da88b56	0.08229701
71	0xbce3d18b	-0.027809879
72	0x3d8cd698	0.06876868
73	0x3be0178d	0.006838745
74	0x3daff89a	0.08592339
75	0xbe178675	-0.14797385
76	0xbd3e8642	-0.046514757
77	0x3d5c6faa	0.05381743
78	0x3d2d9a20	0.042383313
79	0xbe124bc4	-0.14286715
80	0x3d2ca2cd	0.042147446
81	0xbda0a79e	-0.078444704
82	0xbdee5554	-0.11637369
83	0xbd42dc13	-0.04757316
84	0xbd1f963e	-0.03896164
85	0xbda032b9	-0.078221746
86	0x3ddbe55b	0.107371055
87	0x3cb20276	0.02172969
88	0x3d903cd6	0.070428535
89	0x3e53293c	0.20621198
90	0x3dfb73b2	0.122779265
91	0x3c27a72f	0.010232731
92	0x3d29e8be	0.041481726
93	0xbdd0c4d8	-0.10193795
94	0x3da15ce7	0.07879048
95	0x3e11aa73	0.14225177
96	0x3e1f916e	0.15582821
97	0xbcb963ef	-0.02263066
98	0x3c9334ac	0.017969452
99	0xbd877191	-0.06613458
100	0xbd87586b	-0.06608661
101	0x3e00c470	0.12574935
102	0xbc98f975	-0.018673638
103	0xbb9d7672	-0.0048053795
104	0xbe10e1bc	-0.14148611
105	0x3d2e114e	0.04249697
106	0x3dad497f	0.08461284
107	0xbca71c89	-0.020399349
108	0x3d7f87fb	0.06238554
109	0xbe064fe4	-0.13116413
110	0xbd986447	-0.074410014
111	0xbc852d85	-0.016257057
112	0xbe58bf05	-0.21166618
113	0x3c377a33	0.011198568
114	0xbd0774a0	-0.033070207
115	0x3e454a71	0.19266678
116	0xbd91fea1	-0.07128645
117	0x3dc46d4f	0.095911615
118	0x3d2bf30d	0.04197984
119	0x3d5070e5	0.050888915
120	0xbe003b78	-0.12522686
121	0x3d9d8ef3	0.07693281
122	0x3dfa56f1	0.12223614
123	0x3de0891d	0.10963652
124	0xbd1be1b5	-0.038057048
125	0x3d963d26	0.07335882
126	0x3e89b96a	0.26899272
127	0xbd171b8e	-0.036891513
128	0x3c1a2061	0.009407134
129	0x3d64e1ee	0.055879526
130	0xbdc3ac80	-0.09554386
131	0x3d9f9c07	0.07793432
132	0x3e14acea	0.14519086
133	0xbdbf3f5a	-0.09338255
134	0x3dfaefd7	0.12252777
135	0x3e1254ca	0.14290157
136	0xbd3d63e0	-0.046237826
137	0xbe3cdca8	-0.18443549
138	0xbdb68ccd	-0.08913574
139	0x3a1f4d52	0.000607689
140	0x3e25d8bd	0.1619596
141	0x3c643ec9	0.013930985
142	0xbcf28e32	-0.02960882
143	0xbcb0a423	-0.021562641
144	0xbda9f413	-0.082985066
145	0xbb56b6d6	-0.0032762787
146	0x3c999965	0.018749902
147	0x3db9d956	0.09074657
148	0x3daf4e9d	0.08559916
149	0xbd08445c	-0.033268318
150	0x3d28edab	0.041242283
151	0xbdb3b7fe	-0.08775328
152	0x3e0453e7	0.12922631
153	0xbce54af8	-0.02798985
154	0xbb802697	-0.0039108503
155	0x3d8895cf	0.06669199
156	0x3dc3ed6e	0.095667705
157	0xbbc02abe	-0.0058644703
158	0x3e191ba2	0.14951947
159	0x3d9a8b99	0.075461574
160	0xbd958837	-0.073013715
161	0xbe1d56fa	-0.1536521
162	0x3c7b8642	0.015351834
163	0xbde4326d	-0.111424305
164	0x3dbaafb6	0.091155455
165	0x3e2a1d52	0.16612747
166	0x3dd1b4d9	0.10239572
167	0x3e8800aa	0.26563007
168	0x3c6ade05	0.01433516
169	0xbdf72699	-0.12067909
170	0xbd26b1c3	-0.04069687
171	0x3d622cb1	0.055218402
172	0x3ddb90b0	0.10720956
173	0x3d92059e	0.07129978
174	0x3db88e64	0.09011534
175	0x3d3b1f10	0.04568392
176	0x3d48ff7e	0.04907178
177	0x3ca10b3a	0.019658674
178	0x3e1ef408	0.15522778
179	0x3dba8d60	0.091089964
180	0x39b5092a	0.00034529838
181	0x3de0d4be	0.10978077
182	0x3d3b1947	0.045678403
183	0x3dd8287b	0.10554596
184	0xbd714a9d	-0.058909047
185	0x3b0988c6	0.0020986064
186	0x3cd431ab	0.02590259
187	0x3d9790d5	0.074006714
188	0x3d975992	0.07390131
189	0xbe21d483	-0.15803723
190	0xbd9a06ab	-0.07520803
191	0x3cdda725	0.02705724
192	0xbc9d22b1	-0.019181581
193	0x3d8c1f67	0.06841927
194	0x3c9387cd	0.01800909
195	0x3ddfcf7b	0.10928246
196	0xbd13ed38	-0.0361149
197	0x3da274c9	0.07932431
198	0x3c86fe7a	0.016478766
199	0xbd38dccb	-0.04513244
200	0xbcff7650	-0.031184345
201	0xbcd81546	-0.026377331
202	0xbcb3c9ae	-0.021946754
203	0x3e071863	0.13192897
204	0xbda5712d	-0.08078227
205	0x3d6fc423	0.05853666
206	0x3dca3a68	0.09874421
207	0x3c94488c	0.018101
208	0xbcf7404b	-0.030182024
209	0x3b167da4	0.0022963071
210	0x3d0ab37d	0.03386258
211	0x3dc8ba82	0.098011985
212	0x3dc0e8be	0.09419392
213	0x3dcb4f55	0.09927241
214	0x3c84219c	0.016129307
215	0x3e0889ae	0.1333377
216	0x3dca2623	0.09870555
217	0x3dbb426f	0.091435306
218	0xbd6c27b8	-0.057655066
219	0xbd43c93b	-0.04779933
220	0xbdfae67a	-0.12250991
221	0xbd7cae90	-0.061689913
222	0x3d1e4971	0.038644258
223	0xbddb841c	-0.10718557
224	0x3e10da38	0.14145744
225	0x3e3270c8	0.17425835
226	0x3da69838	0.08134502
227	0xbb9f5972	-0.0048629576
228	0x3d9af9c1	0.07567168
229	0x3d476684	0.04868175
230	0xbc1cf3f8	-0.009579651
231	0x3df72eeb	0.12069496
232	0xbcef6fec	-0.029228173
233	0xbdf834e1	-0.12119461
234	0x3db1a450	0.08673918
235	0x3c861778	0.016368613
236	0xbe3cad65	-0.1842552
237	0x3dd86da2	0.10567786
238	0x3d86f09c	0.06588861
239	0x3d124d3c	0.035718188
240	0xbc89469b	-0.0167573
241	0x3d75ad5b	0.059979778
242	0x3c31725a	0.010830486
243	0x3cc5a2fa	0.024125565
244	0x3e42fff9	0.19042958
245	0x3cb89632	0.022532556
246	0x3d861b6f	0.06548201
247	0x3d866e54	0.06564012
248	0x3d98d6d8	0.07462853
249	0x3e3d9dda	0.18517247
250	0x3c9fae89	0.019492405
251	0xbe3e39b4	-0.185767
252	0xbe216038	-0.15759361
253	0xbde3f43f	-0.111305706
254	0x3db58584	0.08863357
255	0x3d899712	0.067182675

network.4.bias f4 [128]
0	0x3c928e4c	0.017890118
1	0x3cbf4816	0.023349803
2	0x3ccd7a11	0.02508262
3	0x3ba2dfbd	0.0049705193
4	0x3cbf364d	0.023341322
5	0x39aec4a4	0.00033334375
6	0x3bfb2303	0.007664086
7	0x3bad415a	0.0052873315
8	0x3c9452c3	0.01810587
9	0x3c0b3d08	0.008498438
10	0x3c69ec42	0.01427752
11	0x3b0663c9	0.0020506254
12	0x3c2018df	0.009771555
13	0x3cc119d5	0.023571888
14	0x3c8ecc4e	0.017431404
15	0x3d17d73c	0.037070498
16	0xbbfb267e	-0.0076645007
17	0xbb1be52b	-0.0023787718
18	0xbb9122d3	-0.0044292
19	0x3c9baef9	0.019004332
20	0x3b88b6c6	0.004172179
21	0x3afab795	0.0019128198
22	0x3bc1b81c	0.00591184
23	0xbbeb29f7	-0.0071766335
24	0x3c39caf9	0.011339896
25	0x3c4989da	0.012300933
26	0x3c0e299c	0.008676913
27	0x3b0341d3	0.0020028248
28	0xbc2cd237	-0.010548166
29	0xbba46da9	-0.0050179553
30	0x3c673389	0.014111408
31	0x3c84485e	0.016147789
32	0x3cb4e6c7	0.0220827
33	0x3a9ce2c5	0.0011969438
34	0x3be2beb7	0.0069197076
35	0x3b8c9437	0.0042901295
36	0x3c370f8b	0.011173139
37	0x3bcc50b1	0.006235205
38	0x3bbeeafe	0.005826353
39	0x3c58df3c	0.013236817
40	0x3bb0e4d5	0.0053983727
41	0x3cd98443	0.026552325
42	0x3cb1fb7a	0.021726359
43	0x3c987e27	0.018614842
44	0x3d26f579	0.040761445
45	0x3cb0f581	0.02160144
46	0xbc03041c	-0.007996585
47	0x3cb7d22a	0.022439081
48	0x3b389a93	0.0028168305
49	0xbb11b90c	-0.002223554
50	0xbbacbccd	-0.0052715302
51	0x3b9e5837	0.0048322934
52	0x3c1c1aab	0.0095278425
53	0x3c850ff0	0.016242951
54	0x39c9b7c1	0.00038474615
55	0x3c0a40de	0.008438317
56	0xbb9ca0ae	-0.0047798967
57	0x3cf1b846	0.029506814
58	0x3cb5c128	0.02218683
59	0x3c154bf9	0.009112352
60	0x3beb0e02	0.0071733007
61	0xbc565306	-0.013081318
62	0xbb4c0e10	-0.0031136312
63	0x3b820f74	0.0039691273
64	0x3cdc65bd	0.026903981
65	0xbb940dd5	-0.0045182505
66	0x3bc4ed2a	0.0060097175
67	0x3bb82bba	0.005620447
68	0x3c8568b4	0.016285278
69	0xbbeb7947	-0.0071860882
70	0x3c294017	0.010330222
71	0x3baca941	0.0052692
72	0x3c241052	0.010013657
73	0x3cfd5957	0.03092639
74	0xbba44bad	-0.005013904
75	0x3c1d891d	0.00961521
76	0x3b294883	0.0025830574
77	0x3b561c71	0.003267076
78	0x3c63c013	0.0139007745
79	0x3bf0bc55	0.0073466697
80	0x3d074633	0.03302593
81	0x3c4ccb79	0.012499684
82	0x3c7cafc4	0.015422765
83	0x3ce699f8	0.02814959
84	0x3bb7bb3f	0.0056070383
85	0x3c886008	0.016647354
86	0x3c32ef70	0.010921344
87	0x3cf2a5b1	0.029620023
88	0x3d0c3d79	0.034238312
89	0xbc13a435	-0.009011318
90	0x3c083096	0.008312365
91	0x3c8775de	0.016535696
92	0x3b01043e	0.0019686366
93	0x3c5b037e	0.013367532
94	0xbc04bf34	-0.008102227
95	0xbc0b510b	-0.008503209
96	0x3bb3f5e1	0.0054919575
97	0xbbe9df2b	-0.0071371994
98	0xbb54068b	-0.0032352533
99	0x3c9383af	0.018007128
100	0xbae31842	-0.0017325955
101	0x3cb6ec32	0.022329424
102	0x3c35a10c	0.01108576
103	0xbbc8ff3a	-0.006133941
104	0x3cd0c156	0.025482815
105	0xba69de44	-0.0008921365
106	0x3c37bd9d	0.011214641
107	0x3b45ee21	0.003020175
108	0xbbc72f69	-0.00607865
109	0x3c982cbc	0.018576019
110	0xbb8af0fb	-0.004240153
111	0x3cd6ce62	0.026221458
112	0x3c8ad534	0.016947366
113	0x3c2a5114	0.010395307
114	0x3ca5ce5a	0.020239998
115	0x3c7d8255	0.015472968
116	0xbbb07b81	-0.0053858166
117	0xbba27003	-0.0049572005
118	0xbbe50866	-0.0069895266
119	0x3c514512	0.012772815
120	0x3bf734d7	0.007544141
121	0x3a07b470	0.00051767286
122	0xbafd834c	-0.0019341498
123	0x3c136d5b	0.00899824
124	0xba81feeb	-0.000991789
125	0x3ce339c4	0.027737506
126	0x3b77f447	0.003783481
127	0x3cdc1ad2	0.026868258

network.6.weight f4 [39, 128]
0	0x3dc61e02	0.09673692
1	0x3dde4b50	0.108542085
2	0x3dde4881	0.10853673
3	0xbe637888	-0.22213948
4	0xbe07ace7	-0.13249551
5	0x371dfbbe	9.4165425e-06
6	0xbd8348c9	-0.06410367
7	0xbd0d50f3	-0.034501027
8	0xbe0a2e06	-0.13494119
9	0xbe36cc9e	-0.17851493
10	0xbdc3f29c	-0.095677584
11	0x3ce71e30	0.028212637
12	0xbe43955c	-0.19099945
13	0xbe547155	-0.20746358
14	0x3dae1004	0.084991485
15	0x3ce76bd8	0.028249666
16	0xbe01de8c	-0.12682551
17	0xbb8c5658	-0.004282754
18	0xbd61224f	-0.05496436
19	0xbe456f43	-0.19280724
20	0xbe09a722	-0.13442662
21	0xbc963912	-0.01833776
22	0xbe888345	-0.2666265
23	0x3e6e4c91	0.23271395
24	0xbdeb3192	-0.11484064
25	0xbe39bffb	-0.18139641
26	0xbd8af4ae	-0.0678495
27	0x3e17fdbf	0.1484289
28	0x3e300bf3	0.17192058
29	0xbe30f285	-0.17280014
30	0xbd789522	-0.0606891
31	0x3d414a88	0.04719022
32	0xbe3e2d88	-0.18572056
33	0xb78c0968	-1.669368e-05
34	0xbe0fb363	-0.14033274
35	0x3ded7f59	0.11596555
36	0xbe428ffd	-0.1900024
37	0xba47f219	-0.0007627323
38	0x3d175a31	0.036951248
39	0xbe5b81f8	-0.21436298
40	0xbd6fb5fe	-0.05852317
41	0xbd1fdcf3	-0.039029073
42	0xbdfe89b6	-0.1242861
43	0xbc888de8	-0.016669229
44	0xbc005512	-0.007832782
45	0xbd838a60	-0.06422877
46	0xbd65a565	-0.056065936
47	0xbe4168b4	-0.18887597
48	0x3d0d0884	0.03443195
49	0xbce2d668	-0.027690127
50	0x3e0f1ab5	0.13975032
51	0xbdf3a06c	-0.118958324
52	0xbe099230	-0.13434672
53	0xbd5b04ae	-0.05347126
54	0xb6c73544	-5.936863e-06
55	0xbdfcbd23	-0.123407625
56	0x3dbe452a	0.09290536
57	0x3c9ffa79	0.019528614
58	0xbdf35dc9	-0.118831225
59	0xbe33c385	-0.17555054
60	0x3da5f8e2	0.08104111
61	0x35c72542	1.4837499e-06
62	0x3d41a6c8	0.047278196
63	0xbe21243a	-0.15736476
64	0x3db84048	0.08996636
65	0xbd0fe363	-0.035128962
66	0xbe6ad1a9	-0.22931542
67	0xbdc75e13	-0.0973474
68	0x3d212fcb	0.03935222
69	0xbb06db48	-0.002057748
70	0x3de06ec5	0.109586276
71	0x3db07f34	0.08618012
72	0xbd909894	-0.07060352
73	0xbe0a8cff	-0.13530348
74	0xbd5297ee	-0.051414423
75	0xbcb6b3e5	-0.022302577
76	0x3739201a	1.10343335e-05
77	0xbd16bca7	-0.036801007
78	0xbe1d2bcc	-0.15348738
79	0xbe3563c7	-0.17713843
80	0xbe08b4f2	-0.13350275
81	0xbd21fbb7	-0.039546695
82	0xbd68d0c7	-0.05683973
83	0xbd548441	-0.05188394
84	0x3dc542e7	0.09631901
85	0xbca5b5c6	-0.020228278
86	0xbe1d82b0	-0.15381885
87	0xbd922b21	-0.071371324
88	0x3d263ef1	0.04058737
89	0xbeb6c007	-0.3569338
90	0xbdf0c791	-0.11756814
91	0xbdb47c2e	-0.08812748
92	0xbd85bb1a	-0.065298274
93	0xbdf270e0	-0.118379354
94	0x3e0981df	0.13428448
95	0xbd955906	-0.072923705
96	0x3bd3d7b8	0.0064649247
97	0x3c9c4f36	0.01908074
98	0x371ff451	9.534023e-06
99	0x3c57e540	0.013177216
100	0x3ce59ba5	0.028028319
101	0x3e174561	0.1477256
102	0x3d8cc257	0.06873005
103	0x3d98630c	0.07440767
104	0xbd94bc25	-0.07262448
105	0x3cd802a6	0.02636845
106	0x3d521b06	0.051295303
107	0xbde64266	-0.11243133
108	0xbb9739f1	-0.0046150615
109	0xbe1bc583	-0.15212063
110	0xbc20d7f2	-0.00981711
111	0xbdab18b2	-0.0835432
112	0xbdbf2c7b	-0.09334656
113	0xbd0be055	-0.034149487
114	0xbd889e76	-0.06670849
115	0xbb63ac2b	-0.0034740071
116	0x364b15a5	3.0261956e-06
117	0xbd09d835	-0.033653457
118	0xbde375b9	-0.11106438
119	0xbd9aa3c8	-0.0755077
120	0xbde2f72b	-0.110823
121	0xb6218d23	-2.4073022e-06
122	0xbcc01b0e	-0.0234504
123	0xbe07cafa	-0.13261023
124	0xbde95115	-0.11392418
125	0xb96fe582	-0.00022878314
126	0xbdcc6766	-0.09980659
127	0xbe19c033	-0.15014724
128	0x3dd61071	0.10452355
129	0xbd5f7e5f	-0.054563876
130	0x3ba6f77a	0.0050954195
131	0x3c5c9415	0.01346304
132	0xbc53cc76	-0.012927165
133	0x3caf96bb	0.021434179
134	0xbd2239d0	-0.039605916
135	0xbe0653da	-0.13117924
136	0xbdcac5c6	-0.099010035
137	0x3dc1b543	0.09458401
138	0x3e046547	0.12929259
139	0x3ba555c8	0.0050456263
140	0x3d4720d4	0.04861529
141	0x3e110b0c	0.1416437
142	0xbd6c23a4	-0.057651177
143	0x3cc05c72	0.023481581
144	0xbd04d270	-0.03242725
145	0xbca8e0b0	-0.020614952
146	0x3ca7b120	0.020470202
147	0xbcbf3705	-0.023341665
148	0x3ea01208	0.31263757
149	0x3d568e47	0.05238178
150	0xbdd2fed6	-0.10302512
151	0xbd84bb57	-0.06481045
152	0x3de59836	0.112106726
153	0x3d543d48	0.051816255
154	0xbe4a767f	-0.19771765
155	0x3e190ff6	0.14947495
156	0x3e87fec0	0.26561546
157	0x3dfbc0b0	0.122926116
158	0xbd0aaacc	-0.03385429
159	0x3da8082f	0.08204686
160	0xbd0f2b50	-0.034953415
161	0xb4744c80	-2.2752101e-07
162	0xbd05609b	-0.032562833
163	0x3cb25711	0.021770032
164	0x3cc85f07	0.024459375
165	0xbc0553ba	-0.008137638
166	0xbe2574fb	-0.16157906
167	0xbd0b61bd	-0.034028757
168	0x3e2a1dc9	0.16612925
169	0xbdca1b0d	-0.09868441
170	0x3daf043d	0.0854573
171	0xbc325735	-0.01088505
172	0xbdb15f9f	-0.086608164
173	0x3b2f11d8	0.0026713517
174	0x3e6ae7ff	0.22940062
175	0x3d990809	0.07472236
176	0xbc2314ac	-0.009953659
177	0x3d4e6415	0.050388414
178	0xbd807bac	-0.062735885
179	0x3e6191d2	0.22028282
180	0xbd0f23c7	-0.03494623
181	0xbd792a99	-0.06083164
182	0xb75ea67a	-1.3270992e-05
183	0x3c20ae0c	0.009807121
184	0x3dc74801	0.097305305
185	0xbe75bdbd	-0.2399816
186	0x3e1877d6	0.14889464
187	0x3cd8be35	0.026457885
188	0xbdbad3ff	-0.09122466
189	0xbb8c6d8a	-0.004285519
190	0x3e0a032d	0.13477774
191	0x3c970334	0.018434145
192	0xbd80f889	-0.06297404
193	0xbe25e933	-0.1620224
194	0xbe0cc10b	-0.13745515
195	0x3dee8e77	0.11648267
196	0x3d2a4585	0.041570205
197	0x3de52e45	0.11190466
198	0x3e091ad0	0.13389134
199	0xbd21b12d	-0.03947561
200	0xbc9d9361	-0.019235315
201	0xbde012f2	-0.109411135
202	0xbdc76275	-0.09735576
203	0xbe64aaec	-0.22330827
204	0xbcdc2fee	-0.026878323
205	0x3e4dd8bb	0.20102207
206	0xbdc885a1	-0.09791113
207	0x3d7e7940	0.06212735
208	0x3e3a3748	0.1818515
209	0x3d2d10d0	0.04225236
210	0x3e41a17b	0.18909256
211	0x3d5286f6	0.05139824
212	0xbe74e3d8	-0.2391504
213	0xbc9e7c1c	-0.01934629
214	0x3c2f5e9e	0.010703711
215	0x3d830203	0.06396868
216	0x3d2624e3	0.04056252
217	0xbd44ebfc	-0.048076615
218	0x3d8d5e03	0.06902697
219	0x3c069494	0.008214135
220	0x3ceea8c4	0.029133208
221	0x3e2742c9	0.1633407
222	0x3d92fe3e	0.07177399
223	0xbddffcb2	-0.1093687
224	0xbdebb1a9	-0.11508495
225	0x3da36f04	0.07980159
226	0xbe6e58a8	-0.23276007
227	0xbd3cc675	-0.0460877
228	0x3dd0f4b9	0.10202927
229	0xbe1c74aa	-0.15278879
230	0xbd49c4d1	-0.049259964
231	0x3c4937df	0.012281387
232	0xbe6274f9	-0.22114934
233	0x3dca3cb3	0.09874859
234	0x3d7f7c01	0.06237412
235	0x3e0fbd91	0.14037158
236	0xbdb63b9f	-0.088980906
237	0xbc91c8b9	-0.017795907
238	0xbdf85fa6	-0.121276185
239	0xbde7607d	-0.112977006
240	0x3e03dafa	0.12876502
241	0xbdafe1b2	-0.0858797
242	0xbe38efbd	-0.18060203
243	0xbd8dc73e	-0.06922768
244	0xbe2dfec5	-0.16991718
245	0x3e882957	0.2659404
246	0xbd4fa534	-0.05069466
247	0xbe6ae780	-0.22939873
248	0xbd3fbdf9	-0.04681203
249	0x3d6819b4	0.056665137
250	0x3dcad2da	0.09903498
251	0x3dbeb509	0.093118735
252	0x3d2daf90	0.042403758
253	0xbe0b6081	-0.13611032
254	0xbb787bee	-0.0037915665
255	0xbdfef297	-0.12448614

network.6.bias f4 [39]
0	0xbcfdad4b	-0.030966422
1	0xbc7b829d	-0.015350965
2	0x3bf199df	0.007373079
3	0x3c3dec02	0.011591913
4	0xbc2afd61	-0.010436387
5	0xbba03f6a	-0.004890372
6	0x3c171ed2	0.009223657
7	0xbb47238e	-0.0030386182
8	0x3c3e6586	0.011620885
9	0x3b2ab46e	0.0026047486
10	0xbcc35e1c	-0.023848586
11	0xbba564dd	-0.005047424
12	0xbc68dc29	-0.0142126465
13	0x3c28a7ee	0.010293944
14	0x3c202c21	0.009776146
15	0x3c89d162	0.016823474
16	0xbb9071d2	-0.0044080997
17	0xbce573d8	-0.02800934
18	0xbb1b60ff	-0.0023708937
19	0xbbc2bbe6	-0.0059428094
20	0x3b910066	0.0044250963
21	0xbc08ce16	-0.008349916
22	0xbcedb3e8	-0.02901645
23	0x3cd4c8e9	0.025974708
24	0xbcf95728	-0.030437067
25	0x3c974416	0.018465083
26	0xbce368af	-0.027759878
27	0xbcca1bbc	-0.024671428
28	0xbc89ff74	-0.016845442
29	0xbb105b59	-0.0022027104
30	0xbc6e6718	-0.014550947
31	0xbc2d4eb8	-0.01057785
32	0xbc8d7a12	-0.017270122
33	0xbce836c8	-0.028346434
34	0xbcd1fe98	-0.025634095
35	0xbd0fcff5	-0.035110433
36	0xbd00c8a0	-0.03144133
37	0xbcecf0f5	-0.028923491
38	0xbc7e1d95	-0.015509983
