Homework/HW2/results/quick_grid/run_14.pt (torch, 583917 bytes, 8 tensors)

network.0.weight f4 [256, 256]
0.01317216 0.11303941 -0.0127008185 0.0068528852 0.0637614 0.032768425 -0.057110548 0.048724063
0.087191194 -0.020397216 0.0117370505 -0.07846287 0.028068721 -0.11903809 -0.16011275 -0.0025480192
-0.16647194 0.0022342186 0.051345542 -0.18368962 -0.03477361 -0.081884384 -0.0835369 -0.05665173
0.10776109 0.14159222 0.07924915 0.022093005 -0.018129041 0.069837786 0.06107233 -0.08545277
-0.15644684 -0.0722879 -0.03668176 -0.05196022 -0.08817483 0.06212137 0.0020173867 -0.009678716
-0.09162109 -0.018669842 0.034664858 -0.048730087 0.011188039 -0.07469906 0.100401826 -0.032510217
-0.12033336 -0.03531892 -0.10457176 0.085346945 -0.017029023 -0.016168246 -0.017183226 -0.14361998
0.08617656 0.06669322 0.062216043 0.023415415 0.010178768 -0.119860284 0.008226293 0.029391328
-0.0006522604 -0.0463491 0.07887838 0.071647346 -0.12431807 -0.009078528 -0.10531199 -0.049795445
-0.04801127 0.04303907 0.04499665 -0.052554496 0.01654186 -0.046077497 -0.028625233 -0.06966965
-0.08923672 -0.10152761 0.08296922 0.0005832989 -0.07280279 0.22477783 -0.09270253 0.025459928
-0.02177004 -0.042877708 0.08148666 -0.047308385 -0.043305725 -0.0054756617 -0.036181986 0.04379582
0.0032700768 0.0762832 -0.018505467 0.05341183 0.039543163 -0.07574874 0.029948616 0.019287655
-0.15295345 0.14432609 0.1017066 -0.13821357 0.057457846 -0.107262254 0.04868334 0.11449158
0.0043087336 -0.10854396 0.11745275 0.11193576 0.09556533 -0.109213464 0.02115224 -0.06740288
0.022043912 0.07874737 0.008372268 0.0635101 -0.11289836 -0.13627285 0.032674044 -0.009945166
8.066845e-06 8.304198e-05 -0.00010611572 0.00013526429 -0.00016865386 0.20396598 -6.4639295e-05 4.7656296e-05
-1.2427843e-05 -6.4928696e-05 4.5141627e-05 6.471707e-05 3.04056e-05 0.23786473 -9.1276524e-05 0.23782809
0.2379504 -8.261353e-06 7.142224e-05 -0.0001031023 -0.23782101 -3.06687e-05 -0.23794846 5.9444435e-05
0.00012353745 -0.2380353 -2.637871e-05 -3.145986e-05 -6.26009e-05 1.6315687e-05 0.0001425818 -3.7184764e-05
-2.7846036e-06 6.934046e-06 0.21760768 -1.8268423e-05 2.7595344e-05 5.8765814e-05 -2.8533459e-05 3.7326583e-05
-0.23789625 5.781902e-05 0.00015034115 4.720524e-05 0.14439036 4.3550903e-05 0.23789175 0.00012037515
1.9261552e-06 -0.2377513 0.23781656 0.23802014 1.0522963e-06 -1.0198776e-05 3.7543346e-06 -0.00010804629
-2.3931625e-06 1.2887394e-06 4.6331814e-05 -6.103262e-06 0.23775397 -0.1245688 2.2056098e-05 -0.23794945
0.22299887 0.2377137 2.5730653e-05 -0.23782648 0.23792142 4.236972e-08 8.511964e-05 2.709174e-05
-0.23789471 -0.23784053 -1.1512235e-05 -2.6734959e-05 8.858266e-05 0.23773816 0.23792493 -0.23799306
-3.9463303e-06 4.5214027e-05 0.14895669 -6.153782e-05 -2.8520866e-05 -7.1485876e-05 0.00010469781 -3.235892e-05
4.2101827e-05 -4.6299454e-05 -0.23783281 -0.23775701 -0.21389766 6.8369816e-05 0.23784438 7.062814e-06
-2.2263275e-05 -3.5051577e-05 -0.23783995 0.23794349 -1.1880023e-05 2.2012531e-05 -0.00010056612 4.7563546e-05
-6.0069397e-05 4.290201e-06 -9.4373616e-05 0.23789503 -0.23789598 2.0775791e-05 -0.15743281 -4.6204175e-05
4.857061e-05 -8.706322e-05 -0.20920978 0.12663886 0.00015809928 6.360101e-05 3.8484985e-05 0.23783213
-2.9781637e-05 0.23776226 -6.649764e-05 -1.4920441e-05 4.291386e-05 -8.114151e-05 1.902929e-05 6.9392394e-05
00000000: 0bd0 573c 3581 e73d 1817 50bc 2b8e e03b
00000010: 5695 823d 2f38 063d c0ec 69bd e292 473d
00000020: 4c91 b23d 1018 a7bc c24c 403c 24b1 a0bd
00000030: 60f0 e53c 3eca f3bd 99f4 23be abfc 26bb
00000040: 9f77 2abe f86b 123b b44f 523d 2219 3cbe
00000050: c66e 0ebd 00b3 a7bd 6515 abbd a50b 68bd
00000060: d9b1 dc3d 8dfd 103e 614d a23d 64fc b43c
00000070: 5b83 94bc 1d07 8f3d fb26 7a3d dd01 afbd
00000080: 9a33 20be ae0b 94bd 9d3f 16bd 3dd4 54bd
00000090: 0195 b4bd fa72 7e3d 2236 043b 7a93 1ebc
000000a0: d7a3 bbbd 7ff1 98bc bdfc 0d3d 3399 47bd
000000b0: 094e 373c d2fb 98bd 799f cd3d 6f29 05bd
000000c0: 5671 f6bd 92aa 10bd b829 d6bd 61ca ae3d
000000d0: 7380 8bbc 4573 84bc d6c3 8cbc 1e11 13be
000000e0: 567d b03d 7496 883d 40d6 7e3d afd1 bf3c
000000f0: d9c4 263c 4f79 f5bd 93c7 063c 15c6 f03c
00000100: 74fc 2aba 8ed8 3dbd fd8a a13d d8bb 923d
00000110: 799a febd 1bbe 14bc d0ad d7bd 4ff6 4bbd
00000120: 77a7 44bd bc49 303d 684e 383d 6243 57bd
00000130: cb82 873c c2bb 3cbd 777f eabc f6ae 8ebd
00000140: bec1 b6bd b5ed cfbd c4eb a93d 87e8 183a
00000150: a119 95bd 292c 663e d3da bdbd 5791 d03c
00000160: 1557 b2bc 89a0 2fbd 7ae2 a63d 70c6 41bd
00000170: 5861 31bd 2e6d b3bb 9033 14bd 3f63 333d
00000180: c94e 563b 5e3a 9c3d c798 97bc 5dc6 5a3d
00000190: 03f8 213d 2822 9bbd cd56 f53c 2501 9e3c
000001a0: d49f 1cbe 38ca 133e 8d4b d03d dc87 0dbe
000001b0: eb58 6b3d 50ac dbbd 2f68 473d 907a ea3d
000001c0: 4730 8d3b 4c4c debd 118b f03d 933e e53d
000001d0: c1b7 c33d 4fab dfbd 7647 ad3c 850a 8abd
000001e0: 6f95 b43c 4d46 a13d d62b 093c 9511 823d
000001f0: 4137 e7bd 1c8b 0bbe 38d5 053d 0df1 22bc
00000200: d656 0737 d326 ae38 728a deb8 bbd5 0d39
00000210: add8 30b9 75dc 503e f58e 87b8 8fe2 4738
00000220: 2e81 50b7 542a 88b8 7456 3d38 b6b8 8738
00000230: 870f ff37 d092 733e b66b bfb8 3589 733e
00000240: 45a9 733e 3e9a 0ab7 86c8 9538 a038 d8b8
00000250: 5a87 73be 44a2 00b8 c3a8 73be fa53 7938
00000260: d589 0139 87bf 73be d947 ddb7 c4f3 03b8
00000270: 9a48 83b8 acdd 8837 0382 1539 d6f6 1bb8
00000280: 20df 3ab6 00ab e836 8cd4 5e3e 243f 99b7
00000290: 8d7c e737 507b 7638 235b efb7 1d8f 1c38
000002a0: 139b 73be b382 7238 e5a4 1d39 3efe 4538
000002b0: 11db 133e 6daa 3638 e599 733e eb71 fc38
000002c0: 1843 0136 1475 73be 2f86 733e 8dbb 733e
000002d0: a03c 8d35 691b 2bb7 faf2 7b36 e996 e2b8
000002e0: 389a 20b6 c0f8 ac35 6854 4238 9fca ccb6
000002f0: c775 733e ed1d ffbd 1c05 b937 05a9 73be
00000300: d159 643e 386b 733e 28d8 d737 c988 73be
00000310: aca1 733e 00fa 3533 4282 b238 1243 e337
00000320: ac9a 73be 788c 73be ac24 41b7 e344 e0b7
00000330: 74c5 b938 a271 733e 98a2 733e 74b4 73be
00000340: b86a 84b6 31a4 3d38 1a88 183e de0d 81b8
00000350: 1840 efb7 b0ea 95b8 3591 db38 20b9 07b8
00000360: 7e96 3038 a931 42b8 728a 73be 9376 73be
00000370: fd07 5bbe c461 8f38 7a8d 733e 1cfd ec36
00000380: 05c2 bab7 5804 13b8 518c 73be 75a7 733e
00000390: 4f50 47b7 8da7 b837 06e7 d2b8 f87e 4738
000003a0: 06f3 7bb8 8cf4 8f36 73ea c5b8 c19a 733e
000003b0: 019b 73be ac47 ae37 1136 21be 5bcb 41b8
000003c0: 4cb8 4b38 b695 b6b8 173b 56be 9ead 013e
000003d0: 74c7 2539 8861 8538 f06a 2138 448a 733e
000003e0: 94d3 f9b7 f377 733e a674 8bb8 ce52 7ab7
000003f0: 68fe 3338 842a aab8 17a1 9f37 c286 9138

network.0.bias f4 [256]
0.04474038 0.058519747 0.07937221 0.021784212 0.032181274 0.017260969 0.03322459 0.045554623
0.01750477 -0.012832181 0.0018815622 0.061040204 0.032730978 0.06785277 0.021372722 0.015873568
0.02359562 0.0068835863 0.04586497 0.014769182 0.06107191 0.019343982 0.06330461 -0.0013825259
0.053399988 -0.01850947 0.065443784 0.012234736 0.023739602 0.039701473 -0.021111403 0.039584562
0.08585647 0.006686196 0.05548536 0.022934273 0.023531402 0.030593822 0.011456514 0.047192957
0.023018427 0.03110494 -7.6305674e-05 0.022580808 0.049144294 0.05444921 0.029494183 0.056672223
0.065774366 -0.017739955 0.029008104 0.041941456 0.016140783 -0.014595211 0.03911428 0.009296854
0.033153452 0.03869884 0.05763879 0.036708426 0.021601137 0.02056464 0.028673112 0.01964992
-0.0053041363 0.07694907 0.039925124 0.0056697666 0.014718339 0.029403541 0.0018169156 0.028346667
0.0451718 0.025208052 0.049649842 0.03949098 0.024132572 0.0073127775 0.01765322 0.019195924
0.01506726 0.050263464 0.063468605 -0.0043808497 0.04744273 0.014072903 0.020636223 0.064572886
0.029609794 0.012660305 0.033842564 0.030088453 0.0077493587 0.049727958 0.05111045 0.05187682
0.016692739 0.05077903 0.02747735 0.04306724 0.016206564 0.057833903 0.0016829317 0.044139087
0.061877873 0.05584014 0.001326656 0.10055478 0.0066112783 0.02482736 0.0038391897 0.027044533
0.030254552 0.01257911 0.054081004 0.0641899 0.008630974 0.038795363 0.07877781 -0.009923876
0.022763098 0.045899592 0.032970928 0.055028185 0.009537703 0.0073202886 0.024249852 0.06406871
0.012191665 0.023077266 0.033615205 0.08733486 0.011546254 -0.022135148 0.049749907 0.02470556
0.018801603 0.06482946 0.0617172 0.014579022 0.016010107 0.03377155 0.060169913 0.033270314
0.034392297 0.032674056 0.033874318 0.010958379 0.004399448 0.029690338 0.06167708 0.11238637
0.024097592 0.026832422 0.039469354 0.05058223 0.05527251 0.039675646 0.04644339 -0.03128819
-0.014555693 0.040283654 0.0049323123 0.004152812 0.04311645 0.023831796 0.04757868 0.0030778944
0.05248994 0.03143772 0.035069693 0.054766666 0.015510565 0.0237751 0.0099735325 0.021481454
0.05384148 0.028836517 0.018042909 0.059391778 0.02077584 0.015785214 0.027005753 0.022633357
-0.02504304 0.05177167 0.029356908 0.04198856 -0.0002686481 0.05080614 0.06415578 -0.024310738
0.041070428 0.053726017 0.0035582464 0.02565044 0.043723296 0.029752506 0.024384452 0.015245312
0.03604667 0.019941175 0.015596583 0.008514388 -0.0025824225 0.046481423 0.034711335 0.047821026
0.026102418 -0.009369566 0.0344207 0.05699087 0.026871497 0.01859886 0.03367986 -0.0025464578
0.02940439 0.028915618 0.012071821 0.027425498 0.04221672 0.018054593 0.039117243 0.031679757
-0.011241773 0.027063798 0.06398992 0.03849512 0.051371973 0.029922007 0.021236988 0.04439888
0.026767606 0.035844427 0.05077001 0.047228955 -0.020790704 0.03827342 0.05574534 0.03229304
0.009127628 -0.013074789 0.009626977 0.03480676 0.014808071 0.017379351 -0.0067588976 0.02689387
0.016719734 -0.006754414 0.029050585 0.05908377 0.029902646 0.019142978 0.04098516 0.04926347
00000000: b041 373d 67b2 6f3d e68d a23d ce74 b23c
00000010: 83d0 033d e066 8d3c 8216 083d 7c97 3a3d
00000020: 2a66 8f3c 113e 52bc c09e f63a 4b05 7a3d
00000030: eb10 063d 65f6 8a3d d915 af3c 4909 823c
00000040: 9a4b c13c b58f e13b e8dc 3b3d 70fa 713c
00000050: 8a26 7a3d 4577 9e3c d9a5 813d df35 b5ba
00000060: f2b9 5a3d 2ca1 97bc 6407 863d 3474 483c
00000070: 8e79 c23c 039e 223d d2f1 acbc 6c23 223d
00000080: 84d5 af3d e117 db3b 9e44 633d a8e0 bb3c
00000090: edc4 c03c e59f fa3c 1ab4 3b3c 674d 413d
000000a0: 2491 bc3c cacf fe3c 4c06 a0b8 63fb b83c
000000b0: 874b 493d 2306 5f3d c99d f13c 2221 683d
000000c0: b6b4 863d 6253 91bc 67a2 ed3c ceca 2b3d
000000d0: ad39 843c c020 6fbc 4c36 203d d551 183c
000000e0: eacb 073d ad82 1e3d a716 6c3d 935b 163d
000000f0: def4 b03c 2d77 a83c e0e3 ea3c def8 a03c
00000100: 52ce adbb 7997 9d3d 8788 233d 73c9 b93b
00000110: 3025 713c b2df f03c 9225 ee3a 4537 e83c
00000120: 1106 393d 1e81 ce3c a25d 4b3d 4bc1 213d
00000130: acb1 c53c 06a0 ef3b 7c9d 903c c540 9d3c
00000140: abdc 763c 10e1 4d3d d4fb 813d 3b8d 8fbb
00000150: 4f53 423d 0992 663c 4c0d a93c ca3e 843d
00000160: 3d90 f23c 2b6d 4f3c 809e 0a3d 0f7c f63c
00000170: 55ee fd3b 8baf 4b3d 3159 513d ca7c 543d
00000180: 36bf 883c acfd 4f3d 2e18 e13c 4667 303d
00000190: a1c3 843c 3ee3 6c3d d195 dc3a 30cb 343d
000001a0: a773 7d3d a1b8 643d 30e3 ad3a aaef cd3d
000001b0: 6ca3 d83b bf62 cb3c ea9a 7b3b 7f8c dd3c
000001c0: 65d8 f73c 9d18 4e3c 0b84 5d3d ff75 833d
000001d0: ee68 0d3c e3e7 1e3d 4356 a13d c197 22bc
000001e0: ad79 ba3c 3601 3c3d 860c 073d 3c65 613d
000001f0: 0744 1c3c 08df ef3b a0a7 c63c 7536 833d
00000200: 8dbf 473c 890c bd3c 19b0 093d 9edc b23d
00000210: 802c 3d3c c554 b5bc 8fc6 4b3d 5163 ca3c
00000220: d205 9a3c 4fc5 843d 2dcb 7c3d dadc 6e3c
00000230: a127 833c 0954 0a3d ba74 763d 7446 083d
00000240: f0de 0c3d 3bd5 053d ccbf 0a3d c68a 333c
00000250: 3f29 903b 2739 f33c 1ba1 7c3d d32a e63d
00000260: 5068 c53c abcf db3c 9eaa 213d 502f 4f3d
00000270: 6d65 623d ee82 223d 6d3b 3e3d 0c28 00bd
00000280: 007b 6ebc 7900 253d 3c9f a13b 5014 883b
00000290: e09a 303d e63a c33c dde1 423d 80b6 493b
000002a0: b1ff 563d d7c4 003d 3da5 0f3d 0353 603d
000002b0: 0620 7e3c 00c4 c23c 0768 233c e0f9 af3c
000002c0: e288 5c3d 8f3a ec3c b9ce 933c cb44 733d
000002d0: 1832 aa3c fe4f 813c 2b3b dd3c 9769 b93c
000002e0: 1027 cdbc 880e 543d e67d f03c 32fc 2b3d
000002f0: 56d9 8cb9 191a 503d 1b64 833d 5027 c7bc
00000300: 7739 283d d00f 5c3d 7831 693b df20 d23c
00000310: 3317 333d 87bb f33c e7c1 c73c 79c7 793c
00000320: aca5 133d ad5b a33c cf88 7f3c ef7f 0b3c
00000330: dc3d 29bb 4e63 3e3d 792d 0e3d fbdf 433d
00000340: bdd4 d53c cf82 19bc b8fc 0c3d 426f 693d
00000350: 9d21 dc3c a35c 983c e5f3 093d 79e2 26bb
00000360: 7ae1 f03c 72e0 ec3c e3c8 453c 70ab e03c
00000370: 70eb 2c3d 3ae7 933c 6739 203d a2c2 013d
00000380: 6a2f 38bc e6b4 dd3c 260d 833d 0fad 1d3d
00000390: 6b6b 523d ff1e f53c 31f9 ad3c 9adb 353d
000003a0: bd47 db3c 9bd1 123d 37f4 4f3d 2673 413d
000003b0: 4451 aabc 97c4 1c3d 3a55 643d b545 043d
000003c0: 0c8c 153c a437 56bc 78ba 1d3c 8891 0e3d
000003d0: 8d9d 723c 245f 8e3c be79 ddbb 8950 dc3c
000003e0: d3f7 883c 2254 ddbb 7efb ed3c d301 723d
000003f0: 65f6 f43c bcd1 9c3c 0ee0 273d 7ec8 493d

network.2.weight f4 [192, 256]
-0.0063504213 0.035250984 -0.055424273 -0.023002328 -0.029341655 -0.046950616 0.06440229 -0.0028302437
-0.10077399 0.072671995 -0.032899126 -0.069291756 0.0044123307 -0.008894395 -0.054923072 -0.10946405
-0.003847578 0.057409596 0.029682357 0.011644131 -0.020691011 0.010022738 -0.016079854 -0.1741691
0.028229926 -0.026406143 -0.031900782 0.027499745 0.076402076 -0.0017767469 0.005402816 0.10873474
0.15440352 0.0641297 0.021066595 0.051838405 -0.026745625 0.12400414 -0.0064525167 -0.007028905
0.043343715 -0.054725688 -0.019174978 -0.14506546 0.0052294703 0.02804106 0.06806152 -0.03637951
0.025237305 -0.06238876 -0.031925138 0.03423424 -0.16685793 -0.05575213 0.04019737 -0.053150047
-0.13762055 0.15924442 0.07773266 0.1036753 -0.05840999 -0.17511593 -0.058213063 -0.09783278
-0.07949736 0.0620312 0.07463352 -0.04385542 0.0070232665 0.055958077 -0.058107797 -0.11978704
0.048151452 -0.092546366 0.07477387 0.08986529 0.06412737 0.14754346 0.026306236 -0.012218707
-0.03649405 0.10424605 0.045675006 0.062933795 0.07874144 0.15847345 -0.04213405 0.13534623
-0.08897603 -0.120888256 -0.028874053 -0.16822915 0.15062359 0.17604466 -0.018674208 0.04188667
-0.07099753 0.09892052 -0.09354399 0.04935141 0.0029752618 0.07585992 -0.05892358 0.04280065
0.13213806 0.06501618 -0.049686864 0.075179234 -0.04842637 0.021608151 -0.04960879 0.03228532
-0.051294103 0.04134623 -0.05430458 -0.07817383 0.038364008 0.036284365 0.061164554 -0.015740022
0.09185112 -0.00079295976 0.037470978 0.00071695726 -0.030762004 0.09183709 0.033273444 -0.0067228824
0.071498506 -0.005189181 -0.043148465 0.08497296 0.11694207 -0.1020934 -0.04847088 0.032795884
-0.057116378 0.05203472 0.18799365 0.104356125 -0.04535571 0.12794481 -0.040352732 0.061709903
0.07620828 -0.0555001 -0.020748751 0.044697486 0.018126884 0.04801782 -0.016380684 0.08126521
-0.08583459 0.0492326 -0.08126592 -0.030149125 -0.033673286 0.01907584 0.05643764 -0.024757782
-0.06013296 0.124401115 0.07721056 0.03697062 -0.0143172275 -0.07154323 0.0387107 0.13595243
0.054847434 -0.069077775 -0.06643644 0.123809785 -0.03974131 -0.085780196 -0.0731626 -0.15019147
0.026509572 -0.088637196 0.11610051 0.04669561 0.017258521 -0.06923056 0.1339574 -0.10553951
-0.10663054 -0.10846596 0.0718105 -0.15345311 0.0048249224 0.098114885 0.050181992 0.07924706
0.03509635 0.13362554 0.06973586 -0.044505503 0.07620378 -0.0036583266 -0.082537666 -0.07678745
-0.12898505 -0.001057772 0.04467987 0.09389513 0.033252846 -0.027423248 0.2165109 0.119815946
0.074822515 -0.04919027 0.07074176 -0.10927333 -0.017124847 -0.14480881 0.05788521 -0.06646484
0.081703775 -0.07339219 0.007184665 0.016588481 0.098623835 -0.027223866 -0.1897405 0.0009046202
0.04814032 -0.22905596 -0.016073626 -0.13236526 0.10347814 -0.0004936188 -0.054053757 -0.09269701
-0.064010255 0.078838766 0.08774426 0.026902357 0.08487314 -0.11720839 0.032047227 -0.09012947
-0.006276649 -0.086129084 0.056392506 0.08176213 0.07638637 -0.054740187 -0.06778936 -0.03217641
-0.0020574408 -0.060041312 -0.27353582 0.033644713 0.0031591908 -0.026972873 0.06882086 0.027848793
00000000: 3217 d0bb 5663 103d 9004 63bd 616f bcbc
00000010: e95d f0bc 4a4f 40bd 59e5 833d 9c7b 39bb
00000020: 9862 cebd 0ed5 943d 3cc1 06bd d6e8 8dbd
00000030: 5095 903b ccb9 11bc 04f7 60bd b02e e0bd
00000040: a627 7cbb 5326 6b3d 6a28 f33c 06c7 3e3c
00000050: 3280 a9bc 6936 243c e6b9 83bc 6259 32be
00000060: 7242 e73c b251 d8bc 65aa 02bd 2547 e13c
00000070: b178 9c3d bce1 e8ba 1b0a b13b 52b0 de3d
00000080: f51b 1e3e 6f56 833d da93 ac3c 8254 543d
00000090: a419 dbbc e2f5 fd3d a26f d3bb bb52 e6bb
000000a0: 2e89 313d 0b28 60bd d814 9dbc 0a8c 14be
000000b0: fa5b ab3b 5db6 e53c d763 8b3d ae02 15bd
000000c0: 77be ce3c 5b8b 7fbd efc3 02bd 3439 0c3d
000000d0: cedc 2abe 585c 64bd ffa5 243d ddb3 59bd
000000e0: 67ec 0cbe f810 233e 4d32 9f3d b753 d43d
000000f0: 503f 6fbd 9751 33be d270 6ebd 8d5c c8bd
00000100: 83cf a2bd 6d14 7e3d 75d9 983d bea1 33bd
00000110: 6e23 e63b 4c34 653d 7102 6ebd e852 f5bd
00000120: 753a 453d f388 bdbd 0b23 993d 4b0b b83d
00000130: 3655 833d a215 173e 2d80 d73c f930 48bc
00000140: c97a 15bd f47e d53d b715 3b3d 6fe3 803d
00000150: 3143 a13d dd46 223e c194 2cbd 3498 0a3e
00000160: 1139 b6bd 4394 f7bd 4789 ecbc 4344 2cbe
00000170: 123d 1a3e 0d45 343e a7fa 98bc 5b91 2b3d
00000180: 2767 91bd d796 ca3d fe93 bfbd b424 4a3d
00000190: 9cfc 423b 725c 9b3d da59 71bd bc4f 2f3d
000001a0: 334f 073e 3427 853d 7484 4bbd 92f7 993d
000001b0: bb5a 46bd 9403 b13c 9632 4bbd 9d3d 043d
000001c0: c419 52bd aa5a 293d 7b6e 5ebd 9a19 a0bd
000001d0: 9423 1d3d ea9e 143d af87 7a3d 38f1 80bc
000001e0: 711c bc3d a1de 4fba 2b7b 193d 30f2 3b3a
000001f0: 9900 fcbc 1615 bc3d bc49 083d a04b dcbb
00000200: cf6d 923d 010a aabb 72bc 30bd 4e06 ae3d
00000210: 537f ef3d 5816 d1bd 6789 46bd fa54 063d
00000220: ddf2 69bd 5c22 553d 6881 403e aab8 d53d
00000230: e9c6 39bd f703 033e e848 25bd 86c3 7c3d
00000240: 1613 9c3d 1354 63bd 49f9 a9bc b614 373d
00000250: d57e 943c 55ae 443d c930 86bc 606e a63d
00000260: 0cca afbd 1fa8 493d bf6e a6bd 4cfb f6bc
00000270: 00ed 09bd f044 9c3c 282b 673d d5d0 cabc
00000280: fb4d 76bd 03c6 fe3d 9220 9e3d 816e 173d
00000290: ce92 6abc 4285 92bd 1c8f 1e3d 1d37 0b3e
000002a0: b4a7 603d a678 8dbd d40f 88bd fc8f fd3d
000002b0: c9c7 22bd 87ad afbd 46d6 95bd cbcb 19be
000002c0: 9a2a d93c 6b87 b5bd 1bc6 ed3d e543 3f3d
000002d0: be61 8d3c c0c8 8dbd 212c 093e 1925 d8bd
000002e0: 1d61 dabd 6723 debd 6211 933d d022 1dbe
000002f0: 621a 9e3b 75f0 c83d a28b 4d3d 484c a23d
00000300: 31c1 0f3d 22d5 083e add1 8e3d 674b 36bd
00000310: ba10 9c3d 89c0 6fbb 8209 a9bd bd42 9dbd
00000320: a814 04be f0a4 8aba 3d02 373d 174c c03d
00000330: 2334 083d b8a6 e0bc 09b5 5d3e 1062 f53d
00000340: 8c3c 993d bd7b 49bd 0ee1 903d b2ca dfbd
00000350: 6849 8cbc c348 14be 0b19 6d3d b81e 88bd
00000360: 4f54 a73d a54e 96bd 576d eb3b 91e4 873c
00000370: 4bfb c93d 9604 dfbc 554b 42be 0924 6d3a
00000380: c92e 453d a58d 6abe d6ac 83bc c28a 07be
00000390: 59ec d33d 3266 01ba 7967 5dbd eed7 bdbd
000003a0: cf17 83bd 3876 a13d 43b3 b33d 5562 dc3c
000003b0: f8d1 ad3d f40a f0bd f443 033d cd95 b8bd
000003c0: 59ac cdbb 7264 b0bd d4fb 663d e772 a73d
000003d0: 7570 9c3d 3f37 60bd 26d5 8abd 69cb 03bd
000003e0: 21d6 06bb e1ed 75bd e30c 8cbe 0acf 093d
000003f0: 6d0a 4f3b 37f6 dcbc f3f1 8c3d 2723 e43c

network.2.bias f4 [192]
0.037207928 0.021026483 0.01498508 -0.0006762594 0.004605257 -0.009342201 0.020374993 0.03851372
0.024904557 0.017050862 0.029555865 0.0326414 0.034668587 0.018429529 0.034137953 0.006600014
0.029279051 -0.00036332532 0.00046285335 0.034383606 0.053624194 -0.0020987112 0.034384653 0.018657655
0.02101962 0.06718669 0.038940422 0.014259416 0.0025903771 -0.013035291 0.014880817 0.018822387
0.026248457 0.013491879 0.024199389 0.022726214 0.012317593 -0.00476887 0.011449844 0.026787588
0.0077737607 0.029031182 0.020550918 0.0016139281 0.028186813 0.009018513 0.0011775548 0.049199447
0.02620527 0.013083696 0.024835363 0.027158447 0.025897382 -0.0032411953 0.02743009 0.029285297
0.031569786 -0.0074453033 0.0022421675 0.018469013 0.026720066 0.055753943 0.016828317 0.035369266
0.025528118 0.04684126 0.037837803 0.01470148 -0.0052924035 0.039254036 0.017801605 0.012408569
0.035310198 0.013166826 0.0017799053 0.026294298 0.01795477 0.030982345 0.050362743 0.02006769
0.033142947 0.021285562 0.029414725 0.03848391 0.010701768 0.01574019 0.015087322 -0.0006614181
0.048681855 -0.008689289 0.02752851 0.000118313386 0.021997085 0.026645064 0.023831869 0.026976572
0.025877234 0.035726383 0.03010112 0.022438891 0.025172966 0.01526948 0.031871714 0.009143659
0.013797505 -0.0029375034 0.016053127 0.013723874 0.029054519 -0.0013385304 0.043845613 0.026387746
0.04725497 0.018290445 0.025139615 0.019531507 0.036047336 0.010950452 0.006783628 0.030077992
-0.010672756 0.01642176 0.011424617 0.008638992 0.012097758 0.024395486 0.030770397 0.02134748
0.0002078632 0.01815739 0.021993894 0.00047522422 0.05053493 0.008436064 0.034019053 0.018419746
0.02409052 0.040581442 0.01969992 0.032364346 0.025513494 0.008697536 0.022831883 0.006037629
0.01952173 0.010891646 0.021180674 0.019918744 0.029649908 0.0060144817 0.030730948 0.009224883
0.014452053 0.003340978 0.012953078 0.038304903 0.03268939 0.033930052 0.015734337 0.024345508
0.03374143 -0.0013150622 0.023801092 0.03833488 -0.002731802 0.042481728 0.014081354 0.02511862
0.008968385 0.024936209 0.05252329 0.04887588 0.004012382 0.023623101 0.054361753 0.027065847
0.020995146 -0.010613558 -0.0016730798 0.03943409 0.027266547 0.027889116 0.027430106 0.019338926
0.029322838 0.030581128 0.019605348 0.032203957 0.018631931 -0.007658033 0.020430038 0.014305218
00000000: 5767 183d bb3f ac3c fb83 753c 0047 31ba
00000010: b2e7 963b 0810 19bc 75e9 a63c 90c0 1d3d
00000020: a404 cc3c 40ae 8b3c 241f f23c fdb2 053d
00000030: a600 0e3d 86f9 963c 3dd4 0b3d ee44 d83b
00000040: 9fda ef3c b37c beb9 20ab f239 d3d5 0c3d
00000050: 0ba5 5b3d 888a 09bb ecd6 0c3d f0d7 983c
00000060: 5731 ac3c 2d99 893d fe7f 1f3d 53a0 693c
00000070: 51c3 293b f991 55bc acce 733c 6831 9a3c
00000080: 0107 d73c 0b0d 5d3c cc3d c63c 532c ba3c
00000090: bbcf 493c 2e44 9cbb 2098 3b3c a571 db3c
000000a0: 08bb fe3b cdd2 ed3c 665a a83c 718a d33a
000000b0: 08e8 e63c 63c2 133c 2f58 9a3a 5c85 493d
000000c0: 6fac d63c 005d 563c 8873 cb3c 647b de3c
000000d0: bf26 d43c 3c6a 54bb 11b5 e03c b8e7 ef3c
000000e0: 524f 013d bbf7 f3bb 54f1 123b 544c 973c
000000f0: 0ae4 da3c 3f5e 643d 8adb 893c 5ddf 103d
00000100: 5820 d13c 9fdc 3f3d d0fb 1a3d 7ade 703c
00000110: e66b adbb d7c8 203d acd4 913c 504d 4b3c
00000120: 6da1 103d acb9 573c b64b e93a 2467 d73c
00000130: e215 933c b0ce fd3c 2a49 4e3d ff64 a43c
00000140: e6c0 073d 0f5f ae3c 26f7 f03c 4ea1 1d3d
00000150: 7856 2f3c 92f1 803c d130 773c 0463 2dba
00000160: a066 473d 855d 0ebc 7883 e13c 041f f838
00000170: 3b33 b43c c046 da3c 0d3b c33c f9fd dc3c
00000180: 7efc d33c d455 123d a096 f63c c4d1 b73c
00000190: 8937 ce3c d72c 7a3c ea8b 023d 49cf 153c
000001a0: ee0e 623c 2183 40bb d981 833c 1ada 603c
000001b0: be03 ee3c a171 afba 7597 333d 1d2b d83c
000001c0: 6d8e 413d d8d5 953c 98f1 cd3c 8a00 a03c
000001d0: 5fa6 133d 8669 333c 3249 de3b 1f66 f63c
000001e0: c8dc 2ebc ed86 863c 512e 3b3c 8f8a 0d3c
000001f0: ad35 463c 0bd9 c73c 3312 fc3c e9e0 ae3c
00000200: daf5 5939 cfbe 943c 8a2c b43c 8427 f939
00000210: b7fd 4e3d 6b37 0a3c 9057 0b3d 02e5 963c
00000220: 7b59 c53c ba38 263d ba61 a13c 7a90 043d
00000230: ad01 d13c 1c80 0e3c ee09 bb3c 4ed7 c53b
00000240: 09ec 9f3c e072 323c 1883 ad3c a22c a33c
00000250: 5de4 f23c 2115 c53b 78bf fb3c f723 173c
00000260: 4ec8 6c3c 4ff4 5a3b 2639 543c 9ae5 1c3d
00000270: 4fe5 053d 3dfa 0a3d 4ce5 803c 3b70 c73c
00000280: 7434 0a3d 2a5e acba 82fa c23c 0905 1d3d
00000290: 0808 33bb 5201 2e3d 7bb5 663c 90c5 cd3c
000002a0: 22f0 123c 0547 cc3c a922 573d 1332 483d
000002b0: 4d7a 833b 3c85 c13c 6eaa 5e3d 32b9 dd3c
000002c0: 03fe ab3c 7de4 2dbc 3e4b dbba a485 213d
000002d0: 185e df3c b777 e43c 1ab5 e03c ab6c 9e3c
000002e0: 7336 f03c 4685 fa3c 659b a03c 4ce8 033d
000002f0: fea1 983c 3df0 fabb e55c a73c 6f60 6a3c

network.4.weight f4 [128, 192]
0.045124188 -0.027739754 -0.046369776 -0.072056964 0.1265289 0.011666156 0.06790307 0.073093005
0.043174703 0.14702739 -0.0684057 0.022893218 0.065426245 0.045706686 0.013863906 0.11407015
0.035990093 -0.0017509729 -0.00585579 -0.0187448 -0.027763482 0.09485023 -0.02304726 -0.10204749
-0.15172686 0.22267625 0.08747255 0.10590163 0.028194183 0.03731159 -0.004360806 -0.10935824
-0.21617945 0.09233748 -0.0023238377 0.11473404 0.046522137 -0.097704634 0.054430384 0.18674348
-0.0028192457 0.08536329 0.06313739 0.10472482 0.20151116 -0.13629368 -0.039684296 0.13873594
0.077414334 -0.03168938 -0.111012414 0.01683539 -0.11638134 -0.16286598 -0.054523103 -0.063076265
-0.23081563 0.013772193 -0.03503796 -0.03671139 -0.042329017 0.19232035 0.16390121 -0.13164602
0.16409314 -0.050319944 0.06616784 -0.1553464 -0.01573418 0.101095185 0.11303885 0.03252722
0.21454398 0.12381179 0.040179744 -0.027514635 -0.09932211 0.15384631 0.06410411 0.083695695
0.000731238 0.05919552 0.047191445 0.09283117 0.03856052 0.07771007 0.0057814494 -0.040409815
-0.020427592 -0.05357783 0.023463111 0.03194417 -0.010082361 -0.04357686 -0.03683736 0.10130011
-0.023104277 -0.10408282 0.024509896 0.026056597 0.17452022 0.006766789 -0.012133105 0.080065645
-0.065860756 0.09002881 -0.07825198 -0.07080259 0.032635055 -0.1538388 0.017893871 0.08612814
0.0072635543 0.096159875 0.0799672 -0.011524598 -0.04070515 0.035137653 0.124490306 0.076226994
-0.018127587 0.0675028 0.12414857 -0.03474349 0.07585679 -0.116307504 -0.074833125 -0.027610186
0.056826595 0.057381913 -0.0023105778 -0.08546224 0.13034938 -0.20274298 -0.08783271 0.117728256
0.07485901 0.15220737 -0.002516121 0.044784114 0.079775125 -0.0014770182 0.14023346 -0.08616384
0.0155009655 0.093158975 -0.18889293 -0.04559683 0.025611496 0.121154726 0.061861295 -0.16692421
0.0031715916 -0.12282365 -0.061514553 -0.09008466 -0.0428967 0.046732962 -0.018594963 -0.065211385
0.030327111 0.11104514 -0.08033611 0.10314839 -0.027135901 0.01642916 -0.09968808 0.014544859
0.0036059464 -0.029907944 -0.092913456 0.031174492 0.012489375 -0.009900637 0.02156885 -0.15010647
0.009716376 0.13344179 0.07774672 -0.024254736 0.09572785 -0.025891175 0.061242763 0.06171297
0.08669385 -0.05710492 0.108528115 -0.0931318 0.15910548 -0.17397729 -0.0837837 -0.1200895
0.0842726 -0.06350935 0.0027583712 -0.02653065 0.022386678 -0.0077597783 -0.09216642 -0.028101135
0.017989203 -0.024239685 -0.13591345 0.019342959 0.0064521795 0.05725647 -0.03497999 0.16881679
-0.10536229 -0.19540861 -0.006422481 -0.13629253 0.07134145 -0.0012464946 -0.0012194096 -0.07155829
0.041157782 -0.015516433 -0.18665935 0.007294889 -0.0073019345 -3.9832656e-05 0.018491933 -0.016778585
0.15780321 0.15721858 0.03335071 -0.036501788 5.720749e-07 -0.049688995 0.0051572975 0.01649005
0.03887842 0.07884227 0.011154762 0.015152261 -8.1456346e-07 -0.10046262 0.050286733 0.10966985
0.017782206 -0.073735416 0.064445175 -7.822729e-07 -0.10372819 0.023673125 0.06609385 -0.069357224
-0.17234635 -0.070438296 0.03979049 -0.061793182 0.014792847 -0.060028337 1.943207e-05 0.010789062
00000000: 24d4 383d 7b3e e3bc 3cee 3dbd 9a92 93bd
00000010: cb90 013e 6823 3f3c c410 8b3d c9b1 953d
00000020: f5d7 303d 598e 163e 4a18 8cbd 8f8a bb3c
00000030: 32fe 853d ef36 3b3d 7025 633c 9c9d e93d
00000040: 596a 133d e780 e5ba ede1 bfbb b28e 99bc
00000050: 3e70 e3bc d640 c23d 9bcd bcbc 46fe d0bd
00000060: 495e 1bbe 3e05 643e cf24 b33d f4e2 d83d
00000070: 7df7 e63c 0ad4 183d 18e5 8ebb 37f7 dfbd
00000080: 255e 5dbe 6f1b bd3d 874b 18bb aef9 ea3d
00000090: ff8d 3e3d 5e19 c8bd 65f2 5e3d af39 3f3e
000000a0: 18c3 38bb f3d2 ae3d 2d4e 813d f779 d63d
000000b0: f158 4e3e 9290 0bbe 008c 22bd cb10 0e3e
000000c0: 688b 9e3d b9cc 01bd 7a5a e3bd 5fea 893c
000000d0: 5759 eebd 57c6 26be 9e53 5fbd 212e 81bd
000000e0: ef5a 6cbe c4a4 613c f783 0fbd af5e 16bd
000000f0: 3161 2dbd a0ef 443e b8d5 273e 37ce 06be
00000100: 0808 283e 491c 4ebd 0183 873d 2013 1fbe
00000110: f8e4 80bc fe0a cf3d ea80 e73d 433b 053d
00000120: 6bb1 5b3e 0991 fd3d 8493 243d 5f66 e1bc
00000130: 6469 cbbd e389 1d3e 0449 833d a668 ab3d
00000140: 8db0 3f3a 0077 723d d14b 413d 451e be3d
00000150: a3f1 1d3d 7526 9f3d 5072 bd3b c384 25bd
00000160: c457 a7bc 6d74 5bbd b635 c03c e4d7 023d
00000170: 7d30 25bc a67d 32bd c6e2 16bd 6f76 cf3d
00000180: 2e45 bdbc 6029 d5bd fac8 c83c a574 d53c
00000190: 6eb5 323e f1bb dd3b eec9 46bc 75f9 a33d
000001a0: 01e2 86bd 0661 b83d 9342 a0bd f300 91bd
000001b0: 56ac 053d eb87 1dbe 2b96 923c f363 b03d
000001c0: 1c03 ee3b 78ef c43d d8c5 a33d abd1 3cbc
000001d0: 72ba 26bd 80ec 0f3d c6f4 fe3d e61c 9c3d
000001e0: 4e80 94bc e83e 8a3d 9b41 fe3d 314f 0ebd
000001f0: ce5a 9b3d a132 eebd 1c42 99bd c22e e2bc
00000200: 01c3 683d 4c09 6b3d 106d 17bb d406 afbd
00000210: 4f7a 053e db9b 4fbe a3e1 b3bd 831b f13d
00000220: ae4f 993d 40dc 1b3e 81e5 24bb 8c6f 373d
00000230: 2461 a33d 8298 c1ba 5c99 0f3e ab76 b0bd
00000240: c3f7 7d3c 22ca be3d 266d 41be bec3 3abd
00000250: 33cf d13c f81f f83d 4562 7d3d 2eee 2abe
00000260: 7ada 4f3b f78a fbbd aff6 7bbd 4e7e b8bd
00000270: 73b4 2fbd 106b 3f3d 7754 98bc 8c8d 85bd
00000280: 9070 f83c a26b e33d 4287 a4bd 773f d33d
00000290: 1c4c debc 7296 863c 4429 ccbd 8f4d 6e3c
000002a0: be51 6c3b 8101 f5bc 6949 bebd a661 ff3c
000002b0: 3ca0 4c3c 4836 22bc 28b1 b03c 83b5 19be
000002c0: 6f31 1f3c f7a4 083e ac39 9f3d deb1 c6bc
000002d0: f70c c43d bb19 d4bc b1d9 7a3d bdc6 7c3d
000002e0: 8c8c b13d d9e6 69bd fd43 de3d e3bb bebd
000002f0: 8cec 223e 1a27 32be ca96 abbd 7cf1 f5bd
00000300: 1d97 ac3d 3111 82bd cac5 343b ce56 d9bc
00000310: 4464 b73c bd45 febb bfc1 bcbd 5a34 e6bc
00000320: 185e 933c 4e92 c6bc e52c 0bbe 2075 9e3c
00000330: ce6c d33b c385 6a3d 2e47 0fbd 4fde 2c3e
00000340: 2fc8 d7bd 3219 48be ad73 d2bb 4590 0bbe
00000350: 771b 923d 6b61 a3ba 99d4 9fba 278d 92bd
00000360: 1095 283d a338 7ebc a123 3fbe f709 ef3b
00000370: 1145 efbb fd11 27b8 657c 973c 3e73 89bc
00000380: 2a97 213e e8fd 203e c19a 083d e682 15bd
00000390: b090 1935 b086 4bbd 8cfe a83b 2416 873c
000003a0: fa3e 1f3d 0e78 a13d 76c2 363c 3041 783c
000003b0: 60a8 5ab5 59bf cdbd 76f9 4d3d 969a e03d
000003c0: fdab 913c 9802 97bd d5fb 833d 62fd 51b5
000003d0: 726f d4bd 24ee c13c 365c 873d 290b 8ebd
000003e0: 907b 30be f441 90bd 5afb 223d d91a 7dbd
000003f0: b35d 723c 46e0 75bd 0d02 a337 9bc4 303c

network.4.bias f4 [128]
0.0233288 -0.010022584 0.008346036 -0.008539169 -0.009357761 0.0041963733 0.022379102 0.0034991128
-0.00064267963 0.019716736 0.025523124 0.022222007 0.02464898 0.008296334 0.023196409 0.025829649
0.012652887 0.027439246 0.022242676 -0.0026596356 -0.00094440056 0.02596816 0.042700414 0.021343356
0.015127324 0.026068283 0.022399394 0.01052542 -0.0077269063 0.022509653 -0.007557886 0.016265856
0.006395224 0.012611293 0.025972424 0.018652517 0.016661916 0.020498892 0.019424064 0.03217992
0.006947926 -0.018764883 0.0064316057 0.0071624503 -0.0152857145 0.033977475 -0.0018672127 -0.0051341583
0.012212975 0.0 0.022618083 0.009230513 0.029386928 0.009232379 0.023543198 0.020782217
0.031778388 -0.012777364 0.016655017 0.014771049 -0.0063549373 0.012608092 0.030672636 -0.007891029
0.028387293 -0.005379807 0.025642686 0.021972725 0.017923428 0.038037 -0.0034189108 0.030195853
0.022547344 0.024179619 0.0073528145 0.010735589 0.0030733435 0.018719293 0.03170373 -0.0016648916
0.039466348 -0.00031283015 0.018861616 -0.010911975 -0.013783143 -0.00087366306 -0.007965785 0.027902326
-0.014140856 -0.0013886901 0.011463067 0.018188404 0.02665871 0.00084896304 0.028514216 0.0020380667
0.0066451747 0.01086936 -0.013117312 0.017335903 0.030558603 0.01001285 0.023705792 -0.01158531
0.014374947 0.030855423 0.015207111 0.019562542 0.017211966 0.026910104 -0.011682445 0.017511195
0.024734866 -0.009966891 -0.0020757937 0.023408594 -0.007933461 -0.006712786 0.025676422 0.008709752
0.021655457 0.020721495 -0.005148303 0.017871594 0.0070033837 0.03718566 0.014577959 0.0073529477
00000000: 0a1c bf3c c435 24bc d0bd 083c dfe7 0bbc
00000010: 4b51 19bc bb81 893b 6154 b73c 5f51 653b
00000020: 8079 28ba fe84 a13c df15 d13c ed0a b63c
00000030: a8ec c93c 59ed 073c 6506 be3c b398 d33c
00000040: 0e4e 4f3c 45c8 e03c 4636 b63c 484d 2ebb
00000050: a691 77ba 2ebb d43c a1e6 2e3d 43d8 ae3c
00000060: 98d8 773c 278d d53c ef7e b73c d072 2c3c
00000070: fd31 fdbb 2a66 b83c 25a8 f7bb f93f 853c
00000080: 078f d13b 999f 4e3c 1fc4 d43c 2acd 983c
00000090: 927e 883c 4bed a73c 371f 9f3c 17cf 033d
000000a0: 6dab e33b d0b8 99bc 38c0 d23b fdb2 ea3b
000000b0: ef70 7abc f72b 0b3d 43bd f4ba 713c a8bb
000000c0: ee18 483c 0000 0000 8f49 b93c 943b 173c
000000d0: dbbc f03c 6743 173c aadd c03c 783f aa3c
000000e0: 0e2a 023d 2658 51bc 1a70 883c 4502 723c
000000f0: 143d d0bb 2c92 4e3c 2e45 fb3c 6049 01bc
00000100: 788c e83c 1849 b0bb 9c10 d23c 2500 b43c
00000110: 27d4 923c afcc 1b3d ce0f 60bb 4b5d f73c
00000120: 35b5 b83c 5614 c63c e1ef f03b 53e4 2f3c
00000130: 266a 493b 3459 993c c5db 013d 7e38 daba
00000140: 77a7 213d 5a03 a4b9 ad83 9a3c 24c8 32bc
00000150: b1d2 61bc 8906 65ba ed82 02bc 6b93 e43c
00000160: 0daf 67bc b504 b6ba 96cf 3b3c d9ff 943c
00000170: 5e63 da3c f28c 5e3a a596 e93c 1691 053b
00000180: c4bf d93b 6615 323c ffe9 56bc 0604 8e3c
00000190: 0956 fa3c f00c 243c a632 c23c 50d0 3dbc
000001a0: e684 6b3c 83c4 fc3c 3f27 793c a041 a03c
000001b0: 1c00 8d3c 9472 dc3c ba67 3fbc a373 8f3c
000001c0: c6a0 ca3c 2c4c 23bc 0a0a 08bb 61c3 bf3c
000001d0: 59fb 01bc eef6 dbbb 5c57 d23c 59b3 0e3c
000001e0: c966 b13c 20c0 a93c 19b3 a8bb 7367 923c
000001f0: a47c e53b fe4f 183d 64d8 6e3c fff0 f03b

network.6.weight f4 [39, 128]
-0.10216337 0.2400366 -0.113201655 6.527991e-06 1.5715226e-05 -0.12447425 -0.10706885 -0.21208037
0.14476866 -0.39594778 -0.099902 -0.11636941 0.011912174 0.09270065 -0.15291707 0.09158085
0.055742968 -0.0031453094 0.02114509 -0.12122342 4.2406307e-05 -0.116839305 -0.19515835 0.003536063
0.025035648 -0.4883428 -0.33005792 -0.024991898 8.38619e-06 0.10225349 -0.08920878 -0.23883718
-4.1683066e-05 -0.052060463 -0.0052375747 -0.22848624 -0.21231164 -0.14835154 0.03428816 -0.1377703
-0.061034348 -4.8357557e-05 -0.009862663 0.13038501 0.23537621 -0.17765012 -0.14886342 0.015747098
0.06655056 -1.253727e-05 0.020318018 0.21531059 0.058921065 -0.03717947 -0.25139335 -0.23681484
-0.036732078 -7.3511415e-05 -0.15969959 -0.029287167 2.0156387e-05 0.093707606 -0.07720604 -0.23493294
-0.29217297 0.23582736 -0.09804753 0.05507676 -0.007024396 -0.13955963 2.4099316e-05 -0.040830795
0.046325244 -0.12300798 -0.0013064189 0.045015473 -0.009617247 -0.11365542 -0.12503825 -0.09815961
-0.093433835 0.22350541 0.032855436 1.1060622e-05 -0.019963933 8.636786e-05 -0.19446617 0.08260047
-0.17549592 -0.24163176 0.086117335 -0.12024437 -0.13974933 4.4018154e-05 -0.22910208 -0.08830511
-0.06678121 -0.035514656 0.080799185 -0.28402966 -0.07633478 0.003165845 -0.281608 0.2378969
0.20356904 -0.044656567 -0.081809066 -0.17749749 -0.19282167 -0.15138333 -0.14359741 -0.011747142
0.060654208 -0.14886558 -2.5735086e-05 -0.068522505 2.9368079e-05 -0.07231167 0.064942494 -0.05173942
-0.23975457 -0.019681124 -0.26695067 -0.0019342761 0.059883527 -0.23127854 -0.30026042 -0.240146
-0.1283749 2.1428099e-05 -0.23042431 -0.188772 -5.291087e-05 -0.087623596 -0.05238421 0.1960629
-0.048728798 0.00046330507 0.022807397 0.011597291 -0.17505619 0.050941776 0.031677466 0.093276806
0.069214776 -0.043736946 0.035853297 0.040689196 0.2393913 -0.012535278 -0.039521255 0.081421554
0.0035175616 -0.08680872 0.021842802 0.22115086 -0.045523595 -0.20185344 0.010857857 -0.24461275
-0.14774849 0.107596144 -0.03243738 0.1914113 0.22087705 0.062081687 -0.07505938 0.1547423
-0.019648565 0.23653424 0.0663863 -0.17992976 -0.06406005 0.29536358 0.10743092 0.076160066
0.16512209 5.948436e-05 0.002985298 0.07525573 -0.05526969 0.18134916 0.089137904 -0.0065131183
0.15710111 -2.741703e-05 0.071003325 -0.03753291 -0.00919047 0.017208138 0.20832177 0.2368707
-0.051022828 5.01438e-06 -0.15247643 0.12174177 0.08376964 -0.09035587 -0.24010539 -0.18647091
0.047199477 0.051850647 0.15058772 -0.29249904 0.14221065 0.069950365 -0.009831331 -0.06890433
-0.17392677 0.15557872 -0.09798916 -0.12749434 0.1581197 -0.0030269402 0.090142384 0.031866048
-0.16749884 -0.23517941 0.011753815 0.124886386 -0.060559656 0.00035779117 0.09173495 -0.07825552
0.12242112 -0.00011668925 0.05761111 0.05659163 0.020420026 -0.07855149 -0.10340451 0.20118636
0.0344431 0.09972386 -0.084514536 0.051308364 0.274434 0.08642143 0.18914942 -0.20394276
-0.018079558 0.072656766 -0.029235085 0.02544279 -1.0366844e-05 -0.07598109 0.098871335 0.24569069
-0.034608863 0.07875141 0.19950062 -0.15995292 -0.18303683 0.09514764 0.1128455 -0.12950264
00000000: 073b d1bd 28cc 753e 45d6 e7bd 040b db36
00000010: 31d4 8337 5bec febd ea46 dbbd 992b 59be
00000020: 3c3e 143e abb9 cabe 6b99 ccbd 1653 eebd
00000030: 472b 433c d7d9 bd3d 4b96 1cbe be8e bb3d
00000040: bd52 643d 8921 4ebb 7838 ad3c fc43 f8bd
00000050: 6ddd 3138 7249 efbd 97d7 47be 4bbd 673b
00000060: 8f17 cd3c 1108 fabe 5afd a8be cfbb ccbc
00000070: 69b2 0c37 476a d13d 18b3 b6bd bc91 74be
00000080: dad4 2eb8 5a3d 55bd f69f abbb 4cf8 69be
00000090: 3968 59be 77e9 17be be71 0c3d a813 0dbe
000000a0: 27ff 79bd 88d3 4ab8 0297 21bc a683 053e
000000b0: 7606 713e eae9 35be a76f 18be 0f00 813c
000000c0: a94b 883d 2a57 52b7 f971 a63c 617a 5c3e
000000d0: 3757 713d 8049 18bd a1b6 80be 977f 72be
000000e0: 6074 16bd 242a 9ab8 4a88 23be a4eb efbc
000000f0: 8315 a937 c6e9 bf3d 331e 9ebd 4392 70be
00000100: b297 95be ba7c 713e 25cd c8bd 2b98 613d
00000110: e82c e6bb b8e8 0ebe e328 ca37 313e 27bd
00000120: 8abf 3d3d 9ceb fbbd 253c abba 2562 383d
00000130: a891 1dbc 2cc4 e8bd 070a 00be e807 c9bd
00000140: 3d5a bfbd 9ade 643e 6c93 063d 0291 3937
00000150: 678b a3bc 6420 b538 2422 47be 6f2a a93d
00000160: 34b5 33be 516e 77be 495e b03d ae42 f6bd
00000170: 731a 0fbe 22a0 3838 bc99 6abe 4fd9 b4bd
00000180: 96c4 88bd d177 11bd 0b7a a53d 566c 91be
00000190: 6955 9cbd 117a 4f3b ec2e 90be 3f9b 733e
000001a0: 6774 503e cee9 36bd 838b a7bd e7c1 35be
000001b0: 0b73 45be 3b04 1bbe 330b 13be 1677 40bc
000001c0: 8c70 783d 3870 18be ade1 d7b7 8755 8cbd
000001d0: 785b f637 2418 94bd 9200 853d b7ec 53bd
000001e0: 3982 75be 4f3a a1bc c2ad 88be 8987 fdba
000001f0: 6e48 753d 48d4 6cbe bcbb 99be d5e8 75be
00000200: b674 03be 7ec0 b337 5af4 6bbe 724d 41be
00000210: 9dec 5db8 0074 b3bd d390 56bd b6c4 483e
00000220: d997 47bd c1e7 f239 94d6 ba3c 9002 3e3c
00000230: ee41 33be 53a8 503d 3bc0 013d e907 bf3d
00000240: 7ac0 8d3d 8325 33bd e8da 123d b7a9 263d
00000250: fe22 753e c460 4dbc 0ae1 21bd 58c0 a63d
00000260: e486 663b c5c8 b1bd adef b23c 5f75 623e
00000270: f376 3abd abb2 4ebe 27e5 313c c47b 7abe
00000280: 614b 17be 5e5b dc3d 0fdd 04bd 5301 443e
00000290: 982d 623e 5e49 7e3d bbb8 99bd c474 1e3e
000002a0: 07f6 a0bc 0836 723e 8af5 873d 823f 38be
000002b0: ea31 83bd e539 973e be04 dc3d cff9 9b3d
000002c0: c415 293e d87e 7938 fda4 433b ad1f 9a3d
000002d0: 7862 62bd 98b3 393e ef8d b63d ff6b d5bb
000002e0: 1ddf 203e a0fd e5b7 316a 913d 1cbc 19bd
000002f0: a093 16bc 15f8 8c3c 4d52 553e 3c8e 723e
00000300: 50fd 50bd 3241 a836 c822 1cbe c053 f93d
00000310: 6b8f ab3d 800c b9bd 30de 75be 3bf2 3ebe
00000320: 3d54 413d 5861 543d ab33 1a3e 6fc2 95be
00000330: ab9f 113e 2342 8f3d 9713 21bc b71d 8dbd
00000340: dc19 32be 0750 1f3e 8aae c8bd e08d 02be
00000350: 21ea 213e a15f 46bb 929c b83d f985 023d
00000360: d184 2bbe dfd2 70be 1393 403c 6fc4 ff3d
00000370: 670d 78bd eb95 bb39 89df bb3d 6e44 a0bd
00000380: edb7 fa3d 10b7 f4b8 a1f9 6b3d a0cc 673d
00000390: e647 a73c 9bdf a0bd bec5 d3bd cc03 4e3e
000003a0: 3514 0d3d 063c cc3d f515 adbd b828 523d
000003b0: 9d82 8c3e b8fd b03d 63b0 413e 5fd6 50be
000003c0: 951b 94bc 12cd 943d 6b7e efbc 666d d03c
000003d0: 42ed 2db7 f99b 9bbd 0e7d ca3d 5796 7b3e
000003e0: 06c2 0dbd 6b48 a13d e449 4c3e b3ca 23be
000003f0: 026e 3bbe c4dc c23d 8b1b e73d 579c 04be

network.6.bias f4 [39]
-0.045445144 -0.0025080703 0.021009436 0.013531195 0.0021938654 -0.008694263 0.0020970781 0.00062792806
0.0027803043 -0.00882305 -0.043362603 0.022243952 -9.992482e-05 -0.019216035 0.016738456 0.024697602
0.00053301034 -0.033307366 0.011605376 0.0044486714 0.008766292 4.445892e-05 -0.030471854 0.03398173
-0.041268922 0.011934582 -0.043283805 -0.024861732 0.0045948527 0.006539645 0.0002227299 -0.0072146202
-0.028510518 -0.027845653 -0.02636756 -0.036186602 -0.036888834 -0.036836855 -0.035265323
00000000: b024 3abd 705e 24bb fb1b ac3c f2b1 5d3c
00000010: f4c6 0f3b 6272 0ebc 226f 093b 8a9b 243a
00000020: c435 363b 8e8e 10bc fc9c 31bd f338 b63c
00000030: bb8e d1b8 f26a 9dbc 161f 893c a052 ca3c
00000040: b8b9 0b3a 4e6d 08bd 7a24 3e3c 29c6 913b
00000050: 7ea0 0f3c 6779 3a38 1ca0 f9bc 6d30 0b3d
00000060: 9a09 29bd 4489 433c 5c4a 31bd d5aa cbbc
00000070: 6b90 963b 854a d63b 9a8c 6939 9f68 ecbb
00000080: e48e e9bc 911c e4bc c800 d8bc 6738 14bd
00000090: bf18 17bd 3ee2 16bd 5f72 10bd
