Homework/HW2/results/quick_grid/run_11.pt (torch, 583917 bytes, 8 tensors)

network.0.weight f4 [256, 256]
0	0xbdad82ca	-0.08472212
1	0x3dd34076	0.10315029
2	0x3c96b7ef	0.018398253
3	0xbd44bc0a	-0.04803089
4	0x3d8ab1ab	0.06772169
5	0xbdcb5aa3	-0.09929397
6	0xbcc31e4d	-0.02381816
7	0xbd8079e5	-0.062732495
8	0x3dcbb9a1	0.09947515
9	0x3cac157b	0.021006336
10	0xbc2221a9	-0.0098957205
11	0xbabc3d5b	-0.0014361547
12	0xbdc42a48	-0.09578377
13	0x3d4ccf9d	0.050002683
14	0xbd8d5a0b	-0.0690194
15	0xbd535b01	-0.05160046
16	0x3d8f6698	0.0700199
17	0x3db6312b	0.08896097
18	0x3c4233ec	0.011853199
19	0x3d310b45	0.043223638
20	0x3b994871	0.004677825
21	0xbd41639d	-0.04721414
22	0x3e1441d9	0.14478244
23	0x3cb65b13	0.022260224
24	0x3ce92798	0.028461263
25	0x3d93e679	0.072216935
26	0x3dc1aaee	0.094564304
27	0x3cddf7a0	0.027095616
28	0xbcbeddc5	-0.023299107
29	0xbd4e07af	-0.050300296
30	0xbe1f467d	-0.15554233
31	0xbd475158	-0.04866156
32	0x3dc2aec5	0.09505991
33	0xbd65a5b9	-0.05606625
34	0xbc9b00aa	-0.018921215
35	0x3d75483b	0.059883337
36	0x3db633c0	0.08896589
37	0xbd9d483f	-0.076797955
38	0x3cdd40fb	0.027008524
39	0xbd05321b	-0.032518487
40	0x3c376547	0.01119358
41	0xbbbe5daa	-0.0058095055
42	0x3d4e590f	0.0503779
43	0xbd6b1938	-0.057397097
44	0x3c047d96	0.008086583
45	0x3d21d2e8	0.039507776
46	0xbd2419e2	-0.040063746
47	0x3c110db9	0.008853369
48	0x3b1adf88	0.002363177
49	0x3d31b389	0.04338411
50	0xbd9633bf	-0.073340885
51	0xbdc47b1b	-0.09593793
52	0xbcaba61b	-0.020953229
53	0xbd170234	-0.036867335
54	0x3c92727d	0.017876858
55	0xbd582efb	-0.05277918
56	0x3a90dd61	0.0011052304
57	0x3de6759e	0.112529024
58	0x3d5d524a	0.054033555
59	0xbdac32df	-0.084081404
60	0xbdc67d52	-0.09691872
61	0xbdc2e876	-0.09516995
62	0x3ca9122e	0.020638552
63	0xbdeb3240	-0.11484194
64	0x3db4efa4	0.0883477
65	0x3d8e210c	0.06939897
66	0xbdfa87cf	-0.12232935
67	0xbd36225d	-0.044466365
68	0xbb584a2f	-0.0033003201
69	0x3d05e816	0.032692038
70	0x3cf31843	0.029674655
71	0x3d9c3d50	0.07628882
72	0x3d72f0de	0.05931174
73	0x3a21af7d	0.00061678124
74	0x3d2d501c	0.042312726
75	0x3ae04aab	0.0017112097
76	0xbdc4cd71	-0.09609497
77	0xbd37bc03	-0.044857036
78	0x3cab0ef0	0.020881146
79	0x3d31692b	0.043313187
80	0x3c0fb9e7	0.00877235
81	0xbc53bae4	-0.012922976
82	0x3e02c29e	0.12769553
83	0x3c665079	0.014057272
84	0x3ca7f11b	0.02050071
85	0x3cf2d6b0	0.029643387
86	0x3db79681	0.08964253
87	0xbd65d26e	-0.056108885
88	0x3d90ea6f	0.07075965
89	0xbd1f9a2d	-0.038965393
90	0x39bfc4b9	0.0003657693
91	0x3d12c492	0.035831995
92	0x3ddf5cd7	0.1090638
93	0xbcc7b02d	-0.024376
94	0xbdb17709	-0.08665282
95	0x3ceefef1	0.0291743
96	0xbd02a62f	-0.031896766
97	0xbdc42c9a	-0.095788196
98	0xbbd8e395	-0.006618927
99	0x3cc1c891	0.023655208
100	0xbd55c269	-0.052187357
101	0x3a4e1170	0.0007860875
102	0xbc400257	-0.011719308
103	0xbdc5c4d4	-0.096566826
104	0x3d53161e	0.051534764
105	0xbc47e4da	-0.012200559
106	0xbcf50299	-0.029908465
107	0xbd140d03	-0.03614522
108	0x3bf308de	0.0074168285
109	0xbd86114e	-0.06546269
110	0xbc86b9e4	-0.016446061
111	0x3d8d2ad7	0.06892937
112	0x3d765a64	0.060144797
113	0x3d2c6ba0	0.042094827
114	0xbdb431cc	-0.087985605
115	0x3d1a5616	0.037679754
116	0x3d08273b	0.033240538
117	0xbd18c8eb	-0.037300985
118	0x3dba2d6f	0.09090697
119	0x3ca180ba	0.019714702
120	0x3b76f26a	0.003768111
121	0xbaff84b8	-0.0019494509
122	0xbdc5cf9d	-0.0965874
123	0x3cd93e8e	0.026519086
124	0xbdf60351	-0.12012351
125	0xbe0c3e70	-0.13695693
126	0xbcf30baa	-0.029668648
127	0xbd481a91	-0.04885346
128	0x365fbdf0	3.3340148e-06
129	0xb7f34155	-2.899828e-05
130	0x369b52a4	4.6289806e-06
131	0xb61aa802	-2.3045582e-06
132	0x36f3607c	7.2531966e-06
133	0xb7ced18c	-2.4654692e-05
134	0xbe43542d	-0.1907508
135	0xbe434f07	-0.19073115
136	0x353f4878	7.12585e-07
137	0x3743d8a6	1.1673348e-05
138	0xb893b84a	-7.043833e-05
139	0xbe4358dd	-0.19076867
140	0xb7739240	-1.451798e-05
141	0x3e434cd0	0.1907227
142	0xb6832abc	-3.909079e-06
143	0x3e4345fa	0.19069663
144	0x3721f093	9.652361e-06
145	0x375f66b6	1.331575e-05
146	0x365909a0	3.2341122e-06
147	0x386387a4	5.4247343e-05
148	0xbe434c61	-0.19072105
149	0x3e435294	0.1907447
150	0x379aa29b	1.843395e-05
151	0xb741b5f1	-1.1546058e-05
152	0xb776cc72	-1.4710344e-05
153	0x3795371b	1.7787845e-05
154	0x3e435eae	0.19079086
155	0x3e435f2d	0.19079275
156	0x385f4ff9	5.3241823e-05
157	0x38385aa3	4.395343e-05
158	0xb7b8a4f6	-2.2011325e-05
159	0x370080b6	7.659362e-06
160	0x3e282600	0.16420746
161	0xbe435464	-0.19075161
162	0x38221789	3.864573e-05
163	0xb86c8671	-5.6391993e-05
164	0xb7576f11	-1.2840858e-05
165	0x3e434c56	0.19072089
166	0x3e4351fd	0.19074245
167	0x371762b7	9.023285e-06
168	0x37422c30	1.1573589e-05
169	0x3e434c2f	0.1907203
170	0xb7a1fc4e	-1.9310184e-05
171	0x38922ce4	6.970184e-05
172	0x363990ba	2.765139e-06
173	0xb83737d9	-4.3682612e-05
174	0x37b20457	2.1221274e-05
175	0xb80236b2	-3.1045354e-05
176	0x3780f7b4	1.5374135e-05
177	0x3827ed6f	4.003703e-05
178	0xb733ec02	-1.0724181e-05
179	0x363c53c8	2.806295e-06
180	0xb7381aaa	-1.0973463e-05
181	0x3e43555c	0.19075531
182	0xb752e592	-1.2570426e-05
183	0x36087824	2.033551e-06
184	0x374d5fa1	1.22412175e-05
185	0xb6efe868	-7.1498107e-06
186	0xb700873d	-7.660882e-06
187	0xb79e32d5	-1.8858738e-05
188	0x3e434d48	0.19072449
189	0x3e434d72	0.19072512
190	0xb7b0a274	-2.1056483e-05
191	0x3e433c37	0.19065939
192	0xb7ac14cb	-2.051368e-05
193	0xbe435986	-0.19077119
194	0xb883e536	-6.289261e-05
195	0xbe435229	-0.1907431
196	0x37117727	8.670416e-06
197	0x37aad0da	2.0362833e-05
198	0x36e2a713	6.754775e-06
199	0x3694fd58	4.440237e-06
200	0xb7f4ca84	-2.918137e-05
201	0xb5eab418	-1.7486773e-06
202	0x3801ee29	3.09778e-05
203	0x3e4355be	0.19075677
204	0x370e549b	8.483558e-06
205	0xb76c71d6	-1.4093201e-05
206	0xbe434e92	-0.19072941
207	0x375e8107	1.3262273e-05
208	0x37674488	1.3784629e-05
209	0x3e435328	0.1907469
210	0xbe4354bd	-0.19075294
211	0x3e435ab9	0.19077577
212	0xb691b68c	-4.342588e-06
213	0xb89883d4	-7.27248e-05
214	0x365b73d7	3.270097e-06
215	0x359893e8	1.1367929e-06
216	0x3e4358d0	0.19076848
217	0xbe28cf1c	-0.16485256
218	0xb7040d72	-7.870944e-06
219	0x3e435a08	0.19077313
220	0x371805de	9.061272e-06
221	0x3859e749	5.1952233e-05
222	0x3e4350ba	0.19073763
223	0xb7842242	-1.5751579e-05
224	0xb72387a0	-9.747135e-06
225	0x37d1d1a4	2.5012363e-05
226	0xb7ba0e05	-2.2179456e-05
227	0xb7c152da	-2.3045974e-05
228	0x36d5ecf4	6.3754796e-06
229	0x37acf5c5	2.0618443e-05
230	0x3e408dd4	0.18804103
231	0xbe4357b8	-0.19076431
232	0x35704368	8.9505056e-07
233	0x381ef11c	3.7894686e-05
234	0x3763fc29	1.3588965e-05
235	0x3e37eb6a	0.17960897
236	0xbe435221	-0.19074298
237	0xb73a89cb	-1.1118546e-05
238	0xb77bf4cf	-1.5017765e-05
239	0xbe2fe219	-0.17176093
240	0xb7cc4d5a	-2.4354715e-05
241	0x37b3fd1c	2.1456326e-05
242	0xb73475fe	-1.0756308e-05
243	0x387623a4	5.8684163e-05
244	0x3e434aa6	0.19071445
245	0x374ef1ce	1.2334856e-05
246	0x38a2ae00	7.757172e-05
247	0x37196660	9.143347e-06
248	0x382096de	3.828748e-05
249	0xb899ed1a	-7.339772e-05
250	0xb7667fd2	-1.3738829e-05
251	0xbe434d40	-0.19072437
252	0xbe4355de	-0.19075724
253	0xbe25b1f4	-0.16181165
254	0xbe43511c	-0.1907391
255	0xb6d172d0	-6.2420513e-06

network.0.bias f4 [256]
0	0x3adf78b7	0.0017049526
1	0x3bb0ee5b	0.005399508
2	0x3cc388f5	0.023869017
3	0x3cd6ce1b	0.026221326
4	0x3d5716c2	0.052511938
5	0x3d04e3f2	0.032443948
6	0x3c97bf75	0.018523911
7	0x3d21287d	0.039345253
8	0x3d1b24e8	0.037876993
9	0x3c51897b	0.012789126
10	0x3c52ef24	0.012874398
11	0x3d891e5c	0.06695244
12	0x3d77a4a0	0.060459733
13	0x3d2b1845	0.041771192
14	0x3d10dbec	0.035365984
15	0x3c49f024	0.01232532
16	0x3d7a0aef	0.061045583
17	0x3c63faf3	0.013914811
18	0x3c33db61	0.010977597
19	0x3d309a6c	0.04311602
20	0x3b5c60a7	0.0033626945
21	0x3d30da0e	0.043176703
22	0xbb93e65c	-0.004513545
23	0x3d240774	0.04004617
24	0x3cd623db	0.026140144
25	0x3d58bfca	0.05291728
26	0x3caa8345	0.020814547
27	0x3c8c8a27	0.01715572
28	0x3d15449a	0.036442377
29	0x3d8c3651	0.068462975
30	0x3d1c5188	0.03816369
31	0x3d200f9f	0.039077397
32	0x3cf07e7b	0.029357186
33	0x3d1d5d48	0.038419038
34	0x3d2941c6	0.041322492
35	0xbbea01fe	-0.007141351
36	0xbc667f43	-0.0140684275
37	0x3bde0634	0.006775642
38	0x3d2224a5	0.03958573
39	0x3c41d93c	0.011831578
40	0x3ceb4340	0.02871859
41	0x3c9dd66e	0.019267287
42	0x3d08f5e6	0.033437632
43	0x3cf1a040	0.029495358
44	0xbba7f70e	-0.0051258868
45	0x3ba56f01	0.005048633
46	0x3cd9efcc	0.026603602
47	0x3d2307f1	0.039802495
48	0x3d38d33a	0.045123316
49	0x3d5d1f11	0.053984705
50	0x3d383b97	0.044978704
51	0xbc170191	-0.009216682
52	0x3d3987f9	0.04529569
53	0x3c947ed7	0.018126888
54	0x3d19fe11	0.037595812
55	0x3cd3a736	0.025836568
56	0x3d0547fa	0.032539345
57	0x3bec7a7a	0.007216749
58	0x3c9c0a6e	0.019047942
59	0x3d159bb4	0.036525443
60	0x3d2ce4b6	0.042210303
61	0x3d36a8e7	0.04459467
62	0x39e22330	0.00043132296
63	0x3d61e4f4	0.055149987
64	0x3d0489b2	0.03235788
65	0x3c5efa6d	0.013609511
66	0x3a0cf4be	0.00053770456
67	0x3cec3378	0.028833136
68	0x3d20453c	0.039128527
69	0x3c8d3e22	0.017241541
70	0x3c4e1c0c	0.012579929
71	0x3c8fe634	0.017565824
72	0x3d0dd566	0.03462734
73	0x3d091ed5	0.03347667
74	0x3ce2fb65	0.027707765
75	0x3d17fce1	0.0371064
76	0x3cf6cd50	0.030127198
77	0x3cfb76f6	0.030696373
78	0x3ca570f7	0.020195467
79	0x3c6851a6	0.014179623
80	0x3c2efd5c	0.010680523
81	0x3c6b2420	0.014351875
82	0x3d00350d	0.031300593
83	0x3c42ee62	0.011897655
84	0x3d27d62c	0.040975735
85	0x3d27b403	0.040943157
86	0x3c0d4b7b	0.008623953
87	0x3c7ec04c	0.015548777
88	0x3d45cd36	0.048291408
89	0x3b9fab4e	0.004872716
90	0xbb8fd5ab	-0.004389485
91	0x3ce961f3	0.028489089
92	0x3d04debd	0.032438982
93	0x3cc32a4f	0.023823885
94	0x3d54600c	0.05184941
95	0x3d0f74e7	0.035023596
96	0x3cb53fc8	0.02212514
97	0x3d3cbe47	0.0460799
98	0x3d4faff9	0.05070493
99	0x3c140789	0.009035
100	0x3d9015f2	0.07035436
101	0x3c9f4134	0.019440271
102	0x3d1dd343	0.038531553
103	0x3d5fbc69	0.05462304
104	0x3d4bcf3f	0.049758192
105	0x3d11ab6d	0.035563875
106	0x3d6d0ca2	0.057873376
107	0x3c93d7ac	0.018047176
108	0x3d1f66d4	0.038916424
109	0x3d030070	0.03198284
110	0x3cf9c1dd	0.030487949
111	0x3c5b80c5	0.0133974
112	0x3d383c01	0.0449791
113	0x3d83c710	0.064344525
114	0x3d33ebac	0.043925926
115	0x3d1ab991	0.037774626
116	0x3d57e93a	0.052712657
117	0x3d0a3e9f	0.033751126
118	0x3d1331a7	0.035936024
119	0x3d04922a	0.032365955
120	0x3a3f8607	0.00073060434
121	0x3b128b1f	0.0022360755
122	0x3cbd540c	0.023111366
123	0x3cc31cc0	0.02381742
124	0x3c8b21e7	0.01698394
125	0x3d42d8f5	0.047570188
126	0x3d00eeda	0.031477787
127	0x3d6c059e	0.057622544
128	0x3d695a2f	0.05697077
129	0xbbd52b2f	-0.006505392
130	0x3d299aca	0.041407384
131	0x3cac7b60	0.021054924
132	0x3ce4ee4c	0.02794566
133	0x3d86d998	0.065844715
134	0x3d3f45ea	0.046697535
135	0x3d1fab7c	0.0389819
136	0x3d2487c4	0.04016854
137	0x3c82fb28	0.015988901
138	0x3caea93a	0.021320928
139	0x3d062097	0.032745924
140	0x3c83856b	0.01605483
141	0x3caed779	0.02134298
142	0x3d0070e2	0.031357653
143	0x3b09f830	0.0021052472
144	0x3d27a286	0.04092648
145	0x3c51c0d7	0.012802324
146	0x3cf7772b	0.03020819
147	0x3d736eee	0.059431963
148	0x3d3153cc	0.043292806
149	0x3d4748d1	0.048653428
150	0x3ce5e07f	0.02806115
151	0x3d119111	0.035538737
152	0x3d2285b2	0.039678283
153	0x3cf355e7	0.029704047
154	0x3d4dee93	0.05027635
155	0x3d5fc97f	0.05463552
156	0x3cea2faa	0.028587181
157	0x3c0ecaff	0.00871539
158	0xbbe1aea7	-0.0068872753
159	0x3cd13b94	0.025541104
160	0x3d1d5446	0.038410448
161	0x3d4bf442	0.04979349
162	0x3d20645b	0.039158206
163	0x3c7eb596	0.015546223
164	0x3c506669	0.012719729
165	0xbb9bd985	-0.004756155
166	0x3d0d80e2	0.03454674
167	0x3d287d63	0.041135203
168	0x3c93692b	0.017994484
169	0x3d48d923	0.049035203
170	0x3ce21709	0.027598875
171	0x3aafbe99	0.0013408243
172	0x3adaef18	0.0016703336
173	0x3d3e548e	0.046467356
174	0x3cb5f1e3	0.022210067
175	0x3d00b9a7	0.031427052
176	0x3c5cd8dd	0.013479439
177	0x3d1af464	0.037830725
178	0x3d5680a5	0.05236878
179	0x3d41295c	0.047158584
180	0x3cd5786a	0.026058394
181	0x3cfbb5c0	0.030726314
182	0x3cbefef3	0.023314929
183	0x3d301559	0.04298911
184	0x3d07ac16	0.0331231
185	0x3d5504fa	0.0520067
186	0x3d8400fc	0.064455
187	0x3c5a964e	0.0133414995
188	0x3cde7aaa	0.0271581
189	0x3b5e128a	0.0033885562
190	0x3c174714	0.009233255
191	0x3cdecd4b	0.0271975
192	0x3d3e77a8	0.04650083
193	0x3cc68f85	0.024238357
194	0x3cdfd393	0.027322566
195	0x3d11aff3	0.03556819
196	0x3d7f196b	0.0622801
197	0xbbbefc9a	-0.0058284523
198	0x3c0e38f6	0.008680573
199	0x3cea7507	0.028620256
200	0x3d198066	0.037475966
201	0x3cfc86b0	0.030825943
202	0x3cd93b71	0.026517602
203	0x3d0e91d0	0.034807026
204	0x3cca8c27	0.024725033
205	0x3cdbe8db	0.026844433
206	0x3d2249d4	0.03962119
207	0x3d50118f	0.050797995
208	0x3d49b4d7	0.049244728
209	0x3cca90aa	0.024727184
210	0x3c91b83b	0.017788043
211	0x3d42c292	0.047548838
212	0x3cb28165	0.021790216
213	0x3d680ad5	0.056650955
214	0x3d7cc9d0	0.0617159
215	0x3cc31f0e	0.023818519
216	0x3d7fd98d	0.062463332
217	0x3d179944	0.0370114
218	0x3ce34b49	0.02774586
219	0x394e3803	0.00019666557
220	0xbb4d76f1	-0.0031351412
221	0x3d0c76f0	0.034293115
222	0x3bc6fa75	0.0060723373
223	0xbc93253d	-0.017962093
224	0x3c0cc778	0.008592479
225	0x3c7c29c2	0.015390815
226	0x3cec5ffb	0.02885436
227	0x3ccd9a3a	0.025097955
228	0x3d18f1d7	0.03734001
229	0x3d3f150f	0.046650942
230	0x3d1de77c	0.03855084
231	0x3c942787	0.018085254
232	0x3cd9fd35	0.026609996
233	0x3cf5da11	0.030011209
234	0x3d308834	0.043098643
235	0x3be46067	0.0069695
236	0x3d50d899	0.050987814
237	0x3ca9d6d1	0.020732315
238	0x3d68939d	0.0567814
239	0x3ba5c79f	0.005059197
240	0x3cf16d5e	0.029471096
241	0x3d759e74	0.059965566
242	0x3c6eb03c	0.014568385
243	0x3cd3aa99	0.025838183
244	0x3c920b31	0.017827602
245	0x3ca9fa88	0.020749345
246	0x3d284c17	0.04108819
247	0x3d0fe3bc	0.035129294
248	0x3d76918a	0.06019739
249	0x3d3f8baf	0.046764072
250	0x3d0e8a49	0.034799848
251	0x3d0cda9d	0.034388173
252	0x3d14a610	0.036291182
253	0x3cb3778b	0.021907588
254	0x3d42fb53	0.047602963
255	0x3d213af4	0.039362863

network.2.weight f4 [192, 256]
0	0xbd12bbfa	-0.0358238
1	0x3d9ecf82	0.07754423
2	0xbd89e425	-0.06732968
3	0xbce999c5	-0.028515706
4	0xbd9027d9	-0.0703885
5	0xb9826143	-0.00024867998
6	0xbd345c13	-0.04403312
7	0x3db2a58a	0.0872298
8	0x3ce74ca6	0.028234791
9	0x3ba0c3dd	0.004906161
10	0xbc12a2d5	-0.008949955
11	0x3c28c0a2	0.0102998335
12	0x3ce4c0bc	0.027923934
13	0x3dd48776	0.103773996
14	0x3c2ec105	0.010666137
15	0x3d0ef1e3	0.03489865
16	0xbe1898a2	-0.14901975
17	0x3da90d67	0.082545094
18	0x3d8db4fe	0.06919287
19	0xbd768880	-0.06018877
20	0x3db47d37	0.08812945
21	0xbdd054a0	-0.10172391
22	0xbcd28638	-0.025698766
23	0x3e0278ee	0.12741444
24	0x3db70097	0.089356594
25	0xbd16c4b4	-0.036808684
26	0xbac350c2	-0.0014901387
27	0xbd61dfbe	-0.055145018
28	0xbc6dcbed	-0.014513952
29	0x3ca20919	0.019779729
30	0x3dbeed18	0.09322566
31	0xbda9b3b8	-0.08286232
32	0x3a55e89b	0.0008159966
33	0xbdb48b88	-0.08815676
34	0x399bf76b	0.00029748245
35	0x3d2f49b6	0.042794906
36	0x3dfe03a2	0.12403037
37	0x3d7654cd	0.060139466
38	0x3dd6130b	0.10452851
39	0x3db4cafb	0.08827778
40	0x3cae4af9	0.021275984
41	0xbcddadfd	-0.027060503
42	0xbd5037b2	-0.050834365
43	0x3df0ad0f	0.11751758
44	0x3cbe0fcb	0.02320089
45	0xbd4bc19e	-0.049745195
46	0x3e1a1597	0.15047298
47	0x3d034352	0.032046624
48	0x3be50ca1	0.006990031
49	0x3ce8db4b	0.02842488
50	0x3ca118b2	0.019665096
51	0xbd1e1841	-0.03859735
52	0x3d0b64ed	0.034031797
53	0xbd963333	-0.07333984
54	0x3c85d4a0	0.016336739
55	0x3cb84c97	0.022497458
56	0x3e14d26c	0.14533395
57	0xbd345229	-0.044023667
58	0xbdc5aad2	-0.09651722
59	0xbd3a54f1	-0.045491163
60	0x3dc62211	0.096744664
61	0xbda4afb8	-0.08041328
62	0x3d791711	0.060813013
63	0xbd4d559d	-0.050130475
64	0x3bf6d8b9	0.0075331596
65	0xbdc549a8	-0.096331894
66	0xbce1b3be	-0.027551528
67	0xbdbb2499	-0.0913784
68	0x3d448a0b	0.04798321
69	0xbd098635	-0.033575255
70	0xbda44591	-0.08021081
71	0xbcb67747	-0.022273673
72	0x3e0403c4	0.12892061
73	0x3e0bf363	0.13667063
74	0x3dcab3fd	0.09897611
75	0xbb1e4fb0	-0.0024156384
76	0xbdd231b4	-0.10263386
77	0xbbad1c18	-0.00528289
78	0x3c09e0fe	0.008415459
79	0xbc1ca8ce	-0.009561731
80	0xbd938b7a	-0.072043374
81	0x3cc361f5	0.02385042
82	0x3d949130	0.07254255
83	0xbd17823f	-0.036989447
84	0x3d4522e5	0.04812898
85	0xbc142ddc	-0.009044137
86	0xbd5a60c0	-0.053314924
87	0x3cd51cc4	0.026014693
88	0x3d2c7661	0.042105082
89	0x3d472a4f	0.048624333
90	0xbcc449dc	-0.023961
91	0x3d0fb12e	0.03508108
92	0x3da610d3	0.08108678
93	0x3d1cdf0b	0.038298648
94	0xbcc0e9d4	-0.023548998
95	0xbdd0c1ac	-0.1019319
96	0x3e043546	0.12910947
97	0xbdf94b5d	-0.121725775
98	0x3c0a3fe7	0.008438087
99	0xbc453151	-0.012035684
100	0xbd6259fa	-0.05526159
101	0x3d1a204c	0.037628457
102	0xbafda9a3	-0.0019352924
103	0x3e0054df	0.12532376
104	0xbda7901d	-0.08181784
105	0x3dab245a	0.08356543
106	0x3d3231f7	0.04350468
107	0x3caee56e	0.021349635
108	0x3d9085ec	0.070567936
109	0xbc278e1f	-0.010226755
110	0xbcbd003d	-0.023071403
111	0x3d7142a9	0.058901463
112	0xbcfd4d28	-0.03092058
113	0xbcc8e3bb	-0.024522653
114	0xbd6d4b90	-0.05793339
115	0xbd8332d2	-0.064061776
116	0xbd60c488	-0.054874927
117	0xbe0e8a91	-0.13920046
118	0x3ce74b07	0.028234018
119	0xbcbabcfe	-0.022795197
120	0xbd07f6ea	-0.03319446
121	0x3c09e0b1	0.008415387
122	0xbd139515	-0.036030848
123	0xbda42a3e	-0.080158696
124	0x3d855887	0.06511026
125	0x3d379857	0.044823017
126	0x3a17eef5	0.00057958
127	0xbdb7dd34	-0.08977738
128	0xbe0281f9	-0.12744893
129	0x3d47c3ff	0.0487709
130	0xbc0c4034	-0.008560229
131	0x3d7728e0	0.060341716
132	0xbc164710	-0.009172216
133	0x3d8a2baa	0.067466095
134	0xbd06e4a4	-0.032932892
135	0x3de6d925	0.11271886
136	0x3e08c462	0.13356164
137	0x3d2b863a	0.041876055
138	0xbd2ae0a6	-0.041718148
139	0x3d08bb30	0.03338164
140	0x3c3a21c2	0.011360588
141	0xbd6a4fad	-0.05720489
142	0xbe037606	-0.12837991
143	0xbd06e506	-0.032933258
144	0xbdcd2648	-0.10017067
145	0xbddfad66	-0.10921745
146	0x3d32e0c7	0.043671396
147	0x3de24dbc	0.11049983
148	0xbc6a99e8	-0.014318921
149	0xbdc7bc48	-0.09752709
150	0xbd28726d	-0.04112475
151	0xbd360934	-0.04444237
152	0xbdae2465	-0.085030355
153	0x3d162cd6	0.036663853
154	0x3dc24628	0.094860375
155	0x3c64c69f	0.013963371
156	0xbcdd113e	-0.02698576
157	0x3a956aa9	0.0011399585
158	0xbd2f80db	-0.042847496
159	0xbc9c1acd	-0.019055748
160	0x3da76b8a	0.08174808
161	0xbda938a3	-0.08262756
162	0x3d66dbe0	0.056362033
163	0xbcf12d27	-0.029440476
164	0xbc1ece12	-0.009692686
165	0xbcb554af	-0.022135107
166	0xbaf3868d	-0.0018579528
167	0x3e19af8f	0.15008377
168	0xbdd4317a	-0.103609994
169	0xbcc21afc	-0.023694508
170	0xbd0100e5	-0.031494994
171	0x3d9a266b	0.07526859
172	0xbd016803	-0.031593334
173	0x3e06e3e7	0.13172875
174	0x3d6535ee	0.055959634
175	0xbd0ff84e	-0.03514891
176	0xbdb19acc	-0.08672103
177	0xbcc2c3dc	-0.023775034
178	0x3db5acfd	0.088708855
179	0xbd76fed5	-0.06030162
180	0xbd61d7a0	-0.055137277
181	0x3d52d7dd	0.051475395
182	0xbc9a3a19	-0.018826531
183	0xbd8a8f91	-0.06765664
184	0xbcbaa914	-0.0227857
185	0xbc99f148	-0.01879181
186	0xbc49f99a	-0.012327576
187	0x3c99a759	0.018756555
188	0xbd780dfc	-0.06056021
189	0xbd72fd3c	-0.059323534
190	0x3cb043ec	0.021516763
191	0x3d736b70	0.059428632
192	0x3d552958	0.05204138
193	0xbcc501d7	-0.024048729
194	0x3d9a20c6	0.07525782
195	0xbc0882c3	-0.008331957
196	0x3bae1f1d	0.0053137676
197	0x3d98c227	0.074589066
198	0xbd83bcae	-0.06432472
199	0x3d4b0f1a	0.04957495
200	0x3ddeb26a	0.108738735
201	0xbd1fa0c8	-0.038971692
202	0x3cfe99f2	0.031079266
203	0x3d334219	0.043764208
204	0xbc852739	-0.016254054
205	0xbd5fbc89	-0.05462316
206	0xbe0bdb43	-0.1365786
207	0x3b9bdabc	0.0047563
208	0x3da39359	0.07987089
209	0x3d54185d	0.051781047
210	0x3e645f52	0.22301987
211	0x3c3b912c	0.011448186
212	0x3b3a80cd	0.002845812
213	0x3afabbba	0.0019129433
214	0xbe153c3d	-0.1457376
215	0xbb1dba13	-0.0024067208
216	0xbbcee6b3	-0.0063141226
217	0x3d574fbb	0.05256627
218	0xbe1dc094	-0.15405494
219	0xbdc1d9a0	-0.09465337
220	0xbd1206f8	-0.035651177
221	0x3d407c65	0.046993632
222	0x3da64752	0.08119072
223	0x3cc4b469	0.024011808
224	0x3d9b3f2f	0.07580411
225	0x3cf7587c	0.03019356
226	0xbe081c7f	-0.1329212
227	0xbb9dcaa2	-0.0048154155
228	0x3db75fda	0.08953829
229	0xbc460b2d	-0.012087625
230	0xbccba5bf	-0.024859307
231	0xbd1e1a5a	-0.03859935
232	0x3ddb6ab2	0.1071371
233	0xbd538a30	-0.051645458
234	0x3b26fc1d	0.002547986
235	0xbcace9fd	-0.021107668
236	0xbd17f0ec	-0.037094995
237	0x3d2ff65a	0.04295955
238	0x3d012844	0.03153254
239	0x3b5207fd	0.0032048218
240	0x3cd1b82b	0.025600513
241	0xbd2280e2	-0.039673693
242	0xbe162e43	-0.14666085
243	0x3c466436	0.012108853
244	0xbdb7ad51	-0.08968604
245	0x3d699b1c	0.05703269
246	0xbd53b8bc	-0.05168985
247	0xbd4e9a7d	-0.0504403
248	0x3de244fa	0.110483125
249	0x3df83112	0.121187344
250	0xbd8e6c4b	-0.06954249
251	0x3dcd7398	0.100318134
252	0x3d1ec684	0.038763538
253	0x3d32ca55	0.04364999
254	0xbcf32a0c	-0.029683135
255	0xbbcde35b	-0.0062832064

network.2.bias f4 [192]
0	0xbb9daa50	-0.0048115626
1	0x3c3f17cf	0.011663391
2	0x3caa8f4b	0.02082028
3	0x3c9eec82	0.019399885
4	0xbbc65a8b	-0.006053274
5	0x3c8c0e09	0.017096536
6	0x3d0cd3b5	0.034381587
7	0x3c687369	0.014187672
8	0x3ca67c61	0.02032298
9	0x3c8fe45f	0.01756495
10	0x3c3f4ef1	0.011676536
11	0xbbd98109	-0.0066376966
12	0x3ca7c71e	0.020480689
13	0xbbb8b1cd	-0.00563643
14	0x3ca92280	0.020646334
15	0x3be1832e	0.006882093
16	0x3ce74720	0.028232157
17	0x3cd50b5a	0.02600639
18	0x3cebb88e	0.028774526
19	0x3c64c6bf	0.0139634
20	0x3c474645	0.01216275
21	0x3d00e8df	0.031472083
22	0x3d0ce82c	0.034401104
23	0x3d271f95	0.040801603
24	0x3cdcd29a	0.026955891
25	0x3c9d226b	0.01918145
26	0x3c36c9eb	0.011156539
27	0xbb1dd392	-0.0024082405
28	0xb9d90af5	-0.0004139763
29	0x3cb9e03e	0.022689935
30	0xbbd5262d	-0.006504795
31	0x3c5e8a04	0.01358271
32	0x3cc02a80	0.023457766
33	0x3d0aa28b	0.03384642
34	0x3bd198d6	0.0063963933
35	0x3cce3807	0.0251732
36	0x3ca60bdd	0.020269329
37	0x3c9e588b	0.01932933
38	0xbb0e2ff9	-0.0021696074
39	0xba4692da	-0.0007574983
40	0x3cc06e6e	0.023490157
41	0x3d19201f	0.03738415
42	0x3c625676	0.013814559
43	0x3bd0c999	0.0063716886
44	0xbb923002	-0.0044612894
45	0x3b30e513	0.0026992008
46	0x3d061f59	0.03274474
47	0x3cc619fb	0.02418231
48	0x3d05ac8f	0.032635268
49	0x3cbb28e4	0.022846647
50	0x3c964384	0.01834274
51	0x3c82f043	0.015983706
52	0x3bfd9492	0.007738658
53	0x3cb1bc84	0.021696337
54	0xbc29af4b	-0.0103567345
55	0xbc3b144f	-0.011418416
56	0x3cdbb901	0.026821615
57	0x3cd8576e	0.026408877
58	0x3c486356	0.012230715
59	0x3d26c62d	0.04071634
60	0x3d3d2f47	0.046187665
61	0x3c3944bb	0.0113078905
62	0x3cd25d87	0.025679363
63	0x3cb0c880	0.02157998
64	0x3cf05aca	0.029340167
65	0x3d0c2b55	0.034221012
66	0x3d3bc5b4	0.04584284
67	0x3cc505ea	0.024050672
68	0x3d04a7a0	0.032386422
69	0x3cb8619f	0.022507487
70	0x3c1aa3fb	0.00943851
71	0x3d1ab842	0.03777338
72	0x3cbf21db	0.023331573
73	0xbb600925	-0.0034185138
74	0x3bb8e9ef	0.0056431214
75	0x3cc62232	0.024186227
76	0x3d068e8a	0.03285078
77	0x3cc0c1fc	0.023529999
78	0x3c4244a5	0.011857186
79	0x3c90632d	0.017625416
80	0xbc293143	-0.010326686
81	0xbc5c962c	-0.013463538
82	0xbbd67f53	-0.00654594
83	0xba915b86	-0.0011089898
84	0x3cc47d85	0.023985634
85	0x3ccb53cc	0.02482023
86	0x3d294d37	0.041333403
87	0x3c5454ad	0.012959641
88	0x3cc64c55	0.02420632
89	0x3cf49c54	0.0298597
90	0x3ca84935	0.02054272
91	0x3c4346bc	0.01191872
92	0x3d14c8db	0.036324363
93	0x3ccb7952	0.024838123
94	0x3b2cab3a	0.0026347176
95	0x3cdc2127	0.026871277
96	0x3c808c72	0.01569197
97	0xbb891b5c	-0.0041841697
98	0x3cc15b86	0.023603212
99	0x3c4088b6	0.011751344
100	0xbb1a29e4	-0.0023523504
101	0x3c915d08	0.017744556
102	0x3cdf0134	0.027222253
103	0x3b6be34c	0.0035993634
104	0x3b8ab12e	0.0042325472
105	0x3cc91c18	0.024549529
106	0x3d18b785	0.037284393
107	0x3d1b39ba	0.03789685
108	0x3c8fea45	0.017567763
109	0x3c9253bd	0.017862195
110	0x3b977090	0.004621573
111	0x3d16a506	0.036778472
112	0x3c68fd3c	0.014220532
113	0x3ccc2b4b	0.024922987
114	0x3c06a0f8	0.008217089
115	0xbb8f46eb	-0.0043724678
116	0x3ce32213	0.027726209
117	0x3c8b5949	0.017010348
118	0x3ccc5df3	0.024947142
119	0xb91c2ba4	-0.00014893577
120	0x3d1130cf	0.035446938
121	0x3b0827a9	0.0020775592
122	0x3cc48b07	0.023992075
123	0x3c853c03	0.016263967
124	0x3cef4123	0.029205864
125	0x3cb614be	0.022226688
126	0xbb481c4c	-0.0030534444
127	0x3d0a89e1	0.033822898
128	0x3ce0ef6c	0.027457915
129	0x3cd49a94	0.025952615
130	0x3cf84a45	0.030308852
131	0x3d028e80	0.03187418
132	0x3c93121a	0.017952967
133	0x3b63e299	0.0034772514
134	0x3cb4736c	0.022027694
135	0x3c54ea65	0.012995337
136	0x3b67e8d0	0.003538657
137	0x3c9b7f98	0.01898174
138	0x3d182fac	0.03715484
139	0x3ce5fa2f	0.028073398
140	0x3b2e82ec	0.0026628328
141	0x3be52304	0.0069926996
142	0x3cec5fc8	0.028854266
143	0xbc0d4ac9	-0.008623787
144	0x3cfda1fb	0.030961027
145	0x3abea16c	0.0014543957
146	0x3bca3fea	0.00617217
147	0x3c89da63	0.016827768
148	0x3c35e371	0.01110159
149	0x3c0d66a7	0.008630431
150	0x3c4c8260	0.012482256
151	0x3ca317cd	0.01990881
152	0x3ce0fcb4	0.027464248
153	0x3c25b1ff	0.010113238
154	0x3d105fff	0.0352478
155	0x3c9a4b3d	0.018834705
156	0x3c153c23	0.009108576
157	0x3c91e7af	0.01781067
158	0x3c4530ad	0.012035531
159	0x39e6cec5	0.00044023074
160	0x3b4d6ef6	0.0031346655
161	0x3b3f940a	0.0029232525
162	0xbc8bebd9	-0.017080234
163	0x3c67b7c4	0.014142934
164	0x3b00704b	0.0019598182
165	0x3d47f401	0.048816685
166	0x3cd1fbab	0.0256327
167	0x3c403465	0.011731242
168	0x3d056fca	0.032577313
169	0x3c533094	0.01289
170	0x3cbcdb86	0.023053896
171	0x3cbfedf6	0.023428898
172	0x3ceb3bce	0.02871504
173	0x3cbedab3	0.023297643
174	0x3cf2055c	0.029543571
175	0x3c1794f6	0.009251824
176	0x3d18e174	0.037324384
177	0x3b9c40cf	0.004768468
178	0x3d017d52	0.031613655
179	0x3c9bec78	0.019033656
180	0x3a6c21a3	0.0009007698
181	0x3ce9271f	0.028461037
182	0x3cbff498	0.023432061
183	0x3bc2642d	0.005932352
184	0xbbf1bd0f	-0.007377274
185	0x3cbbbb45	0.022916446
186	0xbb9958a4	-0.0046797562
187	0x3cc7887f	0.024357079
188	0x3b51367d	0.0031923347
189	0x3d13c52c	0.03607671
190	0x3cb724f3	0.022356486
191	0x3c4c4539	0.012467676

network.4.weight f4 [128, 192]
0	0xbcaaff46	-0.020873677
1	0x3dae1d84	0.085017234
2	0x3d8eef5b	0.06979247
3	0x3d838cf7	0.06423371
4	0xbdf26830	-0.118362784
5	0x3d40dc3d	0.047085036
6	0x3d041ec9	0.03225592
7	0xbdce646e	-0.10077749
8	0x3e0cd942	0.13754752
9	0xbe821636	-0.2540757
10	0x3dc7e14d	0.097597696
11	0xbd774a86	-0.060373805
12	0xba715e9a	-0.0009207517
13	0xbd9b4960	-0.075823545
14	0x3e047552	0.12935379
15	0xbdad0da6	-0.08449869
16	0x3e087999	0.13327636
17	0x3e26c7b6	0.16287121
18	0x3e116148	0.14197266
19	0x3d03f42d	0.032215286
20	0x3d8712b5	0.06595365
21	0x3c96fd28	0.018431261
22	0x3db002b5	0.08594266
23	0x3e2aa356	0.1666387
24	0x3e3d26db	0.18471853
25	0x3cf5d11c	0.030006938
26	0x3e5218a5	0.20517214
27	0x3d207f0a	0.039183654
28	0xbe079cf6	-0.1324347
29	0xbdb35f9d	-0.08758471
30	0x3d90196e	0.070361
31	0xbd3fc348	-0.046817094
32	0x3d11efc7	0.03562906
33	0x3d093bcb	0.03350429
34	0x3d0107f5	0.03150173
35	0x3da6d998	0.081469715
36	0x3caefd44	0.021361
37	0xbd30b69a	-0.043142892
38	0xbd655faf	-0.055999454
39	0xbd73537f	-0.0594058
40	0xbd80353e	-0.06260155
41	0x3d9cbce5	0.07653216
42	0xbccdd9a4	-0.025128193
43	0xbdf633f5	-0.12021629
44	0x3d998aa3	0.07497146
45	0x3b234384	0.0024912069
46	0x3d398d43	0.045300733
47	0xbd541c2b	-0.051784676
48	0xbd48a114	-0.04898174
49	0x3b498882	0.003075153
50	0x3de6e3fb	0.112739526
51	0xbbf15fc3	-0.007366152
52	0x3e16a1f5	0.14710219
53	0xbe09feab	-0.13476054
54	0xbdaa9b21	-0.0833037
55	0xbe052b9e	-0.1300492
56	0xbd17aaec	-0.03702824
57	0xbd2f771b	-0.042838197
58	0x3dbd0d4b	0.09231051
59	0x3da07cb1	0.07836283
60	0x3d856028	0.06512481
61	0xbd678788	-0.056525737
62	0xbc0141e9	-0.007889249
63	0xbd0cee30	-0.03440684
64	0x3d88caa1	0.066792734
65	0xbd521eda	-0.051298954
66	0x3e272a96	0.16324839
67	0xbcb529eb	-0.022114715
68	0x3deb1fb8	0.11480659
69	0x3d71800e	0.058960013
70	0xbd76afa3	-0.060226094
71	0x3d84a2a6	0.06476335
72	0x3dab13bf	0.08353376
73	0xbd7abaf2	-0.06121344
74	0x3ddd8cc4	0.108178645
75	0xbd1bb49d	-0.038014043
76	0xbc7df6c6	-0.01550073
77	0xbcacabd4	-0.021078028
78	0xbe07aacf	-0.13248752
79	0xbe30c1bb	-0.17261402
80	0xbd78313d	-0.060593832
81	0xbd597899	-0.053093527
82	0xbced7add	-0.02898925
83	0xbd0a8366	-0.033816718
84	0x3d1071be	0.035264723
85	0xbddc19fe	-0.10747145
86	0x3d14558a	0.03621439
87	0x3d0f30b3	0.034958553
88	0xbcc0a548	-0.023516312
89	0x3cae3d1d	0.021269375
90	0x3d7c6519	0.06161985
91	0x3c889c74	0.016676165
92	0xbac696ed	-0.001515118
93	0xbe0e7d98	-0.13915098
94	0xbdd2c6c2	-0.10291816
95	0x3e87e058	0.26538348
96	0x3db9b903	0.09068491
97	0xbc60f8ee	-0.013731224
98	0xbdd1567a	-0.10221572
99	0x3c156e15	0.009120484
100	0xbc7a1712	-0.015264289
101	0xbc66b503	-0.0140812425
102	0xbd6e74e3	-0.05821694
103	0xbb16a131	-0.002298426
104	0x3de6d4c3	0.1127105
105	0x3e1063ec	0.14100617
106	0xbdc484f7	-0.095956735
107	0x3d420206	0.04736521
108	0x3bd8acc9	0.0066123945
109	0xbd3d84b0	-0.04626912
110	0xbd819c0b	-0.06328591
111	0xbd945d8f	-0.072444074
112	0x3dfa30d0	0.122163415
113	0xbd160ad8	-0.036631435
114	0xbdfbb199	-0.122897334
115	0xbdc6c76c	-0.097060055
116	0xbb2a04d2	-0.0025942815
117	0xbb5109b5	-0.0031896655
118	0x3df2efb2	0.118621245
119	0x39902bef	0.00027498553
120	0xbd3de445	-0.046360273
121	0x3e17777e	0.14791676
122	0x3d6b65b0	0.057470024
123	0x3b8032cb	0.003912305
124	0xbd40f35d	-0.04710709
125	0x3b32d9e5	0.002729052
126	0x3c1fd824	0.009756122
127	0x3de5e895	0.11226002
128	0xbdacb709	-0.08433349
129	0xbd8e1c46	-0.069389865
130	0x3d994588	0.07483965
131	0x3d72f639	0.059316847
132	0x3d83b544	0.06431058
133	0x3d9a679c	0.07539293
134	0xbe58201f	-0.21106003
135	0xbd354ea7	-0.04426446
136	0xbd95b15a	-0.07309218
137	0x3da4be60	0.08044124
138	0xbda7e50e	-0.081979856
139	0xbce3c1ba	-0.027802337
140	0x3d1372a3	0.035997998
141	0x3d69a652	0.05704338
142	0x3e4616ed	0.19344683
143	0xbd152d00	-0.03641987
144	0xbc43478d	-0.0119189145
145	0x3d7945bd	0.060857523
146	0xbd60a806	-0.05484774
147	0xbe06254c	-0.13100165
148	0xbcaf73d9	-0.021417545
149	0x3b512464	0.003191256
150	0x3c05349c	0.008130219
151	0xbcf6b244	-0.0301143
152	0x3e004bf6	0.12528977
153	0x3cbdb7e7	0.02315898
154	0x3b8c9ca1	0.0042911326
155	0x3dadf6cb	0.08494338
156	0xbcc0777b	-0.023494473
157	0xbd9852a7	-0.0743764
158	0xbdc12710	-0.09431279
159	0x3e00a895	0.12564309
160	0xbd285268	-0.041094214
161	0x3d157a1a	0.0364934
162	0xbc5a0888	-0.013307698
163	0xbe4fa81e	-0.20278975
164	0x3c370328	0.011170186
165	0x3cf07943	0.029354697
166	0xbce58e88	-0.028022066
167	0x3d1ee071	0.038788263
168	0xbd6e0888	-0.058113605
169	0xbdaf3fe2	-0.085571066
170	0xbd59b743	-0.053153288
171	0x3dfe5e62	0.12420346
172	0xbd627318	-0.055285543
173	0x3db41a18	0.087940395
174	0xbe243379	-0.1603526
175	0x3e31b945	0.17355831
176	0x3d3896a1	0.045065526
177	0x3c01c938	0.007921509
178	0x3e723a14	0.23654968
179	0xbd674e69	-0.056471262
180	0xbdd425b4	-0.10358754
181	0x3c943665	0.018092344
182	0x3de4a12f	0.11163556
183	0x3c2fa561	0.010720582
184	0x3d33ebba	0.04392598
185	0xbd6dec36	-0.058086596
186	0xbd10e296	-0.03537234
187	0xbd30404a	-0.04303006
188	0xbdeec18b	-0.11658009
189	0xbd98023f	-0.074223034
190	0x3d824816	0.063614056
191	0x3d42a72c	0.04752271
192	0x3bd67661	0.0065448736
193	0x3d029931	0.031884376
194	0xbd22b1da	-0.039720394
195	0x3cf81e51	0.030287893
196	0x3cfd5d20	0.030928195
197	0xbe2cee8b	-0.16887872
198	0x3d699763	0.05702914
199	0xbca6d2e6	-0.020364236
200	0xbd5be676	-0.05368658
201	0x3d38cde9	0.045118246
202	0xbe2e8992	-0.17044666
203	0xbc631c42	-0.013861718
204	0xbb6aac33	-0.0035808205
205	0x3d1d1fa1	0.03836024
206	0x3d270834	0.040779307
207	0xbd0ecdcb	-0.03486423
208	0xbc739e3a	-0.014869267
209	0xbacf3440	-0.0015808418
210	0xbc1e6e7f	-0.009669899
211	0x3bbfda55	0.0058548846
212	0xbde40fea	-0.11135848
213	0xbcde07ab	-0.027103266
214	0x3d53eba6	0.051738404
215	0xbca22969	-0.019795137
216	0xbcb48526	-0.022036146
217	0xbd0e5a49	-0.03475407
218	0xbdf532d3	-0.119725846
219	0x3e279549	0.16365542
220	0x3b852e72	0.0040643746
221	0xbe0bdcfd	-0.13658519
222	0x3d00501e	0.031326406
223	0x3d109dbc	0.035306677
224	0xbcfe831b	-0.031068375
225	0x3d1e2666	0.03861084
226	0x3d2da3ce	0.042392544
227	0x3e74235b	0.23841612
228	0x3d434eb3	0.047682475
229	0x3e2d9eda	0.16955128
230	0x3c179ba0	0.0092534125
231	0xbe0b9970	-0.1363275
232	0x3d92d4db	0.07169505
233	0x3ca4bc2c	0.020109259
234	0xbd8b214c	-0.0679346
235	0xbb3dc9a3	-0.0028959296
236	0xbca7ce8a	-0.020484228
237	0xbab55711	-0.0013835152
238	0x3ab07efe	0.0013465581
239	0x3b48b1e2	0.0030623605
240	0xbc54b3fc	-0.012982365
241	0xbd3d2576	-0.046178304
242	0xbd4e48d4	-0.050362423
243	0xbdd71630	-0.10502279
244	0xbd352c44	-0.044231668
245	0xbd8300a1	-0.06396604
246	0x3d3f5ba4	0.046718255
247	0x3b2893b8	0.0025722813
248	0x3c03f860	0.008054823
249	0xbcceb673	-0.025233483
250	0xbce28aeb	-0.027654132
251	0xbd0835f8	-0.033254594
252	0xbd6566e3	-0.056006324
253	0xbbb92549	-0.0056501967
254	0xbc44e4a7	-0.012017406
255	0xbd05f42a	-0.032703556

network.4.bias f4 [128]
0	0x3ccc5ff5	0.0249481
1	0xb9537f9a	-0.00020170063
2	0xbca41d22	-0.020033423
3	0x3b91aab0	0.0044453964
4	0x3c3ec7bb	0.011644299
5	0x3bea6f8d	0.007154411
6	0x3cac5608	0.021037117
7	0xbc3484bd	-0.011017975
8	0xbbf031c5	-0.0073301517
9	0xba5bf0a9	-0.0008390048
10	0xbb56cafb	-0.0032774794
11	0x3ae89d7a	0.0017747127
12	0x3c82760f	0.015925435
13	0xbc1cab9b	-0.009562398
14	0x3cf51320	0.029916346
15	0x3bfe7201	0.007765055
16	0x396312b0	0.00021655369
17	0x3b71ac96	0.003687655
18	0xbc0d32f4	-0.008618105
19	0x3c92392b	0.017849525
20	0x3cdbef81	0.026847603
21	0x3cbee222	0.023301188
22	0x3c1eda4e	0.009695603
23	0x3be60f24	0.007020848
24	0x3b2a297f	0.0025964675
25	0x3cac447e	0.021028753
26	0x3c997a96	0.018735211
27	0x3c29f809	0.010374078
28	0x3bf59595	0.007494638
29	0x3c7e3a20	0.015516788
30	0x3bd77bbd	0.00657603
31	0xbc555028	-0.013019599
32	0x3c6fbb8d	0.014632118
33	0x3bec7cd8	0.007217031
34	0x3b61cf20	0.0034455732
35	0x3c94175f	0.01807755
36	0x3c1976ec	0.009366732
37	0xbb6bf0f3	-0.0036001771
38	0x3c50030e	0.012696041
39	0x3c978637	0.018496616
40	0x3a158338	0.0005703452
41	0xba4ddfec	-0.00078534964
42	0x3d0d35de	0.0344752
43	0xbb9874c3	-0.004652591
44	0xbb1ee912	-0.0024247807
45	0x3ca889cf	0.020573525
46	0x3ca06de5	0.019583652
47	0xba289379	-0.00064306665
48	0x3d01e318	0.031710714
49	0xbbbeafe4	-0.0058193076
50	0x3c9b8fa0	0.018989384
51	0x3d1add26	0.03780856
52	0x3b39f45a	0.0028374405
53	0xba48a70a	-0.00076542853
54	0xbb89f2c6	-0.004209849
55	0xbb219d1a	-0.002466029
56	0x3c3589d6	0.011080226
57	0x3c483678	0.012220018
58	0xbad79696	-0.0016448076
59	0xbad3a75d	-0.0016147901
60	0xbb851fee	-0.004062644
61	0x3cad7583	0.021174198
62	0xbae164cd	-0.0017196179
63	0x3cf6e5e9	0.030138927
64	0x3d125797	0.035728063
65	0xbb8f01d3	-0.004364231
66	0x3ced5941	0.028973224
67	0x3b4579a1	0.003013231
68	0x3c694ebc	0.014239963
69	0x3c2767e2	0.010217639
70	0x3b572e58	0.003283402
71	0x3bac9fc8	0.005268071
72	0xbbc1f8d6	-0.005919556
73	0xba6d0961	-0.000904223
74	0x3d012a60	0.031534553
75	0xbb736900	-0.0037141442
76	0x3bc8afcb	0.006124472
77	0x3bb396ab	0.0054806075
78	0x3c8abcee	0.016935792
79	0xbbd32ec3	-0.0064447834
80	0x3c59cb8d	0.013293159
81	0xbbadbaf1	-0.005301826
82	0x3c10bc96	0.008834025
83	0x3c8bbfcb	0.017059227
84	0x3bda84c4	0.006668659
85	0x39304fc6	0.00016814386
86	0x3cee5137	0.02909146
87	0x3cd27cfe	0.025694367
88	0xbb8b25c2	-0.0042464444
89	0x3ca3bccb	0.019987484
90	0x3cdd535a	0.027017284
91	0x3c4758df	0.012167185
92	0x3c390e71	0.011294947
93	0x3c604c76	0.013690105
94	0x3b973610	0.004614599
95	0xbb7f7dc7	-0.0038984881
96	0x3cce0708	0.025149837
97	0x3cb2f275	0.021844128
98	0x3baff2e7	0.0053695324
99	0x3cf7c33d	0.030244464
100	0x3cbc4ee1	0.022986831
101	0x3cc5ab3e	0.024129506
102	0xbcaad5d5	-0.020853916
103	0xbc9a5bd7	-0.01884262
104	0x3c07edc5	0.008296435
105	0xbc83e8eb	-0.016102275
106	0xbb1925b7	-0.0023368427
107	0x3a58f206	0.00082758104
108	0x3cb7aed1	0.022422226
109	0x3c494164	0.012283657
110	0x3d052be5	0.032512564
111	0x3c27b648	0.01023633
112	0x3d032749	0.032019887
113	0xbb2c914a	-0.0026331716
114	0xbc8a8e83	-0.016913658
115	0x3c8da895	0.0172923
116	0x3c42c854	0.011888582
117	0x3c730401	0.014832498
118	0x3c5f068c	0.013612401
119	0xbb0c47d8	-0.0021405127
120	0xbb049ffb	-0.0020236957
121	0xbbc3ef89	-0.0059794826
122	0x3c818561	0.01581067
123	0x3c1aeb3c	0.009455498
124	0x3b1d2153	0.0023976162
125	0x3cf60283	0.030030495
126	0x3c0124d8	0.007882319
127	0x3c8a3308	0.016870037

network.6.weight f4 [39, 128]
0	0xbbe2b5db	-0.0069186515
1	0xb7abaa1a	-2.0463998e-05
2	0xbdbaca3e	-0.09120606
3	0x3e351943	0.17685418
4	0x3999bfc4	0.0002932531
5	0xbe7929ee	-0.24332401
6	0xbe478d65	-0.19487531
7	0xbd285b88	-0.041102916
8	0xb616c04c	-2.2463673e-06
9	0xbd060e49	-0.032728467
10	0xb8953257	-7.11425e-05
11	0xbd9ac551	-0.07557166
12	0x3dccab3e	0.09993599
13	0x3e4dce06	0.20098123
14	0x3be33539	0.006933835
15	0xbdd95bd4	-0.10613218
16	0xbd8203be	-0.0634837
17	0xbd9222f1	-0.07135571
18	0xbe50dceb	-0.20396774
19	0xbcac83a3	-0.021058863
20	0x3d93bdfb	0.0721397
21	0xbd970779	-0.07374472
22	0xbe285bd6	-0.16441283
23	0xbdb482cc	-0.0881401
24	0xbcadb5d3	-0.021204865
25	0xbdf03ad3	-0.1172997
26	0xbe325d38	-0.17418373
27	0xbd7fe2dc	-0.06247221
28	0x3e37908c	0.17926234
29	0xbe0e195a	-0.13876858
30	0xbc9d4fb7	-0.01920305
31	0x3e485b71	0.19566132
32	0xbd44872f	-0.047980484
33	0xbd1cae52	-0.038252182
34	0x3d9c5f22	0.07635333
35	0xbe677885	-0.22604568
36	0xbdb89925	-0.09013585
37	0xb6a26c8a	-4.840612e-06
38	0x3d92849f	0.07154202
39	0x3d07f5be	0.033193342
40	0xb7e03a1f	-2.6729946e-05
41	0xbda10dfe	-0.07863997
42	0xbccd3e98	-0.025054261
43	0x36d8aaf8	6.457205e-06
44	0xbe217bab	-0.15769832
45	0xbe352e1b	-0.17693369
46	0xbe3c960f	-0.18416618
47	0xbd8fb575	-0.07017032
48	0xbdc1287f	-0.09431552
49	0x3e1d5b9f	0.15366982
50	0xbdbe8592	-0.0930282
51	0xbe2c504e	-0.16827509
52	0x3d7754b0	0.0603835
53	0xbe5f8a72	-0.21830156
54	0xbe6a211c	-0.22864193
55	0x36f52590	7.305942e-06
56	0xbc03ea86	-0.00805152
57	0xbde403ee	-0.11133562
58	0x3e4b88a5	0.19876345
59	0x3d217943	0.039422285
60	0xbc4768d7	-0.012170992
61	0xbe467f07	-0.19384395
62	0xbe703a67	-0.23459779
63	0xbe4a27ab	-0.19741695
64	0xbe4d53b6	-0.20051464
65	0x3e70cc24	0.23515373
66	0xbe52f293	-0.20600347
67	0xbc909662	-0.017649833
68	0xbe5de984	-0.2167111
69	0xbe4d6b9a	-0.20060578
70	0xbd0dcc61	-0.03461874
71	0xb7e8372c	-2.7682247e-05
72	0xbcc295b6	-0.023753028
73	0x3cdef892	0.027218137
74	0xbdf6339a	-0.12021561
75	0x3e7106a7	0.23537694
76	0xbd6a05e0	-0.05713451
77	0x3cc698ff	0.024242876
78	0xbe13be8a	-0.14428154
79	0xbe589b21	-0.21152927
80	0xbabeef89	-0.0014567237
81	0xb6f42590	-7.2761395e-06
82	0xbdab0d35	-0.083521284
83	0xbdfccbc1	-0.123435505
84	0x3d8b270c	0.06794557
85	0xbcf0a436	-0.029375177
86	0xbe93790f	-0.28803298
87	0x3d0bb34a	0.03410653
88	0xbe4397b6	-0.19100842
89	0xbd85a82a	-0.065262154
90	0xbe0cc5ac	-0.13747281
91	0xbdf6350e	-0.12021838
92	0xbc05792b	-0.0081465645
93	0x3e3bf1d0	0.18353963
94	0xbe5f98f3	-0.21835689
95	0xbb556f56	-0.0032567582
96	0xbc97ef4c	-0.018546723
97	0xbdf245c9	-0.11829717
98	0xb7f90419	-2.9685021e-05
99	0xbd85912b	-0.06521829
100	0xbe02430e	-0.12720892
101	0xbdba1c68	-0.09087449
102	0xbd9d4550	-0.07679236
103	0xbe0eadbf	-0.13933466
104	0xb86aee1e	-5.601171e-05
105	0xbe766301	-0.24061204
106	0x3c9fe8d0	0.019520193
107	0xbc5a2d60	-0.013316482
108	0xbcd89d63	-0.026442235
109	0xbe11e09d	-0.1424584
110	0xbe12a4cd	-0.14320679
111	0xbe4de562	-0.20107034
112	0xbdd10876	-0.10206692
113	0xbd1ae08c	-0.0378118
114	0x3d1317fb	0.03591154
115	0xbe724551	-0.23659255
116	0xbde9fddb	-0.11425372
117	0x3c006c25	0.007838284
118	0x3c52fb50	0.0128773
119	0xbd4b9424	-0.049701825
120	0xbd006093	-0.0313421
121	0xbacb48e2	-0.0015509392
122	0xbdfc991d	-0.123338915
123	0xbe64ed40	-0.22356129
124	0xbc11e5ef	-0.008904918
125	0xb9cb628f	-0.0003879261
126	0xbe5cec49	-0.2157451
127	0xbdbc50b0	-0.091950774
128	0x3d86a838	0.06575054
129	0xbcfddf13	-0.03099016
130	0x3d8df7db	0.0693204
131	0xbe502783	-0.20327573
132	0x3d88f234	0.066868216
133	0x3e28a71d	0.16469999
134	0xbcf7754d	-0.0302073
135	0xbcb73eaf	-0.022368757
136	0x3e6f9b64	0.2339912
137	0x3c90309f	0.01760131
138	0xb6a453a0	-4.897316e-06
139	0x3cd996f7	0.026561243
140	0xbd60aef2	-0.05485434
141	0xbd18b7fe	-0.037284844
142	0x3d84b442	0.06479694
143	0x3cb0de79	0.021590458
144	0xbdaddc83	-0.08489325
145	0x3d8a8932	0.06764449
146	0x3dfb27a6	0.12263422
147	0xbdcc6b57	-0.09981411
148	0xbe404cd4	-0.18779308
149	0xbdbb0d69	-0.09133417
150	0xbeacbe3a	-0.3373888
151	0x3e2e50ee	0.1702306
152	0x3de2aa49	0.110676356
153	0x3d41373b	0.047171813
154	0xbe1451cb	-0.14484327
155	0x3c946faa	0.018119652
156	0xbea63e1f	-0.3246927
157	0x3e0cf990	0.13767076
158	0xbdd8cb34	-0.10585633
159	0xbab8aaec	-0.0014089025
160	0x3cd1118e	0.025521066
161	0xbd6cb53e	-0.057790034
162	0x3dff8aa8	0.124776185
163	0xbdaebbaf	-0.085318916
164	0xbdfc7ec0	-0.12328863
165	0x37287dcc	1.004287e-05
166	0xbd561a57	-0.052271213
167	0x3d81d97b	0.06340309
168	0x3d70799c	0.058709726
169	0xbdcdae2b	-0.100429855
170	0xbc1ca8b5	-0.009561707
171	0xba860ede	-0.001022782
172	0x3c409fa4	0.011756811
173	0x3de04f36	0.10952608
174	0x3c4c274c	0.012460541
175	0xbd9e14da	-0.07718821
176	0x3e12f1f6	0.14350113
177	0x3d5a0640	0.053228617
178	0xbcb06c83	-0.021536117
179	0xbcdaf377	-0.026727421
180	0xbdc8f354	-0.09812036
181	0xbd81d4b3	-0.06339397
182	0x3d593cf0	0.05303663
183	0xbe704751	-0.23464705
184	0x3dce6de7	0.10079556
185	0xbe215060	-0.15753317
186	0xbdb0335e	-0.086035475
187	0x3c5f4a0e	0.013628496
188	0x3d15fa04	0.036615387
189	0x3e7f64b9	0.24940766
190	0xb7c0b08a	-2.2970391e-05
191	0x3e306a24	0.1722799
192	0xbd6e2a69	-0.058145914
193	0x3e36024c	0.17774314
194	0x3c7b507c	0.015339013
195	0xbd49be96	-0.049254023
196	0xbc86bc7a	-0.016447295
197	0x3e49d0f8	0.19708622
198	0x3e31258e	0.17299482
199	0x3d75d926	0.060021542
200	0xbd033bae	-0.032039337
201	0x3d9d9f3f	0.076963894
202	0xbcdba5fd	-0.026812548
203	0xbe1da78d	-0.15395947
204	0xbdccbc36	-0.09996836
205	0x3e343733	0.17599182
206	0xbd9f37fc	-0.0777435
207	0x3d96649d	0.07343409
208	0x3da86548	0.08222443
209	0xbd11fd63	-0.03564204
210	0xbca12803	-0.0196724
211	0x3e374a39	0.17899407
212	0x3d1b7096	0.037949167
213	0x3dceed33	0.10103836
214	0xbc6e05a4	-0.014527712
215	0xbe314da4	-0.17314774
216	0x3e833adb	0.2563084
217	0xbe313ce1	-0.1730838
218	0x3d02eb7b	0.031962853
219	0x3d9fa6d9	0.077954955
220	0xbe756ecd	-0.23968048
221	0xbd761ceb	-0.060086172
222	0x3c326ef0	0.010890707
223	0x3de6ec36	0.112755224
224	0xbe1ee7e2	-0.15518144
225	0xbe1a78e2	-0.15085176
226	0xbe926b9e	-0.2859773
227	0x3e9c6f8e	0.3055386
228	0xbd9513a1	-0.072791345
229	0xbe4efb4c	-0.2021305
230	0xbc2b9a9e	-0.010473875
231	0xbc99d284	-0.01877714
232	0xbd081883	-0.0332265
233	0x3a00c585	0.0004912245
234	0xbdf2a5d0	-0.118480325
235	0x3d58e05a	0.052948333
236	0xbdf3f156	-0.119112656
237	0x3e5b294a	0.2140247
238	0x3e51ad94	0.20476371
239	0x3d42e9e2	0.04758633
240	0xbbb1102a	-0.0054035382
241	0xbe5881ac	-0.21143216
242	0x3e206c4f	0.15666316
243	0x3cb0e2d7	0.02159254
244	0x3e0889d8	0.13333833
245	0xbc0e2a6a	-0.0086771045
246	0xbe9ed129	-0.31018952
247	0x3da6f83d	0.081528164
248	0xbd3a5cdb	-0.04549871
249	0xbdd2e492	-0.102975026
250	0x3cd8b49f	0.026453314
251	0x3e0c6042	0.13708594
252	0x3e3304a2	0.17482236
253	0xbd21b39d	-0.039477933
254	0xbd0f9fc9	-0.035064492
255	0xbe455666	-0.1927124

network.6.bias f4 [39]
0	0xbcf3bc53	-0.029752886
1	0x3acc39b3	0.001558116
2	0x3c9421fa	0.018082608
3	0x3c272c4d	0.010203433
4	0xbcafa039	-0.021438705
5	0xbbd472f3	-0.0064834296
6	0xbc478489	-0.012177595
7	0xbcaebc5c	-0.021330051
8	0x3c64dc3a	0.013968522
9	0xbc0815c4	-0.008305971
10	0xbcfebc85	-0.031095752
11	0x3c1e4fb1	0.009662555
12	0x3b8b3256	0.004247944
13	0xbb6c8a3d	-0.0036093139
14	0x3b8215bb	0.0039698756
15	0x3cd31048	0.0257646
16	0x3b8d3304	0.00430906
17	0xbce39724	-0.02778203
18	0xbaee0244	-0.0018158634
19	0x3c041bee	0.0080633
20	0xbb54febc	-0.0032500466
21	0xbc0841d7	-0.008316479
22	0xbce9c3ac	-0.028535686
23	0x3d0e414a	0.034730233
24	0xbd1b129d	-0.037859548
25	0x3ca56e0c	0.020194076
26	0xbcf53b16	-0.029935401
27	0xbc8acc14	-0.016943015
28	0xbc8f0211	-0.01745704
29	0xbb79feec	-0.003814633
30	0xbc05febd	-0.00817841
31	0xbc608903	-0.013704541
32	0xbcb053ab	-0.021524271
33	0xbccbd93a	-0.024883855
34	0xbcf2b1ba	-0.029625762
35	0xbcfd5c0c	-0.03092768
36	0xbd0f0111	-0.034913126
37	0xbceda132	-0.029007528
38	0xbccaa401	-0.024736406
