Homework/HW2/results/quick_grid/run_03.pt (torch, 583917 bytes, 8 tensors)

network.0.weight f4 [256, 256]
0.042265948 0.016076908 0.1788306 0.01205699 0.14052954 0.08233877 0.020853993 -0.017585406
-0.03552243 -0.027073953 0.020226298 0.08366378 -0.11346044 -0.0186954 0.09106576 0.049941435
-0.012930409 0.20421752 -0.076041885 0.13444678 -0.120627135 0.04408514 -0.05093454 -0.07005914
-0.060476184 0.12597555 0.020486632 -0.039909508 0.050984994 -0.12484291 0.026438523 0.08937849
-0.020769877 -0.14181724 0.0050016516 0.05157619 -0.011559985 -0.032902382 -0.19297118 0.053852826
0.00681936 -0.0006167474 0.1135462 -0.07725039 0.03576876 0.12078396 0.029138844 0.035543635
-0.009562397 -0.078831784 0.117609896 -0.042815566 -0.06360319 -0.10847622 0.13695933 -0.02314109
0.018375533 -0.017649341 -0.014032391 -0.0943691 -0.091025695 -0.03410676 0.017647458 -0.102445684
-0.013681619 0.012978934 0.05031691 0.06267359 -0.10267294 -0.008494526 0.040056642 0.053617064
-0.017204361 -0.040465217 0.024020283 0.0028688214 -0.039618768 0.0540901 0.0017965279 -0.07276642
-0.16194835 -0.07069516 0.01012533 -0.040342286 0.008934953 0.13809122 -0.019827968 -0.10935093
0.050808445 -0.114531025 0.051750015 0.045119688 -0.015527249 0.024951022 0.03139736 -0.06466032
-0.09670858 0.030277634 0.039890617 -0.033941805 -0.007444747 0.11384188 0.012539992 0.07809277
-0.030084928 0.1500271 0.11447378 -0.18409167 -0.03226055 -0.026063843 -0.00075651624 -0.054255478
0.027444132 0.05543844 -0.0044773784 0.048776317 -0.11325904 0.047385916 -0.009777204 -0.1528471
0.19302052 -0.0027912469 -0.0077426056 0.07107288 -0.02193696 -0.038243014 -0.082062244 0.13932984
-1.9516625e-05 -1.4867568e-05 1.6184658e-05 0.2269599 9.03237e-06 0.2269514 1.0788639e-05 -4.047204e-06
-4.035457e-05 -5.1411283e-05 -1.2665074e-05 -6.9932365e-05 -6.8391587e-06 -0.22697692 0.22695038 1.2133256e-05
2.0605788e-05 8.70563e-05 5.0651943e-06 1.2539513e-06 2.3514478e-05 -1.0283447e-05 -8.434079e-06 -0.22188984
1.6907441e-05 1.42193985e-05 8.495552e-06 -3.0919076e-05 -8.0485115e-06 -0.15362221 9.901959e-06 1.318952e-06
-4.9678347e-05 -5.445743e-06 -1.0714048e-06 -3.0019695e-05 1.6612701e-05 -2.8147182e-05 4.2036107e-05 -2.2726103e-05
-0.22691333 3.9073602e-05 -5.2448886e-05 -2.7699207e-05 -1.3215878e-05 0.22692397 5.486476e-05 0.22694355
-0.22696954 -1.539757e-05 0.22695439 2.6006648e-05 -3.3493725e-05 0.22688426 -1.3029823e-05 -1.0341989e-05
-0.2269457 2.4124334e-05 -4.180424e-05 -0.22099027 -3.1712225e-05 2.6525428e-05 2.345704e-05 8.5413985e-06
0.22692889 9.88029e-06 1.6247393e-05 6.72156e-05 -0.22694968 4.9661867e-06 -3.227089e-06 -1.2672064e-05
-3.118838e-05 -0.22697265 -0.22693865 -1.7732213e-05 0.22694646 1.671702e-05 2.7085343e-07 0.22691788
-0.2269486 2.141447e-05 -4.970116e-05 2.0061725e-05 -3.9595783e-05 0.2269477 2.420938e-05 1.3024752e-05
3.2233198e-05 0.22698016 2.0406478e-06 0.22692695 -0.22696838 -0.20461246 -0.22699076 1.8196102e-05
-0.22695142 2.356308e-05 0.22694832 0.2168408 6.383756e-06 -0.22697236 -6.4991673e-07 -3.7088277e-05
-4.5977464e-05 3.7914415e-05 1.07946835e-05 7.827708e-06 1.0706553e-05 -0.22694346 1.9654385e-06 -1.1562217e-05
-2.3098075e-05 -2.288867e-05 -1.2068849e-05 0.17757206 3.7229776e-05 -0.22694995 1.7981845e-05 6.886192e-06
0.22694857 5.6926656e-06 -6.4874566e-06 -1.9600415e-05 -0.22694318 -4.2428925e-05 7.474158e-05 7.2032853e-06
00000000: 0f1f 2d3d b8b3 833c 5e1f 373e ae8a 453c
00000010: fae6 0f3e 3ba1 a83d fed5 aa3c 450f 90bc
00000020: f87f 11bd 32ca ddbc 9fb1 a53c ea57 ab3d
00000030: f25d e8bd 1827 99bc af80 ba3d 648f 4c3d
00000040: 11da 53bc 661e 513e d9bb 9bbd 6bac 093e
00000050: 5c0b f7bd 9f92 343d bca0 50bd 2b7b 8fbd
00000060: e0b5 77bd bcff 003e 95d3 a73c 2778 23bd
00000070: a4d5 503d a4ad ffbd 9a95 d83c 120c b73d
00000080: 9725 aabc 8a38 11be e5e4 a33b 8e41 533d
00000090: 1766 3dbc a6c4 06bd 3d9a 45be c894 5c3d
000000a0: f074 df3b 38ad 21ba e98a e83d 7435 9ebd
000000b0: 4382 123d 955d f73d 96b4 ee3c 3496 113d
000000c0: 9aab 1cbc 8f72 a1bd 75dd f03d 605f 2fbd
000000d0: 6442 82bd c828 debd 113f 0c3e 6292 bdbc
000000e0: 4988 963c 5a95 90bc 1de8 65bc 9644 c1bd
000000f0: ae6b babd 88b3 0bbd 6791 903c 0bcf d1bd
00000100: df28 60bc 98a5 543c 1b19 4e3d 035b 803d
00000110: 3146 d2bd a02c 0bbc 6f12 243d 919d 5b3d
00000120: 29f0 8cbc dbbe 25bd 2fc6 c43c d602 3c3b
00000130: 4a47 22bd 958d 5d3d 7979 eb3a 9006 95bd
00000140: cad5 25be a0c8 90bd b6e4 253c f43d 25bd
00000150: e963 123c c967 0d3e 436e a2bc 61f3 dfbd
00000160: 841c 503d 3e8f eabd d3f7 533d 6ccf 383d
00000170: 0166 7ebc 1666 cc3c 859a 003d a16c 84bd
00000180: 260f c6bd cd08 f83c 5864 233d 9006 0bbd
00000190: 10f3 f3bb ee25 e93d 8a74 4d3c 1aef 9f3d
000001a0: ab74 f6bc b4a0 193e 3b71 ea3d 8782 3cbe
000001b0: a323 04bd d783 d5bc f250 46ba fe3a 5ebd
000001c0: 84d2 e03c 6b13 633d f9b6 92bb adc9 473d
000001d0: 5bf4 e7bd bc17 423d 9130 20bc f383 1cbe
000001e0: 2ca7 453e 5aed 36bb afb5 fdbb a88e 913d
000001f0: 24b5 b3bc b5a4 1cbd 4010 a8bd 7bac 0e3e
00000200: a2b7 a3b7 b86f 79b7 4ac4 8737 2d68 683e
00000210: bc89 1737 f365 683e da00 3537 38cd 87b6
00000220: 6442 29b8 72a2 57b8 147c 54b7 a7a8 92b8
00000230: ed7b e5b6 a36c 68be ae65 683e f08f 4b37
00000240: 98da ac37 ff91 b638 b0f5 a936 704d a835
00000250: f540 c537 1287 2cb7 1880 0db7 1737 63be
00000260: 74d4 8d37 da8f 6e37 1e88 0e37 1baf 01b8
00000270: 1808 07b7 244f 1dbe 9720 2637 d806 b135
00000280: b85d 50b8 94ba b6b6 30cd 8fb5 ced2 fbb7
00000290: 815b 8b37 9d1d ecb7 ed4f 3038 efa3 beb7
000002a0: f85b 68be f6e2 2338 90fc 5bb8 985b e8b7
000002b0: c4b9 5db7 c25e 683e 961e 6638 e463 683e
000002c0: b46a 68be 082a 81b7 bb66 683e da28 da37
000002d0: 9d7b 0cb8 5954 683e aa9a 5ab7 8182 2db7
000002e0: 7464 68be 9d5e ca37 f656 2fb8 464b 62be
000002f0: be02 05b8 ec82 de37 9cc5 c437 074d 0f37
00000300: 0c60 683e 86c3 2537 034b 8837 1af6 8c38
00000310: 7f65 68be 38a3 a636 f890 58b6 1a9a 54b7
00000320: 45d0 02b8 856b 68be 9b62 68be a3bf 94b7
00000330: a764 683e 873b 8c37 d069 9134 295d 683e
00000340: 3765 68be 39a3 b337 3776 50b8 3a4a a837
00000350: a613 26b8 fa64 683e 3f15 cb37 e284 5a37
00000360: 2232 0738 7d6d 683e 10f2 0836 8a5f 683e
00000370: 666a 68be ee85 51be 4470 68be d5a3 9837
00000380: f465 68be 54a9 c537 2465 683e 840b 5e3e
00000390: 0c34 d636 716b 68be f075 2eb5 3c8f 1bb8
000003a0: edd7 40b8 4b06 1f38 d01a 3537 c053 0337
000003b0: 4ca0 3337 de63 68be fae5 0336 58fb 41b7
000003c0: bdc2 c1b7 0b01 c0b7 507b 4ab7 73d5 353e
000003d0: 2b27 1c38 9165 68be b8d7 9637 f00f e736
000003e0: 3565 683e a003 bf36 d4ae d9b6 926b a4b7
000003f0: cb63 68be b6f5 31b8 95be 9c38 c0b3 f136

network.0.bias f4 [256]
0.024203295 0.06941702 0.06879213 0.049319226 0.024526332 0.066264905 -0.0009874435 0.041513465
0.025494553 0.0006633281 -0.0008683001 0.012961098 0.007627669 0.055127576 0.029971307 0.06889744
0.010421904 0.015338602 0.00432961 0.056283057 0.04810622 0.050522555 0.027585872 0.02032705
0.037663385 0.03716164 0.04504572 0.004570767 0.00048279404 0.037122637 0.031693894 9.171734e-06
0.08369833 0.012238572 0.011546533 0.047013234 0.063230835 0.024291849 0.010882803 0.08768378
0.10113194 0.033602938 0.031900015 0.13865244 0.056974184 0.091020614 0.0115061635 0.031797025
0.041962788 0.049292948 0.052515168 0.06248538 0.06783175 0.0774162 0.06875725 0.011315115
0.025569772 0.016641915 0.07173684 0.039526053 -0.0007040368 0.019130396 0.052653786 0.0542362
-0.00030106778 0.033827197 0.00017681366 0.036867592 0.034200262 0.015836332 0.013114562 0.06361312
0.082164556 0.054059368 0.012476417 0.017470244 0.072838604 -0.009646866 0.0903594 0.031436253
0.037176896 0.0887788 0.002989389 0.027864577 0.057466734 0.06437058 0.01839011 -0.0008867707
0.0006826289 0.08737807 0.060246706 0.054155737 0.017937064 -0.00084893435 0.015058404 -0.00089350966
0.026737 0.004276592 0.011038449 0.019760745 0.032576222 0.017992482 0.04223715 0.011502889
0.013690688 0.018801464 0.043189835 0.033442453 0.026073787 0.039142363 0.017429166 0.0026557415
0.027847292 0.0064770617 0.049591012 0.04667414 0.01638234 0.04828385 0.06413992 0.076804884
0.0482709 0.022477526 0.06254942 0.044584394 0.05150952 0.020260576 0.072460815 0.02497895
0.03374302 0.0013422051 0.056216884 0.0021060596 0.06523266 -0.000649941 0.00839978 -0.0065363045
-0.00088260777 0.007269863 0.050959498 0.07399336 0.017957613 -0.0005796708 -0.02733724 -0.00045322895
0.03677359 0.04876617 0.020929929 0.038183283 0.07239773 -0.01893033 0.045996353 0.029728856
0.027517706 0.001337882 0.0032426156 -0.0001668753 0.030678036 0.048033923 0.0043747905 0.042508174
0.030850638 0.0089534465 -0.00091193063 0.057849597 0.067223236 0.017340641 0.0055142404 0.0317711
0.08588391 0.017417159 0.039339993 0.054342777 2.6385533e-07 0.004466964 0.03854323 0.050357588
0.03487205 0.042951252 0.018677045 0.055455275 0.038971905 0.013729991 0.00094942807 -0.0023856529
0.00081699755 0.009482932 0.013497486 0.03300227 0.080454916 0.01567344 0.06448178 0.06775171
0.072175734 -0.007259912 0.06864878 0.08250632 0.057349887 0.025913607 0.06306958 0.071532615
0.004044129 0.012464781 0.08374293 0.007466148 0.0012678324 0.02076889 0.059790578 0.024543386
0.051937945 0.10257433 0.01044214 0.000115092436 -0.00046880628 0.091011725 0.032791298 0.07884716
0.0534064 0.037679523 0.07982461 0.016542748 0.042922717 0.030932738 0.04820702 3.092915e-06
0.08080211 0.00037390596 0.016361546 0.021916699 0.028611436 0.05463458 0.02878243 0.026336359
-0.00062808173 0.021706136 0.006491193 0.023630453 0.0021563037 0.0049208933 0.018993206 0.100197725
0.050308473 0.06295221 0.024959365 -0.0009309277 0.0026718641 -0.003262465 0.008158399 0.023330746
0.06157336 -0.00012601886 0.06123678 0.0378402 0.03213375 0.02851974 0.03142207 -0.0003871057
00000000: fd45 c63c 832a 8e3d e3e2 8c3d f502 4a3d
00000010: 72eb c83c e5b5 873d 1b6d 81ba 060a 2a3d
00000020: f4d9 d03c 32e3 2d3a a29e 63ba c95a 543c
00000030: 86f1 f93b 74cd 613d 6386 f53c 1a1a 8d3d
00000040: a2c0 2a3c c24e 7b3c 67df 8d3b 1089 663d
00000050: 070b 453d bdf0 4e3d c4fb e13c ea84 a63c
00000060: ec44 1a3d ce36 183d dc81 383d 5fc6 953b
00000070: 851f fd39 e80d 183d 75d1 013d 4ce0 1937
00000080: 086a ab3d 4b84 483c ab2d 3d3c f390 403d
00000090: 2b7f 813d b3ff c63c c94d 323c 8e93 b33d
000000a0: 431e cf3d 3ca3 093d 97a9 023d e8fa 0d3e
000000b0: c35d 693d 0469 ba3d 5984 3c3c 993d 023d
000000c0: 2ce1 2b3d 67e7 493d 251a 573d abf0 7f3d
000000d0: 5feb 8a3d 628c 9e3d 9ad0 8c3d 0863 393c
000000e0: b377 d13c a054 883c c4ea 923d 12e6 213d
000000f0: 1c8f 38ba 59b7 9c3c 7fab 573d c726 5e3d
00000100: a2d8 9db9 638e 0a3d 0e67 3939 7902 173d
00000110: 9315 0c3d 32bb 813c 76de 563c 9847 823d
00000120: e445 a83d 5b6d 5d3d e369 4c3c c21d 8f3c
00000130: 682c 953d e30d 1ebc 590e b93d 4dc3 003d
00000140: cd46 183d a9d1 b53d a0e9 433b 4144 e43c
00000150: 3d62 6b3d b9d4 833d dba6 963c 2d76 68ba
00000160: 73f2 323a 46f3 b23d 40c5 763d 68d2 5d3d
00000170: c0f0 923c 058b 5eba 86b7 763c 6b3a 6aba
00000180: 8e07 db3c a722 8c3b 9cda 343c 49e1 a13c
00000190: a56e 053d f864 933c dd00 2d3d 9d76 3c3c
000001a0: e84e 603c 8705 9a3c d3e7 303d f4fa 083d
000001b0: b298 d53c be53 203d 9cc7 8e3c f30b 2e3b
000001c0: 0120 e43c 883d d43b f21f 4b3d 622d 3f3d
000001d0: 4234 863c 49c5 453d ca5b 833d e14b 9d3d
000001e0: b5b7 453d ca22 b83c e919 803d 209e 363d
000001f0: a5fb 523d 82f9 a53c 5666 943d a8a0 cc3c
00000200: 1f36 0a3d eeec af3a ad43 663d d105 0a3b
00000210: b398 853d cd60 2aba 3b9f 093c 7f2e d6bb
00000220: ce5e 67ba 0838 ee3b e8ba 503d d589 973d
00000230: d81b 933c 0df5 17ba 59f2 dfbc 5c9f edb9
00000240: e79f 163d 09bf 473d 3e75 ab3c 1366 1c3d
00000250: 4345 943d c813 9bbc ac66 3c3d ee89 f33c
00000260: d06c e13c df5b af3a 1082 543b 3ffb 2eb9
00000270: 8150 fb3c 38bf 443d 675a 8f3b 0d1d 2e3d
00000280: 7aba fc3c 7ab1 123c a10e 6fba b3f3 6c3d
00000290: 56ac 893d f60d 8e3c cdb0 b43b 6a22 023d
000002a0: e7e3 af3d 6eae 8e3c f922 213d 8896 5e3d
000002b0: 00a8 8d34 9c5f 923b 82df 1d3d c243 4e3d
000002c0: ffd5 0e3d a7ed 2f3d 9a00 993c 1225 633d
000002d0: 01a1 1f3d c2f3 603c 0ae3 783a 9d58 1cbb
000002e0: c72b 563a 4d5e 1b3c 8f24 5d3c 632d 073d
000002f0: 8cc5 a43d 9665 803c 060f 843d 69c1 8a3d
00000300: dfd0 933d 8ee4 edbb bb97 8c3d 13f9 a83d
00000310: b7e7 6a3d c648 d43c a02a 813d b17f 923d
00000320: 9d84 843b 1539 4c3c 6a81 ab3d 97a6 f43b
00000330: 652d a63a 8523 aa3c f7e6 743d 360f c93c
00000340: e2bc 543d 7e12 d23d 8215 2b3c c85d f138
00000350: 1dca f5b9 5b64 ba3d 2b50 063d 9f7a a13d
00000360: abc0 5a3d d855 1a3d 167b a33d a884 873c
00000370: bbcf 2f3d a766 fd3c b974 453d e08f 4f36
00000380: 947b a53d cf08 c439 a608 863c a68a b33c
00000390: 8862 ea3c 82c8 5f3d 21c9 eb3c 59bf d73c
000003a0: daa5 24ba 11d1 b13c 13b4 d43b a794 c13c
000003b0: c650 0d3b 723f a13b a497 9b3c 7734 cd3d
000003c0: 4210 4e3d 17ed 803d 9577 cc3c 8009 74ba
000003d0: 711a 2f3b 14cf 55bb ceaa 053c 1f20 bf3c
000003e0: 5934 7c3d ee23 04b9 6bd3 7a3d 53fe 1a3d
000003f0: ae9e 033d 3ba2 e93c 6eb4 003d 73f4 cab9

network.2.weight f4 [192, 256]
-0.08981891 0.13746756 0.07580481 0.052434724 0.07895105 -0.086426176 0.037893627 0.0398128
-0.032116536 -0.075804785 -0.073180996 0.04456516 -0.11334038 0.08349153 -0.040626653 -0.06598491
0.08110534 -0.10935472 -0.10229729 0.035575196 -0.031854335 0.006892656 -0.024900004 0.09108955
-0.06330222 -0.028319763 0.13701913 0.012850553 0.06084358 0.025780573 -0.08775925 0.03786863
0.014058454 -0.09546499 0.055558577 -0.07703259 0.03818398 0.051537007 0.032637365 0.04238669
0.07107962 0.06937495 0.07543122 0.020716477 0.029126106 -0.17930512 0.032849785 -0.005419729
0.020260109 -0.035657674 -0.09299101 -0.19549215 0.0976962 0.03622967 0.15133657 -0.047279127
0.019739348 0.083808884 -0.09934825 0.06463928 0.0282141 0.14724596 -0.07669017 -0.07369738
0.0045032483 0.11095244 0.118903965 0.0071313987 0.03846401 -0.06742862 0.094358906 -0.11902326
-0.04247147 0.013809527 -0.031262048 0.07072796 -0.1413235 0.14592917 0.033229202 0.06601685
-0.056565113 0.003419546 -0.047256116 0.012530963 -0.037148777 0.037232805 0.14805609 0.09140838
0.013223798 -0.016019456 0.0071248678 6.10745e-05 -0.044878546 -0.05196794 0.17532103 -0.066555046
0.025855087 -0.05447723 -0.014107753 0.22854893 0.10719718 -0.0044688494 0.061465133 0.017513007
-0.03338023 0.07957028 -0.034902293 -0.1029259 0.06651019 0.08370806 -0.076190196 0.1176765
0.04435453 -0.098169796 0.0007966579 0.05149239 0.20641595 0.0062522204 -0.03894521 -0.048926745
0.025792293 -0.037870616 -0.013775793 -0.025331894 0.014731997 0.04770613 -0.010341709 -0.14919847
0.062031213 0.07666974 0.041504502 -0.050123077 0.0039524473 0.121294 0.069688745 -0.01760392
0.028676722 0.023899848 -0.08965769 0.088896886 0.045631118 0.045595475 0.06719425 0.0045411936
-0.08543527 0.058122978 -0.05372111 0.040512607 -0.13292055 0.004330331 0.08984226 0.062993765
-0.0075904215 -0.029348388 0.08993766 0.008995858 0.06658943 -0.06285149 0.03231929 0.053144764
0.021755109 0.06789079 -0.034284607 -0.058940683 0.04481372 0.03755064 0.104754075 0.029239573
0.1305873 0.04260458 0.11831141 0.16639799 0.036066834 -0.022432791 -0.008392762 -0.039270833
0.12500031 0.13053977 0.150597 0.067884974 0.011800826 0.09993508 -0.03860698 0.0003388594
-0.031024 0.009276649 0.025127 0.031424243 0.032945823 -0.076002404 -0.13627708 0.05345135
-0.002270326 0.084574826 0.05439369 0.0416301 -0.043882076 0.024092304 0.056311216 -0.07478351
-0.077237315 0.018180916 -0.011586746 0.034355346 0.007905606 -0.0070852744 0.13833357 0.016342156
0.0067964746 0.042363994 0.05181188 -0.021520175 0.21021555 0.17854266 0.21520355 -0.016355466
0.03127899 -0.047218844 0.109675795 0.026979573 0.028292628 0.00414318 -0.096761905 -0.025364866
0.008152846 -0.04585448 0.12637906 -0.035739787 0.0048291436 -0.06878533 0.11257054 -0.025330303
0.06034779 -0.010790402 0.0918923 0.08155679 -0.0006298234 0.09646435 0.07570836 0.10145112
0.018114878 -0.13945894 0.059462532 -0.13713925 0.07722947 -0.024044413 0.069916144 0.0876145
0.113402344 -0.01800216 0.11166016 0.0329117 0.12123493 -0.06849097 -0.08369377 0.10120393
00000000: faf2 b7bd 4cc4 0c3e 8d3f 9b3d cbc5 563d
00000010: 17b1 a13d 3500 b1bd 5936 1b3d bf12 233d
00000020: a18c 03bd 8a3f 9bbd ebdf 95bd f589 363d
00000030: 001f e8bd 9bfd aa3d 2268 26bd 1923 87bd
00000040: 8e1a a63d 5ef5 dfbd 3e81 d1bd 4cb7 113d
00000050: b179 02bd cadb e13b 18fb cbbc 288d ba3d
00000060: 98a4 81bd d9fe e7bc be4e 0c3e 208b 523c
00000070: 1e37 793d c831 d33c 1fbb b3bd 231c 1b3d
00000080: 6e55 663c 2683 c3bd 6491 633d 43c3 9dbd
00000090: ce66 1c3d 7818 533d c2ae 053d aa9d 2d3d
000000a0: 3192 913d 7414 8e3d af7b 9a3d 9ab5 a93c
000000b0: df99 ee3c c39b 37be 7f8d 063d fb97 b1bb
000000c0: 87f8 a53c c80d 12bd 1272 bebd 182f 48be
000000d0: f214 c83d 9065 143d f9f7 1a3e c2a7 41bd
000000e0: 6ab4 a13c fea3 ab3d 1877 cbbd 9961 843d
000000f0: 4221 e73c a5c7 163e bc0f 9dbd a7ee 96bd
00000100: fc8f 933b 083b e33d ec83 f33d 82ae e93b
00000110: 708c 1d3d 0418 8abd 3e3f c13d 78c2 f3bd
00000120: 90f6 2dbd 5b41 623c a20c 00bd d2d9 903d
00000130: 1cb7 10be 756e 153e 581b 083d d833 873d
00000140: d2b0 67bd 761a 603b a18f 41bd ab4e 4d3c
00000150: 5129 18bd 6d81 183d 049c 173e 5134 bb3d
00000160: a1a8 583c 3c3b 83bc b977 e93b 1f15 8038
00000170: 91d2 37bd 56dc 54bd 5b87 333e 034e 88bd
00000180: 0cce d33c 8423 5fbd 3424 67bc bb08 6a3e
00000190: 328a db3d 6d6f 92bb ddc2 7b3d 7077 8f3c
000001a0: b5b9 08bd bef5 a23d b5f5 0ebd d0ca d2bd
000001b0: 7f36 883d 226f ab3d 9b09 9cbd 6000 f13d
000001c0: 18ad 353d 3f0d c9bd cfd6 503a afe9 523d
000001d0: b45e 533e 6ddf cc3b 0385 1fbd 6967 48bd
000001e0: 5c4a d33c 381e 1bbd ddb3 61bc d584 cfbc
000001f0: 795e 713c 8167 433d 4570 29bc 7cc7 18be
00000200: 7114 7e3d 0605 9d3d a000 2a3d db4d 4dbd
00000210: 8883 813b fd68 f83d f9b8 8e3d 1936 90bc
00000220: 72eb ea3c 9dc9 c33c 739e b7bd 920f b63d
00000230: b2e7 3a3d 52c2 3a3d 249d 893d 4bce 943b
00000240: b0f8 aebd 5c12 6e3d ab0a 5cbd 8cf0 253d
00000250: 531c 08be 73e5 8d3b 38ff b73d e002 813d
00000260: 12b9 f8bb 086c f0bc 3c31 b83d 5d63 133c
00000270: 0a60 883d 48b8 80bd 3b61 043d 53ae 593d
00000280: c537 b23c 540a 8b3d 046e 0cbd c96b 71bd
00000290: 978e 373d b3ce 193d 4e89 d63d d487 ef3c
000002a0: adb8 053e 2482 2e3d 414d f23d 3c64 2a3e
000002b0: d1ba 133d f9c4 b7bc cc81 09bc 74da 20bd
000002c0: 1500 003e 38ac 053e 1a36 1a3e 4707 8b3d
000002d0: 4058 413c c3aa cc3d 5a22 1ebd f0a8 b139
000002e0: 0b26 febc 16fd 173c 23d7 cd3c b5b6 003d
000002f0: 33f2 063d 26a7 9bbd 388c 0bbe ceef 5a3d
00000300: c0c9 14bb 9135 ad3d ebcb 5e3d 5384 2a3d
00000310: b1bd 33bd 395d c53c 97a6 663d 1928 99bd
00000320: 992e 9ebd 25f0 943c 56d6 3dbc 31b8 0c3d
00000330: 8486 013c 972b e8bb 51a7 0d3e fcdf 853c
00000340: f6b4 de3b de85 2d3d b238 543d 144b b0bc
00000350: bf42 573e e3d3 363e 525e 5c3e e6fb 85bc
00000360: 661e 003d 8c68 41bd b49d e03d 4404 dd3c
00000370: f1c5 e73c 83c3 873b 1b2b c6bd fbc9 cfbc
00000380: 8493 053c e8d1 3bbd 8369 013e e263 12bd
00000390: cb3d 9e3b 53df 8cbd 628b e63d 7f81 cfbc
000003a0: 3f2f 773d 3aca 30bc 0832 bc3d 3f07 a73d
000003b0: bc1a 25ba 1a8f c53d fc0c 9b3d 9bc5 cf3d
000003c0: a765 943c 53ce 0ebe fc8e 733d 3b6e 0cbe
000003d0: 7c2a 9e3d caf8 c4bc 3230 8f3d 3b6f b33d
000003e0: 7d3f e83d 4479 93bc 15ae e43d 6bce 063d
000003f0: 054a f83d fe44 8cbd a467 abbd 0244 cf3d

network.2.bias f4 [192]
-0.0009940121 0.028407777 0.022589294 0.014144527 -0.0014370714 0.031105941 0.028906602 0.005179364
0.05717668 0.0059884726 0.013938217 0.003969288 0.019420521 0.03429284 0.035201065 0.021902071
0.0089349495 0.051602513 0.018614665 0.05449624 -0.0030302654 0.036756154 0.07291238 0.015199599
0.01828044 0.025184033 0.014303785 0.017440267 0.011557841 0.018198386 0.029337164 0.017305115
0.017591923 0.031196587 0.02812996 0.019063033 0.040894486 -0.020848231 0.024611011 0.024714794
0.033739142 0.005291892 0.019914428 0.036176063 0.022804284 0.021406015 -0.0112082595 0.013797135
0.002733371 -0.0023104858 0.026240468 -0.0027731038 0.043444604 0.0022653802 0.010473436 0.02495625
0.0010052631 0.006441468 0.038133185 0.027210139 0.018675277 0.0043286323 0.04673797 0.040275253
0.0137242675 0.019672362 0.017665757 0.040831175 0.010558376 -0.0132115595 0.008569618 0.03147009
0.024152732 0.028119404 0.0085826125 0.03360432 0.031319983 0.029575905 0.030864472 0.02746786
0.033961616 -0.000846804 0.015164028 0.0043215537 0.030163597 -0.011922756 -0.0061222673 0.025884219
0.015405569 0.040618096 0.032839306 -0.0052889064 0.04845977 0.0022917676 0.02877716 0.023758251
0.020268915 0.025349518 0.03261249 0.03208869 0.022300065 0.0017224477 0.025703957 0.022232112
0.016995477 0.0029451144 0.023487203 0.065736465 0.044617385 -0.0019484595 0.023808068 0.016584484
0.04456042 0.010193966 0.0361349 -0.005554579 0.009971873 0.030990703 0.017508633 0.034212757
0.030935677 0.0017114681 0.02003399 -0.0063532363 0.019406242 0.016955763 -0.004809766 -0.012006215
0.0083140945 0.013736824 0.014348702 0.012275099 0.0049109533 0.04461908 0.0316996 0.02635272
0.02210274 0.06120509 0.036666635 0.022471432 0.0033553492 0.038969655 0.019726254 -0.0017323243
0.036635317 0.050041925 0.021467773 0.0069589624 0.04704175 0.033346552 0.016988155 0.019660631
0.028818484 0.0005236559 0.048238304 0.020104105 -0.018791864 0.015962947 0.039655022 0.010431972
0.015548241 0.009932139 -0.0051706224 0.028745038 0.011866033 0.02000241 0.013230072 0.012487224
0.013872163 0.00981751 0.030042298 0.007980398 0.003980081 0.019760936 0.047058884 0.0040250504
0.020252312 0.0033603779 0.026471425 0.051639404 0.051569656 0.034886338 0.01760447 0.0022089183
0.021983072 0.011187284 0.0073503098 0.025169065 0.01461713 0.01643954 0.005138846 0.0262728
00000000: 8349 82ba 6db7 e83c 2f0d b93c 72be 673c
00000010: 1d5c bcba e3d1 fe3c 8acd ec3c a7b7 a93b
00000020: 1832 6a3d f33a c43b 1f5d 643c cd10 823b
00000030: c917 9f3c a676 0c3d fe2e 103d f96b b33c
00000040: e563 123c 285d 533d c87d 983c 7337 5f3d
00000050: 6b97 46bb 9f8d 163d 1653 953d bd07 793c
00000060: dcc0 953c bf4e ce3c 6c5a 6a3c e4de 8e3c
00000070: 195d 3d3c c814 953c 7e54 f03c 75c3 8d3c
00000080: f01c 903c fc8f ff3c cd70 e63c 142a 9c3c
00000090: fa80 273d e9c9 aabc 089d c93c ae76 ca3c
000000a0: 0e32 0a3d 9c67 ad3b 9523 a33c 5a2d 143d
000000b0: 0dd0 ba3c ab5b af3c d9a2 37bc 610d 623c
000000c0: 5b22 333b 856b 17bb 40f6 d63c f6bc 35bb
000000d0: f8f2 313d c676 143b c698 2b3c 0d71 cc3c
000000e0: 08c3 833a f312 d33b 8b31 1c3d cce7 de3c
000000f0: e5fc 983c 33d7 8d3b 5070 3f3d aaf7 243d
00000100: c0db 603c ef27 a13c c7b7 903c 973e 273d
00000110: 0afd 2c3c 4c75 58bc 9567 0c3c c8e6 003d
00000120: f3db c53c aa5a e63c 169e 0c3c afa4 093d
00000130: 6249 003d 2b49 f23c 7dd7 fc3c 4704 e13c
00000140: 561b 0b3d 0efc 5dba 8b72 783c d29b 8d3b
00000150: a619 f73c aa57 43bc 4d9d c8bb 240b d43c
00000160: a467 7c3c 295f 263d 8282 063d 904e adbb
00000170: c07d 463d 7b31 163b 14be eb3c aaa0 c23c
00000180: ff0a a63c cba9 cf3c ad94 053d 6e6f 033d
00000190: a0ae b63c c1c3 e13a 1b91 d23c 1e20 b63c
000001a0: 193a 8b3c d202 413b 3c68 c03c d7a0 863d
000001b0: b8c0 363d 7463 ffba 2309 c33c 2fdc 873c
000001c0: fd84 363d 9804 273c 3002 143d 3003 b6bb
000001d0: 1161 233c 37e0 fd3c 446e 8f3c ad22 0c3d
000001e0: d16c fd3c 5753 e03a 521e a43c cf2e d0bb
000001f0: d7f9 9e3c d0e6 8a3c 3e9b 9dbb b7b5 44bc
00000200: d737 083c 6a10 613c d116 6b3c 7f1d 493c
00000210: 10ec a03b 7fc2 363d 71d7 013d a9e1 d73c
00000220: ce10 b53c 30b2 7a3d c12f 163d 0216 b83c
00000230: 6be5 5b3b a59e 1f3d f498 a13c 280f e3ba
00000240: ea0e 163d c3f8 4c3d 2fdd af3c 0208 e43b
00000250: daae 403d 6596 083d be2a 8b3c 550f a13c
00000260: be14 ec3c f445 093a 8795 453d 5db1 a43c
00000270: 65f1 99bc bac4 823c 4e6d 223d ddea 2a3c
00000280: 0dbe 7e3c 69ba 223c 536e a9bb b77a eb3c
00000290: c069 423c 18dc a33c f2c2 583c 3797 4c3c
000002a0: 1248 633c 9fd9 203c 441b f63c 37c0 023c
000002b0: 576b 823b b0e1 a13c d1c0 403d 92e4 833b
000002c0: 2de8 a53c c939 5c3b 9ada d83c d783 533d
000002d0: b43a 533d fae4 0e3d 4037 903c 80c3 103b
000002e0: d815 b43c df4a 373c deda f03b 5b2f ce3c
000002f0: b07c 6f3c 37ac 863c c463 a83b 0e3a d73c

network.4.weight f4 [128, 192]
-0.11238557 -0.0037618817 -0.002405346 -0.13157086 -0.042053815 -0.0018677476 0.109363504 -0.09071954
0.088790104 0.04441694 0.13202359 0.19991009 0.03424419 -0.0508666 -0.025312502 -0.1692365
0.13813521 -0.09742792 0.19823664 0.21768202 -0.019796522 0.00058456854 -0.019133372 -0.09107217
0.052781772 -0.031751435 0.10113072 0.17764896 -0.042934842 -0.047742933 0.041689884 -0.006860501
-0.12302738 -0.020161998 -0.005433901 0.11753194 -0.037860632 0.20127766 -0.17610064 0.12612993
-0.23234217 -0.036011428 0.065428436 0.1369908 -0.00854387 -0.06122988 0.09826326 0.0053864424
0.03938257 0.14453776 -0.046801675 0.05328401 0.066935055 0.22335523 -0.012372633 -0.21179381
-0.11298224 -0.019706639 -0.080172606 -0.0062852995 0.104152344 -0.040740214 0.09009651 0.034511473
0.08971695 0.007108481 -0.109324574 -0.20791486 -0.04875253 -0.06846804 -0.030496826 0.039386973
0.019626116 -0.07831489 0.033610526 -0.17234083 0.0016281009 -0.08133384 -0.037957508 -0.11179747
-0.1295494 -0.065893926 0.003851475 0.005024632 -0.13607857 0.12662528 0.07587976 0.12106528
-0.0064189294 0.020630626 0.08377867 0.29665366 -0.07578107 0.14122099 0.08685339 0.034588937
-0.032924995 -0.11438516 0.1343756 0.08907687 -0.05257519 0.07665229 0.07820098 -0.06434273
0.051737662 -0.13439587 0.0889643 -0.036066473 0.17973639 0.014896763 -0.019179776 0.137928
-0.027276147 -0.08232937 -0.197955 0.008788297 -0.0023536652 -0.0531605 -0.06464293 -0.22631563
0.17167202 -0.12664993 0.116010256 0.04940712 0.0664269 0.05583344 -0.20959376 0.123018846
0.21234277 -0.017352747 -0.07411332 0.121904686 0.04134698 0.048525568 -0.021249512 -0.008702837
0.051404707 0.027922057 -0.013233759 -0.018306384 -0.13360068 0.17534482 0.0020052053 -0.09185964
0.002132706 -0.10843802 -0.29892626 0.024704935 0.13992998 0.13054179 0.024275389 0.042788956
-0.006787276 0.12629944 0.1880621 0.09648691 0.04988607 -0.042858195 -0.11286031 0.14050588
-0.05052945 0.01288737 -0.048572212 0.03840617 0.12530708 -0.26942414 0.014363959 -0.15578382
-0.029296443 0.08078063 -0.038083706 -0.008383393 0.11649883 0.063857354 0.17533012 0.009916713
0.04847128 0.14329672 0.05693922 0.114585616 -0.04798885 -0.065751314 -0.004146394 0.047894552
-0.052016456 0.10405613 0.02679728 -0.090376526 0.06374649 0.1903728 -0.04894775 -0.046825826
-0.035827693 0.07834041 -0.00092181977 0.039734498 -0.0127473 -0.0057933065 0.029496238 0.012474048
0.031243015 0.13942416 0.033513512 0.031241175 0.0020857733 0.023143673 -0.087187335 0.09505852
5.3206768e-05 0.049205896 0.1229992 0.059476428 0.055204686 -0.032131854 0.089649364 0.035105165
0.15675966 0.14153889 0.04813725 0.17527756 0.01874201 0.0043488075 0.039212707 0.16448987
0.052672077 0.092202686 0.20361102 -0.16534294 0.11979333 0.0140912365 0.011618655 0.13354369
0.026359541 -0.051079355 0.008476188 -0.1697558 0.09569401 0.06348411 -0.13102603 -0.08708378
0.15730788 0.12449791 0.10233555 0.04165812 -0.11999243 0.052610002 -0.03513906 0.043733466
0.04592836 0.025569713 0.18076783 0.055217687 -0.1302936 -0.15302426 0.06321856 -0.090526685
00000000: 682a e6bd e789 76bb 02a3 1dbb 83ba 06be
00000010: 9f40 2cbd 36cf f4ba f9f9 df3d 2bcb b9bd
00000020: 96d7 b53d 8aee 353d 3131 073e 3bb5 4c3e
00000030: a343 0c3d 7f59 50bd 2a5c cfbc 554c 2dbe
00000040: 5173 0d3e 4a88 c7bd 8cfe 4a3e 09e8 5e3e
00000050: 512c a2bc bb3d 193a 97bd 9cbc 0c84 babd
00000060: b331 583d cb0d 02bd 9f1d cf3d 9ce9 353e
00000070: 72dc 2fbd 188e 43bd 03c3 2a3d 0ece e0bb
00000080: c7f5 fbbd c62a a5bc de0e b2bb 96b4 f03d
00000090: c013 1bbd bb1b 4e3e ba53 34be 3428 013e
000000a0: 1beb 6dbe b880 13bd 58ff 853d 5147 0c3e
000000b0: 97fb 0bbc 2fcc 7abd 403e c93d c180 b03b
000000c0: 9e4f 213d b501 143e 1db3 3fbd 5640 5a3d
000000d0: 3f15 893d 3cb7 643e 96b6 4abc 7ae0 58be
000000e0: 3c63 e7bd d16f a1bc 8931 a4bd eaf4 cdbb
000000f0: d34d d53d 36df 26bd 8584 b83d e75b 0d3d
00000100: 85bd b73d 43ee e83b 90e5 dfbd a2e7 54be
00000110: bcb0 47bd f938 8cbd 7bd4 f9bc 3c54 213d
00000120: f3c6 a03c 8f63 a0bd 31ab 093d 1d7a 30be
00000130: 0066 d53a 5b92 a6bd 5579 1bbd 12f6 e4bd
00000140: 99a8 04be 65f3 86bd 0769 7c3b aba5 a43b
00000150: 2e58 0bbe 0faa 013e d966 9b3d 13f1 f73d
00000160: e255 d2bb 8f01 a93c 2794 ab3d fde2 973e
00000170: 1b33 9bbd 3c9c 103e 31e0 b13d 21ad 0d3d
00000180: 5cdc 06bd c442 eabd c299 093e ef6d b63d
00000190: 1559 57bd e0fb 9c3d d627 a03d 1fc6 83bd
000001a0: dfea 533d 129f 09be ea32 b63d 70ba 13bd
000001b0: d10c 383e 8d11 743c e81e 9dbc ff3c 0d3e
000001c0: 3a72 dfbc 4d9c a8bd b7b4 4abe cafc 0f3c
000001d0: f33f 1abb d3be 59bd 8363 84bd 49bf 67be
000001e0: caca 2f3e 85b0 01be c996 ed3d 1f5f 4a3d
000001f0: d40a 883d 9bb1 643d bf9f 56be 4ef1 fb3d
00000200: 6270 593e 5927 8ebc b9c8 97bd 2aa9 f93d
00000210: 735b 293d bfc2 463d 7513 aebc 5896 0ebc
00000220: be8d 523d ccbc e43c 69d2 58bc 45f7 95bc
00000230: 9ece 08be 988d 333e c369 033b e820 bcbd
00000240: dfc4 0b3b c114 debd dd0c 99be 0162 ca3c
00000250: ce49 0f3e bfac 053e 2edd c63c 7943 2f3d
00000260: cc67 debb a454 013e 5a93 403e ee9a c53d
00000270: 5655 4c3d 138c 2fbd 4e23 e7bd c6e0 0f3e
00000280: f8f7 4ebd 8c25 533c a8f3 46bd ca4f 1d3d
00000290: 8050 003e f6f1 89be d056 6b3c cb85 1fbe
000002a0: 18ff efbc 5170 a53d a9fd 1bbd 805a 09bc
000002b0: f096 ee3d a5c7 823d bd89 333e b679 223c
000002c0: d289 463d 60bc 123e 1939 693d ddab ea3d
000002d0: f58f 44bd a0a8 86bd 79de 87bb 142d 443d
000002e0: 350f 55bd 611b d53d f885 db3c 5417 b9bd
000002f0: 858d 823d 16f1 423e 707d 48bd 70cc 3fbd
00000300: 0fc0 12bd f070 a03d 47a6 71ba a4c0 223d
00000310: 0dda 50bc c7d5 bdbb 18a2 f13c f35f 4c3c
00000320: 5af1 ff3c 35c5 0e3e 7745 093d 7eed ff3c
00000330: 78b1 083b cd97 bd3c 468f b2bd 0bae c23d
00000340: 552a 5f38 1f8c 493d 01e7 fb3d 8e9d 733d
00000350: 4f1e 623d b19c 03bd 169a b73d 6fca 0f3d
00000360: 9b85 203e 92ef 103e 912b 453d f67b 333e
00000370: d888 993c 7180 8e3b 819d 203d 0870 283e
00000380: adbe 573d c3d4 bc3d 687f 503e a94f 29be
00000390: 3556 f53d eede 663c 2c5c 3e3c adbf 083e
000003a0: f7ef d73c 9638 51bd b6df 0a3c 77d4 2dbe
000003b0: 39fb c33d f503 823d b02b 06be fb58 b2bd
000003c0: 5115 213e c3f8 fe3d 4d95 d13d b4a1 2a3d
000003d0: 97be f5bd 967d 573d faed 0fbd dd21 333d
000003e0: 601f 3c3d 9377 d13c 341b 393e f12b 623d
000003f0: af6b 05be 64b2 1cbe bb78 813d 0e66 b9bd

network.4.bias f4 [128]
0.0017020779 0.023501003 0.020740725 0.008299289 0.032403618 0.012378668 0.041913416 -0.0018562544
0.032041907 -0.0018349296 -0.004525131 0.021510892 -0.0050652754 0.0016879565 0.00029385113 0.017994894
0.016363261 0.052642055 0.014175522 0.017822789 0.02699616 0.015391118 -0.0020740589 -0.0001952864
0.008691229 0.0029585639 -0.0013580531 -0.0053452635 -0.0053316024 0.021459144 0.033112817 0.017260851
0.0032048114 0.007046624 -0.007593632 -0.008491445 0.01894968 -6.3035906e-05 -0.017704519 0.0029795382
0.014391888 0.03992752 -0.004447174 -0.009946397 -0.007838035 0.0040085353 0.03286333 0.04923131
0.03269332 0.01824991 0.02248499 0.026635714 0.022205113 0.041463446 0.0023113424 -0.00014999049
0.030192407 0.02036754 -0.008860747 0.009759846 0.0017013953 0.014848892 0.011935133 -0.008238849
0.040866382 0.009875577 0.0048698355 -0.013621641 -0.00075958576 0.027109506 0.026255539 0.006620113
0.014067403 0.032713756 -0.00039678047 0.0012664937 0.0045247963 0.023057565 0.0027852172 -0.0049760947
0.01433933 0.027651729 0.028547142 0.019556656 0.015526328 0.018365962 0.006995474 0.010797155
-0.010850927 0.008794326 0.01563531 0.012959003 0.025277322 0.019586284 0.011159316 -0.02050342
0.021248912 0.008309515 0.038414836 0.007873845 0.003801475 0.010663283 0.018301066 0.025381535
-0.0006812874 0.008158564 0.010879484 0.042959776 0.027381863 0.018687531 0.014941297 0.004479402
0.0020666076 0.020039972 0.016073596 0.018934373 0.03367914 0.037837 0.022280175 0.017959721
-0.010586543 -0.013441148 0.043994423 0.015094067 -0.01599547 0.025555633 0.01310404 0.034082975
00000000: 4218 df3a 2d85 c03c 74e8 a93c bef9 073c
00000010: a8b9 043d e6cf 4a3c 67ad 2b3d 904d f3ba
00000020: 603e 033d 0582 f0ba 8d47 94bb 9c37 b03c
00000030: 9cfa a5bb 6c3e dd3a 0810 9a39 076a 933c
00000040: 3f0c 863c 329f 573d 7340 683c 1901 923c
00000050: 0d27 dd3c 072b 7c3c efec 07bb cbc5 4cb9
00000060: a865 0e3c 77e4 413b b300 b2ba 5227 afbb
00000070: b9b4 aebb 16cb af3c 4ea1 073d a166 8d3c
00000080: d007 523b 5ee7 e63b 01d4 f8bb b41f 0bbc
00000090: 5c3c 9b3c 2532 84b8 1109 91bc 5b44 433b
000000a0: f4cb 6b3c 0a8b 233d 99b9 91bb 36f6 22bc
000000b0: 1a6b 00bc 085a 833b b39b 063d c5a6 493d
000000c0: 6ee9 053d d680 953c 7132 b83c 2433 da3c
000000d0: 7fe7 b53c 93d5 293d e479 173b c446 1db9
000000e0: 1156 f73c d4d9 a63c ab2c 11bc c3e7 1f3c
000000f0: 5a01 df3a c448 733c 938b 433c 3dfc 06bc
00000100: 8263 273d 2ccd 213c 2493 9f3b 4e2d 5fbc
00000110: f01e 47ba c114 de3c db15 d73c 88ed d83b
00000120: f77a 663c dcfe 053d f906 d0b9 7a00 a63a
00000130: be44 943b 38e3 bc3c 3188 363b 820e a3bb
00000140: 82ef 6a3c e185 e23c b2db e93c 4835 a03c
00000150: 2462 7e3c 3774 963c 4a3a e53b 8de6 303c
00000160: 16c8 31bc 1416 103c 9f15 803c 0052 543c
00000170: 6312 cf3c 6a73 a03c 90d5 363c caf6 a7bc
00000180: 3312 ae3c a224 083c e058 1d3d 4d01 013c
00000190: 2b22 793b 0db5 2e3c 1eec 953c f0ec cf3c
000001a0: 6c98 32ba 7fab 053c dd3f 323c 97f6 2f3d
000001b0: ee4f e03c 9816 993c 57cc 743c f3c7 923b
000001c0: ec6f 073b de2a a43c c6ac 833c 421c 9b3c
000001d0: 23f3 093d f8fa 1a3d ea84 b63c 4420 933c
000001e0: 2e73 2dbc 4338 5cbc 7f33 343d 1b4d 773c
000001f0: ef08 83bc 0c5a d13c 54b2 563c 979a 0b3d

network.6.weight f4 [39, 128]
0.017409703 -0.07399969 -0.04679993 -0.073361285 -1.6930891e-05 -0.219115 -1.9982179e-05 0.16047792
-0.277833 3.888255e-05 -0.28103593 -0.15308583 -0.15299428 -0.023405984 -0.06263973 -0.04572008
0.036315046 -3.9976712e-05 -0.054923248 0.23496225 -0.0042411964 -0.15827598 -0.22329912 -0.24618115
-0.17790206 -0.2076619 0.018868605 -0.102767 -0.116058715 -0.15143514 0.044771463 -0.21917735
-0.26419166 -0.24416432 -0.15746959 0.089957446 0.0032661043 0.26489183 0.17544018 -0.03747574
-0.26354706 -0.23358572 -1.4648123e-05 0.15860714 -0.10294014 4.1883246e-05 -3.5401208e-06 -0.2644846
-0.08064383 0.017171834 -0.17082898 -2.752854e-07 -0.11152131 0.04521749 -0.26483607 0.105833285
-0.082182154 -0.00952692 5.4196694e-06 -2.981018e-06 -0.11428679 -0.058201693 -0.1508319 -2.2049915e-05
-0.18474072 -0.0873846 -0.008570992 -0.26402044 -0.1512469 -0.10156779 -0.27663508 -0.0002827321
-0.26488712 0.010950566 0.26509312 -0.014748208 -0.04505335 -1.9244017e-05 -7.109733e-06 -2.1446856e-05
-0.31447273 -0.26537406 0.12946692 -0.10113333 -0.24661222 -0.16779555 -0.06768366 -0.024124835
2.3142575e-05 -1.202303e-05 0.011489653 -0.16981216 -0.0015357692 -0.11678057 -0.049236152 -0.11156314
0.0860875 -0.06023945 -0.26495218 -0.28545445 -0.16191646 -0.06313919 -0.25044927 -0.2687208
5.474635e-06 -0.050895806 -0.03400536 -0.3032699 -0.10915956 0.16537285 -0.052105002 -0.023103887
-1.1785947e-05 -9.288942e-07 -0.2638009 -0.07183508 -0.29416615 -0.05815959 -0.122026145 -0.032433696
-2.5824615e-06 -0.002133313 -0.19073553 -0.26380625 -0.10674743 0.13927805 -0.26391932 -0.01707675
-0.13800497 0.26571944 0.072593875 -0.052765753 -0.1120083 -0.05396991 -0.11023574 -0.033529777
-0.22151929 -5.986492e-07 0.13045487 -0.047388628 -0.06409816 -0.032585725 -0.10151286 0.15351814
0.10969029 -0.008352714 -0.08269328 0.14796506 0.07098233 -0.17991287 -0.001920858 -0.060773455
0.052400075 -0.02911737 -0.16895941 -0.032569587 -0.021087786 0.17354931 0.10007831 0.006331258
-0.19444059 0.037546635 -0.04530952 0.14403108 -0.15927286 7.961081e-05 -0.11723387 -0.016698178
-0.0052247243 -0.13825874 0.011486623 0.099355735 0.15311487 -0.29232424 0.02489462 0.025170963
0.068496875 0.067508996 -0.08898108 0.31994134 0.1396983 0.026164325 6.9993903e-06 0.026526712
-0.10219602 -0.022090591 -0.13721453 -0.08438194 -0.078377135 0.10200913 0.00089425006 5.193124e-07
0.047388945 -0.08157836 0.14399357 -0.1328368 0.057922836 0.03729982 0.021469845 -0.1933409
0.039059103 -0.072035655 -9.91383e-06 0.1131101 0.05148924 -0.06357337 -0.09978858 -6.3962248e-06
-0.0702503 0.10498933 0.11138814 -0.09977971 -0.1609689 -0.06171498 0.15663232 -0.027644869
-0.26530343 0.15770149 0.067743294 -0.11648718 0.160469 -0.02069326 -0.022166144 -0.01901347
-0.034243893 -0.24116477 -0.2795949 0.25429308 -0.124946095 0.11908017 -0.094780885 0.06403283
0.08938758 -0.059021056 -0.0003283757 -0.026956882 0.08723452 -0.24030885 -0.20518418 0.15519595
0.01589888 0.01667359 -0.087938175 -0.22103618 0.057456557 0.058604635 -0.19312347 -0.013495882
0.007388806 -0.006780643 -0.13121668 -0.10172454 0.06850173 0.21029 0.0053449357 -0.11183798
00000000: cb9e 8e3c 268d 97bd 49b1 3fbd 713e 96bd
00000010: d006 8eb7 af5f 60be 679f a7b7 5354 243e
00000020: 2140 8ebe d215 2338 f1e3 8fbe 88c2 1cbe
00000030: 88aa 1cbe e8bd bfbc 4249 80bd fb44 3bbd
00000040: 16bf 143d abac 27b8 33f7 60bd f299 703e
00000050: bcf9 8abb 1913 22be 86a8 64be e916 7cbe
00000060: f52b 36be 52a5 54be 5592 9a3c 8177 d2bd
00000070: 31b0 edbd d011 1bbe 4862 373d 0770 60be
00000080: 2144 87be 3606 7abe b53f 21be 9c3b b83d
00000090: 230c 563b e79f 873e 97a6 333e 2980 19bd
000000a0: a4ef 86be 1831 6fbe 36c1 75b7 e969 223e
000000b0: 48d2 d2bd cbab 2f38 d092 6db6 876a 87be
000000c0: 9828 a5bd f2ab 8c3c cbed 2ebe f0ca 93b4
000000d0: 4965 e4bd fa35 393d 9898 87be 1fbf d83d
000000e0: 1e4f a8bd cc16 1cbc 9bda b536 800d 48b6
000000f0: 310f eabd e664 6ebd ad73 1abe d5f7 b8b7
00000100: ac2c 3dbe b2f6 b2bd 596d 0cbc b02d 87be
00000110: 78e0 1abe c602 d0bd 1da3 8dbe a93b 94b9
00000120: 499f 87be 016a 333c 49ba 873e 78a2 71bc
00000130: dd89 38bd 366e a1b7 2490 eeb6 c6e8 b3b7
00000140: 9202 a1be 1cdf 87be fa92 043e fe1e cfbd
00000150: ea87 7cbe 99d2 2bbe bb9d 8abd 72a1 c5bc
00000160: 4d22 c237 85b6 49b7 193f 3c3c 3de3 2dbe
00000170: dd4b c9ba a72a efbd d9ab 49bd 377b e4bd
00000180: a54e b03d a4bd 76bd d0a7 87be 1627 92be
00000190: 6ecd 25be 1f4f 81bd e33a 80be c695 89be
000001a0: c2b2 b736 1f78 50bd 3449 0bbd 3146 9bbe
000001b0: 0c8f dfbd 8057 293e 0e6c 55bd 5d44 bdbc
000001c0: 42bc 45b7 2059 79b5 e910 87be 451e 93bd
000001d0: f29c 96be c038 6ebd d8e8 f9bd 32d9 04bd
000001e0: 5a4e 2db6 0ecf 0bbb 2d50 43be 9d11 87be
000001f0: 669e dabd e89e 0e3e 6f20 87be 8ae4 8bbc
00000200: 2d51 0dbe 610c 883e 19ac 943d e720 58bd
00000210: 9c64 e5bd 8d0f 5dbd 47c3 e1bd 8556 09bd
00000220: f4d5 62be dcb2 20b5 f695 053e 941a 42bd
00000230: e545 83bd 9c78 05bd f9e5 cfbd dc33 1d3e
00000240: 4ea5 e03d d2d9 08bc 185b a9bd 2784 173e
00000250: 2f5f 913d 143b 38be 4dc5 fbba 96ed 78bd
00000260: 76a1 563d 8d87 eebc b203 2dbe b067 05bd
00000270: 4bc0 acbc e9b6 313e dbf5 cc3d 7176 cf3b
00000280: 6f1b 47be 80ca 193d 7a96 39bd e27c 133e
00000290: 6d18 23be baf4 a638 5018 f0bd 9eca 88bc
000002a0: 2a34 abbb b393 0dbe 6432 3c3c 057b cb3d
000002b0: 25ca 1c3e 86ab 95be cdef cb3c 5633 ce3c
000002c0: 1748 8c3d 2842 8a3d b63b b6bd 5acf a33e
000002d0: 120d 0f3e 9156 d63c 4edc ea36 8c4e d93c
000002e0: 264c d1bd 54f7 b4bc f781 0cbe 70d0 acbd
000002f0: 3184 a0bd 2aea d03d 1b6c 6a3a e066 0b35
00000300: e91a 423d 8e12 a7bd 0d73 133e 5f06 08be
00000310: 7f40 6d3d b2c7 183d 87e1 af3c 28fb 45be
00000320: 70fc 1f3d 6e87 93bd 9353 26b7 45a6 e73d
00000330: 62e6 523d c132 82bd f45d ccbd 279f d6b6
00000340: 64df 8fbd a504 d73d 771f e43d 4e59 ccbd
00000350: 08d5 24be d9c8 7cbd 3964 203e 7e77 e2bc
00000360: dad5 87be 807c 213e ffbc 8a3d d590 eebd
00000370: fc51 243e e984 a9bc c695 b5bc 23c2 9bbc
00000380: 5343 0cbd e6f3 76be 1027 8fbe b432 823e
00000390: bde3 ffbd 4ee0 f33d 7b1c c2bd a523 833d
000003a0: d610 b73d 10c0 71bd d729 acb9 aed4 dcbc
000003b0: 03a8 b23d 8613 76be cd1b 52be b0eb 1e3e
000003c0: 5e3e 823c 0d97 883c ee18 b4bd 4f57 62be
000003d0: 9157 6b3d 6a0b 703d 29c2 45be d51d 5dbc
000003e0: cc1d f23b 2830 debb aa5d 06be f554 d0bd
000003f0: a34a 8c3d 4356 573e 9224 af3b 500b e5bd

network.6.bias f4 [39]
-0.03785296 0.0021372684 0.025201617 0.017149854 -0.012885173 -0.022308467 0.031806882 -0.005614247
0.010498485 -0.028491236 -0.03650754 -0.011632234 -0.0009197529 0.002720701 0.010577716 0.014895036
0.012627974 -0.027130036 -0.0032799186 0.015517629 -0.0071259704 -0.017633429 0.0170685 0.03153885
-0.038149618 0.02080732 -0.03629102 -0.01866268 0.024020215 0.003518634 0.029965186 0.011764907
-0.011519722 -0.010178743 -0.01578972 -0.030299788 -0.032667413 -0.03402423 -0.028278785
00000000: b50b 1bbd 6a11 0c3b 9f73 ce3c da7d 8c3c
00000010: 551c 53bc 3fc0 b6bc ef47 023d b8f7 b7bb
00000020: d601 2c3c 7466 e9bc ee88 15bd 2095 3ebc
00000030: 931b 71ba ca4d 323b 284e 2d3c 4f0a 743c
00000040: 90e5 4e3c cf3f debc e7f3 56bb a73d 7e3c
00000050: f980 e9bb fb73 90bc 3dd3 8b3c e22e 013d
00000060: c642 1cbd 1d74 aa3c e5a5 14bd 7ae2 98bc
00000070: 0bc6 c43c e298 663b 8d79 f53c 99c1 403c
00000080: 37bd 3cbc bec4 26bc 7159 81bc 4337 f8bc
00000090: 44ce 05bd fe5c 0bbd e9a8 e7bc
