Homework/HW2/results/quick_grid/run_15.pt (torch, 583917 bytes, 8 tensors)

network.0.weight f4 [256, 256]
-0.03251072 0.06398591 0.16007093 0.046239015 0.08606502 -0.026467556 -0.046204545 -0.17215973
0.048583128 0.0009229031 0.075062476 0.06942913 0.008366733 -0.102903165 0.093534194 0.05590451
0.012399268 0.038392965 -0.07187619 -0.004786896 -0.025328578 0.012586841 -0.0042278985 0.022553114
0.0025810832 0.014376443 -0.08599119 -0.03648925 0.020519895 -0.08383482 -0.011791515 0.023769438
-0.06007395 0.07160734 -0.0035271796 -0.040689357 0.037998915 0.04957101 -0.050446548 0.10481954
0.11621025 -0.0091436915 -0.00805432 0.16395989 0.05080391 0.027706966 0.042777795 -0.05472278
0.04988414 0.0435272 0.11592393 -0.11313736 -0.054107744 0.12666486 0.021880515 0.029095894
0.0630226 -0.06962626 0.08508217 0.08715123 0.07584458 -0.05988565 0.06875308 -0.020910457
0.0024948095 -0.051161293 -0.023528662 -0.07959191 -0.042332347 0.092156306 0.027808951 0.069892034
0.07504774 0.14220122 0.028482605 0.011291014 -0.029246787 0.2303524 0.001556656 -0.08569314
-0.018492438 0.0037516928 -0.094753474 0.06140308 -0.039364647 0.10265965 0.05840602 -0.02233925
0.018141119 -0.029575586 -0.027530145 0.050305605 0.08578967 0.11976276 0.04534616 0.06835701
-0.022758156 -0.013000476 -0.016992847 -0.039462525 -0.047733314 -0.019069446 0.049038287 0.08633686
0.123868324 0.015304172 0.026100246 0.03869967 -0.04669716 -0.005815837 -0.008890259 -0.11016591
-0.16338678 -0.042120017 0.10267493 0.0028147 -0.02928188 -0.17584443 0.06912787 -0.12136508
0.11294637 -0.007416992 -0.012633845 -0.033503633 -0.042574964 0.088715464 -0.006814312 0.1331851
-0.1532483 0.17228198 -0.13058075 9.0415015e-06 -8.64423e-06 5.078301e-06 -1.1320887e-05 -0.17226751
3.697796e-06 -0.17225987 0.12588388 -0.1722327 -1.1921058e-05 9.759533e-06 -1.4612646e-05 -9.4727693e-07
-8.5202355e-06 0.1722602 0.13225622 -3.3608253e-06 1.5465243e-06 -3.0360945e-07 2.4127166e-07 -0.17225783
6.3181524e-06 -5.894899e-07 1.3845258e-06 0.1722579 -2.3859277e-05 -1.249628e-06 -1.1666784e-05 0.17225397
-9.548135e-06 3.656119e-05 5.491236e-06 3.5285353e-05 -0.1722828 3.3959153e-05 3.3942224e-06 -1.3615194e-05
0.17225657 0.16473916 6.2105873e-06 -0.17225325 1.1770759e-05 0.16630928 1.8810497e-05 6.6557277e-07
-2.9878782e-05 0.12906592 1.1248338e-05 0.17225628 2.0668009e-05 3.5130806e-06 -0.17226695 0.17228235
-1.5203113e-07 1.0007205e-05 5.5153623e-06 0.17227207 0.17228197 -0.17226945 -1.0719808e-05 0.17225535
0.16932033 -1.5139925e-05 -0.1722681 -0.1377945 2.0191172e-05 3.0375453e-05 -3.316317e-06 0.1722804
1.0013777e-05 -3.406567e-06 1.69346e-05 3.3710974e-05 1.6493064e-05 2.1679896e-06 1.5368938e-05 -6.9506787e-06
1.5363094e-07 -1.6940936e-05 -1.786048e-05 2.0614598e-05 0.16754574 -5.147881e-06 3.355985e-05 -1.5890066e-05
-0.17227048 -3.4413679e-06 1.31411625e-05 0.17226319 -2.198802e-06 -0.1254211 1.7212416e-05 -2.7884795e-05
0.17227797 -0.12865004 1.3010416e-05 9.418284e-06 -1.9217638e-05 -1.1364002e-05 -2.2129439e-07 2.1139813e-06
-0.17225316 -2.3389543e-05 2.2293929e-05 -0.17226522 1.1542084e-05 -1.007548e-05 7.295083e-06 -2.8519785e-06
-4.7687618e-06 1.171361e-06 -8.5283773e-07 -3.245156e-07 -0.12885495 0.17226264 4.4253466e-07 7.1173586e-06
-1.4550521e-05 -7.5135176e-07 -0.1561983 -5.057122e-06 -1.2677732e-05 0.16556235 0.17225528 -2.143589e-05
00000000: f629 05bd 0b0b 833d a2e9 233e 1f65 3d3d
00000010: db42 b03d 7dd2 d8bc fa40 3dbd a44a 30be
00000020: 1aff 463d fbee 713a 5bba 993d dc30 8e3d
00000030: 9f14 093c e5be d2bd db8e bf3d 21fc 643d
00000040: 4d26 4b3c f141 1d3d d333 93bd 65db 9cbb
00000050: e17d cfbc 0a39 4e3c 2f8a 8abb 4fc1 b83c
00000060: 6427 293b 2c8b 6b3c 261c b0bd c075 15bd
00000070: 5719 a83c 97b1 abbd 3331 41bc 20b8 c23c
00000080: 1a10 76bd dea6 923d 4128 67bb e2a9 26bd
00000090: c0a4 1b3d f90a 4b3d 0aa1 4ebd a1ab d63d
000000a0: a4ff ed3d 6ccf 15bc 44f6 03bc 1ae5 273e
000000b0: c317 503d b8f9 e23c c537 2f3d fe24 60bd
000000c0: 5053 4c3d 9449 323d 8769 ed3d 8fb4 e7bd
000000d0: 15a0 5dbd 6fb4 013e c43e b33c 835a ee3c
000000e0: fe11 813d 3698 8ebd 903f ae3d 587c b23d
000000f0: 6754 9b3d a84a 75bd 6ace 8c3d 684c abbc
00000100: f57f 233b 818e 51bd 2ebf c0bc 1501 a3bd
00000110: af64 2dbd 72bc bc3d 99cf e33c 8e23 8f3d
00000120: a1b2 993d 329d 113e 5a54 e93c f2fd 383c
00000130: f596 efbc 80e1 6b3e b508 cc3a e37f afbd
00000140: 747d 97bc f6de 753b 1c0e c2bd cc81 7b3d
00000150: d33c 21bd 393f d23d 273b 6f3d ce00 b7bc
00000160: af9c 943c 8048 f2bc e686 e1bc 400d 4e3d
00000170: 7fb2 af3d 2e46 f53d e5bc 393d c3fe 8b3d
00000180: 506f babc f3ff 54bc 9534 8bbc 75a3 21bd
00000190: 0284 43bd 8737 9cbc 5fdc 483d 61d1 b03d
000001a0: adae fd3d 5abe 7a3c 2fd0 d53c 8c83 1e3d
000001b0: 8545 3fbd c792 bebb 73a8 11bc aa9e e1bd
000001c0: dd4e 27be 0a86 2cbd 3c47 d23d d476 383b
000001d0: 8ee0 efbc 9010 34be ea92 8d3d 418e f8bd
000001e0: 6d50 e73d 3d0a f3bb 30fe 4ebc 1b3b 09bd
000001f0: 1663 2ebd 74b0 b53d 984a dfbb ad61 083e
00000200: 1fed 1cbe b06a 303e f6b6 05be f4b0 1737
00000210: af06 11b7 4666 aa36 d7ee 3db7 e566 30be
00000220: a727 7836 e464 30be b4e7 003e c55d 30be
00000230: 8e00 48b7 e0bc 2337 d628 75b7 6048 7eb5
00000240: 22f2 0eb7 fa64 303e 2d6e 073e 8a8a 61b6
00000250: 2c92 cf35 c4ff a2b4 2088 8134 5b64 30be
00000260: 8400 d436 703d 1eb5 f2d3 b935 6064 303e
00000270: 6825 c8b7 e4b8 a7b5 75bc 43b7 5863 303e
00000280: ed30 20b7 4759 1938 5c41 b836 5cff 1338
00000290: e76a 30be 5d6f 0e38 4cc8 6336 d06c 64b7
000002a0: 0764 303e 62b1 283e 8a64 d036 2863 30be
000002b0: 067b 4537 fb4c 2a3e 3ccb 9d37 d0a9 3235
000002c0: 32a4 fab7 db29 043e 3eb7 3c37 f363 303e
000002d0: 3660 ad37 44c2 6b36 bf66 30be c96a 303e
000002e0: 003e 23b4 9ee4 2737 9a10 b936 1768 303e
000002f0: af6a 303e 6767 30be 3ad9 33b7 b563 303e
00000300: 4f62 2d3e 7c01 7eb7 0c67 30be 001a 0dbe
00000310: 3660 a937 cace fe37 e48d 5eb6 466a 303e
00000320: d800 2837 609c 64b6 c70e 8e37 e264 0d38
00000330: 965a 8a37 c77d 1136 8bec 8037 e039 e9b6
00000340: c0f5 2434 621c 8eb7 17d3 95b7 83ed ac37
00000350: 1c91 2b3e f6bb acb6 9dc2 0c38 a84b 85b7
00000360: ac67 30be 40f2 66b6 dd78 5c37 c365 303e
00000370: 218f 13b6 646e 00be 6263 9037 24ea e9b7
00000380: a369 303e d6bc 03be 5047 5a37 3903 1e37
00000390: 9035 a1b7 04a8 3eb7 f09c 6db4 ecdd 0d36
000003a0: 2263 30be a934 c4b7 d903 bb37 4b66 30be
000003b0: e0a4 4137 db09 29b7 49c8 f436 9e64 3fb6
000003c0: 5a03 a0b6 a837 9d35 90ee 64b5 1639 aeb4
000003d0: 8df2 03be 9e65 303e 8095 ed34 a5d1 ee36
000003e0: 031e 74b7 80b0 49b5 72f2 1fbe 59b0 a9b6
000003f0: 72b2 54b7 2d89 293e b063 303e 39d1 b3b7

network.0.bias f4 [256]
0.031931818 0.04752335 0.023177361 0.015652055 0.0001298582 0.02846599 0.011057405 0.05004615
0.032727037 0.04470768 0.07359198 0.03965123 0.05062857 0.045646273 0.06687979 0.012675843
0.03119398 0.052494287 0.058461584 0.06675802 0.059446156 0.045888662 0.026675338 -0.008674315
0.00025578952 0.024174148 0.030640604 0.048993837 0.05451319 0.059639487 -0.0014360856 0.039027937
0.036902796 -0.000103200204 0.09233502 0.042323127 0.024617942 0.019215655 0.00014615612 0.028466776
0.0059512183 0.010838663 0.015973112 0.034632754 0.005499069 0.030974934 -0.000769206 0.014162009
0.0626253 0.029537125 0.039066702 0.052818358 0.02751147 0.0061591417 0.01105728 4.3026157e-05
4.1876992e-05 0.10140726 0.009978371 0.061696026 0.053265665 0.042522017 0.04373914 0.0364919
0.04562435 0.03224687 0.033721577 0.00027398032 0.035556924 0.02293411 0.034175728 -0.0043296404
0.035742532 0.05793052 0.022493916 0.050659727 0.012089729 0.013724761 0.03406433 0.03317106
0.011485565 0.05121414 0.029271252 0.029103987 0.043061823 0.03688386 0.03864686 0.020065747
0.006019142 0.04702956 0.03518055 0.05414363 0.004779199 0.043341093 0.052969724 0.06063218
0.023244288 0.023443982 0.04081705 0.018954288 0.01481668 0.018654257 0.047173653 0.04511002
0.027400663 0.012959337 0.052549616 0.048798654 0.03137344 0.024410767 0.01758478 -5.6140565e-05
0.00014817051 0.027902186 0.05625473 0.029037962 0.019669611 0.01574415 0.0002820958 0.08492991
0.05159626 0.058928892 0.030243399 0.032698583 0.052189846 0.0031702116 0.06148694 0.06549054
0.045706756 0.06407108 0.061266556 0.03360226 0.056406893 -9.3497205e-05 4.200141e-06 0.01991385
0.043319404 0.0111072585 0.013108771 0.027291851 0.041511234 0.011989511 -5.3465817e-05 -0.0002088377
0.037039634 0.035675194 -2.8104328e-06 0.013656993 0.0413057 0.041309364 0.018693047 0.031898092
0.008499487 0.07737342 0.034009427 -0.00039937077 0.014957493 0.071239896 0.024439832 0.048102442
0.035103597 0.05041169 0.032994535 0.042353492 0.037778534 0.05711261 0.011935499 0.02981287
0.07417746 0.010228214 0.044186585 0.041092508 0.005379627 0.03843102 0.07568164 0.015090365
0.024496986 0.018784456 0.029438766 0.040653758 0.01959254 -0.00028161742 0.06139865 0.05765774
0.03733832 0.0539479 -6.2949024e-05 0.065582395 0.02110315 0.041928284 -0.024300272 0.06600214
0.054373477 0.069349654 0.023766162 0.009407541 0.08455783 0.01562571 0.01610465 0.03630779
0.07198629 0.03295369 0.020280056 0.006803318 0.0717319 0.069737285 -2.5801366e-05 0.011912128
0.037415184 0.024239529 0.017122319 0.02335308 0.00014851408 0.042728055 0.020079635 0.058593623
0.004394135 0.045834847 0.017532002 0.055525284 0.0684117 0.05291994 0.0053607565 0.041242093
0.051361177 0.015249626 0.008143377 0.013287068 0.03738589 0.050889056 -0.00046884696 0.028021216
0.013055553 0.039790876 -3.1430216e-05 7.0987653e-06 0.040028285 0.052073468 0.04363214 0.065967776
0.036899988 0.04404953 -8.105842e-05 0.02235539 0.041034054 0.014964077 0.0047227526 0.032050177
0.0901829 0.03183804 0.01799896 0.054367468 0.055133134 0.04116439 0.04827384 0.039169773
00000000: f0ca 023d d8a7 423d 73de bd3c bd38 803c
00000010: 8c2a 0839 8231 e93c 1e2a 353c 31fd 4c3d
00000020: c90c 063d 661f 373d 64b7 963d 5469 223d
00000030: e75f 4f3d 96f7 3a3d 45f8 883d 57ae 4f3c
00000040: 848a ff3c 4004 573d 6a75 6f3d 6eb8 883d
00000050: d07d 733d c0f5 3b3d 3d86 da3c b71e 0ebc
00000060: 7d1b 8639 dd08 c63c 0102 fb3c c3ad 483d
00000070: 3949 5f3d 8948 743d 093b bcba c2db 1f3d
00000080: 6327 173d 306d d8b8 251a bd3d 045b 2d3d
00000090: 91ab c93c 266a 9d3c 7c41 1939 2833 e93c
000000a0: 7002 c33b a694 313c 0bda 823c 13db 0d3d
000000b0: 8931 b43b 25bf fd3c 8aa4 49ba c507 683c
000000c0: b141 803d d7f7 f13c 6804 203d 1058 583d
000000d0: bc5f e13c a0d2 c93b 9829 353c fc76 3438
000000e0: 14a5 2f38 9cae cf3d 527c 233c f9b4 7c3d
000000f0: 192d 5a3d 912b 2e3d d027 333d 8878 153d
00000100: 99e0 3a3d 4b15 043d a31f 0a3d 04a5 8f39
00000110: 23a4 113d 51e0 bb3c d9fb 0b3d a8df 8dbb
00000120: c366 123d 8e48 6d3d 2945 b83c 9380 4f3d
00000130: 0014 463c d2dd 603c 0a87 0b3d 61de 073d
00000140: f42d 3c3c ebc5 513d 44ca ef3c 7c6b ee3c
00000150: 9861 303d 8813 173d 2b4c 1e3d ec60 a43c
00000160: 393c c53b 11a2 403d 7b19 103d b6c5 5d3d
00000170: d49a 9c3b 6e86 313d c8f6 583d 7359 783d
00000180: ce6a be3c 980d c03c c72f 273d 0646 9b3c
00000190: a9c1 723c d0d0 983c 2939 413d 49c5 383d
000001a0: 5b77 e03c 6653 543c 443e 573d 19e1 473d
000001b0: 7081 003d 17f9 c73c f50d 903c 7978 6bb8
000001c0: 385e 1b39 2093 e43c 5c6b 663d 05e1 ed3c
000001d0: 2a22 a13c e0f9 803c 42e6 9339 bcef ad3d
000001e0: 9a56 533d 6c5f 713d 01c1 f73c f3ee 053d
000001f0: 05c5 553d 53c3 4f3b bbd9 7b3d e71f 863d
00000200: 0237 3b3d b337 833d a4f2 7a3d 86a2 093d
00000210: ea0a 673d ee13 c4b8 f0ee 8c36 5f22 a33c
00000220: b06f 313d 38fb 353c 2cc6 563c 2993 df3c
00000230: af07 2a3d a76f 443c 7c40 60b8 71fb 5ab9
00000240: dfb6 173d 2720 123d de9a 3cb6 95c1 5f3c
00000250: 2a30 293d 0234 293d 2922 993c 93a7 023d
00000260: 6f41 0b3c f575 9e3d 784d 0b3d a362 d1b9
00000270: 4610 753c 39e6 913d 0b36 c83c 1107 453d
00000280: cac8 0f3d 7d7c 4e3d 4725 073d db7a 2d3d
00000290: aabd 1a3d eaee 693d 1c8d 433c 1f3a f43c
000002a0: 5aea 973d 3d94 273c fefc 343d 9e50 283d
000002b0: 9547 b03b d869 1d3d fafe 9a3d 943d 773c
000002c0: e7ad c83c dce1 993c 9129 f13c 8e84 263d
000002d0: 8980 a03c 0da6 93b9 277d 7b3d 862a 6c3d
000002e0: 11f0 183d 79f8 5c3d 8003 84b8 1050 863d
000002f0: 83e0 ac3c febc 2b3d 5d11 c7bc 212c 873d
00000300: b9b6 5e3d 3107 8e3d 41b1 c23c 1622 1a3c
00000310: a82c ad3d 7d01 803c e6ed 833c 7ab7 143d
00000320: 8c6d 933d 73fa 063d 5c22 a63c 5eee de3b
00000330: 2de8 923d 6cd2 8e3d 0370 d8b7 162b 433c
00000340: aa40 193d fa91 c63c 1b44 8c3c f54e bf3c
00000350: 72ba 1b39 9d03 2f3d 0c7e a43c deff 6f3d
00000360: adfc 8f3b 52bd 3b3d 469f 8f3c 7b6e 633d
00000370: 6f1b 8c3d 94c2 583d 49a9 af3b 78ed 283d
00000380: 1960 523d 91d9 793c cc6b 053c 01b2 593c
00000390: f221 193d 0b71 503d 93cf f5b9 c08c e53c
000003a0: f5e6 553c c2fb 223d f0d3 03b8 ee31 ee36
000003b0: b3f4 233d fd4a 553d 9db7 323d 1d1a 873d
000003c0: 7124 173d 486d 343d e8fd a9b8 a722 b73c
000003d0: 5313 283d e32b 753c 52c1 9a3b 0c47 033d
000003e0: d0b1 b83d 9b68 023d 8e72 933c 6cb0 5e3d
000003f0: 48d3 613d fe9b 283d caba 453d 7c70 203d

network.2.weight f4 [192, 256]
0.008966241 0.051247794 -0.038207427 0.21337911 0.05141708 -0.014919753 0.09631643 -0.0034177727
0.029279118 -0.06883117 -0.030684564 0.063927695 0.03294639 0.09853211 -0.031210162 0.010039183
-0.19108084 0.08051409 -0.049610727 0.023038214 0.0075050914 0.015004145 0.101391904 0.14573249
-0.035858598 0.06407545 -0.022329565 0.046696097 0.0033485864 -0.052892216 -0.008444098 -0.05712052
0.101142615 0.053187426 -0.004361778 0.06930142 0.024214737 -0.1038581 -0.029451028 0.04315263
0.12981895 -0.087988816 -0.04338483 -0.08029405 0.12255807 -0.0014738105 0.13485987 -0.002211456
-0.0011252566 -0.040647466 0.09287922 0.11245106 0.00117131 0.110756636 -0.06113604 0.031401068
0.008236962 0.11841058 0.09600819 -0.021002907 0.038643584 0.108910926 0.022906221 -0.07246656
0.1633589 -0.16025366 0.0216223 -0.018155556 0.090749025 0.17799649 0.12899935 0.10456991
0.025304545 -0.08106935 0.011617572 0.09546914 -0.022785055 -0.024242902 -0.09465911 0.04892171
0.034418374 0.008536643 -0.056906562 0.059200145 -0.11293729 0.053823017 0.07417712 -0.025040932
0.0614347 0.1522691 0.099878974 -0.032937966 -0.08938685 0.034754835 -0.043228917 0.04638992
0.15505788 -0.037210986 0.10742552 0.016148483 -0.069450706 -0.11653374 0.007621023 0.013530737
-0.030792605 -0.08897011 0.016105346 -0.123238154 0.073756754 0.09269244 -0.004438547 0.111426026
-0.06774938 -0.054546554 0.029236803 -0.0076519717 -0.058419243 8.718205e-05 -0.06192646 -0.031941164
0.019032931 -0.013956283 0.010314901 -0.0018498418 -0.026443636 -0.02816908 -0.013017267 0.09451875
0.050629947 0.020724405 -0.030540586 0.053366665 0.0077933525 -0.15173094 -0.013961972 0.06317618
-0.032752354 -0.1525382 -0.04659176 0.05247049 0.12378145 -0.07284535 0.046809066 0.01696596
-0.12401459 0.015208374 -0.1842241 0.15702055 -0.12114278 0.06798368 0.036112502 -0.012103914
-0.041059095 -0.009905319 0.037258957 0.11206878 -0.056083966 0.172517 -0.05203535 0.042167332
0.027050177 0.15869632 0.08207673 0.034089364 0.0022445354 -0.041790146 -0.07599207 -0.04386144
-0.036701214 0.018277587 -0.111092135 0.007946009 0.08102338 -0.017607026 -0.01268323 -0.11855299
-0.040080667 -0.06241439 0.006228496 0.051477972 0.098083496 0.053602066 -0.12825724 -0.007229806
-0.023871649 5.2565567e-05 -0.024086496 -0.0048835087 0.01711832 0.06542042 0.086186856 0.09785232
0.0014725693 0.094126195 -0.06067351 0.030999556 0.08390262 -0.0039173434 0.066686705 0.116762884
-0.024013663 0.010339753 -0.092394695 0.031857006 0.026410347 0.006418081 -0.004650701 0.052925255
0.11656492 -0.016127499 -0.004182653 -0.044930205 -0.07938878 0.06428492 0.036580246 -0.0473216
-0.008924671 0.026158134 -0.014638672 0.063974015 -0.008668668 -0.01080968 -0.10863226 -0.1278552
0.05153418 0.01694078 0.08432552 0.09986948 0.027432032 0.08008389 0.11249146 -0.047016226
-0.06351012 0.01938949 0.056510195 0.045557722 -0.10598067 0.0905729 0.11096359 -0.085121624
-0.013785737 0.038457926 0.09267397 -0.017839715 0.07309622 -0.017052973 0.00673856 0.0123170065
-0.09806617 0.0624724 0.063255884 -0.041935585 -0.033110425 -0.014739583 0.019604988 -0.07192938
00000000: 24e7 123c 35e9 513d 647f 1cbd 0e80 5a3e
00000010: b79a 523d fb71 74bc 8c41 c53d b6fc 5fbb
00000020: c3da ef3c 5bf7 8cbd 325e fbbc 86ec 823d
00000030: cbf2 063d 34cb c93d 74ac ffbc 637b 243c
00000040: b2aa 43be 92e4 a43d 9e34 4bbd a3ba bc3c
00000050: 45ed f53b f2d3 753c 8fa6 cf3d e63a 153e
00000060: 77e0 12bd fd39 833d 7eec b6bc 6844 3f3d
00000070: f573 5b3b 82a5 58bd 1d59 0abc 35f7 69bd
00000080: dc23 cf3d 0fdb 593d 3fed 8ebb e7ed 8d3d
00000090: fc5d c63c 8eb3 d4bd 4843 f1bc d0c0 303d
000000a0: 42ef 043e 7b33 b4bd 4bb4 31bd 3571 a4bd
000000b0: baff fa3d e02c c1ba b518 0a3e 13ee 10bb
000000c0: 597d 93ba f57d 26bd 7637 be3d be4c e63d
000000d0: a486 993a 60d4 e23d c969 7abd 689e 003d
000000e0: 53f4 063c 3f81 f23d f19f c43d 4a0e acbc
000000f0: bc48 1e3d b10c df3d d4a5 bb3c 5969 94bd
00000100: 8e47 273e 8919 24be 4021 b13c f6ba 94bc
00000110: a0da b93d b644 363e 6818 043e c028 d63d
00000120: 7a4b cf3c b007 a6bd a157 3e3c 5385 c33d
00000130: b9a7 babc 0d99 c6bc a3dc c1bd 2262 483d
00000140: 48fa 0c3d 47dd 0b3c db16 69bd da7b 723d
00000150: aa4b e7bd 8675 5c3d 2dea 973d a422 cdbc
00000160: f4a2 7b3d 6eec 1b3e 598d cc3d f6e9 06bd
00000170: 7410 b7bd 165b 0e3d ce10 31bd 5b03 3e3d
00000180: 7ec7 1e3e 8c6a 18bd e901 dc3d d349 843c
00000190: 2c3c 8ebd 3ea9 eebd c6b9 f93b 06b0 5d3c
000001a0: c640 fcbc f635 b6bd 5cef 833c 4964 fcbd
000001b0: c80d 973d 89d5 bd3d 3b71 91bb 5433 e43d
000001c0: 30c0 8abd 356c 5fbd 0582 ef3c 64bd fabb
000001d0: 0449 6fbd 82d5 b638 9aa6 7dbd bdd4 02bd
000001e0: f3ea 9b3c e5a8 64bc d5ff 283c 6476 f2ba
000001f0: 53a0 d8bc d8c2 e6bc 6046 55bc 0c93 c13d
00000200: 5961 4f3d 3ac6 a93c 4030 fabc 0197 5a3d
00000210: 615f ff3b 5b5f 1bbe c1c0 64bc 8362 813d
00000220: 5527 06bd f932 1cbe 00d7 3ebd 4ceb 563d
00000230: 2181 fd3d f12f 95bd ddba 3f3d 32fc 8a3c
00000240: 5dfb fdbd 8b2c 793c 3ea5 3cbe ffc9 203e
00000250: b519 f8bd 073b 8b3d b4ea 133d 7f4f 46bc
00000260: 952d 28bd eb49 22bc d99c 183d 5184 e53d
00000270: 4db8 65bd 4ca8 303e 0523 55bd a7b7 2c3d
00000280: 5598 dd3c 4a81 223e d817 a83d 4aa1 0b3d
00000290: 0e19 133b 252c 2bbd bba1 9bbd 0ea8 33bd
000002a0: 0354 16bd e1ba 953c 4684 e3bd fa2f 023c
000002b0: 96ef a53d 9c3c 90bc 53cd 4fbc e9cb f2bd
000002c0: a02b 24bd 3ba6 7fbd 6918 cc3b 91da 523d
000002d0: 00e0 c83d d78d 5b3d de55 03be 02e8 ecbb
000002e0: 7a8e c3bc d979 5c38 0b51 c5bc d705 a0bb
000002f0: b83b 8c3c 24fb 853d bc82 b03d cc66 c83d
00000300: 3a03 c13a 3cc5 c03d c984 78bd c8f2 fd3c
00000310: 23d5 ab3d 0f5d 80bb 0a93 883d 6121 ef3d
00000320: 4db8 c4bc 1168 293c 6e39 bdbd 7e7c 023d
00000330: 835a d83c c44e d23b e864 98bb 27c8 583d
00000340: 97b9 ee3d d11d 84bc a30e 89bb bc08 38bd
00000350: 9696 a2bd d0a7 833d 2bd5 153d 4bd4 41bd
00000360: c938 12bc 9549 d63c 0ad7 6fbc cf04 833d
00000370: 0707 0ebc 161b 31bc 977a debd 79ec 02be
00000380: 8115 533d 64c7 8a3c dcb2 ac3d 5f88 cc3d
00000390: 24b9 e03c 0603 a43d ec61 e63d 1694 40bd
000003a0: 9811 82bd b5d6 9e3c 3c77 673d bc9a 3a3d
000003b0: 650c d9bd 497e b93d e140 e33d 3f54 aebd
000003c0: 92dd 61bc 0f86 1d3d dacb bd3d 9824 92bc
000003d0: 79b3 953d adb2 8bbc 23cf dc3b 45cd 493c
000003e0: ebd6 c8bd 0fe3 7f3d 4d8c 813d a6c4 2bbd
000003f0: cc9e 07bd 4b7e 71bc a49a a03c b64f 93bd

network.2.bias f4 [192]
0.0007140926 0.02170385 0.0020665817 0.019978698 0.024730783 0.038327556 -0.012396959 -0.0075096665
0.042021852 0.01856473 0.00018102006 0.0038488165 0.035240754 -0.011454284 0.025674494 0.033766087
0.0016499087 0.008024393 0.007560304 0.023321338 0.03196998 -0.001316784 0.012773638 0.03685196
0.030996792 0.020304875 -0.011731902 -0.019540388 0.03548795 0.027732316 0.034056816 0.035168044
0.014785953 -0.014002897 0.03623309 0.027715653 0.017166734 0.021185912 0.021937797 0.0014440126
0.010705293 0.009883424 -0.0076258145 0.0018908513 0.03893331 -0.0047631464 -0.0044924575 0.0024042572
0.045604743 0.020634321 0.018708693 0.036094528 0.0007417222 0.020155279 0.020044861 0.02861032
0.033922832 0.010542675 0.00717127 -0.020783212 0.031617235 0.012444978 0.006739475 0.010609299
0.027657505 0.011414878 0.024500025 0.009369957 0.008640194 0.014772878 0.05834131 0.04206597
0.02887973 0.020158177 0.002485363 0.02483225 0.01931601 0.0069576236 -0.004700283 0.04822981
0.023174278 0.04665606 0.015941985 0.028283913 -0.0012142732 -0.019368788 0.029345976 0.0048133796
-0.012931893 0.013725887 0.04237719 0.0033875257 -0.005300272 0.026003571 0.021607818 0.01125865
0.023309963 0.046950463 0.010828194 0.0036983504 0.03290576 0.017148795 0.007819347 -0.007329987
0.03735072 0.026208447 0.05738635 0.04121671 0.017921522 0.036452312 0.035047162 0.027024724
0.023048233 0.026535193 0.005696232 -0.0067088064 0.02559437 0.03178751 0.04401556 0.013474467
0.0038117976 0.015888175 0.03210066 0.013690341 0.014652419 0.021468537 0.026951527 0.016806569
0.011375175 0.0053350683 0.028946836 0.034293197 0.033379886 0.033183362 0.033494856 0.02693543
0.0011827229 -0.012580804 0.015631346 0.0099860495 0.0047103427 0.020726008 0.026539562 0.028559437
0.047058955 0.017701458 0.015595031 0.004887839 -0.009069848 0.030420888 0.0313272 0.0051216003
0.007930553 0.026274571 -0.0022585776 0.033432517 0.033964023 -0.0016943223 -0.01102096 0.012620683
0.008456235 0.018248575 0.03244867 -0.007768364 -0.02298246 0.0039227083 0.038251247 0.023599947
0.01364136 0.00012893249 0.016746515 0.009054987 0.032298382 0.041058753 0.020658037 0.028105713
0.027826492 0.008873304 -0.0010809691 0.01549497 0.03459642 0.00019254969 0.02144796 0.0058839205
0.002771848 0.03876533 0.025057625 -0.01152109 0.017507805 0.029590348 0.015400047 0.029386224
00000000: f131 3b3a 46cc b13c 7d6f 073b 5eaa a33c
00000010: 3698 ca3c 5bfd 1c3d 9d1c 4bbc a613 f6bb
00000020: 1b1f 2c3d 1015 983c 34d0 3d39 6d3c 7c3b
00000030: 9c58 103d c0aa 3bbc 5153 d23c 4f4e 0a3d
00000040: c041 d83a be78 033c 6dbc f73b 640c bf3c
00000050: f4f2 023d f097 acba 8548 513c 15f2 163d
00000060: fcec fd3c 6956 a63c 2a37 40bc 2a13 a0bc
00000070: d05b 113d e22e e33c 297f 0b3d 5e0c 103d
00000080: c840 723c 686c 65bc 2669 143d f00b e33c
00000090: 40a1 8c3c 148e ad3c e5b6 b33c 0645 bd3a
000000a0: 4165 2f3c 16ee 213c f8e1 f9bb 71d6 f73a
000000b0: 8978 1f3d 2b14 9cbb 7735 93bb be90 1d3b
000000c0: 0acc 3a3d 4f09 a93c f942 993c dbd7 133d
000000d0: 2270 423a af1c a53c 1f35 a43c 3160 ea3c
000000e0: abf2 0a3d 2fbb 2c3c f9fc ea3b 8e41 aabc
000000f0: 1381 013d 05e6 4b3c d0d6 dc3b a0d2 2d3c
00000100: fe91 e23c 7805 3b3c 47b4 c83c 7384 193c
00000110: 9a8f 0d3c f109 723c 4cf7 6e3d 5e4d 2c3d
00000120: 2f95 ec3c c322 a53c 79e1 223b 016d cb3c
00000130: 9c3c 9e3c c7fc e33b d504 9abb 9f8c 453d
00000140: fcd7 bd3c 6d1a 3f3d c498 823c aab3 e73c
00000150: 3f28 9fba 4bab 9ebc f966 f03c 8eb9 9d3b
00000160: 4ae0 53bc 8be2 603c b493 2d3d 4001 5e3b
00000170: e7ad adbb 7105 d53c e102 b13c 3376 383c
00000180: 89f4 be3c 214f 403d bd68 313c 0660 723b
00000190: 31c8 063d a17b 8c3c b81c 003c 6330 f0bb
000001a0: 12fd 183d 19b3 d63c f30d 6b3d dad2 283d
000001b0: 28d0 923c 054f 153d 9d8d 0f3d f462 dd3c
000001c0: a6cf bc3c 5560 d93c 75a7 ba3b 8cd5 dbbb
000001d0: 49ab d13c 9f33 023d a949 343d 03c4 5c3c
000001e0: 5acf 793b eb27 823c fb7b 033d 744d 603c
000001f0: b310 703c c9de af3c 73c9 dc3c eead 893c
00000200: f15e 3a3c ccd1 ae3b ea21 ed3c 0677 0c3d
00000210: 59b9 083d 47eb 073d e731 093d b1a7 dc3c
00000220: 9805 9b3a b71f 4ebc 4f0d 803c 879c 233c
00000230: 3859 9a3b 97c9 a93c 7f69 d93c 7bf5 e93c
00000240: e4c0 403d a602 913c 4d82 7f3c 2a2a a03b
00000250: b399 14bc 3a35 f93c f350 003d 19d3 a73b
00000260: 26ef 013c c53d d73c a504 14bb 89f0 083d
00000270: dc1d 0b3d 0614 deba 4291 34bc fbc6 4e3c
00000280: 058c 0a3c 097e 953c e6e8 043d c38d febb
00000290: b645 bcbc 108a 803b 57ad 1c3d ad54 c13c
000002a0: 0380 5f3c 0d32 0739 fd2f 893c 5e5b 143c
000002b0: 4f4b 043d 392d 283d 0b3b a93c f43d e63c
000002c0: 62f4 e33c 5661 113c 4eaf 8dba 9dde 7d3c
000002d0: fab4 0d3d 2ae7 4939 a2b3 af3c e7cd c03b
000002e0: e5a7 353b 65c8 1e3d a645 cd3c f4c2 3cbc
000002f0: 876c 8f3c 7567 f23c 7b50 7c3c 61bb f03c

network.4.weight f4 [128, 192]
0.08995121 0.023748212 -0.080628775 0.032258067 0.12820214 0.008156588 0.0040480047 0.012421267
0.03469683 0.033448424 0.14430314 0.13609207 -0.10052412 0.004301009 -0.13217989 0.069665514
0.10441964 0.014522587 -0.10401672 -0.053381532 0.08841111 0.21225739 -0.18331642 -0.051439654
0.033545163 -0.03583798 0.066041514 0.003825507 -0.02797867 0.031131098 0.0037624931 -0.19522636
-0.0046020225 0.058735 -0.029340504 0.01532702 0.070864744 0.055506386 0.08041518 0.07707401
-0.017007714 -0.052975483 -0.13148184 -0.071445204 0.08461825 0.018873835 0.14576072 -0.12850441
-0.05754045 0.023666086 0.028439704 0.04960352 0.058657426 -0.04490544 0.096723616 -0.0030645465
0.037029028 0.1936897 0.009287486 0.09725702 0.05223574 -0.011624921 0.062142104 -0.12659764
-0.14102712 0.04958099 0.034154817 0.092764325 0.122793086 0.035318226 0.15097761 -0.097037986
0.19921505 0.025121618 0.08484697 0.009139119 0.11606138 0.013997205 -0.048190333 -0.14958286
0.122000374 0.16824399 0.15274014 -0.049215145 -0.13262786 0.024315113 0.21386203 -0.09894875
0.044046674 0.09388997 0.011568272 -0.10625721 -0.031737417 -0.027595324 0.019677209 -0.07352052
0.023244487 0.042991694 -0.031255256 0.0002842695 0.0028121504 0.10043793 -0.04271914 0.006409682
-0.14387725 -0.037087582 -0.010371128 0.05587342 -0.10921297 0.05583647 -0.015911441 -0.086127385
0.008251467 0.07217405 0.04963669 -0.116129935 -0.023625517 0.053310476 0.09633655 0.06222467
-0.031189581 0.06399481 -0.051529367 -0.10171661 0.035806082 0.050120864 -0.10208739 -0.05794797
-0.036936417 -0.039673127 0.20383924 -0.045700677 0.041221816 -0.029791474 0.004395641 0.15043883
-0.042900298 -0.06160902 -0.048342966 0.062150937 0.065219976 0.095991015 0.25953028 -0.0055019283
-0.056142054 0.17210245 0.014516054 -0.06970905 -0.10025067 0.14392078 -0.0029454813 0.14161716
0.0264234 0.077270955 0.03630995 0.025980823 0.03551061 -0.020731995 0.12628238 0.19090077
-0.17529017 -0.057820868 -0.1386582 -0.062472742 -0.070184104 0.16844986 -0.07361884 -0.22834678
-0.11611441 -0.0472618 0.015783567 0.1992339 0.020010933 -0.10675956 0.25690043 0.08635116
0.13910583 -0.109991156 -0.20279174 0.14668247 0.110434115 0.07691859 0.18015061 0.09719698
-0.049565736 0.05930405 0.012126793 -0.087724976 0.021895912 0.07415792 -0.0353647 -0.06511768
0.064560786 0.14273538 0.16020899 -0.1647899 -0.109854326 0.0012245019 -0.039011728 0.09797747
0.15217671 0.02753635 -0.042774897 -0.026044868 0.11825657 0.052372865 0.104963146 0.034450635
-0.06279672 -0.004734251 -0.13416108 0.0031197846 0.12978038 -0.03780788 -0.007996325 0.08478031
0.1671758 0.0048195287 -0.09086491 -0.01093676 0.033263113 0.084302 -0.12470962 -0.13925342
-0.07937397 0.1283013 0.07352295 -0.056391794 0.05658726 0.002227785 0.032953274 -0.04195304
0.0049815984 0.11104067 -0.011685924 0.059186425 0.19685146 -0.0638 -0.005312283 -0.028233675
-0.010743345 0.10732441 -0.008780585 0.013603868 0.053606037 0.12728578 0.032244734 -0.048101474
-0.081511006 -0.15117219 -0.02041374 -0.17788157 0.048891872 -0.0041090865 -0.04479315 -0.0040976703
00000000: 5738 b83d 9c8b c23c b320 a5bd 0921 043d
00000010: 6c47 033e 36a3 053c 20a5 843b 9282 4b3c
00000020: 431e 0e3d 3701 093d 34c4 133e b85b 0b3e
00000030: 97df cdbd 7aef 8c3b 2a5a 07be cbac 8e3d
00000040: f7d9 d53d 25f0 6d3c b806 d5bd 98a6 5abd
00000050: e210 b53d 005a 593e 4db7 3bbe 63b2 52bd
00000060: a766 093d d9ca 12bd c640 873d 5bb5 7a3b
00000070: 8633 e5bc a506 ff3c 2994 763b 6be9 47be
00000080: 90cc 96bb 1d94 703d 7f5b f0bc 2e1e 7b3c
00000090: 8921 913d aa5a 633d b7b0 a43d fbd8 9d3d
000000a0: c353 8bbc d2fc 58bd 2da3 06be dd51 92bd
000000b0: 554c ad3d 4d9d 9a3c 4c42 153e a996 03be
000000c0: 89af 6bbd 61df c13c 62fa e83c 102d 4b3d
000000d0: c542 703d c4ee 37bd 0817 c63d 8fd6 48bb
000000e0: c0ab 173d 9856 463e 8a2a 183c b02e c73d
000000f0: 25f5 553d 7476 3ebc b888 7e3d d0a2 01be
00000100: 6a69 10be 7015 4b3d ece5 0b3d 39fb bd3d
00000110: f17a fb3d d8a9 103d e099 1a3e dabb c6bd
00000120: 08ff 4b3e dacb cd3c 40c4 ad3d 3ebc 153c
00000130: 97b1 ed3d 8854 653c 3a63 45bd 402c 19be
00000140: 55db f93d 2748 2c3e e967 1c3e d295 49bd
00000150: 99cf 07be 7d30 c73c a6fe 5a3e a4a5 cabd
00000160: 496a 343d 6249 c03d d988 3d3c 619d d9bd
00000170: 18ff 01bd 970f e2bc 1932 a13c ed91 96bd
00000180: 396b be3c 0f18 303d 8305 00bd 020a 9539
00000190: 0e4c 383b 67b2 cd3d 44fa 2ebd 4f08 d23b
000001a0: 8f54 13be 26e9 17bd aaeb 29bc 87db 643d
000001b0: 0dab dfbd c8b4 643d b658 82bc 8e63 b0bd
000001c0: 2931 073c fdcf 933d d84f 4b3d 88d5 edbd
000001d0: 4d8a c1bc 165c 5a3d 194c c53d 4cdf 7e3d
000001e0: 4b81 ffbc b60f 833d 7510 53bd cc50 d0bd
000001f0: 66a9 123d 894b 4d3d 3213 d1bd da5a 6dbd
00000200: a44a 17bd 4a80 22bd 3cbb 503e a230 3bbd
00000210: 35d8 283d 400d f4bc 4f09 903b a30c 1a3e
00000220: 39b8 2fbd bd59 7cbd 4603 46bd fb91 7e3d
00000230: 0d92 853d f096 c43d 27e1 843e 8549 b4bb
00000240: 36f5 65bd a03b 303e bed4 6d3c 9ec3 8ebd
00000250: 3950 cdbd f85f 133e fa08 41bb 1704 113e
00000260: e375 d83c 3c40 9e3d beb9 143d bcd5 d43c
00000270: 9373 113d 25d6 a9bc 2b50 013e 7e7b 433e
00000280: 447f 33be 93d5 6cbd 6afc 0dbe 6be3 7fbd
00000290: afbc 8fbd 1f7e 2c3e 79c5 96bd bdd3 69be
000002a0: 64cd edbd 9795 41bd 8a4c 813c f903 4c3e
000002b0: f8ed a33c c2a4 dabd 7488 833e e1d8 b03d
000002c0: c271 0e3e 0b43 e1bd a3a8 4fbe ee33 163e
000002d0: 482b e23d 7e87 9d3d 6779 383e 360f c73d
000002e0: 7105 4bbd cee8 723d 75af 463c 27a9 b3bd
000002f0: 0e5f b33c 1ce0 973d 93da 10bd 6b5c 85bd
00000300: 7238 843d 3929 123e d30d 243e afbe 28be
00000310: 4efb e0bd 777f a03a c3ca 1fbd 69a8 c83d
00000320: 36d4 1b3e e993 e13c bb34 2fbd 0c5c d5bc
00000330: 8030 f23d ee84 563d ebf6 d63d 1c1c 0d3d
00000340: 919b 80bd c721 9bbb 8661 09be 4d75 4c3b
00000350: 26e5 043e 70dc 1abd 0503 03bc 4da1 ad3d
00000360: 2230 2b3e 23ed 9d3b 6217 babd 1930 33bc
00000370: e73e 083d 87a6 ac3d c267 ffbd 7398 0ebe
00000380: d28e a2bd 6a61 033e 3393 963d 15fb 66bd
00000390: 0bc8 673d 0800 123b 03fa 063d f3d6 2bbd
000003a0: ad3c a33b 4a69 e33d 5176 3fbc 776d 723d
000003b0: 6e93 493e 93a9 82bd a912 aebb 4f4a e7bc
000003c0: db04 30bc e6cc db3d 71dc 0fbc c2e2 5e3c
000003d0: 0192 5b3d 3457 023e 0e13 043d 0d06 45bd
000003e0: 3eef a6bd e2cc 1abe b73a a7bc 9626 36be
000003f0: d842 483d 84a5 86bb 0679 37bd c045 86bb

network.4.bias f4 [128]
0.025403235 0.017769454 0.007790357 -0.0076389094 0.029189462 0.02077536 0.013810108 -0.01939533
0.000101626014 -0.0053341174 0.031291865 0.037711028 0.021095105 0.026843522 0.0017830635 -0.0050234594
0.01662335 -0.004272797 0.032802723 0.0019441766 0.028359724 0.024688931 0.0015283101 0.015726786
0.00022468746 -0.0068811583 -0.0070494628 0.008724698 0.020023406 0.0377432 -0.014688768 0.011737345
0.008974676 0.010551208 -0.0025782692 0.037835013 -0.00061973755 0.014215414 0.01732049 0.021700874
0.03649554 -0.0053278287 -0.012986916 0.001037456 0.024700342 -0.0036679409 0.008194482 0.01842006
-0.006243037 0.009158848 -0.0118035525 0.0022699118 -0.002041381 -0.0010918522 0.00843549 0.02033437
-0.0042806882 -0.020514261 -0.009455064 -0.012055352 0.0048974524 -0.004748262 0.03385546 0.0034020164
0.024785502 -0.0035295011 -0.017880736 0.014224476 0.014880498 0.0062801 0.02074868 -0.011272396
0.009049886 0.012422385 -0.00021261616 0.00569772 0.018243125 0.039471015 0.010744991 0.00410727
-0.0068873726 -0.0051997784 -0.00237605 0.028419884 0.021545032 0.029844606 0.0032309336 0.015598708
-0.0075526573 0.014807932 0.022396073 0.02186598 -0.005260092 0.016526027 -0.0004306158 0.022883628
0.018150995 0.031492833 -0.0015021934 0.029602718 0.008698785 -0.0060505583 0.020202952 -0.00018188012
0.032256935 0.022371223 -0.0026514444 0.004674452 -0.005384246 0.001670248 0.0010202505 0.0025220579
0.004524834 0.005662332 -0.0005170334 -0.002066087 0.030696122 0.015901115 -0.0036948614 0.010112717
0.017984241 0.024281137 0.014812095 0.0061463746 -0.008477465 0.029234948 0.04665391 0.0050086384
00000000: 721a d03c 3f91 913c 4046 ff3b d14f fabb
00000010: bd1e ef3c 1631 aa3c cb43 623c f5e2 9ebc
00000020: 0d20 d538 d2c9 aebb e62b 003d e176 1a3d
00000030: a4cf ac3c f2e6 db3c afb5 e93a d59b a4bb
00000040: b12d 883c d202 8cbb 265c 063d bed3 fe3a
00000050: a752 e83c 7140 ca3c 9451 c83a 76d5 803c
00000060: 159a 6b39 577b e1bb 2eff e6bb 09f2 0e3c
00000070: 2008 a43c 9d98 1a3d 29a9 70bc fe4d 403c
00000080: 850a 133c f9de 2c3c 2ef8 28bb e3f8 1a3d
00000090: e275 22ba c5e7 683c b3e3 8d3c 08c6 b13c
000000a0: 597c 153d 1195 aebb 13c7 54bc 3ffb 873a
000000b0: 5f58 ca3c d661 70bb 2642 063c aae5 963c
000000c0: 6492 ccbb fe0e 163c b063 41bc cdc2 143b
000000d0: b1c8 05bb 7b1c 8fba 0235 0a3c 4494 a63c
000000e0: 0445 8cbb 860d a8bc 6ae9 1abc d083 45bc
000000f0: cf7a a03b 4f97 9bbb 06ac 0a3d 5df4 5e3b
00000100: f70a cb3c 344f 67bb 9f7a 92bc c70d 693c
00000110: 55cd 733c 4cc9 cd3b 23f9 a93c dbaf 38bc
00000120: f945 143c 4287 4b3c b7f1 5eb9 f1b3 ba3b
00000130: 9b72 953c 5cac 213d c20b 303c 4796 863b
00000140: 78af e1bb e762 aabb 81b7 1bbb d1d0 e83c
00000150: 357f b03c ad7c f43c 12be 533b b991 7f3c
00000160: 487c f7bb f89c 723c f877 b73c 4920 b33c
00000170: da5c acbb 9761 873c 46c4 e1b9 7276 bb3c
00000180: 65b1 943c a1fe 003d 3fe5 c4ba 6681 f23c
00000190: 5985 0e3c c343 c6bb a980 a53c 13b7 3eb9
000001a0: d91f 043d db43 b73c dbc3 2dbb 252c 993b
000001b0: 546e b0bb 39ec da3a edb9 853a 1c49 253b
000001c0: 0f45 943b 158b b93b 8689 07ba 3067 07bb
000001d0: 6f76 fb3c 0e43 823c 7d25 72bb cfaf 253c
000001e0: b053 933c 3ce9 c63c 6eae 723c 8767 c93b
000001f0: 11e5 0abc 217e ef3c 2c18 3f3d 811f a43b

network.6.weight f4 [39, 128]
-0.22106513 -0.013748801 0.016681427 -0.10096598 -0.14164227 -0.053358827 0.060022965 -0.13676906
0.2261568 -0.037007313 -0.20672204 0.02561223 -0.01356645 -0.09038831 0.011371546 -0.066354506
-0.007719446 -0.047261678 0.21073557 -0.23032923 0.0094601 0.13187607 -2.9873694e-05 0.13924462
-0.19489641 0.27888453 0.22985919 -0.2138369 -0.027668504 -0.19966531 -0.16745156 -0.190467
0.031109987 0.032783058 0.18180224 -0.114833586 -0.22289437 3.18787e-08 -0.04465394 -0.09523024
-0.075944684 0.08688059 5.3157705e-06 -3.7613681e-06 -0.2833259 -2.9219109e-05 0.2087521 -0.24810322
0.016622432 -0.026710821 0.033282343 0.16069114 -0.13162805 -0.10094127 -0.039897684 -0.2247612
0.07431934 -0.026296942 5.5415103e-07 -0.0014213303 0.012295635 -0.0321542 -0.12591025 -0.0065024365
-0.07982318 0.19115457 -0.015167823 -0.20590389 -0.024440058 -0.02906893 -0.24710034 -0.10592506
-0.16564308 -0.08165255 -0.17890133 -0.021205705 -0.23038921 0.032951415 -0.098566376 -0.13852744
-0.0078088357 -0.06123374 -0.11499815 -0.005075208 -0.09104712 0.02400616 0.14280334 0.019594809
-0.102793075 -0.05609404 0.03625111 0.03312033 -0.019721625 -0.13251616 -4.4931285e-06 -0.006159458
0.124700926 -0.23043823 -0.15069458 -0.14578114 -0.0061321757 -0.16900367 -0.0971918 -0.045650363
-0.18360078 0.041773595 0.0052949362 -0.009798002 -0.2603499 -0.014486839 0.230097 -0.015736422
-0.06572512 0.010475531 -0.07428639 -0.031139499 -0.17776336 -0.463148 0.22905403 -0.04820291
-0.17076701 -0.07905288 -0.0016311272 -0.16867265 0.05327418 -0.21701269 0.0009988255 -0.2408408
-0.05400859 0.09227584 0.23395751 0.13408987 0.10243807 0.0027072437 0.10082633 0.11524675
-0.17046016 -0.050717272 0.04964885 -0.111496255 -0.05629159 0.10042901 0.07402355 0.030210929
-0.08855178 0.085201696 0.11543011 0.01484022 0.08328091 0.18895878 -0.18137491 0.016954465
-0.057251353 0.07581902 -4.620581e-06 0.027309226 0.17052032 -0.07357088 -0.02129882 -0.10027688
0.039572224 0.118817575 -0.09405683 -0.21651791 0.1331109 0.114881806 -0.15636341 -0.030255266
-0.054472823 -0.005748963 -0.2057178 0.0014043029 0.08406578 -0.22973514 0.21891215 0.034370188
0.050488718 -0.19086227 -0.098005585 0.0033833322 0.18990847 -0.0021466182 -0.04776295 0.09918273
0.18240511 0.10182572 0.0558969 0.100368015 0.20228183 0.089393914 -0.073890336 0.024578597
-0.12749213 -0.09059513 0.03740759 0.005006768 -0.14995007 0.138778 0.20106256 0.035959173
0.09863633 0.0144821415 -0.033732433 -0.1332538 -0.030123862 0.08097715 -0.114399165 0.1911144
0.00027740048 -0.17178258 -0.20487307 -0.076555066 0.14832997 -0.025375258 0.023276255 0.21827994
-0.1462826 0.17161685 -0.007483403 0.05924657 -0.00974975 -0.09784943 0.10068557 0.012581493
0.15117775 -0.03538243 0.08118822 0.08053356 -0.15489876 -0.08839217 -0.05102062 -0.015269484
0.048897028 -0.0784538 -0.27840182 -0.19905993 -0.028093567 -0.017048337 3.623451e-05 0.27590984
-0.052868176 -0.07627545 0.21237291 -0.15375257 0.056013484 -0.041575942 0.030967208 -0.058467336
-0.18988025 0.021934776 0.0013564968 0.13753076 0.009220048 -0.43922147 -0.20975937 0.107388675
00000000: e65e 62be a742 61bc 7da7 883c 40c7 cebd
00000010: ac0a 11be c98e 5abd a4da 753d 300d 0cbe
00000020: a695 673e fb94 17bd f1ae 53be bdd0 d13c
00000030: d145 5ebc 821d b9bd b94f 3a3c dfe4 87bd
00000040: 68f3 fcbb 7695 41bd 11cb 573e 6ddb 6bbe
00000050: 89fe 1a3c 850a 073e 4599 fab7 2496 0e3e
00000060: ed92 47be f4c9 8e3e 3560 6b3e 0ff8 5abe
00000070: 0fa9 e2bc 1075 4cbe 6c78 2bbe c809 43be
00000080: 5fda fe3c 8747 063d 5e2a 3a3e df2d ebbd
00000090: 6c3e 64be 00eb 0833 0de7 36bd 1208 c3bd
000000a0: e388 9bbd 73ee b13d 1f5e b236 d06b 7cb6
000000b0: 1810 91be 8f1b f5b7 1cc3 553e c50e 7ebe
000000c0: c42b 883c a7d0 dabc 1153 083d 388c 243e
000000d0: 81c9 06be 4cba cebd c16b 23bd cd27 66be
000000e0: bd34 983d af6c d7bc f8c0 1435 ee4b baba
000000f0: a273 493c 1fb4 03bd 9eee 00be 6412 d5bb
00000100: 567a a3bd 06be 433e 7682 78bc 78d8 52be
00000110: 8436 c8bc f721 eebc df07 7dbe 3def d8bd
00000120: 579e 29be 7439 a7bd e931 37be 96b7 adbc
00000130: 26eb 6bbe 10f8 063d 2bdd c9bd 23da 0dbe
00000140: 43e1 ffbb 3bd0 7abd 2684 ebbd ee4d a6bb
00000150: ea76 babd 91a8 c43c 0a3b 123e 4b85 a03c
00000160: 2d85 d2bd ddc2 65bd 0b7c 143d 2fa9 073d
00000170: 3f8f a1bc 51b2 07be aec3 96b6 47d5 c9bb
00000180: 3363 ff3d 00f8 6bbe ae4f 1abe a747 15be
00000190: 6bf0 c8bb 4c0f 2dbe 7f0c c7bd e0fb 3abd
000001a0: d801 3cbe ca1a 2b3d 2581 ad3b cd87 20bc
000001b0: 954c 85be 355a 6dbc 8c9e 6b3e abe9 80bc
000001c0: e49a 86bd 90a1 2b3c 7623 98bd 4318 ffbc
000001d0: 9907 36be bc21 edbe 248d 6a3e 6a70 45bd
000001e0: 8cdd 2ebe 7ae6 a1bd 8ccb d5ba 86b8 2cbe
000001f0: 0736 5a3d 9338 5ebe 06eb 823a f89e 76be
00000200: 1c38 5dbd 1efb bc3d 8f92 6f3e db4e 093e
00000210: 0dcb d13d 036c 313b 097e ce3d 7d06 ec3d
00000220: 1c8d 2ebe eabc 4fbd 985c 4b3d 2658 e4bd
00000230: 0392 66bd baad cd3d a999 973d e97c f73c
00000240: a35a b5bd 3a7e ae3d 9f66 ec3d 6524 733c
00000250: 2f8f aa3d 697e 413e 58ba 39be 17e4 8a3c
00000260: 6580 6abd 0147 9b3d 7d0a 9bb6 99b7 df3c
00000270: e19c 2e3e 54ac 96bd dd7a aebc f75d cdbd
00000280: 7c16 223d a156 f33d dea0 c0bd dfb6 5dbe
00000290: 394e 083e 2747 eb3d bb1d 20be e4d9 f7bc
000002a0: e51e 5fbd cc61 bcbb b0a7 52be 9610 b83a
000002b0: ae2a ac3d b03f 6bbe 822a 603e c1c7 0c3d
000002c0: 42cd 4e3d 6671 43be 27b7 c8bd e5ba 5d3b
000002d0: 5e77 423e 47ae 0cbb 15a3 43bd 5120 cb3d
000002e0: 68c8 3a3e 018a d03d 26f4 643d bf8d cd3d
000002f0: f822 4f3e 2814 b73d d153 97bd 0e59 c93c
00000300: 4c8d 02be f189 b9bd b338 193d d00f a43b
00000310: 838c 19be d21b 0e3e 58e3 4d3e ed49 133d
00000320: d801 ca3d 8146 6d3c 052b 0abd af73 08be
00000330: 51c6 f6bc 59d7 a53d 1c4a eabd 7eb3 433e
00000340: 1070 9139 c6e7 2fbe 3fca 51be e7c8 9cbd
00000350: d0e3 173e c6df cfbc d8ad be3c c784 5f3e
00000360: 1bcb 15be 54bc 2f3e 5637 f5bb 88ac 723d
00000370: 6abd 1fbc 4865 c8bd 3c34 ce3d 9b22 4e3c
00000380: 57ce 1a3e 2bed 10bd 0246 a63d c7ee a43d
00000390: c89d 1ebe f406 b5bd fffa 50bd dc2c 7abc
000003a0: 4048 483d 63ac a0bd af8a 8ebe 5ed6 4bbe
000003b0: 7b24 e6bc f4a8 8bbc 82fa 1738 0e44 8d3e
000003c0: 4d8c 58bd 4e36 9cbd 4978 593e 5071 1dbe
000003d0: 656e 653d 894b 2abd f1ae fd3c 727b 6fbd
000003e0: f86f 42be 8fb0 b33c 7bcc b13a ddd4 0c3e
000003f0: af0f 173c a3e1 e0be 29cb 56be 98ee db3d

network.6.bias f4 [39]
-0.018361917 -0.009537703 0.019529765 -0.008995465 -0.0147982845 -0.011676724 -0.0026520852 -0.022886096
0.023087665 -0.0080589615 -0.023652848 0.010622109 0.004199471 -0.0020686286 0.009485766 0.028075015
-0.010326542 -0.024037763 0.0005922198 0.011713373 -0.014793322 -0.008781336 -0.008549029 0.029360462
-0.027892418 0.021476991 -0.02219086 -0.012620734 -0.018059397 -0.015347505 0.0063093575 -0.009948233
-0.010197329 -0.020923346 -0.022084525 -0.01638186 -0.01996254 -0.020594852 -0.033268128
00000000: bb6b 96bc 0744 1cbc e3fc 9f3c b761 13bc
00000010: 8174 72bc bb4f 3fbc 9bce 2dbb 9f7b bbbc
00000020: 5822 bd3c bc09 04bc 9ec3 c1bc 5b08 2e3c
00000030: b79b 893b d491 07bb 306a 1b3c 93fd e53c
00000040: a830 29bc d8ea c4bc 333f 1b3a 72e9 3f3c
00000050: b15f 72bc 98df 0fbc 3a11 0cbc 5a85 f03c
00000060: a47e e4bc 84f0 af3c 9bc9 b5bc 32c7 4ebc
00000070: 4df1 93bc 1a74 7bbc babe ce3b eafd 22bc
00000080: b312 27bc 7067 abbc 9bea b4bc 4033 86bc
00000090: 7b88 a3bc 89b6 a8bc 2944 08bd
