Homework/HW2/results/quick_grid/run_04.pt (torch, 583917 bytes, 8 tensors)

network.0.weight f4 [256, 256]
0	0x3d9b3b4c	0.07579669
1	0xbe006125	-0.12537058
2	0xbd8a5ed9	-0.06756372
3	0xbd9078f8	-0.07054323
4	0xbd4b53c4	-0.049640432
5	0xbddda70b	-0.108228765
6	0x3d6fb7eb	0.058525007
7	0x3cd89947	0.026440276
8	0x3e1006c1	0.14065076
9	0xbdceb7bf	-0.100936405
10	0xbdc0b18d	-0.09408865
11	0xbdb53c53	-0.088493966
12	0xbc063012	-0.008190172
13	0xbd8129a0	-0.063067675
14	0x3e22e984	0.15909392
15	0x3e1a2b27	0.15055524
16	0x3dbeb4bf	0.09311818
17	0xbc581295	-0.013188024
18	0xbce79d0a	-0.028273124
19	0x3c8c13fe	0.017099377
20	0xbb470583	-0.0030368275
21	0x3d060719	0.032721613
22	0x3d24a120	0.040192723
23	0xbdad7346	-0.08469252
24	0x3d7b2c4d	0.061321545
25	0x3cb5e82f	0.02220544
26	0x3cab9528	0.020945147
27	0x3c6efa1c	0.014585998
28	0x3dfaccd6	0.122461006
29	0xbdb3eb13	-0.08785071
30	0xbc74eac2	-0.014948549
31	0xbd4c2c3b	-0.04984687
32	0xbd96ec0f	-0.07369243
33	0x3d13c051	0.03607208
34	0xbd72f3c6	-0.05931451
35	0xbe0ce778	-0.13760173
36	0x3d910fc2	0.07083084
37	0x3c31d5cd	0.010854197
38	0xbe0fcd35	-0.14043124
39	0xbd3eabf6	-0.046550713
40	0x3d8aea47	0.06782966
41	0xbd949476	-0.07254879
42	0xbd3305ff	-0.04370689
43	0x3de547ab	0.1119531
44	0x3d8e32b2	0.06943263
45	0x3ce1423b	0.027497401
46	0xbd0962c5	-0.03354146
47	0xbe537f1a	-0.20653954
48	0xbd940eaf	-0.07229363
49	0xbb5f00e2	-0.0034027626
50	0x3dc0475e	0.09388612
51	0x3e1c48fe	0.1526222
52	0xbda7ac2a	-0.081871346
53	0xbda31923	-0.07963779
54	0x3db38345	0.08765272
55	0x3d76dab4	0.060267165
56	0xbc28f41c	-0.010312106
57	0xbd351185	-0.04420616
58	0x3cb7b193	0.022423541
59	0xbd800bd9	-0.0625226
60	0xbbed9997	-0.0072509754
61	0xbe09da86	-0.13462266
62	0xbd16217d	-0.03665303
63	0x3da5ea3b	0.081013165
64	0x3a6ec087	0.00091076683
65	0x3d08a544	0.033360735
66	0x3e00f229	0.12592377
67	0x3db3eda1	0.087855585
68	0xbe0ba6a2	-0.13637784
69	0xbdca640a	-0.09882362
70	0x3d1f6ab9	0.038920138
71	0xbd364f3f	-0.04450917
72	0xbe031a0d	-0.12802906
73	0x3ced542e	0.028970804
74	0xbc9a8708	-0.018863216
75	0xbc9d71a9	-0.019219236
76	0xbca3329c	-0.019921593
77	0x3da3177e	0.07963465
78	0xbcd3e673	-0.025866723
79	0x3bd3e372	0.0064663226
80	0x3e38b66f	0.18038343
81	0x3d8bc7b5	0.068252005
82	0xbde152c4	-0.110021144
83	0x3d7bd6aa	0.061484016
84	0x3d44a813	0.04801185
85	0x3dd412b1	0.103551276
86	0x3dc7f89c	0.09764215
87	0x3d8849dc	0.066547126
88	0x3c59ab8b	0.013285528
89	0x3db47939	0.08812184
90	0xbcccb6c7	-0.024989499
91	0x3c537360	0.0129059255
92	0xbbd8ac9e	-0.0066123744
93	0x3d0a3021	0.033737306
94	0x3d0d7fad	0.03454559
95	0x3dd7b60c	0.105327696
96	0x3c8ca7be	0.01716983
97	0xb9bedadc	-0.00036402687
98	0xbaf3bf44	-0.001859643
99	0x3d9f3918	0.07774562
100	0xbd41e0df	-0.047333594
101	0xbc8aa2e9	-0.016923385
102	0x3bbe55cf	0.005808569
103	0x3d09b54f	0.033620175
104	0xbd641c74	-0.055691198
105	0xbd7b4f6d	-0.061355043
106	0x398b9dbd	0.0002662967
107	0xba6e59c3	-0.0009092355
108	0x3da78471	0.08179558
109	0x3d605dd4	0.05477698
110	0x3dbef093	0.0932323
111	0x3a8e8966	0.0010874688
112	0xbdb6e8c0	-0.08931112
113	0xbcd7e325	-0.026353428
114	0xbd10bddd	-0.035337318
115	0xbdaed0fb	-0.085359536
116	0x3cc92279	0.02455257
117	0x3bb97720	0.0056599528
118	0x3b4b01ba	0.003097637
119	0xbe1bafad	-0.15203734
120	0x3d88befa	0.06677051
121	0x3d7e5783	0.062095176
122	0xbca5ab29	-0.020223217
123	0xbd4c6188	-0.0498977
124	0x3cfd979f	0.030956088
125	0x3dabd6cf	0.08390581
126	0x3d474352	0.048648186
127	0x3cf76e08	0.030203834
128	0xb7eb610d	-2.8059376e-05
129	0x379ea1ad	1.8910354e-05
130	0xb74cefe4	-1.2215201e-05
131	0x351eab40	5.910879e-07
132	0x3704d75f	7.917958e-06
133	0x3e1276ff	0.14303206
134	0x36c9e718	6.0171697e-06
135	0xb70d47d0	-8.420975e-06
136	0x36e63816	6.8610634e-06
137	0xbe18cd30	-0.14922023
138	0x3e26f01d	0.16302533
139	0xbe33f364	-0.17573315
140	0x37ad3c8b	2.06514e-05
141	0x3706f7c8	8.0447135e-06
142	0xb59c0808	-1.1625243e-06
143	0x3e0b91fd	0.13629909
144	0x3607a886	2.0214661e-06
145	0xbe34f5e2	-0.17671922
146	0xb74af6f6	-1.2097638e-05
147	0xb6ed2685	-7.0676347e-06
148	0x3759b6a2	1.297673e-05
149	0xbe34f398	-0.17671049
150	0xb44c1b40	-1.9008894e-07
151	0x3e027bc4	0.12742525
152	0xbe2b3bb2	-0.1672199
153	0xbe2a55d1	-0.16634299
154	0x34cf05c0	3.8560938e-07
155	0xb6d17a14	-6.242897e-06
156	0x3e1fe5d5	0.15615018
157	0xbe34f6b4	-0.17672235
158	0xb7e0ba76	-2.6789708e-05
159	0xbe34f4d9	-0.17671527
160	0xbe34f486	-0.17671403
161	0xbe34f904	-0.17673117
162	0xbe28a1b8	-0.16467941
163	0xbe34f397	-0.17671047
164	0xb7eafca7	-2.8012624e-05
165	0x373d3e7c	1.1279826e-05
166	0xb6c9f376	-6.0186094e-06
167	0xb785be14	-1.5943348e-05
168	0x37808822	1.532218e-05
169	0x38048456	3.15945e-05
170	0x370cba42	8.388017e-06
171	0x3e34f716	0.17672381
172	0x369db61a	4.700164e-06
173	0xb8025399	-3.107227e-05
174	0xbe34f6c2	-0.17672256
175	0x370b90a1	8.31872e-06
176	0xb74a3b0e	-1.2053888e-05
177	0xb708289a	-8.115685e-06
178	0xb6026a18	-1.9433264e-06
179	0xb6ffd89f	-7.62481e-06
180	0xb7008097	-7.659334e-06
181	0xbe1249a4	-0.14285904
182	0x3e34f64b	0.17672078
183	0xb7d6ce3b	-2.5606822e-05
184	0x37571720	1.2820383e-05
185	0xb7589410	-1.2909077e-05
186	0xbe34ff79	-0.1767558
187	0x3e23353f	0.1593828
188	0x370b24f1	8.293647e-06
189	0x3e34f8ea	0.17673078
190	0x3817860c	3.6126046e-05
191	0x3710df8d	8.635118e-06
192	0xb6879e4a	-4.041741e-06
193	0x36acd6fa	5.151026e-06
194	0x37efc33c	2.8581933e-05
195	0x37ce4546	2.4589372e-05
196	0xbe34f520	-0.17671633
197	0xb829cd96	-4.0484207e-05
198	0x36e6297e	6.8593645e-06
199	0x37c7c855	2.3815935e-05
200	0xbe34f679	-0.17672147
201	0xb64b1b82	-3.026537e-06
202	0x334b2040	4.7293952e-08
203	0xbe23cbd4	-0.15995723
204	0x3825ed11	3.955985e-05
205	0xbe31c699	-0.17360915
206	0x36d5d663	6.3728526e-06
207	0xbe34f231	-0.17670514
208	0xb641f978	-2.890445e-06
209	0xb6398a3a	-2.7647607e-06
210	0xbe0e164c	-0.13875693
211	0xb7935ca6	-1.7566908e-05
212	0xb70a6842	-8.249715e-06
213	0xbe32d06e	-0.17462322
214	0xb730e650	-1.0544041e-05
215	0xb66f2780	-3.5636767e-06
216	0xb706064a	-7.988487e-06
217	0xb8086600	-3.251992e-05
218	0xb7db44ab	-2.613881e-05
219	0xb6448672	-2.9284533e-06
220	0xbe34f44f	-0.17671321
221	0x35a8e5a8	1.2583814e-06
222	0x3e1eb5dc	0.15499061
223	0x34e34e48	4.2339002e-07
224	0xb74f1cba	-1.234485e-05
225	0xbe0eed4b	-0.13957708
226	0xb84d09d2	-4.8884955e-05
227	0xb6183b14	-2.2684153e-06
228	0xb740e8f4	-1.149833e-05
229	0x3580e110	9.602245e-07
230	0xb79f26af	-1.897229e-05
231	0xbe19ed50	-0.15031934
232	0x370ac646	8.271605e-06
233	0x3e2f22f8	0.17103183
234	0xb65e1d34	-3.3097576e-06
235	0x377144d9	1.4380749e-05
236	0x36fbcd12	7.5042562e-06
237	0x36782907	3.697876e-06
238	0x3720a1ab	9.574384e-06
239	0xb6b75106	-5.4632574e-06
240	0xb7367c04	-1.087692e-05
241	0x372140cb	9.611434e-06
242	0x37178d35	9.033179e-06
243	0x3e33461e	0.17507216
244	0xb65a1190	-3.2494754e-06
245	0x3e3296b9	0.17440309
246	0xb19e7800	-4.6120476e-09
247	0x37d71c0b	2.5643056e-05
248	0xb6ea9ffa	-6.992367e-06
249	0xbe2635b0	-0.16231418
250	0xbe34f57b	-0.17671768
251	0x3e0a62ae	0.13514206
252	0xb776d7e8	-1.4713012e-05
253	0x3e20cfb3	0.15704231
254	0x37e1c501	2.6913827e-05
255	0x371a4e32	9.197322e-06

network.0.bias f4 [256]
0	0x3cd348fa	0.025791634
1	0x3d43be36	0.04778882
2	0x3d6345ee	0.055486612
3	0x3cad74f7	0.021173937
4	0x3d7193c9	0.05897883
5	0x3c2cbaea	0.010542611
6	0x3d170a3a	0.036874987
7	0x3ce6fbeb	0.028196296
8	0x3c63c22e	0.0139012765
9	0x3da925b8	0.082591474
10	0x3bd0fe1d	0.006377949
11	0x3d157ef6	0.036498033
12	0x3da933d1	0.08261836
13	0x3d51904b	0.051163
14	0x3d2adf20	0.041716695
15	0x3d82fbf6	0.06395714
16	0x3d44b6c9	0.04802588
17	0x3db379da	0.08763476
18	0x3cfa2f43	0.030540114
19	0x3cffbc54	0.031217732
20	0x3d0daef9	0.034590695
21	0x3d13307a	0.035934903
22	0x3d21eac6	0.039530538
23	0x3d4bb612	0.049734183
24	0xb997cf3f	-0.00028955375
25	0x3d38d2e0	0.04512298
26	0x3d7ab668	0.061209112
27	0x3d53360e	0.051565222
28	0x3d976b85	0.073935546
29	0x3cc365d6	0.02385227
30	0x3c133efb	0.008987184
31	0xba82733d	-0.0009952557
32	0x3c82251a	0.015886832
33	0x3d28dce8	0.041226298
34	0xb8034f10	-3.1306467e-05
35	0x3cd3df6c	0.025863372
36	0x3d4c6ae3	0.049906623
37	0x3d08052e	0.033208065
38	0x3c76e532	0.015069293
39	0x3d234168	0.039857298
40	0x3d4abeed	0.049498487
41	0x3ce9c9ea	0.028538663
42	0x3d9b57ee	0.07585131
43	0x3d44272a	0.047888912
44	0x39594518	0.00020720472
45	0x3d045595	0.03230818
46	0x3d4b7edc	0.04968153
47	0x3ca81f15	0.020522634
48	0x3c93cbe3	0.018041557
49	0x3d77ca41	0.06049562
50	0x3d2a5fff	0.041595455
51	0x3d2f09a0	0.04273379
52	0x3cea6d2c	0.02861651
53	0x3d58ce65	0.05293121
54	0x3cbf7d40	0.023375154
55	0x3d08382e	0.033256702
56	0x3d09a556	0.033604942
57	0x3cbc6b53	0.023000395
58	0x3ca040e4	0.019562192
59	0x3d0eeaa9	0.034891758
60	0x3d755701	0.059897427
61	0x3d76ed43	0.060284864
62	0x3ccbc994	0.024876393
63	0x3d5c0708	0.053717643
64	0x3cea1981	0.028576614
65	0x3d36a6b6	0.04459258
66	0x3b17764e	0.0023111287
67	0x3c8e521d	0.017373139
68	0xb8ae93ba	-8.324483e-05
69	0x3d14275c	0.03617035
70	0x3c36a126	0.011146819
71	0x3da515c0	0.08060789
72	0x3d05c1a8	0.032655388
73	0x3d579b5c	0.052638397
74	0x3c24d01b	0.010059382
75	0x3d0a8102	0.033814438
76	0x3cb63f33	0.022246933
77	0x3cea3887	0.028591407
78	0x399318a8	0.00028056395
79	0x3d1f5722	0.038901456
80	0x3dbc2925	0.09187535
81	0x3d1629a6	0.036660813
82	0x3d68f1f3	0.056871366
83	0x3d363751	0.044486348
84	0x3c69b707	0.0142648285
85	0x3d30dea9	0.043181095
86	0x3d84fd95	0.064936794
87	0x3d001297	0.03126773
88	0x3d135494	0.03596933
89	0x3d31d089	0.043411765
90	0x3c34e49c	0.011040833
91	0x3d64e7d9	0.05588517
92	0xba50f39a	-0.000797087
93	0x3c844f9a	0.016151238
94	0x3d231817	0.039817896
95	0x3cebf53b	0.028803458
96	0x3bf693b8	0.0075249337
97	0x398b4ee5	0.00026570927
98	0x3d74fbcc	0.059810445
99	0x3cfcfeb2	0.030883167
100	0xb8d49caf	-0.00010138132
101	0x3ba6eabb	0.0050939
102	0x3cc60d30	0.02417621
103	0x398798de	0.00025863101
104	0x3cebd3ec	0.028787576
105	0x3d74b229	0.05974022
106	0x3d9ba027	0.07598906
107	0x3d7fe692	0.06247575
108	0x3cf46f0a	0.029838104
109	0x3db0602b	0.086120926
110	0x3c88de0f	0.016707448
111	0x3c622fa5	0.013805305
112	0x3c9725ce	0.018450644
113	0x3c398a89	0.011324533
114	0x3d28f62d	0.041250397
115	0x3d73d579	0.059529755
116	0x3cea6a6d	0.0286152
117	0x3c6a6b9d	0.014307884
118	0x3ca35ce8	0.019941762
119	0x3d6b143b	0.05739234
120	0x3c9cde97	0.019149108
121	0x3ca9daa5	0.02073414
122	0x3d5e3f3c	0.054259524
123	0x3b451a3e	0.0030075456
124	0x3c6db8c3	0.014509383
125	0x3ccbcb17	0.024877114
126	0x3cab7c0c	0.020933174
127	0x3b07309a	0.0020628334
128	0x3c41fa67	0.011839486
129	0x3d69f471	0.057117883
130	0x3d671404	0.056415573
131	0x3ce500af	0.027954428
132	0x3d2deb3c	0.042460665
133	0x3cbffc61	0.023435773
134	0x3cea11d2	0.02857295
135	0x3ad23ad4	0.0016039261
136	0x3ce05b00	0.027387142
137	0x3d26db0d	0.040736247
138	0xbb7643ac	-0.0037576957
139	0x3b977da7	0.004623133
140	0xb5edd1e8	-1.7718967e-06
141	0x3d6b9649	0.05751637
142	0x3a9424c1	0.0011302457
143	0x3cfb0db1	0.030646177
144	0x3c871f0e	0.0164943
145	0x3d3b228e	0.04568725
146	0x3d1021e5	0.035188574
147	0xb7fd37d7	-3.0185953e-05
148	0x3d240de0	0.040052295
149	0x3d446b62	0.04795397
150	0x3d0c1807	0.0342026
151	0x3d2a0a73	0.04151387
152	0x3c389b02	0.0112674255
153	0x3c7514b3	0.014958548
154	0x3c16bdc2	0.009200515
155	0x3ba2b36e	0.0049652373
156	0x3d4d91f6	0.050188027
157	0x3c876c7e	0.016531225
158	0xb9077381	-0.00012917632
159	0x3d485cb5	0.048916537
160	0xba339d2b	-0.0006851728
161	0x38af3dbe	8.356151e-05
162	0x3d3ad427	0.04561248
163	0x3ce0cf11	0.027442487
164	0x3cc6737b	0.024224987
165	0x3d795a82	0.06087733
166	0x3d3959c1	0.04525161
167	0xba8540c8	-0.0010166401
168	0x3d1671ee	0.036729746
169	0x3d0695a1	0.03285754
170	0x3cf880fc	0.030334942
171	0x3c219d1a	0.009864116
172	0x3d06d656	0.03291925
173	0x3c9b5b4b	0.01896443
174	0x3ce08dd1	0.027411373
175	0x3c2ca334	0.0105369575
176	0x3cbbb735	0.022914508
177	0x3d5a5abb	0.053309184
178	0x3d3f1931	0.046654884
179	0x3d445198	0.047929376
180	0x3d393ffa	0.04522703
181	0x3d026ca4	0.03184189
182	0x3d3e4e23	0.046461236
183	0x3a070e31	0.0005151956
184	0x3cb613a2	0.022226159
185	0x3d3cffc6	0.046142362
186	0x3d9f952a	0.07792123
187	0x3d3cb642	0.046072252
188	0x3c92bf62	0.017913524
189	0x3d504c88	0.050854236
190	0x3d52d3c5	0.05147149
191	0x3d85ead3	0.0653893
192	0x3d4063d4	0.046970204
193	0x3d6717f4	0.056419328
194	0x3d0f5f33	0.0350029
195	0x3c728d89	0.014804252
196	0x3d706fdc	0.058700427
197	0x3d7b3881	0.061333183
198	0x3d4ecf85	0.050490875
199	0xb95b7dc7	-0.00020932323
200	0x3d4987c5	0.049201746
201	0xb95333a7	-0.0002014177
202	0x3d909f85	0.07061676
203	0x3c83f840	0.016109586
204	0x3d110d7c	0.03541325
205	0x39796b31	0.00023786422
206	0x3c325456	0.010884365
207	0x3d008623	0.031377923
208	0x3cab27db	0.020893028
209	0x3ce52fef	0.027976958
210	0x3dbc6afd	0.09200094
211	0x3d1e98c8	0.038719922
212	0x3d5f9f7a	0.054595448
213	0x3d5c9122	0.053849347
214	0x3cfb6b18	0.030690715
215	0x3da492df	0.08035826
216	0x3ce4937e	0.027902361
217	0xb9914760	-0.00027709734
218	0x3cccc826	0.024997782
219	0x38d3127d	0.00010064708
220	0x3da00667	0.07813721
221	0xbc7f0e34	-0.015567351
222	0x3d81152c	0.06302866
223	0x3d002240	0.031282663
224	0x3d03925c	0.032122
225	0x3d7a9488	0.061176807
226	0x3d78b74b	0.060721677
227	0x3cd0d947	0.02549423
228	0x3d3b3a05	0.04570963
229	0xbc1c2ca7	-0.00953213
230	0x3d441dbd	0.047879923
231	0x3cf267fd	0.029590601
232	0x38906eac	6.887069e-05
233	0x3d0b9ff0	0.034088075
234	0x3d296ba2	0.041362412
235	0xbbbc5244	-0.0057471115
236	0x3b6f3387	0.0036499219
237	0x3d8433bc	0.0645518
238	0x3b897690	0.004195042
239	0x3d0b74e6	0.03404703
240	0xb90f9cff	-0.00013696028
241	0x3d67620a	0.05648998
242	0x3c3b123c	0.011417922
243	0x3d45d87a	0.04830215
244	0x3d6214e1	0.055195693
245	0x3d72c203	0.059267055
246	0x3bc46779	0.00599378
247	0x3c909d78	0.017653212
248	0x3d21bbf6	0.039485894
249	0x3d83865e	0.06422113
250	0x3cb9cd8f	0.022681026
251	0x3d0d2980	0.034463406
252	0x3ccc24f5	0.024919966
253	0xb9b1703b	-0.0003384369
254	0x3d5356d6	0.051596485
255	0x3c814f1e	0.015784796

network.2.weight f4 [192, 256]
0	0x3dec08a7	0.11525088
1	0x3d6377e1	0.055534247
2	0xbd79e23d	-0.061006773
3	0x3adf9c21	0.001706008
4	0x3dea9a62	0.114552274
5	0x38920eef	6.964604e-05
6	0x3ce3905c	0.027778797
7	0x3ceff147	0.029289855
8	0xbda00bf2	-0.078147784
9	0xbc71d09f	-0.014759212
10	0x3d04bbed	0.032405782
11	0xbd79f2e6	-0.06102266
12	0x3c9a014f	0.018799452
13	0xbd2db606	-0.04240992
14	0x3daabdd0	0.08336985
15	0x3d1de23b	0.03854583
16	0xbd52db52	-0.05147869
17	0x3c71df90	0.014762774
18	0x3d794298	0.060854524
19	0xbc8e3882	-0.01736093
20	0xbd94b5fa	-0.07261272
21	0x3d9db6ca	0.0770088
22	0xbcdfb1a4	-0.027306385
23	0xbddf73e9	-0.1091078
24	0x3dc2cec1	0.095120914
25	0x3c716172	0.014732705
26	0xbb3ff6e7	-0.0029291452
27	0x3d349a8e	0.044092707
28	0xbd8151ef	-0.06314456
29	0xbd7aed5b	-0.061261516
30	0x3bfb7b2c	0.0076745953
31	0xbdc2eb43	-0.09517529
32	0xbd9372cf	-0.071996324
33	0x3dcd52c6	0.100255534
34	0x3cfdde99	0.030989932
35	0x3bd8d9ca	0.0066177594
36	0xbdadca65	-0.08485869
37	0xbde8f184	-0.113741904
38	0x3da191ee	0.07889162
39	0x3dbbd8a2	0.09172179
40	0xbc892d74	-0.016745307
41	0xbc0173ee	-0.007901175
42	0x3cca2fc9	0.024680989
43	0x3dc60289	0.09668452
44	0x3ccf4250	0.025300175
45	0xbdc9e47f	-0.09858035
46	0x3cab3f73	0.020904278
47	0xbda139ab	-0.078723274
48	0xbe46a4f8	-0.19398868
49	0x3b3e5d4c	0.0029047308
50	0xbd0b6b5d	-0.034037936
51	0xbdbab679	-0.09116835
52	0xbcd911c1	-0.026497724
53	0x3c752b8e	0.0149639975
54	0x3d8abb3e	0.06773995
55	0xbd033120	-0.03202927
56	0x3c8f5867	0.017498208
57	0x3d336c9b	0.043804746
58	0x3dca729f	0.098851435
59	0x3ccf4bb8	0.02530466
60	0x3e06c1a1	0.13159801
61	0x3e11ae23	0.14226584
62	0x3dd67f5b	0.1047351
63	0xbcc9adf1	-0.024619075
64	0x3dcabf48	0.09899765
65	0x3d88f07c	0.06686494
66	0xbe214b43	-0.15751366
67	0x3db5c71e	0.08875869
68	0x3da49fcb	0.080382906
69	0x3ce316b5	0.027720788
70	0xbdcb0d59	-0.09914655
71	0x3d17b33f	0.037036177
72	0x3d822739	0.063551374
73	0xbd87fa2c	-0.066395134
74	0x3e17505d	0.1477675
75	0xbd292bce	-0.04130154
76	0x3d5ea2be	0.05435442
77	0x3d9dc3ad	0.07703338
78	0x3b55abf9	0.0032603724
79	0xbd258692	-0.04041154
80	0x3db634d3	0.08896794
81	0xbd8ff647	-0.070293956
82	0x3d91b6a9	0.07114918
83	0x3df5c1ff	0.119998924
84	0x3c4f3807	0.012647635
85	0x3df492d8	0.11942071
86	0x3dac8646	0.08424048
87	0x3c99deb1	0.018782945
88	0x3a7e6ac5	0.0009705241
89	0xbdcdfc12	-0.10057844
90	0x3c596744	0.013269249
91	0xbdd44152	-0.10364021
92	0x3ce5b996	0.028042596
93	0x3db7a420	0.08966851
94	0x3d9311c6	0.071811244
95	0x3ae2f934	0.00173167
96	0xbd8f9ec4	-0.07012704
97	0xbbe25d37	-0.0069080847
98	0xbdd095b8	-0.101848066
99	0x3db8639a	0.090033725
100	0xbd9218ac	-0.07133612
101	0xbd1b3935	-0.037896354
102	0x3dda5a53	0.10661759
103	0x3c8c03f4	0.017091729
104	0xbd3c2106	-0.04592993
105	0xbdb82990	-0.089923024
106	0xbd317b7c	-0.043330655
107	0x3c53ae0f	0.012919917
108	0xbdb2477d	-0.087050416
109	0x3d0e4b8b	0.034740012
110	0x3e10b994	0.14133292
111	0x3d94880b	0.07252511
112	0x3d8b394e	0.067980394
113	0xbbc52c71	-0.0060172607
114	0xbd479307	-0.0487242
115	0xbd3f7a84	-0.0467477
116	0x3e39ca42	0.18143561
117	0x3a91d2e5	0.0011125474
118	0xbd0a7a57	-0.03380808
119	0x3dae844b	0.08521327
120	0xbc6224fa	-0.013802761
121	0xbdd1a0aa	-0.10235722
122	0x3cb17607	0.021662725
123	0xbd81b6bc	-0.06333682
124	0x3d7760de	0.060395114
125	0xbc907314	-0.017632999
126	0xbda9b056	-0.082855865
127	0xbccea2bc	-0.025224082
128	0x3c28c851	0.010301665
129	0x3c9ec802	0.01938248
130	0x3d73b9a6	0.05950322
131	0xba851ba0	-0.0010155328
132	0x3e1bc55f	0.1521201
133	0xbe23da29	-0.1600119
134	0x3dd850d4	0.10562292
135	0x3d76281a	0.060096838
136	0xbe101877	-0.14071833
137	0x3d021701	0.03176022
138	0xbc9d2610	-0.019183189
139	0x3d206635	0.039159972
140	0xbd45ebc5	-0.04832055
141	0x3e4fcc47	0.2029277
142	0xbd186780	-0.03720808
143	0x3e227d96	0.1586822
144	0x3d779445	0.060444135
145	0x3cb1b22b	0.021691402
146	0x3cbd3976	0.023098689
147	0xbd0801ab	-0.033204716
148	0x3cce37a1	0.02517301
149	0xbdd7513e	-0.105135426
150	0xbe1f4653	-0.1555417
151	0xbd0c0a1b	-0.034189325
152	0x3e34a5e9	0.17641415
153	0x3c7e2d65	0.015513753
154	0x3db58280	0.088627815
155	0x3da0d0cd	0.078523256
156	0xbe11d372	-0.14240816
157	0x3de48e52	0.11159958
158	0xbcae9b5c	-0.021314315
159	0x3de888fc	0.11354253
160	0x3e07bb37	0.1325501
161	0xbdb31e1f	-0.087459795
162	0x3a392a2a	0.0007063473
163	0xbace8124	-0.001575504
164	0xbcfa4e9c	-0.030555062
165	0x3d799ea1	0.060942296
166	0xbdb2a2f8	-0.0872249
167	0xbe001c0e	-0.12510702
168	0xbdd4de0b	-0.10393914
169	0x3bd4dd24	0.0064960886
170	0xbd659d94	-0.05605848
171	0x3dfff182	0.12497236
172	0x3d48e347	0.049044874
173	0x3d95d716	0.07316415
174	0x3d96c7fd	0.073623635
175	0x3cd904c0	0.026491523
176	0x3e24cada	0.16093007
177	0x3e400cfc	0.18754953
178	0xbd8f5ef8	-0.07000536
179	0x3d126966	0.035745047
180	0x3e3e1164	0.18561321
181	0xbbef5b8c	-0.0073046144
182	0xbd0d3d6e	-0.034482412
183	0x3e217ff8	0.15771472
184	0xbc99bf15	-0.018767873
185	0x3d31ac7b	0.04337738
186	0xbe07b485	-0.13252456
187	0x3d73c9e0	0.059518695
188	0xbe441a0d	-0.19150563
189	0x3c013323	0.007885727
190	0x3cd1d022	0.02561194
191	0x3c4c1d6f	0.012458189
192	0xbbdda000	-0.0067634583
193	0x3c9494a9	0.018137293
194	0xbc99a343	-0.018754607
195	0xba5b9df5	-0.00083777244
196	0x3d13cc8e	0.03608375
197	0x3e082715	0.13296159
198	0x3da2654d	0.07929478
199	0xbe0bca4c	-0.13651389
200	0x3dba0471	0.090828784
201	0xbd159bba	-0.036525466
202	0x3bef567e	0.007304012
203	0x3dbf0276	0.09326641
204	0x3e6b26ba	0.22963992
205	0x3b622d11	0.0034511725
206	0xbccdc673	-0.025119042
207	0x3c03d4f6	0.008046379
208	0x3dc4a627	0.096020035
209	0x3d9aa92d	0.07551799
210	0x3d3b3517	0.045704927
211	0xbc83f01e	-0.016105708
212	0xbd9ffe45	-0.0781217
213	0xbd5e673d	-0.054297674
214	0x3e14db24	0.1453672
215	0x3e008818	0.12551916
216	0xbdee8607	-0.116466574
217	0xbe0f3d57	-0.13988243
218	0x3c576391	0.013146297
219	0x3d8e82a1	0.06958509
220	0xbd6277e3	-0.055290114
221	0xbb8a1a3a	-0.004214552
222	0x3d65c023	0.05609144
223	0x3d0a3d88	0.033750087
224	0x3c15241b	0.0091028465
225	0x3dc05bef	0.09392535
226	0xbd9e43fc	-0.07727811
227	0xbd9fa1bd	-0.07794521
228	0x3cfc001c	0.03076177
229	0xbc07bee5	-0.008285259
230	0xbc96004b	-0.018310687
231	0xbd9f6676	-0.07783215
232	0xbe0c3eee	-0.13695881
233	0x3d947c95	0.07250325
234	0x3e070373	0.1318491
235	0x3da4a91a	0.08040066
236	0x3d8bea8a	0.06831844
237	0x3c863b34	0.016385652
238	0x3dcfe457	0.10150974
239	0x3c8b8ef0	0.017035931
240	0xbdc9624e	-0.09833203
241	0x3d75f98c	0.06005244
242	0x3deb4d53	0.11489358
243	0x3dc149ff	0.09437942
244	0xbd0890dc	-0.033341274
245	0x3df7696d	0.12080655
246	0xbbbf3502	-0.0058351764
247	0xbc823dd9	-0.015898632
248	0x3d9ea53a	0.07746358
249	0x3dd8bff3	0.105834864
250	0xbd0a4927	-0.03376117
251	0x3cb5cb25	0.022191593
252	0xbdaea7ba	-0.08528085
253	0xbc8c42ed	-0.017121756
254	0x3e309a20	0.17246294
255	0xbd545405	-0.05183794

network.2.bias f4 [192]
0	0x3d2b6372	0.041842885
1	0x3b5993b9	0.0033199622
2	0x3ceef024	0.029167242
3	0x3bf2f03e	0.007413893
4	0x3c97787f	0.018490074
5	0x3c821a27	0.015881611
6	0x3cf18821	0.029483857
7	0x3ca0da97	0.019635482
8	0xb95f98fe	-0.00021323931
9	0x3ca74635	0.02041922
10	0xbafb4d65	-0.0019172846
11	0x3c731a7d	0.014837858
12	0x3d1668a8	0.0367209
13	0x3cc39f38	0.023879632
14	0x3d00f329	0.031481896
15	0x3d615ab4	0.055018142
16	0xbbb783dd	-0.005600436
17	0x3c010cdd	0.007876602
18	0x3ca64eea	0.020301301
19	0x3d437215	0.04771622
20	0x3c69056e	0.014222486
21	0xbb7485aa	-0.0037311115
22	0x3c104bb0	0.008807108
23	0x3c1ebc10	0.009688392
24	0x3cfabfa2	0.030608956
25	0x3ba43f8f	0.0050124596
26	0x3b78e1c2	0.003797636
27	0x3d1c5c1c	0.03817378
28	0x3c87db1f	0.016583977
29	0x3c41dcc9	0.011832424
30	0x3d1f70f7	0.03892609
31	0x3d1b3b68	0.03789845
32	0x3d3d3caa	0.046200432
33	0xbb2d1ab0	-0.0026413612
34	0x3cd47a93	0.025937354
35	0x3b0b8cc5	0.0021293622
36	0x3c04c0ae	0.008102579
37	0x3cc12cb4	0.023580886
38	0x3c8a8232	0.016907785
39	0x3c4d2da7	0.012523091
40	0x3cc7a246	0.02436937
41	0x3cd71cc1	0.026258828
42	0x3cba18b9	0.022716867
43	0x3c146b56	0.009058794
44	0x3d2c1faf	0.042022403
45	0xbc40f730	-0.011777684
46	0x3b827cb3	0.0039821505
47	0x3ac833a7	0.0015274183
48	0x3d25e2a3	0.04049934
49	0x3ca28e5c	0.019843273
50	0x3c6d2ae7	0.014475561
51	0x3c92385b	0.017849138
52	0x3ced5aa7	0.02897389
53	0xbb2722a1	-0.0025502818
54	0x3ca0c58c	0.019625448
55	0xb9d8fe6a	-0.00041388284
56	0x3caa5215	0.020791093
57	0x3ce30f3b	0.027717223
58	0x3d15a96b	0.036538523
59	0x3cf919b4	0.030407764
60	0x3c8876ec	0.016658269
61	0x3c6d7591	0.014493362
62	0x3c191213	0.009342688
63	0x3c8bb1b2	0.017052505
64	0x3cb0dba1	0.021589102
65	0x3cf1f30c	0.02953484
66	0x3c5ba726	0.0134065505
67	0x3a3bf56c	0.00071700546
68	0x3c839f60	0.016067207
69	0x3c64b4ee	0.013959153
70	0x3cdab11e	0.026695784
71	0x3cb997de	0.022655424
72	0xbc1a5913	-0.009420651
73	0x3b83d073	0.004022652
74	0x3d1db033	0.038498115
75	0x3c2ae6ca	0.010431001
76	0x3cab3b16	0.020902198
77	0x3c8e20ea	0.017349679
78	0x3c99f851	0.018795164
79	0x3c09c2d1	0.008408264
80	0x3c079ea5	0.00827757
81	0x3cdbdded	0.02683922
82	0x3cc63903	0.024197107
83	0xbaf6fdcf	-0.0018843951
84	0x3cbb78b7	0.02288471
85	0x3d291f01	0.041289333
86	0x3d2ffc6c	0.042965338
87	0x3cc966cb	0.024585148
88	0x3cd671c0	0.026177287
89	0x3cbe1e2f	0.023207752
90	0x3d01a4a9	0.031651173
91	0x3cdce008	0.026962295
92	0x3d0d64dc	0.034520015
93	0x3c0839ca	0.008314559
94	0x3d070147	0.032960203
95	0x3ccee690	0.025256425
96	0x3a6be02a	0.00089979416
97	0x3c0eece9	0.008723476
98	0xbbc39b68	-0.0059694536
99	0x3b93069d	0.0044868723
100	0xbb6f3867	-0.0036502124
101	0x3d188648	0.037237436
102	0x3cccec2f	0.025014965
103	0x3cfa2789	0.03053643
104	0x3c009cf0	0.007849917
105	0x3cd3955d	0.025828058
106	0x3cdf8b0b	0.02728798
107	0xbc325523	-0.010884556
108	0x3cac458d	0.021029258
109	0x3a31a32b	0.0006776328
110	0x3c9ec62b	0.019381603
111	0x3ca95537	0.020670516
112	0x3d56c4a0	0.05243361
113	0x3c4b5664	0.012410734
114	0x3c8eeaf0	0.017446011
115	0x3cde966c	0.027171336
116	0x3c8bbe33	0.017058467
117	0x3ceb7961	0.028744401
118	0x3cdb0586	0.026736032
119	0x3b1e0e7f	0.0024117527
120	0x3d00f302	0.03148175
121	0xbbc372c1	-0.0059646075
122	0x3c6b97a0	0.014379412
123	0x3d0413b9	0.03224537
124	0x3d22670b	0.03964905
125	0x3d2f38c8	0.04277876
126	0xbb0df2d5	-0.0021659632
127	0x3c8b16dd	0.016978675
128	0x3ab959ce	0.0014141144
129	0x3aaadde6	0.0013036102
130	0x3c63c032	0.013900803
131	0x3c663f26	0.014053142
132	0x3ca05451	0.019571455
133	0x3c7f1120	0.015568048
134	0x3d26cebc	0.0407245
135	0x3c85543b	0.016275516
136	0x3c8d891f	0.017277298
137	0x3ccb9f0c	0.024856113
138	0x3bdbead7	0.0067113447
139	0x3c57741e	0.013150243
140	0x3cd43b77	0.025907261
141	0xbc651be2	-0.013983699
142	0x3c0d1f3e	0.008613406
143	0x3d211242	0.039324053
144	0x3b1ad68c	0.0023626415
145	0x3c8c6ffd	0.017143244
146	0xbab28bd9	-0.0013622
147	0x3d1be917	0.03806409
148	0x3c567f05	0.013091807
149	0x3cc17653	0.023615992
150	0xbc939e92	-0.018019948
151	0xbc4cf42d	-0.012509388
152	0xbb91cd90	-0.004449554
153	0x3c56822f	0.013092562
154	0x3d1b8aee	0.03797429
155	0x3d153d64	0.0364355
156	0x3c89dc18	0.016828582
157	0xb7c29bd8	-2.3199173e-05
158	0x3cb373e8	0.021905854
159	0xba37a248	-0.0007005078
160	0x3c508f68	0.012729503
161	0x3b593c97	0.0033147687
162	0x3cc08d21	0.023504796
163	0x3cd8abe7	0.026449157
164	0x3c92819d	0.01788407
165	0xbaf7ce6a	-0.0018906121
166	0x3a1c2bb4	0.000595744
167	0x3ce8c56b	0.028414449
168	0x3d14987c	0.036278233
169	0x3d09506f	0.033523973
170	0x3d04b1f6	0.03239628
171	0x3c673a91	0.014113084
172	0x3c828f3c	0.01593744
173	0x3ccce8b0	0.025013298
174	0x3d65537d	0.055987824
175	0x3d16878f	0.036750372
176	0x3c968e89	0.018378513
177	0x3b614b22	0.0034377058
178	0x3ac5ffde	0.0015106162
179	0x3c9caf60	0.019126594
180	0x3cadf384	0.021234281
181	0x3cf1dbb6	0.029523712
182	0x3ce4d79a	0.027934838
183	0x3d07048e	0.032963328
184	0x3d2831a2	0.04106296
185	0x3c38e41d	0.011284855
186	0x3c19cd69	0.0093873525
187	0x3cea316b	0.028588017
188	0x3c88d7d6	0.016704481
189	0x3c2bca6d	0.010485274
190	0x3d2627fa	0.04056547
191	0x3ca10bde	0.019658979

network.4.weight f4 [128, 192]
0	0xbb930a00	-0.004487276
1	0x3cf51eb0	0.02992186
2	0xbddd9cfb	-0.10820957
3	0xbae9f297	-0.0017848787
4	0x3df80144	0.121096164
5	0x3e3c99e5	0.18418081
6	0x3df30759	0.11866636
7	0x3dedbd18	0.116083324
8	0x3cfda92d	0.030964458
9	0x3bf398a5	0.007433968
10	0x3de2f50a	0.11081894
11	0xbab6ec02	-0.0013955834
12	0xbc591b3b	-0.013251121
13	0x3d98b340	0.07456064
14	0xbd4b6601	-0.049657825
15	0x3e043282	0.12909892
16	0xbdc10220	-0.094242334
17	0xbcb4ab7b	-0.022054425
18	0x3e632ace	0.22184297
19	0x3dc6fe7a	0.09716506
20	0xbcf7fd6c	-0.030272208
21	0xbc860b6e	-0.016362872
22	0xbd6e598a	-0.05819086
23	0xbcdf5889	-0.027263897
24	0xbdbb39c4	-0.09141877
25	0xbdc2bb75	-0.09508411
26	0x3d5f89d1	0.05457479
27	0x3bf276ff	0.0073994393
28	0x3d745b1f	0.059657212
29	0xbd7a4b79	-0.061107133
30	0xbdda9438	-0.10672802
31	0x3d267902	0.040642746
32	0xbdd053aa	-0.10172208
33	0x3e343e01	0.17601778
34	0x3d9dd897	0.07707327
35	0xbc3e0949	-0.011598893
36	0x3c570289	0.013123163
37	0x3c992187	0.018692745
38	0x3d898210	0.067142606
39	0x3d853cb9	0.065057226
40	0x3e1896e1	0.14901306
41	0x3d1f11bd	0.038835276
42	0xbdeb7c6f	-0.11498343
43	0x3d7876ab	0.060660046
44	0x3d4a1443	0.04933573
45	0x3c28f3e6	0.010312056
46	0xbd39ab95	-0.04532965
47	0x3d90f7ea	0.07078536
48	0x3dcc50aa	0.09976323
49	0xbd14c9f8	-0.036325425
50	0x3d20d686	0.039267085
51	0x3d1c01a5	0.038087506
52	0x3b120c0e	0.0022285017
53	0xbca313b8	-0.019906864
54	0x3d69d77c	0.057090268
55	0x3d8d8966	0.06910972
56	0x3d47226c	0.04861681
57	0x3c9ebca7	0.019377066
58	0x3db95169	0.09048731
59	0x3d671a81	0.05642176
60	0xbd04a1c9	-0.032380853
61	0xbe76dfeb	-0.24108855
62	0x3c98f6f9	0.018672453
63	0x3dbfcb49	0.093649454
64	0x3d1a205b	0.037628513
65	0xbd5fb056	-0.054611526
66	0x3e24bfc9	0.16088785
67	0xbcb51ddd	-0.022108966
68	0x3dfabddf	0.12243246
69	0x3e168ce4	0.14702183
70	0xbdd8ebf7	-0.10591882
71	0x3cfb44f4	0.030672528
72	0xbb319b95	-0.002710079
73	0xbe69de64	-0.22838742
74	0xbd322a5f	-0.04349744
75	0x3d267fb8	0.040649146
76	0xbd3d9ccf	-0.046292122
77	0xbcc06f85	-0.023490677
78	0x3d15e88a	0.03659872
79	0xbe157aad	-0.14597578
80	0x3d525010	0.051345885
81	0xbc3af7dc	-0.011411633
82	0xbd8633df	-0.065528624
83	0x3c4ffa30	0.012693927
84	0xbb1194b8	-0.0022213887
85	0x3dc0fe62	0.0942352
86	0x3d9b8e34	0.075954825
87	0xbd248c09	-0.04017261
88	0x3e1b6393	0.15174703
89	0x3c4702c4	0.0121466555
90	0xbc5488d5	-0.012972076
91	0x3b8f21ad	0.004368028
92	0x3e44e4e3	0.19227938
93	0xbc7312b3	-0.014836001
94	0x3c571aef	0.01312898
95	0x3e060684	0.13088423
96	0xbd5d29d2	-0.05399496
97	0x3db1df38	0.08685154
98	0x3d1730ff	0.03691196
99	0x3dbee30a	0.09320648
100	0xbd7bda4b	-0.061487477
101	0x3d9f79e4	0.07786921
102	0x3da71322	0.08157946
103	0x3e0732d5	0.13202985
104	0x3cf2c8a7	0.029636694
105	0x3d8b1d94	0.06792751
106	0x3d40e716	0.04709538
107	0xbe389481	-0.180254
108	0xbd6a9a21	-0.057275895
109	0x3ccc8166	0.024964046
110	0xbda3cf48	-0.0799852
111	0xbd3826c7	-0.044958856
112	0xbd3f41ff	-0.0466938
113	0xbca41bd2	-0.020032797
114	0x3daff9b7	0.08592551
115	0xbe0d517d	-0.13800617
116	0x3e5e7a68	0.21726382
117	0x3d997760	0.07493472
118	0x3d3a6fea	0.045516886
119	0xbe3b4744	-0.18288904
120	0x3ca2e181	0.01988292
121	0x3cdcae5a	0.026938606
122	0x3d00a34f	0.031405743
123	0x3c5eb7a2	0.013593586
124	0x3d8d0325	0.068853654
125	0xbda6ae4e	-0.08138715
126	0x3deef656	0.116680786
127	0xbd58d50d	-0.052937556
128	0x3c974e0e	0.018469837
129	0xbdec2a10	-0.1153146
130	0xbd4b1c1b	-0.04958735
131	0x3d5aae9b	0.053389173
132	0x3d63980b	0.05556492
133	0x3cfbdaec	0.030744039
134	0x3db68031	0.08911169
135	0x3ca8097c	0.020512335
136	0xbb448dda	-0.0029991777
137	0x3d8de4a7	0.069283776
138	0x3d0ad413	0.033893656
139	0x3b5ce42f	0.0033705344
140	0x3bbe55a7	0.0058085504
141	0xbd85d809	-0.06535346
142	0xbe0e58a3	-0.13901
143	0xbdd3afff	-0.10336303
144	0x3d84a5c0	0.06476927
145	0x3ce66623	0.028124874
146	0xbd7a9197	-0.061174
147	0xbdfcce2b	-0.12344011
148	0xbdaaeab7	-0.083455496
149	0xbd67840d	-0.056522418
150	0x3c8e43c5	0.0173663
151	0xbdb1e205	-0.08685688
152	0xb97331d6	-0.00023192851
153	0x3cbab52b	0.022791466
154	0xbbe9877d	-0.007126747
155	0x3e259c24	0.16172844
156	0x3d3c961e	0.0460416
157	0x3d91b221	0.071140535
158	0x3de8642b	0.113472305
159	0x3d8e8df5	0.0696067
160	0x3dbab4e1	0.09116531
161	0xbdc936c3	-0.09824898
162	0xbd515a94	-0.051111773
163	0xbaf31243	-0.0018544871
164	0xbbf3466b	-0.007424166
165	0xbda1077c	-0.07862756
166	0xbe13d0dc	-0.14435142
167	0x3d8ce9b2	0.06880511
168	0x3d7e215e	0.06204354
169	0xbc40dc4a	-0.011771271
170	0x3e2f90a8	0.17145026
171	0xbd88edfb	-0.06686016
172	0x3dcabd96	0.09899442
173	0xbe20448c	-0.15651149
174	0xbcfb4dea	-0.0306768
175	0x3e312726	0.1730009
176	0xbd760f3e	-0.06007313
177	0xbd7ae10f	-0.06124979
178	0x3c69ad74	0.014262546
179	0xbd76d975	-0.060265977
180	0x3e29d518	0.16585195
181	0x3d378985	0.044808883
182	0xbc8dc05f	-0.017303644
183	0xbd9616ab	-0.07328542
184	0x3dd87d05	0.105707206
185	0xb97a0b97	-0.00023846175
186	0xbe0dc967	-0.1384636
187	0x3d413ea2	0.047178872
188	0x3c3e5f61	0.01161942
189	0xbc7dc3f8	-0.015488617
190	0x3d076491	0.033054892
191	0x3d0adfe0	0.03390491
192	0xbc1f6263	-0.009728047
193	0x3c0bd9e6	0.008535838
194	0xbdc445d9	-0.09583635
195	0xbca26876	-0.019825201
196	0x3b60ce95	0.003430282
197	0xbd81b8ed	-0.063341
198	0x3cf8a5b2	0.030352447
199	0x3decdf39	0.11566014
200	0x3da7ff5c	0.08203003
201	0xbe066b8f	-0.13126968
202	0xbdf41812	-0.119186535
203	0xbc15bd9d	-0.009139446
204	0xbdf7f557	-0.12107342
205	0x3cc967c9	0.024585621
206	0x3dad5be7	0.084647946
207	0x3d5f21d4	0.05447562
208	0x3af0331f	0.0018325782
209	0x3c9ff394	0.019525327
210	0x3aed2995	0.0018094057
211	0x3b9722bd	0.0046122954
212	0x3de6c579	0.11268134
213	0x3cb0b27f	0.021569489
214	0xbccd22c6	-0.025040995
215	0x3e318d17	0.17338978
216	0xbda654dc	-0.081216544
217	0x3dcfa22b	0.10138353
218	0xbb8b9019	-0.004259121
219	0x3e006c2f	0.12541269
220	0xbe16d8a1	-0.14731075
221	0xbe972837	-0.2952287
222	0x3df35012	0.118805066
223	0x3d1bb462	0.038013823
224	0x3deebce8	0.11657125
225	0xbd9040ff	-0.07043647
226	0xbbc14c13	-0.0058989613
227	0xbdbdac90	-0.09261429
228	0xbd36f9ee	-0.044671945
229	0x3aef9075	0.0018277304
230	0x3c4f1692	0.0126396585
231	0x3da42d9f	0.08016514
232	0x3d5db9ea	0.05413238
233	0x3bf2f74f	0.0074147354
234	0x3dda5bcf	0.10662042
235	0xbd1f6d4d	-0.038922597
236	0x3dde49db	0.108539306
237	0x3df1df23	0.11810138
238	0xbbb58656	-0.0055396957
239	0x3d0ecb57	0.03486189
240	0x3e367af9	0.17820348
241	0x3cf2689d	0.0295909
242	0x3984425c	0.00025226444
243	0xbdd7c0e8	-0.10534841
244	0x3cbfa5d5	0.023394505
245	0xbd65e925	-0.056130547
246	0x3e04135e	0.12898013
247	0x3e607d77	0.21922861
248	0xbdbf1c02	-0.09331514
249	0x3d616754	0.055030182
250	0xbcbf13d8	-0.023324892
251	0xbdca4b82	-0.09877683
252	0x3d2609ca	0.04053668
253	0x3c79b15b	0.015240039
254	0x3e238deb	0.15972106
255	0x3d211d42	0.039334543

network.4.bias f4 [128]
0	0x3ce309cf	0.027714638
1	0x3cf1a3fa	0.029497135
2	0xbb95375d	-0.004553719
3	0x3cc1190a	0.02357151
4	0x3cb0cf44	0.021583207
5	0x3a80cdcf	0.0009826961
6	0x3caa63a2	0.020799462
7	0x3d0e4fc1	0.034744028
8	0xbbb548ba	-0.0055323513
9	0x3c3c1c18	0.011481307
10	0x398e921e	0.00027193216
11	0xbbe83e82	-0.0070875296
12	0x3c87506e	0.016517844
13	0xbc0ab319	-0.008465552
14	0x3cd9cfce	0.026588347
15	0x3ccd3395	0.02504901
16	0xbb9513d8	-0.0045494847
17	0x3d04d2b0	0.03242749
18	0x3ca34cc5	0.019934068
19	0xbb9969a8	-0.0046817847
20	0x3cd64031	0.026153656
21	0x3c4b757a	0.012418145
22	0x3b345b99	0.0027520417
23	0x3c25631a	0.010094428
24	0xba98a40c	-0.001164557
25	0x3a9ceb6d	0.0011972018
26	0x3b63da82	0.0034767692
27	0x3d1330c8	0.035935193
28	0x3c5668ca	0.013086507
29	0x3c21c4a8	0.009873547
30	0x3cfee2b9	0.03111397
31	0x3c5d6f99	0.0135153765
32	0x3c94a43f	0.018144725
33	0x3cab5c87	0.020918144
34	0x3c43a4b1	0.011941121
35	0x3c78441c	0.015152957
36	0x3ce92b4f	0.028463034
37	0xbb71507d	-0.0036821656
38	0x3c366893	0.011133331
39	0x3c39f7df	0.011350601
40	0x3c9579d8	0.018246576
41	0xbc4c60d5	-0.012474258
42	0x3a097cc2	0.00052447256
43	0x3c4663a3	0.012108716
44	0x3cafa697	0.02144174
45	0x3ce1a759	0.027545618
46	0xbbbb3a4d	-0.005713737
47	0x3bd03ae0	0.0063546747
48	0x3b373c51	0.0027959535
49	0x3cb6a859	0.022297071
50	0xb98b39b6	-0.00026555144
51	0x3a59409f	0.00082875224
52	0xbbf44f2b	-0.0074557266
53	0x3c57e9ca	0.013178298
54	0x3c8aed0a	0.016958732
55	0x3cbd31bf	0.02309501
56	0xbb2c0fbd	-0.0026254498
57	0x3cb99552	0.02265421
58	0x3a858a8b	0.0010188384
59	0x3cd9d4fc	0.026590817
60	0x3a6616a7	0.0008777179
61	0x3bba211e	0.0056802174
62	0x3cc5d97e	0.02415156
63	0xbb5f4a4c	-0.0034071384
64	0x3cb2e69e	0.021838482
65	0x3ce51559	0.02796428
66	0xbbe5b73a	-0.0070103677
67	0x3c3e0021	0.01159671
68	0x3cc7c72c	0.024386965
69	0xbb8b9722	-0.00425996
70	0x3cdd5782	0.027019266
71	0x3cf953ed	0.030435527
72	0x3ca3820e	0.019959476
73	0x3aeddfb4	0.0018148334
74	0xbbc6f46b	-0.0060716174
75	0x3c84520e	0.016152408
76	0x3b59649c	0.003317154
77	0x3ac6b875	0.0015161174
78	0x3bef6171	0.007305317
79	0x3c2c7fc7	0.010528511
80	0xbb842abe	-0.0040334156
81	0x3c180c88	0.009280331
82	0x3cbb733b	0.022882095
83	0x3bf7053d	0.0075384662
84	0x3a160340	0.000572253
85	0x3bcdd868	0.006281901
86	0x3c5200cb	0.012817572
87	0x3bb48d96	0.0055100424
88	0xbc23acfe	-0.009989975
89	0x3c5a491d	0.013323096
90	0xbbeca603	-0.0072219386
91	0x3c03735a	0.008023107
92	0x3d053e87	0.032530334
93	0x3d1e565c	0.038656577
94	0x3cc03c18	0.023466155
95	0x3b612b51	0.0034358094
96	0x3ca64d23	0.020300454
97	0x3c970786	0.018436205
98	0x3aae8fda	0.0013318018
99	0xbb427409	-0.0029671213
100	0xbc3c9f2b	-0.011512558
101	0x3c984459	0.018587278
102	0x3c5298eb	0.012853841
103	0x3bd5bbf6	0.006522651
104	0x3c81a29d	0.01582461
105	0x3bd38906	0.0064555435
106	0xbb52f316	-0.0032188348
107	0xbbf9c9de	-0.0076229414
108	0x3b2a1899	0.0025954603
109	0xbc270d93	-0.010196107
110	0xbbb8b262	-0.0056364993
111	0xbc52f5d1	-0.01287599
112	0xbc8a8afa	-0.016911972
113	0xbc10978a	-0.008825192
114	0x3ce8bbe1	0.0284099
115	0x3c90986f	0.017650811
116	0x3cc04611	0.02347091
117	0x3d14e044	0.03634669
118	0x3c7e1b52	0.015509443
119	0xbc04b558	-0.008099876
120	0x3c876c50	0.01653114
121	0x3c66ec6f	0.014094456
122	0x3a3daaa0	0.0007235203
123	0xbb9d0eed	-0.004793039
124	0x3d0c4872	0.034248777
125	0xbc2f8dec	-0.010714989
126	0x3c036bfc	0.008021351
127	0xba1bd2f7	-0.0005944217

network.6.weight f4 [39, 128]
0	0xbe477e3a	-0.19481745
1	0xbe3125d7	-0.17299591
2	0x3cb6adf2	0.02229974
3	0xbc5f4301	-0.013626815
4	0xb8821367	-6.202497e-05
5	0x3be40ee1	0.0069597815
6	0xbe51730e	-0.20454046
7	0x3da2cd10	0.07949269
8	0xbe742e86	-0.23845872
9	0x3782f7e2	1.5612637e-05
10	0xbd22a896	-0.039711557
11	0x3bdd8995	0.006760786
12	0xbd5f0379	-0.05444667
13	0xbbf81889	-0.007571284
14	0x3c95208d	0.018203998
15	0xbe92e0fd	-0.28687277
16	0xb8017af3	-3.0870502e-05
17	0xbe066a56	-0.13126501
18	0x3dbbd428	0.09171325
19	0xb856cdfe	-5.121342e-05
20	0xbd2b91f3	-0.041887235
21	0xbd346a48	-0.04404667
22	0xbddf56ad	-0.10905204
23	0xbe6ea84b	-0.23306386
24	0xbdea2a7f	-0.11433887
25	0x3e6ddd16	0.23228869
26	0xbe6ef732	-0.23336485
27	0xbe47e32e	-0.19520256
28	0xbed15071	-0.40881684
29	0xbe2fd20e	-0.17169973
30	0xbe3231c1	-0.17401792
31	0xbe05e37a	-0.13075057
32	0xbe96e91f	-0.29474732
33	0xbe036d01	-0.1283455
34	0x3721fff8	9.655945e-06
35	0x3d20a38d	0.039218474
36	0x3d13d13b	0.03608821
37	0x3dfb2c46	0.12264304
38	0xbd9508ec	-0.07277092
39	0xbdfef909	-0.124498434
40	0xbe053cfe	-0.13011548
41	0xbc04be98	-0.008102082
42	0xbdba35d4	-0.09092298
43	0xbd311c59	-0.043239925
44	0xbd5ae007	-0.053436305
45	0xbe2176dc	-0.15767998
46	0xbc4144df	-0.011796205
47	0xbe9a0559	-0.30082205
48	0xbc0f8fea	-0.008762339
49	0xbe4e0e63	-0.20122676
50	0xba6ce2d0	-0.0009036483
51	0x3cdc0661	0.02685851
52	0xbe6e7b90	-0.23289323
53	0x3d1683f9	0.036746953
54	0xbdade0c0	-0.08490133
55	0xbebf4678	-0.3735845
56	0xbe6e6872	-0.2328203
57	0xbb12f8a1	-0.0022426026
58	0x3d2b3b58	0.04180464
59	0xbd36271b	-0.044470888
60	0xbe1af4d3	-0.15132456
61	0xbcdfbf85	-0.027313003
62	0xbc90ab20	-0.017659724
63	0xbd0b7ae3	-0.03405274
64	0xbe57f44a	-0.21089283
65	0xbd1b86c5	-0.037970323
66	0xbdbe6e29	-0.09298355
67	0x3e2501d8	0.16113985
68	0x3d14fdb2	0.036374755
69	0xbe87740c	-0.26455724
70	0xbddc44d9	-0.10755319
71	0xbd090998	-0.033456415
72	0xbc9ebdc8	-0.019377604
73	0xbe6dc631	-0.23220135
74	0xb78b14fe	-1.6579866e-05
75	0xbe2cf0f4	-0.16888791
76	0x3d2c3497	0.04204234
77	0x3e6e51e3	0.23273425
78	0xb7ca714e	-2.4133038e-05
79	0xbd2b52e6	-0.041827105
80	0xbe6e2cb4	-0.2325924
81	0x3e6e96bb	0.23299687
82	0xbce4de49	-0.027938025
83	0x3c1e46e4	0.009660456
84	0xb7564fd6	-1.2773982e-05
85	0x3e1782cf	0.14795993
86	0xbe6de27f	-0.23230933
87	0xbe6ea6a3	-0.23305754
88	0x36533440	3.1471864e-06
89	0xbdfcc78f	-0.1234275
90	0x3d6def08	0.058089286
91	0xbda5ea82	-0.081013694
92	0xbe0aff16	-0.1357387
93	0xbb73cd89	-0.0037201366
94	0xbdc3ac0a	-0.09554298
95	0xb5e29420	-1.6881422e-06
96	0xbd4d8b16	-0.05018147
97	0x3d1d097d	0.038339127
98	0x3e3cd065	0.18438871
99	0xbe551ab2	-0.20810965
100	0x3c72b374	0.014813293
101	0x3df8ab1d	0.12142012
102	0xbd351ca5	-0.04421677
103	0xb613e4b5	-2.2037832e-06
104	0x3b4442b9	0.0029946996
105	0xbcb32df8	-0.021872506
106	0xbe6e06f1	-0.23244835
107	0xbe2a01fc	-0.1660232
108	0xbe3cad9a	-0.18425599
109	0xbe0a8fc7	-0.13531409
110	0x367cabff	3.765104e-06
111	0xb828308e	-4.009954e-05
112	0x3d26f3c3	0.040759813
113	0xbe2ac1ad	-0.16675444
114	0xbe1199e1	-0.14218856
115	0xbeaa73a2	-0.33291346
116	0xbe11022a	-0.14160982
117	0xbd5f74ad	-0.05455463
118	0xbe1d6ad4	-0.15372783
119	0x3e6d98e4	0.23202854
120	0xbd5bd090	-0.053665698
121	0xb692b199	-4.371814e-06
122	0x363b24b8	2.7886545e-06
123	0xbe0130f7	-0.12616335
124	0xbe7ba243	-0.24573617
125	0xb8179bfa	-3.614647e-05
126	0xb793eb06	-1.7633207e-05
127	0xb7180034	-9.059953e-06
128	0x3dd8092e	0.10548626
129	0x3d8acd9d	0.06777499
130	0x3d8cef2d	0.06881557
131	0xbd7f7617	-0.06236848
132	0x3c3dc327	0.0115821725
133	0xbddc38f2	-0.10753049
134	0x3e5dd7d7	0.21664368
135	0xbe3dea67	-0.18546449
136	0xbdcc9b2a	-0.09990533
137	0xbe6f1b63	-0.23350291
138	0x3d8288bd	0.06373737
139	0xbc9e3ed8	-0.019317076
140	0xbdf1f75e	-0.1181476
141	0xbdfabe2f	-0.12243306
142	0xbe46a9aa	-0.19400659
143	0xbe223c4a	-0.15843311
144	0x3a980588	0.0011598328
145	0x3d55de9b	0.052214246
146	0xbd9860fd	-0.07440374
147	0x3dedf50d	0.11619005
148	0x3c8de7c3	0.017322427
149	0x3d30ba08	0.043146163
150	0x3c7d9829	0.015478172
151	0x3a9c9d40	0.001194872
152	0xbd9e5890	-0.07731736
153	0x3d27886d	0.04090159
154	0xbd936ee2	-0.071988836
155	0xbd9377b2	-0.072005644
156	0xbce90b2d	-0.028447712
157	0xbca9678f	-0.020679263
158	0x3e6afd60	0.22948217
159	0xbd6b2d3b	-0.057416182
160	0xbc1e6c2a	-0.009669343
161	0x3d5850b0	0.052811325
162	0xbc5f8d60	-0.013644546
163	0x3dc4e718	0.0961439
164	0x3d0335cd	0.03203373
165	0xbdc51d3f	-0.09624719
166	0x3e2c30bc	0.16815466
167	0xba16d7f3	-0.0005754225
168	0x3e1dae16	0.1539844
169	0x3cb615aa	0.022227127
170	0xbdd13323	-0.10214832
171	0x3db6dce6	0.08928852
172	0xbe132743	-0.14370446
173	0xbe20cbf8	-0.15702808
174	0xbcac9de7	-0.021071387
175	0x3d13d339	0.03609011
176	0xbc390b88	-0.011294253
177	0x3dae9260	0.085240126
178	0xbe482c99	-0.19548263
179	0x3b0b6a4e	0.002127308
180	0xb612fbf0	-2.1902342e-06
181	0xbb97f80e	-0.0046377247
182	0x3c962e90	0.01833275
183	0xbe09039a	-0.1338028
184	0x3e6ede4f	0.23326991
185	0x3e6c80ca	0.23096004
186	0xbe1f70b5	-0.15570338
187	0xbcdd0922	-0.026981894
188	0xbe7f1770	-0.24911284
189	0xbe1c5d31	-0.15269925
190	0xbc7807fd	-0.015138623
191	0x3d5a8d28	0.053357273
192	0x3d9530cf	0.072847
193	0x3d33a3bd	0.043857325
194	0x3da54ea0	0.08071637
195	0x3e255e3c	0.16149229
196	0xbd897d34	-0.06713334
197	0xbe6097c5	-0.21932895
198	0x3d86d301	0.065832146
199	0x3dae294c	0.085039705
200	0x3d300298	0.042971224
201	0xbe6e8c52	-0.23295715
202	0x3791248e	1.7302369e-05
203	0x3df27d4c	0.11840305
204	0xbe3cd6d3	-0.18441324
205	0x37d3e458	2.5259491e-05
206	0x3e4534b2	0.19258383
207	0x3e0c72ea	0.13715711
208	0x380e2254	3.388741e-05
209	0x37740a2c	1.4545902e-05
210	0x3d816857	0.06318729
211	0xbd8bc37a	-0.068243936
212	0xbb677ca6	-0.00353221
213	0x3e13ce07	0.14434062
214	0x3e97a1fe	0.29615778
215	0x3d180c7f	0.037121292
216	0xb4acb0d0	-3.2166145e-07
217	0x3b050124	0.002029487
218	0x3e172d77	0.14763437
219	0x3d84b224	0.0647929
220	0x3e27c87a	0.1638507
221	0xbd2013aa	-0.039081253
222	0x3e1c451e	0.15260741
223	0xbbe4f19f	-0.0069868113
224	0x3e314b13	0.17313795
225	0x3dc08dde	0.09402059
226	0xbe8b0410	-0.27151537
227	0xbc25d67d	-0.010121939
228	0x3e5d4173	0.21606998
229	0x3d8f0bc4	0.06984666
230	0x3d44768e	0.047964625
231	0x3bbc6ff4	0.0057506505
232	0x3db0e9ad	0.0863832
233	0xbd24e074	-0.040253118
234	0x35e820f0	1.7294933e-06
235	0x3d63a41b	0.055576425
236	0xbdb7d369	-0.0897587
237	0x3c8b72e6	0.017022561
238	0xbe6ece4f	-0.23320888
239	0xbe0a2e46	-0.13494214
240	0xbbd45e29	-0.0064809513
241	0x3e1eedc4	0.15520388
242	0x3c3babba	0.011454517
243	0xbb6a20e7	-0.0035725178
244	0x3dd2d7cd	0.10295067
245	0xbd94062b	-0.07227739
246	0xbb4b13d4	-0.003098716
247	0x3c113d67	0.008864737
248	0xbdf36f30	-0.11886442
249	0xb80322f8	-3.12654e-05
250	0x368b8fb7	4.1592534e-06
251	0x3d800a07	0.062519126
252	0x3c9427fb	0.01808547
253	0xbda8a221	-0.08234049
254	0x3e644b30	0.22294307
255	0x365f1956	3.3244337e-06

network.6.bias f4 [39]
0	0xbcfd985a	-0.030956436
1	0x3c01f293	0.007931369
2	0x3cabd59e	0.020975884
3	0xbb749a27	-0.0037323327
4	0xbb637adc	-0.003471068
5	0xbcb2d2a8	-0.021828964
6	0xbbb4b0d7	-0.005514245
7	0xbba8a1c1	-0.0051462357
8	0x3cbb98d9	0.022900032
9	0x3b212f2b	0.0024594765
10	0xbcc99e44	-0.0246116
11	0xba00f32c	-0.0004919048
12	0x3b7ccc6b	0.003857399
13	0xba993604	-0.0011689072
14	0x3a6a1044	0.00089288154
15	0x3cc76bf3	0.024343466
16	0x3c531836	0.01288419
17	0xbcb459d7	-0.022015495
18	0xbbbdbbfb	-0.0057902313
19	0x3c134853	0.008989411
20	0xbbfa9f4c	-0.007648384
21	0xbbd3ca84	-0.0064633507
22	0xbc686edf	-0.01418659
23	0x3cc0bec3	0.023528462
24	0xbd18d314	-0.037310675
25	0x3c38d63e	0.011281548
26	0xbd2314b6	-0.039814673
27	0xbc67c8e6	-0.014147019
28	0xbc2e6a04	-0.010645393
29	0x3b01c1ff	0.0019799469
30	0xba8fc98d	-0.0010970101
31	0xbb8290e1	-0.003984556
32	0xbcb7e6a4	-0.022448845
33	0xbcacc536	-0.021090131
34	0xbcc93c51	-0.024564894
35	0xbd1c4ec6	-0.03816106
36	0xbd10dc5a	-0.035366394
37	0xbcf46a4f	-0.029835848
38	0xbd03e208	-0.032197982
