Homework/HW2/results/quick_grid/run_07.pt (torch, 583917 bytes, 8 tensors)

network.0.weight f4 [256, 256]
000000 12 a6 a8 3d bb ec 8f bd e7 c2 32 be 5c d7 e8 3d
       0.082348004 -0.07027575 -0.17457162 0.113692015
000010 a7 9d ee bd b3 88 58 be 0f 28 ef bc 80 32 68 bc
       -0.116511635 -0.21145897 -0.029193906 -0.014172196
000020 42 7a e9 3c 86 5d e4 bd b6 8d b1 bd b3 bf 80 bb
       0.02850068 -0.11150651 -0.08669607 -0.0039291023
000030 e8 cc 95 3d c7 0c 38 bd 14 de 04 3d ae fb 44 bd
       0.073144734 -0.04493406 0.032438353 -0.048091583
000040 a9 b7 17 bd d8 be 05 be 34 a1 af bd 6a 49 71 3d
       -0.037040386 -0.13061082 -0.08575669 0.058907904
000050 ef b7 73 be bc 81 cd 3c f1 22 e4 3d 2a ec ee bc
       -0.23800634 0.025086276 0.11139477 -0.029165346
000060 80 64 0f 3d d9 20 78 bd a1 2f 92 bd 8f fa af bd
       0.035007954 -0.0605782 -0.07137991 -0.08592712
000070 dd c2 2b be 54 d2 c5 3d 5b 70 92 3d 90 08 46 bd
       -0.16773553 0.096592575 0.07150336 -0.04834801
000080 ae b5 80 bd d7 ad 90 bc ef 99 79 bd a5 73 8b bd
       -0.06284653 -0.017661018 -0.06093782 -0.06809167
000090 a3 19 e8 3d 04 0d 09 3e f2 4b 83 bd 76 e8 72 bd
       0.11333015 0.13383871 -0.0641097 -0.059303723
0000a0 ce 52 49 3d 9b e1 ce bd a5 46 5d bc 2a 0a b1 bd
       0.049151234 -0.101016246 -0.0135056125 -0.08644517
0000b0 6e 19 3f be 65 f4 a9 bd 96 06 9d bd c4 c4 da 3c
       -0.18662044 -0.08298568 -0.07667272 0.026705153
0000c0 25 63 d4 3d 48 a2 b9 bd 35 39 b1 3d ec 26 90 3d
       0.10370473 -0.09064156 0.086534895 0.07038674
0000d0 01 8f 7e 3d 4a 12 8d 3d a8 7e 9f bd cf cf a4 3d
       0.062148098 0.06888254 -0.0778783 0.08047449
0000e0 ea 0c 7b bc 9c 8c 21 bd 57 5f a9 bb 34 bc d1 bd
       -0.015322903 -0.039440736 -0.005168836 -0.10240975
0000f0 cc ed 9b 3d fa 9d ea 3c 3a d1 50 ba 39 f5 fd bd
       0.076137155 0.028639782 -0.00079657475 -0.12400288
000100 02 b1 93 3d 76 76 58 be 08 f1 2b bc 68 ac 87 ba
       0.07211496 -0.2113894 -0.010494478 -0.0010351064
000110 be 76 84 bd 8d d0 09 be 2e e3 e7 bd 33 91 01 bd
       -0.06467961 -0.13458462 -0.11322628 -0.031632613
000120 94 4c 86 bd 38 17 40 3d 9c 03 89 bd 29 73 d8 3c
       -0.06557575 0.046897143 -0.066901416 0.0264221
000130 25 0c 21 3e c3 a6 ba bd c8 f6 15 bd 5a ca e3 3d
       0.15727289 -0.091138385 -0.036612302 0.1112258
000140 98 e3 cf bd a6 eb c1 bc a1 24 9a 3d 33 e6 b0 3d
       -0.10150832 -0.023671936 0.07526518 0.08637657
000150 f8 d2 3a bd 50 06 08 bd b7 24 4f bd 0a 45 2a bc
       -0.04561135 -0.033209145 -0.050572123 -0.010392437
000160 8c 75 9c bd 46 09 98 3d 9d d3 80 bd 63 c8 00 3e
       -0.07639608 0.07423644 -0.06290362 0.12576441
000170 0d c7 27 be 97 9e 00 3d 9e b0 7f be 6b 69 35 bd
       -0.16384526 0.031401243 -0.24969718 -0.044289988
000180 14 ea ae bd 8b 50 e6 3c 8b b8 00 be d6 42 83 3d
       -0.085407406 0.028114578 -0.12570398 0.06409232
000190 2c 34 cd 3d 62 6b e7 bd 75 68 42 3c 5f f0 1b be
       0.100197166 -0.112997785 0.011865725 -0.15228413
0001a0 a9 98 03 bd f0 c4 32 3e 1e 04 89 3d bb 87 a4 bc
       -0.03212801 0.17457938 0.066902384 -0.020084253
0001b0 20 36 79 3d 2d c9 b4 3c 7d ec 2a 3d 42 a6 d5 bc
       0.060842633 0.022068584 0.04172944 -0.026080254
0001c0 8e 66 50 bd 5b d0 b0 3d b4 3d 24 be c0 29 86 3d
       -0.050879054 0.08633491 -0.16039163 0.06550932
0001d0 be 3d 20 bd d1 2d a1 bd 9c e7 3f 3e 0d 2a 0e 3e
       -0.039121382 -0.07870067 0.18740696 0.13883229
0001e0 d4 32 e1 bd 87 87 99 3c 94 4f ee bd 8c f2 e0 bd
       -0.10996023 0.018741382 -0.11636272 -0.10983762
0001f0 00 49 f5 b9 f6 fc 61 be cd 23 6d 3d 20 f9 00 3e
       -0.0004678443 -0.22069153 0.05789547 0.12595034
000200 43 36 0d 3e 0b 7d 5f 3e 3b cf 3d 38 7c fb e8 37
       0.1379023 0.21825044 4.525411e-05 2.7773662e-05
000210 d4 4c e6 b6 24 46 0d b7 41 73 64 be 76 73 64 3e
       -6.863478e-06 -8.420586e-06 -0.22309591 0.2230967
000220 2a dc 5e b7 c8 96 8f b6 50 ea e7 b7 e8 75 64 3e
       -1.3283492e-05 -4.2792853e-06 -2.7646456e-05 0.22310603
000230 44 65 1c be d0 e4 bb b6 3c c8 be 37 42 08 72 b7
       -0.15273005 -5.5996716e-06 2.2743006e-05 -1.4426247e-05
000240 39 72 64 be 00 cd 71 b4 c3 f6 87 37 2c 53 79 36
       -0.22309197 -2.2519453e-07 1.6208161e-05 3.7152304e-06
000250 46 78 a0 b7 70 42 0e 36 36 d7 bd b7 50 e4 a0 b6
       -1.9129493e-05 2.119832e-06 -2.2630771e-05 -4.7949507e-06
000260 c9 6d 64 3e 4c 31 55 b7 34 fa 2a 37 50 fb 5f be
       0.22307505 -1.2707267e-05 1.0191045e-05 -0.21873212
000270 18 6a 64 be 75 2a 98 b7 35 a7 aa b7 a5 bb 53 38
       -0.22306097 -1.8139583e-05 -2.0343441e-05 5.0481078e-05
000280 fa 73 83 37 f1 34 ee b7 7d 9b 9a b8 c9 71 e4 be
       1.5670423e-05 -2.8396464e-05 -7.372254e-05 -0.4461806
000290 97 8f a8 b7 87 6d 64 3e 75 9f a6 b8 85 73 64 be
       -2.0094025e-05 0.22307406 -7.945198e-05 -0.22309692
0002a0 e4 09 30 38 d6 6f 64 3e 9d 73 64 be be d9 0f 38
       4.197088e-05 0.22308287 -0.22309728 3.4296645e-05
0002b0 22 61 c7 37 f0 6d 64 be 4a 76 64 be 04 aa d3 b6
       2.376788e-05 -0.22307563 -0.22310749 -6.3080824e-06
0002c0 f6 96 54 be 06 db 24 38 e8 3f 87 b8 90 58 b1 35
       -0.20760712 3.930463e-05 -6.449205e-05 1.3213303e-06
0002d0 b5 9e 13 b8 d0 bb 03 b8 62 0f 01 37 b4 9f 5f be
       -3.519534e-05 -3.1407748e-05 7.692581e-06 -0.21838266
0002e0 24 9e 39 37 a8 78 64 be a3 75 64 3e 47 2e 09 3e
       1.1063679e-05 -0.22311652 0.223105 0.1339656
0002f0 48 16 a5 b5 18 74 64 be f1 67 64 3e 58 b5 f1 36
       -1.2299943e-06 -0.22309911 0.22305275 7.203471e-06
000300 af 49 63 b7 30 6e 31 b6 a0 f9 d1 b5 98 d2 b0 b7
       -1.354741e-05 -2.6439193e-06 -1.5644364e-06 -2.10789e-05
000310 d0 d5 9b b7 26 43 ac b6 fc 17 41 b7 12 af c8 b7
       -1.8577004e-05 -5.1338166e-06 -1.1509281e-05 -2.3923381e-05
000320 7d 4f 12 3e e8 08 37 b8 1e 44 21 37 30 ef 1a b6
       0.14288135 -4.3638895e-05 9.612208e-06 -2.3087014e-06
000330 f8 bb ad 37 1e 7e ca b7 ba a0 cb b7 06 fe db 37
       2.0710737e-05 -2.4139004e-05 -2.427433e-05 2.6225123e-05
000340 00 ec b5 34 c6 4a fd 37 0f bd 03 38 24 6c 50 b7
       3.388559e-07 3.019477e-05 3.140891e-05 -1.2422945e-05
000350 de 70 64 be ef 78 64 be 29 39 6f 38 6e 2d 8c 37
       -0.2230868 -0.22311758 5.7035275e-05 1.6710455e-05
000360 be 9b ce 37 c0 02 b8 35 8d 6a 64 3e dd 7d 64 3e
       2.4629637e-05 1.3709869e-06 0.22306271 0.22313638
000370 22 6f 64 3e f8 76 64 be a6 31 02 37 ac 44 f4 b7
       0.22308019 -0.22311008 7.7601635e-06 -2.9119044e-05
000380 8b ae 12 3e 8c 6c eb b7 f6 8c e5 b7 81 1e 49 be
       0.14324395 -2.806473e-05 -2.7364567e-05 -0.19640543
000390 d7 71 64 be 6a ed ac 37 e3 6d 64 3e c6 fd 0d 3e
       -0.22309051 2.0614552e-05 0.22307543 0.13866338
0003a0 09 78 5f be 6d a0 1b b7 0e e3 be 37 41 ec 15 b8
       -0.21823134 -9.276072e-06 2.2755496e-05 -3.5744397e-05
0003b0 1c 7e de 37 66 f7 22 38 07 d4 80 b7 2c 2b b4 b7
       2.6523187e-05 3.8854218e-05 -1.5357522e-05 -2.1477776e-05
0003c0 74 a1 1f 37 19 73 64 3e 8a b7 a9 37 8e ea 95 b8
       9.51473e-06 0.22309531 2.0231837e-05 -7.148563e-05
0003d0 9f 6b 64 be ac 49 ac b7 41 b0 1d b8 9b 68 64 3e
       -0.22306679 -2.0538304e-05 -3.7595866e-05 0.22305529
0003e0 0a 76 64 3e d2 79 94 b6 f3 3a 48 3e 70 8e 80 b6
       0.22310653 -4.4249255e-06 0.19553737 -3.831279e-06
0003f0 34 25 24 b7 9f 80 b4 37 8c 3a 07 b7 a9 9e 5a be
       -9.783824e-06 2.1517566e-05 -8.060259e-06 -0.21349587

network.0.bias f4 [256]
000000 4b 16 fd 3a 13 39 db 3c f8 6b 06 3d 80 44 a4 b8
       0.0019309012 0.026760614 0.03281781 -7.8328885e-05
000010 df 7b 72 3d be 47 03 3d 0d a6 d2 3d 1b 2f ec 3b
       0.059200164 0.03205084 0.10285578 0.007207764
000020 1d 02 f9 3c 7f f4 0a 3a 9c 8c ad 3c b3 e5 90 3d
       0.030396516 0.0005300715 0.021185212 0.07075062
000030 24 62 ad 3b 81 74 39 3c 88 dd db 3c bb 78 68 3c
       0.0052912403 0.011319281 0.026839033 0.014188941
000040 30 f5 29 bb d5 96 ad b9 d2 0c 91 3c 54 4f 53 b8
       -0.0025933497 -0.0003310951 0.017706309 -5.03802e-05
000050 41 a4 7c 3d 49 d5 96 3d c8 fa 39 3d 11 c7 68 3c
       0.061680082 0.073649 0.04540518 0.014207617
000060 70 7c c4 b9 33 48 94 3c b4 98 5d 3d d8 2e 3d 3b
       -0.00037476746 0.018100834 0.054100707 0.0028867032
000070 17 b2 9d 3b b8 0c e6 3c 42 fd 6c 3d ab af 3a 3d
       0.0048124897 0.028082237 0.057858713 0.045577686
000080 f2 fc 52 3d 0d 7b 0f 3d 3e f9 af 3d 82 77 3a 3d
       0.05151076 0.03502946 0.08592461 0.045524128
000090 2f ac 53 3d 52 ac 3a 3d 0c 76 69 3d 18 60 13 3d
       0.05167788 0.045574494 0.056997344 0.035980314
0000a0 8b c3 85 3c 63 75 08 3d 88 bc fe 3c 4f e0 82 3d
       0.016328594 0.033315074 0.031095758 0.0639044
0000b0 93 4f 64 3b c2 bd fe 3c a3 7f 97 3b 3d 0e 51 3d
       0.003483747 0.031096343 0.00462337 0.05103897
0000c0 cb 29 3c 3d 5d 74 3b 3d ed 49 00 3c c4 3d ad 3d
       0.045938294 0.04576527 0.007830125 0.084590465
0000d0 70 da 1d 3d d5 68 65 3c 00 f2 d2 3c f7 c6 ca 3d
       0.038538396 0.014002045 0.02575016 0.09901231
0000e0 5c 0e 55 b9 87 9d 18 3d e9 30 09 ba 1b d7 c8 3c
       -0.00020318612 0.037259605 -0.00052334234 0.024516633
0000f0 d0 97 54 39 a0 50 7b 3d 04 a7 fa 3c 9f 77 c1 3d
       0.0002027445 0.061356187 0.030597217 0.09446644
000100 b2 b0 15 3d 83 2c e7 3c bb ec ae 3c f5 93 00 3a
       0.036545463 0.028219467 0.021353116 0.000490486
000110 03 6e 85 3c c3 9e 54 3d 09 9f 0a 3c 2c 86 4b 3d
       0.01628781 0.05190922 0.0084607685 0.049688503
000120 1a 34 90 3d 89 de b3 3b 36 44 88 3d b0 73 c1 3c
       0.070411876 0.0054891747 0.06653635 0.023614734
000130 96 43 f5 3c be b7 62 3d c6 08 77 3d 3d e4 30 3d
       0.029939454 0.05535101 0.0603111 0.043186415
000140 ac a7 0d 3d 5a 4d ab 3d 94 fb e3 3c 05 1a d4 3d
       0.034583732 0.08364363 0.027829923 0.10356525
000150 d3 7a 4b 3c 1f 24 c9 3c 8f 3e 2e 3d d9 2d a9 3c
       0.01241942 0.024553357 0.04254013 0.020651745
000160 76 10 42 3d 5d 3e 6c 3d 41 94 15 3d d2 b8 df b9
       0.04737898 0.05767666 0.03651834 -0.00042671576
000170 92 51 6c 3d 6c 8e ae 3c 28 aa 43 3d c1 42 de 3c
       0.05769498 0.021308146 0.047769696 0.02713144
000180 36 a0 34 3d 22 5a 7d 3c 21 8a a7 3d 27 05 85 3d
       0.0440981 0.015463384 0.08180643 0.06495123
000190 6d 2e 6a 3d 61 2f bb 3d 09 a4 53 3d e1 78 ac 3c
       0.05717318 0.09139896 0.051670108 0.021053733
0001a0 aa 8a 3f 3d 97 3a df 3c dc 2f 14 3d ad dc 0f 3d
       0.0467631 0.027249618 0.036178455 0.035122562
0001b0 a0 00 d4 3c 31 33 66 3d 46 d5 a9 3c 27 6a 00 3d
       0.025879204 0.056201164 0.02073158 0.031351235
0001c0 07 46 25 3d 7a 21 66 3d 30 44 08 3d 26 5d 6b 3d
       0.040349986 0.05618427 0.033268154 0.05746188
0001d0 61 ed b9 3c c9 1a 32 3d 1b b2 ee 3c 13 fd f6 3d
       0.022696199 0.043482576 0.029137662 0.12059989
0001e0 6f 71 0d 3d f9 12 ea 3d 51 b1 53 3d e3 b8 39 39
       0.034532007 0.114294 0.051682774 0.0001771185
0001f0 5d 55 d2 3c e3 bf b7 3c fb a3 78 3d 34 61 83 3d
       0.02567547 0.022430366 0.06070326 0.064150244
000200 92 31 96 3d 9a cf 27 3d 19 f9 13 3d b6 57 84 3c
       0.073336735 0.04096947 0.03612623 0.016155105
000210 b2 e4 95 3d 68 54 21 3d de 93 06 3c c9 a6 2f 3b
       0.07319011 0.039387137 0.008213965 0.0026802293
000220 d3 df 2d 3d ae 22 75 3d 65 ca fb 3c 01 8a 9e 3d
       0.042449784 0.059847526 0.030736158 0.07741166
000230 e5 56 7c 3d ec 92 2c 3c 59 c5 33 3d 13 fe 11 3d
       0.061606307 0.010533076 0.043889377 0.035642695
000240 fb 71 56 3c 19 8a 17 3d 60 b5 2b 3d d9 59 21 3d
       0.0130886985 0.036996935 0.04192102 0.039392326
000250 8d e1 e3 3b 36 d7 8a 3d b7 89 20 3d 7c 0b 8f ba
       0.006954378 0.067793295 0.039193835 -0.0010913457
000260 eb a2 9d 3c 58 c8 c7 3c e2 ff 1e 3d 7d a1 83 3c
       0.019242724 0.024387524 0.038818248 0.016068215
000270 97 d4 b8 3c 2d a4 2d 3d f2 90 25 ba b9 e7 59 3b
       0.022562308 0.0423929 -0.0006315849 0.003324969
000280 74 79 41 3d 3a f2 bf bb ac 4e b1 3d 0c 6a be 3c
       0.047234967 -0.005857733 0.086575836 0.023243926
000290 81 78 80 3d 24 31 7c 3d 61 02 c7 3c 3b b5 7d 3d
       0.06272984 0.0615703 0.024293127 0.061940413
0002a0 9c 6b 13 3d 9c 33 5b 3d 88 f3 7b 3d 4b 93 8f 3d
       0.035991296 0.053516015 0.061511546 0.07010516
0002b0 9d 8d d4 3c a4 5a 8b 3c 95 c0 bf 3c 1b b1 79 3d
       0.025946433 0.017010994 0.02340726 0.060959917
0002c0 5f e5 9a 3c dc 23 6c 3d b6 53 d9 b9 23 03 7d 3c
       0.0189082 0.057651386 -0.00041451835 0.015442642
0002d0 57 c9 28 3c a2 4b cc 3c 53 6d 04 3b 4b 83 66 3d
       0.010301909 0.024938408 0.0020206764 0.056277554
0002e0 ae 91 b6 3c 71 fd f5 3c ca bd 7a ba 1b db 90 3c
       0.022286262 0.030028077 -0.0009565024 0.017682603
0002f0 5d 88 ac 3c 84 e1 18 3d 66 c5 74 b9 5b e7 d4 3b
       0.021061117 0.037324443 -0.0002334319 0.0064973063
000300 cc b7 72 3b d3 71 91 3c 9d 0c 37 3b ae 93 dc b9
       0.003703582 0.01775447 0.0027931102 -0.000420717
000310 96 51 99 3d 72 c8 5b 3d 4e 9d f8 3c 17 b2 58 3d
       0.074862644 0.053657956 0.030348446 0.052904215
000320 9c dc 0d 3d 2b 71 8e 3d 17 5e 2e 3d fa 3d 89 bc
       0.034634218 0.06955179 0.0425702 -0.016753186
000330 7c 8a e1 3d be 6e 3d 3d 77 7b 6a 3d 34 80 c7 3c
       0.11012742 0.04624819 0.05724665 0.024353124
000340 1d cf a2 3d c8 e9 d6 3b b6 ff aa 3c e5 88 3f 3d
       0.0794966 0.0065586306 0.020873886 0.046761412
000350 8a 82 00 3d 18 bd 00 3d eb fa 59 3d fa 6b 5b 3d
       0.03137449 0.031430334 0.05321781 0.05356977
000360 32 5f d9 3c 06 27 32 3d 5d d9 44 3d cd 19 5b 3d
       0.02653465 0.043494247 0.048058856 0.053491402
000370 66 55 0d 3d 35 f1 26 3d 62 c5 71 3a cf a1 a2 b7
       0.03450527 0.040757377 0.0009222833 -1.9387253e-05
000380 2a e0 65 3d 52 42 e1 3c 41 cf 5d 3d f6 8e 78 3d
       0.056121983 0.027497444 0.05415273 0.060683213
000390 3d 6c da 3c 7c e7 23 3c 47 69 6b 3c d3 e5 c5 3c
       0.02666294 0.010003921 0.014368362 0.02415744
0003a0 f7 ba e6 39 28 c1 91 3c 78 7e eb 3c e4 1f a6 3d
       0.00044008318 0.0177923 0.028746828 0.081115514
0003b0 dc c9 d0 3c 28 4f 86 3d d1 1d b8 3c 0e 5b 6f 3d
       0.025486879 0.065580666 0.022475155 0.058436446
0003c0 8e 35 b3 3c 7b 54 83 3d a0 cc 4b 3d df 27 1a 3c
       0.021876123 0.06412598 0.049755692 0.00940892
0003d0 fc 6f 52 3d 5b da e0 3c fc 64 9a 3c c1 86 f9 3c
       0.051376328 0.02744787 0.018846981 0.030459763
0003e0 ba a2 3d 3d d4 61 13 3c 80 49 94 3c 66 b3 90 3d
       0.046297766 0.008995492 0.018101454 0.070654675
0003f0 08 65 87 3c b5 09 94 ba e5 b3 7b 3d c5 d9 e9 3c
       0.016527668 -0.0011294397 0.061450858 0.028546223

network.2.weight f4 [192, 256]
000000 9d 82 07 bd 5f b0 a9 bd 18 82 78 3d dd fc 6e 3c
       -0.033083547 -0.08285593 0.060670942 0.0145866545
000010 25 28 f2 3c ff ed b0 3d cc aa 3f bd 8b 6d 45 3d
       0.029560158 0.08639144 -0.046793744 0.04820017
000020 db bd 8a 3d 4e 73 ac 3d a8 92 65 bd 15 83 ae 3d
       0.06774493 0.0842043 -0.056048065 0.08521096
000030 34 8e a9 ba 0b f1 34 bd 62 1d 78 3c ea 5f f4 3d
       -0.0012936057 -0.04417519 0.015143724 0.11932357
000040 42 dc 64 3d e0 9d 13 bd b7 41 0a bd c6 1e 0c 3d
       0.055874117 -0.036039233 -0.033754077 0.034209035
000050 e4 6a 2c 3e 93 45 8a 3d 84 0a f7 bc ba e2 28 3d
       0.1683765 0.067515515 -0.030156381 0.04123185
000060 e0 bc 97 bc a7 48 d5 bc 21 84 b1 bb 0c 80 4a bd
       -0.01852268 -0.02603562 -0.0054173623 -0.04943852
000070 ec 99 0c 3e ff 60 4e bd 30 c5 2e 3d 33 61 0e 3c
       0.13730592 -0.05038547 0.04266852 0.008690166
000080 1d a2 16 3e c7 5b d9 3c ea 38 a8 3c 2d bb 02 be
       0.14710279 0.02653302 0.020534951 -0.12766714
000090 62 62 4b 3d 80 81 07 3d 34 32 12 bd 99 71 88 be
       0.049654372 0.033082485 -0.03569241 -0.26649168
0000a0 dd 78 9a 3c 79 a0 0d 3e 83 5c 7f 3c 0a 59 98 bd
       0.01885646 0.13830747 0.015586021 -0.07438858
0000b0 e1 7c df 3c 51 9d 15 3c cf 16 1b bd 30 03 a7 3d
       0.027281227 0.009131745 -0.03786355 0.08154905
0000c0 9e 96 a7 3d 70 63 dc 3c 5a 7e 55 bd 24 37 9c 3d
       0.08183025 0.026902884 -0.05212245 0.07627705
0000d0 a6 47 24 3d 56 44 6e bc 65 48 84 bc ad 0b a2 bc
       0.04010739 -0.01454266 -0.016147802 -0.019780958
0000e0 ef ef 4d bd ad 9e 94 3c 96 54 4e 3d a6 5e 09 3e
       -0.050277647 0.018142069 0.050373636 0.13415012
0000f0 68 a7 c3 bd 71 88 1d be d2 de 3d 3d a7 f5 1b bd
       -0.095534146 -0.1538408 0.046355076 -0.03807607
000100 1c ff ab bd c1 08 f3 3d 76 a5 89 3d 48 85 bd bd
       -0.083982676 0.11866904 0.06721012 -0.09253937
000110 7e c0 5c 3e ce f6 6e 3d 69 0f bf 3d 0f 01 ff bd
       0.21557805 0.05834084 0.09329111 -0.12451374
000120 bc b2 d1 bc 90 ff 94 bd 3b a5 68 3d aa f4 99 3d
       -0.025597923 -0.07275307 0.0567982 0.07517369
000130 1c fa 1e bd ab e3 58 bd de 88 e6 ba 14 39 8c 3c
       -0.03881274 -0.052951496 -0.0017588397 0.01711706
000140 d5 2c 97 bd ec 52 c5 bd b0 85 5b bb 69 b0 0e 3e
       -0.07381598 -0.09634957 -0.0033496432 0.13934483
000150 e6 9f 52 bd ef f1 14 be 92 9c 19 3e 93 84 be 3d
       -0.051422022 -0.14545415 0.15001133 0.0930263
000160 c6 05 46 bd 98 50 b3 39 84 38 84 bd 7c 25 b9 bc
       -0.04834535 0.00034201588 -0.06456092 -0.022600882
000170 11 e5 d2 3d dd ae 3f 3d 18 9e a7 3b c8 9a 0f bd
       0.10297597 0.046797622 0.005115282 -0.03505972
000180 e3 29 32 bd 1b ca 71 bd c9 f2 d6 3d c7 b0 0a 3d
       -0.043496978 -0.059030633 0.10495526 0.033859994
000190 b2 a1 3f bd ee 58 8e bd 15 18 e4 3d 3a ba c3 bd
       -0.046785064 -0.06950556 0.11137406 -0.09557004
0001a0 ff 39 df 3d 58 96 ae 3d 64 46 e2 3d 26 11 9b 3d
       0.10899734 0.085247695 0.11048582 0.0757163
0001b0 f1 55 de 3a 88 9a 6b 3d 6b 57 48 3d 83 61 bc 3d
       0.0016962868 0.05752042 0.048911493 0.091982864
0001c0 00 8a 0e 3e 96 da d3 ba 48 ef 1b 3d 14 e3 c1 3d
       0.1391983 -0.0016163166 0.038069993 0.0946714
0001d0 23 b1 8b 3d cd bc 61 3d c8 72 3f 3d 9d bc b0 3d
       0.068208955 0.055111695 0.046740323 0.08629725
0001e0 7f 04 75 bc 42 27 75 3d 86 1f 50 bd 85 36 d4 3c
       -0.014954685 0.059851892 -0.050811313 0.025904903
0001f0 21 fe dd 3d 51 d4 b8 3d bb a9 5d bd 9f 06 28 be
       0.10839487 0.09024871 -0.054116946 -0.16408776
000200 58 b5 07 3d 7f f9 52 3d b3 53 00 3d 28 c3 65 bc
       0.033131927 0.05150747 0.03132982 -0.01402358
000210 65 74 bb 3b 1c 4f 18 bd 3b df 1b 3e 4c 87 bf 3c
       0.0057206624 -0.03718482 0.15221874 0.023379944
000220 95 d5 99 bd 76 e5 b8 bc f4 bc bb 3d e4 cc df 3d
       -0.07511441 -0.022570353 0.09166899 0.10927752
000230 39 b4 21 3d 0d 08 63 3d 74 37 54 bd 28 06 2f bb
       0.039478514 0.0554276 -0.051810697 -0.002670655
000240 c7 0f 5d 3d 82 0e 01 bb 1b 72 f7 bc ec e9 45 bc
       0.053970125 -0.0019692485 -0.030205777 -0.012079697
000250 ca 80 cd 3d 2e 1d 98 3b b3 96 08 bd 27 ed eb bd
       0.1003433 0.0046421504 -0.033346843 -0.115198426
000260 be d4 38 bd 60 eb 7f 3d ea 3b 9b 3c 78 1a 0e be
       -0.04512476 0.06248033 0.018949468 -0.13877285
000270 20 4f a8 3c 80 5e 87 bd 9f 8e 99 bc db 2e aa 3c
       0.020545542 -0.06609821 -0.018744765 0.020774296
000280 1b 9e 87 3e c2 7f 0c 3e ab ad c1 3d b2 d6 b6 bd
       0.26487812 0.1372061 0.09456953 -0.08927669
000290 ce 03 0c 3e 1c 71 9d bd d6 2f b5 3c 7a d5 04 be
       0.13673326 -0.076875895 0.022117537 -0.1297206
0002a0 e7 1c bd bd b0 5a a9 3d 4c b3 fd bd f9 af 49 be
       -0.09234028 0.082692504 -0.12387714 -0.19696034
0002b0 df 1f e5 3c 12 91 c6 3d 7d 3d 06 3d dd d2 48 3c
       0.027969299 0.09695639 0.032773484 0.012257305
0002c0 17 4a 82 3d be 05 4f 3c 84 3a a0 3c 45 d7 60 bc
       0.06361788 0.012635646 0.019559152 -0.013723199
0002d0 b1 c7 8a bc 3c cc 52 3e ab 16 80 bc d5 5a e9 bd
       -0.016940923 0.20585722 -0.015635809 -0.11394278
0002e0 74 ea 73 bd 69 0d 83 3d 80 be 34 bb ee ac 77 3d
       -0.059549764 0.06399042 -0.0027579367 0.060467653
0002f0 3a a6 01 3c 8d a8 a3 bd 40 68 a2 3d 5a b8 09 bd
       0.007913167 -0.07991133 0.0793004 -0.033623077
000300 f7 f5 af 3d 5c 26 b4 3d 48 7b 33 bb 46 e9 1c 3e
       0.08591836 0.08796379 -0.0027386714 0.15323362
000310 e8 59 3e 3e 2d 32 37 3e 3e 71 0f 3e 5d 1e 01 be
       0.18588984 0.17890234 0.14008042 -0.12609239
000320 8b 1a f4 bc cb 2a 96 3c f6 a6 5a 3d 91 60 05 3e
       -0.029797813 0.018330952 0.053381883 0.13025118
000330 fc d1 8e 3d 79 91 ca 3d d9 b7 9c bd 5c 5f 39 3d
       0.06973645 0.09891028 -0.07652254 0.045256957
000340 b9 92 22 be 8f c6 7e bc 04 be 72 3c 84 98 98 3c
       -0.15876283 -0.01555027 0.014815811 0.018627413
000350 af e5 06 3c f3 ae d1 bd 95 8b 70 bd 78 6b 19 bd
       0.008233472 -0.10238447 -0.058726866 -0.037456006
000360 93 cf 0d 3e 03 20 08 3d 3b a3 02 3d d2 73 9b bd
       0.13848715 0.033233654 0.03189395 -0.0759045
000370 d9 3d c8 bc ec b7 d0 bd 1e e0 9d 3d 2d 49 2c bc
       -0.024443554 -0.1019133 0.077087626 -0.010515493
000380 1e 0f c8 bc ff 74 9e bc 6e 25 60 bc 93 c1 17 3d
       -0.024421271 -0.019342897 -0.013680799 0.03704984
000390 e8 3d d8 bd 40 7d 8f bc a9 2b e3 3d 3f 2d 95 3c
       -0.10558683 -0.017515779 0.11092312 0.018210052
0003a0 c5 0c 33 be e1 de a8 3c 3a a5 70 bd 76 60 e5 bc
       -0.1748534 0.02061409 -0.058751322 -0.028000098
0003b0 ff 64 3b 3b 94 5a 1d 3d bb 4f 0e bd d9 23 02 bc
       0.0028594134 0.03841646 -0.034744006 -0.007943117
0003c0 63 f5 a8 bd 85 2d 1b be ee f9 28 bd b7 ea e6 3d
       -0.08249929 -0.15154083 -0.041253977 0.11275237
0003d0 0f 9b 9e 3b 4a 34 97 bd 59 2d 7b bc 03 21 96 3d
       0.004840262 -0.0738302 -0.015330636 0.07330515
0003e0 9e 7c 2a bd 0a 46 58 3c 8c 0b 77 3c 9f c5 ce 3d
       -0.04162275 0.013200292 0.015078437 0.10096287
0003f0 29 92 ac 3d 79 71 5f 3d e1 0b 01 be e0 ff b5 bd
       0.08426315 0.054551575 -0.12602188 -0.08886695

network.2.bias f4 [192]
000000 08 f7 19 3c 44 53 40 3c 41 f0 c1 3c 9e 22 66 3d
       0.009397276 0.011738602 0.023674132 0.056185357
000010 c9 8d 94 3c 27 d6 af 3c 17 05 8e 3c 66 2e 0a 3d
       0.018134015 0.02146442 0.017336411 0.033735655
000020 8d f0 71 bb 8c ba 1b 3d 33 23 24 bb 6e 43 a7 3c
       -0.003691706 0.0380197 -0.0025045394 0.020417895
000030 0a 3e a1 3c dc ed 00 3d 2c c0 de 3c c8 7d 60 3c
       0.019682903 0.03147684 0.027191244 0.013701864
000040 86 b2 e4 3b d1 f4 0c 3c 8d bc 6a 3c ab 83 1b 3b
       0.0069792895 0.008603291 0.014327181 0.0023729603
000050 36 c6 d5 3c 0a 40 40 bb fe f1 1a 3b d5 2b 15 3d
       0.02609549 -0.0029335045 0.0023642774 0.036418755
000060 de 83 5f 3c a3 20 bc 3c 56 cc fb 3b 0a e0 5b bb
       0.013642279 0.022964781 0.007684271 -0.0033550286
000070 32 78 8a 3c 3a 8d 0f bb 10 79 07 3d bb 74 71 3c
       0.016903017 -0.0021904246 0.03307444 0.014737303
000080 f2 a0 d9 3b 88 90 76 3c 82 f5 b5 b9 5e 0e 88 bb
       0.0066415006 0.015049107 -0.00034705928 -0.0041521033
000090 ac 47 5f 3d 27 7b 03 3d 35 5b 4d 3d 08 f5 9a 3c
       0.05451171 0.03209987 0.05013581 0.018915668
0000a0 47 dc 8f 3c 60 13 91 3c c1 2f 03 3d 3f fb 0f 3c
       0.017561091 0.017709434 0.032027964 0.008787929
0000b0 be d1 f1 3c b5 1d f4 3c ef d8 bd 3c 38 2f 96 3c
       0.029518958 0.029799322 0.023174731 0.018333063
0000c0 e8 4a 4e 3c 18 38 ea bb 52 f7 ed 3c ab a4 0b 3d
       0.012591101 -0.0071478 0.029048596 0.034092586
0000d0 77 27 15 3d 44 09 04 3d 71 f0 83 3c a5 f0 09 3d
       0.03641459 0.0322354 0.016105862 0.033676762
0000e0 7c 12 1c 3d ba 5c 20 3d 29 eb 99 bb f9 c2 48 bb
       0.038103566 0.03915093 -0.0046972227 -0.003063379
0000f0 87 9a a9 3b 06 6a 61 3d 74 9e 37 3c bb 1a f9 3c
       0.005175892 0.055032752 0.011207212 0.030408254
000100 58 0f b6 3c 4b 11 51 3c 78 a2 f7 3b a5 52 16 3d
       0.022224113 0.012760471 0.0075572096 0.03669991
000110 bd b1 35 3d 1f 14 1c 3d a1 83 7c 3c 59 26 09 3c
       0.044358958 0.038105126 0.015412242 0.008370959
000120 de 7b fa 3c b6 e7 22 3d 42 f5 25 3d 9e b7 c1 3c
       0.030576643 0.039771758 0.0405171 0.023647126
000130 d8 13 f8 3c 2c d8 d5 3c 9b 7b da 3c 5d 2f 0d 3c
       0.0302829 0.026104055 0.026670268 0.008617249
000140 27 1b 14 3d 26 ce ab 3a 20 5a e5 3b e0 62 bb 3b
       0.036158707 0.0013107702 0.006999269 0.005718574
000150 c3 86 73 3c b8 fd 0a 3d b1 7c 22 3d bd fc 57 3d
       0.014863673 0.03393337 0.039669696 0.052731264
000160 00 b6 83 3b 36 4c 31 3d c4 bf 38 3d 70 81 fd 3c
       0.004019499 0.04328557 0.045104757 0.03094551
000170 4b 37 96 3c a5 03 0f 3d ca a7 08 ba 13 18 c7 3c
       0.018336913 0.034915585 -0.0005212991 0.024303472
000180 ea 2a 82 3c 2a a6 78 3c 01 9e 02 3d 1e 44 a6 3c
       0.015889604 0.015176335 0.031888966 0.020296153
000190 db a7 26 3c 2b 94 9b 3c f4 30 41 3d c2 4a 41 3d
       0.010171856 0.01899155 0.047165826 0.047190435
0001a0 3a e0 9c 3c d8 64 a6 3c c4 b6 3b 3d 53 0e 75 3c
       0.019149888 0.020311758 0.045828596 0.014957028
0001b0 b2 1b 10 3d 72 ee d3 3c 6c 31 bd 3c 26 e1 5f 3c
       0.035182662 0.025870536 0.023094855 0.013664519
0001c0 0f 9a d7 bb 73 1b b5 3c f6 7c 06 3d c3 d8 5e 3c
       -0.0065796445 0.022107815 0.032834016 0.013601485
0001d0 ae 36 a5 3c 9d de ab 3c b6 c2 09 3c 2c 4e e7 3c
       0.020167675 0.020980174 0.008408239 0.028235517
0001e0 9a 1c a7 ba 16 b9 b1 3c 7f 56 fd 3c 30 00 fb bb
       -0.0012749613 0.021694701 0.030925034 -0.0076599345
0001f0 89 4f 35 ba 94 17 33 3d 7d 97 9a 3c f1 a5 93 3c
       -0.0006916454 0.043723658 0.018871063 0.018023463
000200 02 07 d3 3b f3 c9 0b 3d 64 02 f3 3a 19 2c f3 3b
       0.0064400444 0.03412814 0.0018540141 0.0074210283
000210 78 d6 26 3d 9d 71 2e 3d 44 cc 00 39 ce ae 91 bc
       0.040731877 0.04258882 0.00012283126 -0.017783549
000220 85 3d 81 3c a1 ac ac 3c 29 91 67 3c e0 70 c1 3b
       0.015776405 0.02107841 0.01413373 0.0059033483
000230 98 78 91 3c b1 47 32 3d 02 d4 8a 3c 2d c3 bf 3c
       0.017757699 0.0435254 0.016946796 0.023408497
000240 23 67 81 bb 3e cc 78 bb 91 de b6 3c 89 8c 33 bb
       -0.0039490624 -0.0037963535 0.022322925 -0.0027396998
000250 d0 ed 9b 3b 45 96 cc 3c f6 23 c2 3c 67 ee ab 3b
       0.004758574 0.024973998 0.023698788 0.0052469256
000260 64 f4 d4 3c 59 aa 34 3d 02 d1 cb 3c c0 8a 27 3c
       0.02599544 0.04410777 0.024879936 0.010225952
000270 c2 f4 11 bc 8f f5 6f 3d 99 52 c9 bb 5f a0 3a 3d
       -0.0089084525 0.058583792 -0.0061438796 0.045563098
000280 b0 45 0f bc 53 cb 9c 3c f4 c5 28 3a 08 fd 47 3d
       -0.008744642 0.019139921 0.0006438189 0.048825294
000290 1f 16 d6 3c b0 8a b9 3c 51 fe e0 3c c6 62 94 3c
       0.026133595 0.02264914 0.027465018 0.018113505
0002a0 60 d1 05 3d 15 e2 8d 3a 67 85 75 3c 49 a7 1d 3d
       0.03267038 0.0010824824 0.014985419 0.038489614
0002b0 92 9d 1d 3d b0 01 4f 3c 26 7b df 3c 5f 6a 64 3b
       0.03848035 0.01263468 0.027280401 0.0034853441
0002c0 90 3a 0f 3d 09 25 5d 3c 29 8d c9 3c 7d ac 0b 3d
       0.03496796 0.013497599 0.024603443 0.034100045
0002d0 bb 41 83 3c da c2 1f 3d ed fb 35 bb 61 1e 1c 39
       0.016022554 0.039004184 -0.0027768568 0.00014888636
0002e0 94 57 f2 3c 1c 88 36 3d 12 78 16 3c dd 60 57 3d
       0.029582776 0.044563398 0.0091839 0.05258261
0002f0 60 32 66 3c 7f 84 9c bc 79 0e b2 3b 15 5b e1 3c
       0.014050096 -0.019106148 0.005433854 0.027509252

network.4.weight f4 [128, 192]
000000 46 be 05 bd c9 be 87 bd 82 e5 ae 3d e9 de 69 bd
       -0.032652162 -0.06628186 0.08539869 -0.05709735
000010 cf d2 eb bd c6 7e 9e 3d 1d 5b 01 be 7d d9 a6 bd
       -0.11514818 0.07739024 -0.12632413 -0.08146951
000020 77 cc 9c bd 07 d6 5a 3d 3c 7e aa bd 79 94 1c bc
       -0.07656186 0.05342677 -0.083248585 -0.009556883
000030 78 07 5d 3d 95 81 18 3d 3f 19 e4 3c 5d 2f f1 3d
       0.0539622 0.037232954 0.02784407 0.11776612
000040 c2 64 6d 3c a2 b4 8a bc 61 cb 18 3e 3c 6f f5 bd
       0.014489355 -0.016931836 0.14921333 -0.11984107
000050 d1 7e d0 b8 7b 49 48 3d 43 5d 03 bc 9e 11 ec bc
       -9.941834e-05 0.0488982 -0.008017841 -0.028816994
000060 11 fd fc 3c 17 31 7a 3e d8 3b 29 be c2 30 8c 3d
       0.03088239 0.24432789 -0.16526735 0.06845237
000070 68 20 b4 3c ad 44 d5 bd 01 84 58 3e c9 ff 94 3d
       0.021988109 -0.104134895 0.21144105 0.0727535
000080 e7 b9 73 bd 7f 31 7b 3d c2 f3 07 be b8 8e 50 bd
       -0.059503462 0.0613265 -0.1327658 -0.050917357
000090 b1 a9 2e 3e 69 b8 c7 bc f4 eb 71 3e 28 39 79 3d
       0.1705692 -0.024379926 0.23625165 0.060845524
0000a0 7f aa 12 be 29 21 90 bc 65 05 2f 3d 14 9c 42 be
       -0.14322852 -0.017593937 0.042729754 -0.19004852
0000b0 2f 88 5e 3e 8c a1 b0 bc 77 dc 57 3d b3 ee a0 bc
       0.21731637 -0.021561407 0.052700486 -0.01964507
0000c0 46 e1 db 3c 1b e3 d0 bd a6 17 0a 3d 3b b2 54 bd
       0.026840817 -0.10199567 0.03371396 -0.051927786
0000d0 1b cd a5 bc cb 97 9b 3d a4 6d c1 3d bf 11 07 3d
       -0.020239403 0.075973116 0.094447404 0.03297591
0000e0 b3 2c c8 bc 38 06 f0 b7 1c 81 1b be f8 13 2e bd
       -0.024435377 -2.8613125e-05 -0.1518597 -0.042499512
0000f0 aa 4b c5 bd 93 cb 51 bc d6 4a d5 bd d2 9d a3 3d
       -0.096335724 -0.0128048835 -0.104146644 0.07989086
000100 98 c2 af bd 19 0d d7 3c db 76 3c 3d 92 3c 4b 3e
       -0.08582038 0.026251363 0.046011787 0.19847324
000110 36 e6 a6 bc 59 2f ca 3d 6f 3f 4b be 36 be a2 3d
       -0.020373445 0.09872312 -0.19848417 0.07946436
000120 a0 3e 0c 3e dd e8 fb bd 2f a1 2e 3e 03 ff 2b 3e
       0.13695765 -0.123002745 0.17053674 0.16796498
000130 bd be f1 3a 26 21 ae 3c cb a8 a5 3d 42 66 ae 3d
       0.0018443685 0.02125604 0.08088835 0.08515598
000140 b6 bf b8 39 cb 29 81 bd a2 b2 cb bc b1 ea 2f be
       0.0003523805 -0.063067995 -0.024865452 -0.17179371
000150 2a cd 56 3c 3e 2a c4 3c e6 59 b6 bd ca 0b e0 bc
       0.013110438 0.023945924 -0.089038655 -0.027349371
000160 89 94 6d bb ed ca 06 3e cb 93 e1 3c 67 01 5b bd
       -0.0036251864 0.13163348 0.027536293 -0.053468134
000170 e9 74 5b 3e 30 3e 78 3d 8f 6c 2f bd 38 79 9a 3c
       0.21431316 0.06060618 -0.04282814 0.01885663
000180 ba fc df bd f0 81 55 3d b1 a5 b3 bc 32 0c 06 be
       -0.10936876 0.05212587 -0.021929594 -0.1309059
000190 3f fd a0 3d 98 53 8a bd bb 16 88 3d a1 be aa 3d
       0.07860803 -0.067542255 0.066449605 0.08337141
0001a0 42 0a 49 3c d7 c6 99 bd 9a 7f a9 3d 1b 5c 8f bd
       0.012270512 -0.07508629 0.08276291 -0.069999896
0001b0 cc b2 90 3d 52 ff 59 be 2b 77 aa bc 92 a9 8e bc
       0.07065353 -0.21288803 -0.020808777 -0.017414842
0001c0 eb b2 d9 bd 5c 12 46 3b fc f7 d1 3d 1c 14 87 3b
       -0.10629829 0.0030223345 0.102523774 0.0041222703
0001d0 82 2e 53 3d 41 e5 5f 3d a6 6e ba bc b4 6f 25 3e
       0.051558025 0.054661993 -0.02275784 0.16155893
0001e0 aa 0d 01 3e 67 0a 10 bd 01 4b 05 3e e2 9c 95 3c
       0.12602869 -0.03516617 0.13016893 0.018263284
0001f0 cf a0 e2 bb e1 1b d5 3d 07 25 1d bc 03 18 8b bd
       -0.0069161425 0.10405708 -0.009591348 -0.06791689
000200 8c 35 bb 3c 84 7b de 3d 10 52 c7 3d 45 4d d1 3c
       0.022852682 0.108634025 0.09732449 0.02554954
000210 e0 cf af 3d a6 78 62 3d 38 55 41 be c0 3d d3 bd
       0.08584571 0.05529084 -0.18880165 -0.10314512
000220 fa 16 01 3e 29 01 81 3d b9 a9 de 3d a0 c6 a7 3d
       0.12606421 0.062990494 0.10872216 0.081921816
000230 af ea d5 3b 10 c1 fe ba 8f 54 7e 3d 44 d6 48 bc
       0.0065282206 -0.0019436199 0.06209236 -0.012258116
000240 71 e6 6d bd 63 d6 60 3b 7a d6 2c 3e a5 d2 09 be
       -0.058081094 0.0034307472 0.16878691 -0.13459261
000250 59 88 6e 3d 9d 06 43 bb ac 8b 2d 3e 1c fe 9e 3d
       0.0582355 -0.002975858 0.16947812 0.07763311
000260 e6 32 5e bd 01 07 92 3d 07 57 2c 3e c2 b3 fb 3d
       -0.05424776 0.07130242 0.16830073 0.122901455
000270 3e 0d 80 3e d7 3b 3b 3c 99 72 23 3d 8d db e1 3d
       0.25010103 0.011427841 0.03990421 0.11028204
000280 16 82 c4 bd 8a b5 ee 3d 57 f0 46 3d 1a ab 0e 3e
       -0.095951244 0.116557196 0.04856905 0.13932458
000290 b7 da bc bd 62 b6 cc bd d7 8c 3d 3e fe 8a b1 bd
       -0.09221404 -0.09995724 0.18510757 -0.08669089
0002a0 79 b7 6e 3d 26 1f e4 3c c4 3c b2 bd 0f ed 89 3d
       0.058280442 0.027846884 -0.087029964 0.067346685
0002b0 20 f5 97 3d 6c 57 14 3e 30 24 21 3e 2d 6e 04 bc
       0.07419801 0.14486474 0.1573646 -0.008082909
0002c0 5b 95 86 bd 33 6c d8 bb 76 ad 00 3d 84 2d 97 ba
       -0.06571456 -0.006604695 0.031415425 -0.001153395
0002d0 cf 82 a2 bc 7f 8d 7a bd 31 26 21 3d 4a be 0f 3d
       -0.019837765 -0.061170097 0.039343063 0.035093583
0002e0 7c 8a a3 bc 3a bf f6 3d c5 6e 7b 3c f5 29 a6 3c
       -0.019963495 0.12048192 0.015346234 0.020283679
0002f0 71 5e 86 3c 2c 3a 2e be 6e 51 24 bb 2b c8 64 3e
       0.016402455 -0.17014378 -0.002507295 0.22341983
000300 f8 a1 91 bc 9e aa 51 be 15 e8 2a 3c df d5 bb bc
       -0.017777428 -0.20475242 0.010431309 -0.02292913
000310 f0 04 6f 3b 68 f2 98 bd a2 0c 3e 3d d5 c5 12 bd
       0.003647145 -0.0746811 0.046398766 -0.0358332
000320 71 f7 02 3c 48 85 87 3d f4 7a 1b be 39 45 87 3d
       0.007993565 0.06617218 -0.15183622 0.06605
000330 45 c5 c2 bd 00 ee f7 bc 13 13 ca 3a 2c a5 4c bd
       -0.095102824 -0.030264854 0.0015417062 -0.049962208
000340 dd b9 c3 3d b5 ea 33 3e 90 51 20 3d e7 e1 4f 3e
       0.09556935 0.17570002 0.039140284 0.20301019
000350 42 de d7 bd 75 d3 42 be 63 6d b8 bd 1b d0 b5 3b
       -0.10540439 -0.19025977 -0.09005239 0.0055484897
000360 af 35 f2 3d 48 4c 0d be 58 db b3 3d a5 44 6e bd
       0.118266456 -0.1379863 0.08782071 -0.058170933
000370 19 c1 dd 3c 75 80 a4 3b b9 71 67 bc ec f7 2e 3d
       0.027069615 0.005020196 -0.014126235 0.042716905
000380 99 2b b6 bc ca e4 01 3e 5e 63 c2 3d aa d7 09 bd
       -0.022237586 0.12684932 0.09491609 -0.03365294
000390 6a e7 2a bc b8 f3 32 bb 4a 83 06 3e 55 dd 9e bd
       -0.01043115 -0.0027305912 0.1313602 -0.077570595
0003a0 6f 0b 18 be 7f 52 94 3d 82 f5 b1 bc e9 5a 7a bc
       -0.14848112 0.072422974 -0.021723513 -0.015280464
0003b0 25 9a 72 3d c4 81 3a ba 32 ee 67 3d 19 32 70 bd
       0.059229035 -0.00071146735 0.056623645 -0.058641527
0003c0 9d 70 9c bc cb 21 b6 bd 4d ea ba 3d 88 6a 8b 3d
       -0.019096667 -0.08893164 0.091267206 0.068074286
0003d0 b2 32 07 3e 44 a9 6a bd de 0f 31 bb d9 4c 08 be
       0.13202932 -0.05729033 -0.0027017514 -0.13310565
0003e0 ef 80 6d bc 69 0a 4c 3d 51 ba 8b 3d 31 a2 88 bb
       -0.014496072 0.049814615 0.068226464 -0.0041697253
0003f0 be 7d 26 bc 2a 85 0a be 98 4b 07 3d 18 6e b9 3b
       -0.010161815 -0.1352736 0.033031076 0.005658876

network.4.bias f4 [128]
000000 73 4e 4d 3d 11 7c e6 3a fb 9b 4b 3d 58 51 8f bc
       0.050123643 0.0017584582 0.0497093 -0.017494842
000010 c5 88 01 3d d7 85 f7 3b 43 c3 c1 bb 85 0f 69 bb
       0.031624574 0.0075537967 -0.0059131696 -0.003556223
000020 4f e5 32 bb c4 81 4a 3d 28 f1 97 3c 9b 21 f7 3b
       -0.0027297323 0.04944016 0.01854761 0.007541848
000030 86 98 fe bb f0 b3 15 3b b9 7b 10 3b 70 d2 f9 37
       -0.007769647 0.0022842847 0.00220464 2.9781106e-05
000040 7d 5e c3 3b 0d d2 82 bb 0d 26 38 bc 09 c7 9d 3c
       0.0059621916 -0.003992325 -0.011239541 0.019259946
000050 3b ab 40 3b de 1c 63 bc d1 4a ec 3b 00 a9 66 bc
       0.0029398936 -0.013861863 0.0072110672 -0.014078379
000060 af 08 09 3d 2a 83 31 bc bd f8 98 3c f7 13 c2 3c
       0.033455547 -0.010834495 0.018673295 0.02369116
000070 d2 5c 97 3c 55 da 92 bc ad 1d 96 bb 59 dd 39 bb
       0.018476877 -0.017926374 -0.0045811743 -0.0028360693
000080 0e f1 41 bc 22 af 17 bc df 5c 30 bb a4 ae ea 3c
       -0.011837257 -0.0092580635 -0.0026910824 0.028647728
000090 57 cd 2b 3c 28 56 3a 3c 20 aa 10 3c ae 4f 80 3c
       0.010485969 0.01137308 0.008829623 0.015662994
0000a0 9c ab bd 3c f1 ee 30 3d b0 54 6b 39 e8 7f ea bb
       0.023153119 0.043196622 0.00022442895 -0.007156361
0000b0 1c 57 01 3c 96 2d 7c bb 90 a6 ed 3b c6 02 09 bc
       0.007894304 -0.003847932 0.007252522 -0.008362478
0000c0 37 e3 3a bc 47 ac a5 3b cb ac 33 ba 6e 61 cb 3c
       -0.011406711 0.0050559375 -0.0006854056 0.024826732
0000d0 02 bc 16 3a 23 d8 99 3b c0 5a c1 3c 6c 7a 36 bc
       0.0005750061 0.004694955 0.023602843 -0.011137586
0000e0 c9 2a 2e 3c bb 80 8e 3b 52 8b 03 3c 5b e9 05 3c
       0.010630318 0.004348842 0.008028822 0.008173312
0000f0 64 d3 69 bc 7c 25 c8 bb c4 07 b8 bc cd a6 e1 3c
       -0.014271591 -0.006107984 -0.02246464 0.027545357
000100 b9 b4 0c 3c d5 06 29 3d 87 22 8e 3c 2b 01 9e 3b
       0.0085880095 0.04126628 0.017350448 0.0048219166
000110 1a 7b 2d 3c 3f d2 2c 3c ef 6e 95 3a 69 98 cf 3c
       0.010588432 0.010548173 0.0011400859 0.02534123
000120 37 34 e2 3c c5 8d 82 3c 6e aa bd bc ff be b3 3b
       0.027612789 0.015936742 -0.023152556 0.005485415
000130 12 a6 12 3d 79 7a f4 3c 92 6b 2a 3d ae 7f 04 bc
       0.03580291 0.029843556 0.041606493 -0.008087082
000140 df 6f 71 3c 28 a8 a5 3c a6 e4 72 bb 5f 91 f2 bb
       0.014736145 0.020221785 -0.0037062555 -0.0074025835
000150 59 08 28 3b 48 ae 11 bc 6e 15 66 3c ba 98 7f 3c
       0.0025639741 -0.00889165 0.014043195 0.015600378
000160 ae 24 26 3c e7 cd 94 3c a1 4d 08 3c ec ec d8 39
       0.010140581 0.018164588 0.008319289 0.0004137525
000170 df 43 22 3d 7e a7 c8 3c 24 9b 9f 3c ce e1 bc 3b
       0.03961551 0.024493929 0.019483157 0.0057642227
000180 19 f0 86 3c db 56 00 3d cf 6f bd 3c 9d d1 c1 3c
       0.01647191 0.03133283 0.023124604 0.023659522
000190 16 d1 88 3c b8 e1 e2 bb 93 b9 50 3c 62 5a b6 3c
       0.016701262 -0.0069238804 0.012739557 0.022259895
0001a0 e1 71 bd bb 25 1f d4 3c 10 64 85 3c 2b de 12 3c
       -0.0057813977 0.025893757 0.016283065 0.008964102
0001b0 92 36 c5 3c 47 22 5f 3b 90 71 ff bb 17 08 99 3c
       0.024073873 0.003404753 -0.00779552 0.018680615
0001c0 e4 6e 06 3c 6d c5 bb 3c 35 98 00 bc cd ef 17 3d
       0.008205149 0.022921288 -0.007848789 0.037093926
0001d0 7c 0d b2 bc e4 2a 74 3c ed cb 3d 3d a0 9e cd 3c
       -0.021734945 0.014902804 0.046337057 0.025100052
0001e0 d4 a9 5b 3a 7b 60 ea bc 40 7e 0d bc f2 87 37 3c
       0.00083794934 -0.028610459 -0.008636057 0.0112018455
0001f0 9a 76 17 3c 3d 5c e4 3c 16 4c 75 3b a5 01 3c bb
       0.009244585 0.027876014 0.0037429384 -0.0028687504

network.6.weight f4 [39, 128]
000000 3f 10 b9 bb 62 76 d5 b8 8c ba 60 3c 26 48 5b be
       -0.0056476886 -0.00010178682 0.013716351 -0.21414241
000010 7a 20 85 b8 9e f0 90 bd 1e 87 24 be e4 2e 74 3e
       -6.3479834e-05 -0.07077144 -0.16067168 0.23846012
000020 d0 35 c4 b6 1b 83 4b be 5f b9 8a bd c8 31 e2 36
       -5.84752e-06 -0.19874232 -0.06773638 6.74112e-06
000030 bb 54 10 3d 02 9a 74 be 63 b9 4e b8 f2 a4 28 3e
       0.035237055 -0.23886874 -4.9286882e-05 0.16469172
000040 2c e4 b1 36 00 e4 aa b2 cf ec 7e bd 02 b0 75 be
       5.3015738e-06 -1.9894287e-08 -0.062237557 -0.23992923
000050 f4 5d aa 36 ce a5 9f b7 c4 b9 76 bc 70 5f 34 3e
       5.0773324e-06 -1.9031486e-05 -0.015058938 0.17614532
000060 1c 83 8f ba a4 29 1f 37 97 d6 2e be 6d 0a 72 be
       -0.0010949108 9.486834e-06 -0.17074047 -0.2363679
000070 7e 25 8f bc 19 3c 74 be 31 24 89 bd c4 64 06 be
       -0.017473932 -0.2385105 -0.06696356 -0.13124377
000080 37 3e b2 bc 74 0f 00 37 cd 5a 85 3c 5b 5e 8e be
       -0.021758182 7.6329925e-06 0.016278649 -0.27806363
000090 52 f0 9e 3c 81 35 12 3d 96 28 30 3d 68 c1 7a bd
       0.019401703 0.035695557 0.043007456 -0.061219603
0000a0 3b 19 2c 3e 34 a9 6e be 9f 1b 4b bd 49 4e a6 bc
       0.168065 -0.23306733 -0.04958689 -0.020301001
0000b0 52 2d 32 3d 38 e4 6b 37 9a ae 72 be f4 81 47 3e
       0.043500252 1.4060228e-05 -0.23699418 0.19483167
0000c0 9d db 37 3e d5 e0 82 bc d7 ef 33 37 d5 82 d2 bd
       0.1795487 -0.015976349 1.07250735e-05 -0.102788605
0000d0 ab 72 7b be 49 8b 75 be 77 9a ad bd 80 85 1d be
       -0.24555461 -0.23978914 -0.084767275 -0.15382957
0000e0 41 96 c4 bd 2b 8d 72 be 0f b0 6a 3e 57 df 41 be
       -0.09598971 -0.23686664 0.22918724 -0.18932854
0000f0 d8 1d 85 3d dd 6b 72 be b3 28 31 be c6 df db 3c
       0.06499833 -0.23673959 -0.17300682 0.026840102
000100 37 ca 87 bd 41 54 1b 3d d0 4c da b5 7f 46 54 bd
       -0.06630366 0.037922148 -1.6264621e-06 -0.051825043
000110 38 81 74 be b6 f3 e2 3c c0 84 04 b5 5a 0c 75 be
       -0.23877418 0.027704101 -4.936701e-07 -0.23930493
000120 e6 73 75 be 1a db 8c be 11 03 aa bd b9 4d 21 be
       -0.23969993 -0.2751091 -0.08301366 -0.15752305
000130 5b 2e 73 be 20 6f c1 bd 1a bf 63 be ca 35 2e 36
       -0.23748152 -0.094450235 -0.22240868 2.595933e-06
000140 8e f8 15 bc 34 43 74 3e 19 d2 9d be 3a c4 2f b7
       -0.009153498 0.23853761 -0.30824354 -1.04765e-05
000150 b7 41 72 be 3c ab 58 be a8 23 74 be 41 36 71 3e
       -0.2365788 -0.2115907 -0.23841727 0.23555852
000160 23 54 73 3e 33 62 e5 3c 5e cb 84 3c cd 1a 98 bc
       0.23762564 0.028000927 0.016210254 -0.018567467
000170 b4 7d e5 bd eb d7 5c be 52 1d 48 be 38 0f 75 be
       -0.112056166 -0.21566741 -0.19542435 -0.23931587
000180 d9 74 c1 bc f0 aa 85 be 8b fd 86 b8 f2 ca 60 be
       -0.023615288 -0.26106977 -6.436844e-05 -0.21952417
000190 8a 99 84 bc 62 db 3b b7 e5 fd 83 bc 64 8e bb bd
       -0.016186494 -1.1197148e-05 -0.016112277 -0.09158018
0001a0 98 e6 9e b7 8b 6b 6a bd f3 2f 3b be 55 31 83 bd
       -1.8942446e-05 -0.057231467 -0.1828001 -0.06405894
0001b0 73 4c 60 bc eb 0b 44 37 d4 44 0e 38 e2 69 e5 bd
       -0.013690102 1.1685285e-05 3.391954e-05 -0.11201836
0001c0 56 59 1a 3e 2c 1c df bd de 02 4a 37 85 c4 74 be
       0.15073141 -0.10894045 1.2040806e-05 -0.23903091
0001d0 3a d3 0e 37 4c 31 e8 bc ce b2 f7 be 88 bc 9e 3d
       8.51304e-06 -0.02834382 -0.48378605 0.07750803
0001e0 d1 e7 71 3e f3 08 99 bd 6d f7 33 be fd 45 75 be
       0.23623587 -0.0747241 -0.17574854 -0.2395248
0001f0 2a 39 a2 37 e0 ee 1c 3c a7 0b 0d be b7 cd 2a 3d
       1.9338524e-05 0.009578437 -0.13773976 0.04170009
000200 e4 ac c0 bd c6 82 08 bd d2 1c c5 bd d3 f7 62 bc
       -0.09407976 -0.03332784 -0.09624638 -0.013853031
000210 45 f2 19 bd 04 ce fc bc 4b 52 8f bd 59 f9 93 36
       -0.03758456 -0.030859955 -0.06998118 4.4099693e-06
000220 db 84 03 37 19 04 16 be f9 32 7d 3d a0 7d 9a 3d
       7.839141e-06 -0.1465 0.06181619 0.07543492
000230 6f e9 2e bd 95 c6 01 bc 92 b2 09 be 4a cc 61 3d
       -0.04270309 -0.007920881 -0.13447025 0.055126466
000240 26 62 a3 bc 9c 79 03 37 bc cd f6 bd 93 1c db be
       -0.019944262 7.836523e-06 -0.120509595 -0.42795238
000250 6b 0b 35 be 2f 1a f3 bd 13 da ac bc 59 f5 f5 bd
       -0.17680137 -0.118702285 -0.02110008 -0.12009687
000260 29 56 87 be cc 07 8b bc b3 34 a2 3b 3a 25 a4 3e
       -0.26432922 -0.016971491 0.00495013 0.32059652
000270 48 3e b7 bd 00 41 22 be 52 f7 24 3c 04 d4 a1 bc
       -0.08947426 -0.15845108 0.010068731 -0.019754417
000280 95 7a 92 bd 74 04 61 bd 51 38 16 3e 1e ac d2 3d
       -0.07152287 -0.054935887 0.1466992 0.10286735
000290 78 3c c4 bd 29 00 b0 3d 07 2a dd bc f4 7c 42 be
       -0.09581846 0.085937805 -0.02699758 -0.18992978
0002a0 70 0e 5e be 95 c5 9a 3d 82 d5 0d be 7e cb 81 3d
       -0.21685195 0.07557217 -0.13850978 0.06337641
0002b0 fc fe 21 bd f9 01 33 3e b8 2b 80 be 21 02 a9 bd
       -0.039549813 0.17481221 -0.25033355 -0.08252359
0002c0 41 58 6f 3d 65 d6 cf bd 10 57 bf 3d 89 0f cb bd
       0.058433775 -0.101483144 0.09342778 -0.099150725
0002d0 51 18 0f be ef e6 ee bd 89 93 85 3e 17 22 26 3e
       -0.1397412 -0.11665141 0.26089123 0.16223942
0002e0 4f 35 70 be e7 95 c3 3d d7 f8 31 3e ea 9e 8f 3c
       -0.23457836 0.09550076 0.17380081 0.01753183
0002f0 c7 9e 45 be 83 a9 24 bd b7 99 8b 3e a0 6b a2 bd
       -0.1929885 -0.04020072 0.27265713 -0.07930684
000300 b2 a3 67 3d c3 a9 2f 3e 79 4b a1 bd 67 13 83 3e
       0.056552596 0.17154603 -0.078757234 0.2560074
000310 b0 a4 bb bb ca 6f bd 3c 48 3a 92 bc 6b 61 f4 3d
       -0.0057264194 0.023124594 -0.017850056 0.119326435
000320 c6 82 ed bd 1d 99 06 3e 59 3f b3 3c e6 16 86 be
       -0.11597209 0.13144346 0.021880792 -0.26189345
000330 d2 35 8a bc d4 8e 3a 3e 0e cc 2e be c2 6b aa 39
       -0.016871367 0.18218547 -0.17070028 0.00032505213
000340 2b 4e 1e be 4d 43 98 bd ba f9 d2 3c 43 1f 86 37
       -0.15459506 -0.074347116 0.025753845 1.5988602e-05
000350 f4 0b 36 b6 6c f3 c0 ba 2c 9b 03 3e 02 f8 8d bc
       -2.712707e-06 -0.0014720983 0.12852162 -0.017330173
000360 68 f4 8c bd 1a 27 4b bd ca 8d 2b 3b eb 5f c7 3c
       -0.06882554 -0.049597837 0.0026177042 0.02433773
000370 0c a6 8d 3e 56 12 01 3d 9e 35 d1 bd cf f6 74 be
       0.27665746 0.031511627 -0.10215305 -0.23922275
000380 60 db 4b 3e 54 79 62 3e 35 81 42 be 86 c7 f9 ba
       0.19907904 0.22116596 -0.18994601 -0.0019056655
000390 f3 36 03 bd 04 dd 90 36 07 3e 96 bd 48 4c 30 bd
       -0.032034826 4.317264e-06 -0.073360495 -0.043041497
0003a0 d1 93 aa 36 67 fe 19 3e 83 43 28 3e d7 bc 06 bd
       5.083603e-06 0.15038453 0.16432004 -0.032894935
0003b0 d4 61 7f 3c f4 af be bc c1 56 79 b8 89 07 25 bd
       0.015587289 -0.02327726 -5.9447022e-05 -0.04029039
0003c0 99 1c cb bd 6e 38 2a 3b 9e 62 71 be 98 a1 8d bc
       -0.09917564 0.0025973576 -0.23572776 -0.017288968
0003d0 52 bc 0b 3e cf 6b 88 3d 1c 95 f8 3c 9d 7d 26 bd
       0.13646057 0.06661188 0.030344538 -0.040647138
0003e0 00 5c 27 3d 79 f6 30 bb c7 e4 2b be 02 af 8b 3d
       0.040859222 -0.0027002378 -0.1678649 0.068204895
0003f0 c0 9d 9b 37 90 1c 26 be bf c1 ab bb c1 50 88 bb
       1.8550898e-05 -0.16221833 -0.005241602 -0.0041600172

network.6.bias f4 [39]
000000 fb 79 0d bd 66 50 39 3c c0 c6 dc 3c bd 66 94 3c
       -0.034540158 0.011310672 0.02695024 0.018115396
000010 a4 9e f8 bb 78 26 1a bc e7 1e 74 3c a4 2e 6b ba
       -0.007587271 -0.009408586 0.014899946 -0.00089714886
000020 81 cd b1 3b 65 0e 44 bc f4 07 22 bd a9 e4 34 bc
       0.0054261093 -0.011966323 -0.039558366 -0.011040845
000030 4b 19 0f bd 15 d5 d1 bc a8 40 f7 3c 3f ed 17 3d
       -0.03493623 -0.0256143 0.030182198 0.03709149
000040 b8 62 a3 3a 71 a3 91 bc 62 12 07 3c de 2f 0a 3c
       0.0012465334 -0.01777813 0.008244129 0.008434264
000050 b3 22 c7 bc 7c a5 af b9 1c 24 ee bc 77 00 c7 3c
       -0.024308538 -0.00033501897 -0.029069953 0.024292214
000060 c8 be 04 bd ac fd a0 3c 00 b0 1f bd 50 3b 94 bb
       -0.032408506 0.01965221 -0.038986206 -0.004523672
000070 33 08 38 bb 3f 14 24 3c 5d db 4f 3c 33 8f 4f 3c
       -0.002808106 0.010014593 0.012686578 0.012668419
000080 19 7a 1c bc ac e9 d2 bc 9b 16 e5 bc a7 74 16 bd
       -0.009550595 -0.025746189 -0.02796488 -0.036732342
000090 41 9e 16 bd 5d 8d 19 bd ac 0f a4 bc
       -0.036772016 -0.03748833 -0.020027004
