Homework/HW2/results/quick_grid/run_08.pt (torch, 583917 bytes, 8 tensors)

network.0.weight f4 [256, 256]
00000000: bdfc 01be cf61 963c 41a7 9b3d f89f 9cbd
00000010: 592a e23d 76b8 f6bb 128e 8e3d 4408 383d
00000020: 16d9 ff3c e48c 223c 3927 4a3d 7eb8 0d3c
00000030: 56dc cdbd e3d8 aa3d ec80 21bc 0cc6 26bd
00000040: c73f fd3d b864 b3bd 13a2 d8bc c06d 963d
00000050: 95e5 6d3d 243f 923c 4a76 cc3d 75c0 563d
00000060: 2b14 923d 2187 06bd 319d cbbd b4d5 493c
00000070: 9840 2abd 4803 093e 5007 acbd f9be 9e3d
00000080: 0bda b43d f763 e23d fbdd 33bd eabf c8bd
00000090: 4482 9a3d 4dec a23d e1f2 f43d e168 443d
000000a0: 6594 633d b14e 473d 744f 0b3e 90e4 d2bd
000000b0: dd17 903b 2a70 a3bd ab5f 38be 49fe 9a3c
000000c0: bbd5 5cbd 124d 013d d2a8 24be c59b 1b3e
000000d0: 775b 0bbe f270 ddbb 850e 80bc 9cf6 f43d
000000e0: 3eb9 8dbd 29a2 40bd e196 d6bd b07e 03bc
000000f0: 16eb fabd 47a3 e8bd 9135 513d 87be b1bb
00000100: e15e 0c3d d071 ebbd e866 06be 8f9f 78bc
00000110: 77a3 72bd 1496 9f3c 3475 67bd 8c73 ccbd
00000120: 24a2 0dbe 7115 aebd 4546 393e aa84 6abd
00000130: 4dab 263c 6a2c 8bbd f0ab e0bd dfdd 1e3e
00000140: fc73 a83b 63d9 74bd 6e38 973d 6ebf 93bd
00000150: e547 5dbb 5129 d63d a500 a93d 8b74 90bc
00000160: d3a6 803c c7cc b73c 469d a7bd ffe0 52bd
00000170: 5be6 29bd d269 673d 0c7b ddbc 19c3 8dbd
00000180: 95cd 93bd ae11 e6bd 7f59 97bd 5955 6fbd
00000190: e2ae 0ebd c127 c0bd e434 66bd 1fce 5bbd
000001a0: 2cc5 0fbd baee d0bc 5aaf e0bd fea9 a93b
000001b0: 8ee1 713d adc4 8cbc e119 5bbd 8480 1dbd
000001c0: d3de cb3d a4df 483d d613 d1bd a4fc 01bd
000001d0: 3ca7 553e 80b4 dbbd 5443 e23d 03ce 88bc
000001e0: 1664 e7bc 2ff3 d63d 4e4e 3cbd 5975 e7bc
000001f0: c5e2 b03d 3f2c 8f3c 0855 a03d d0cd 82bd
00000200: 58e6 4d37 5754 61be 608d d936 3a24 34b7
00000210: 344a c337 a2bf 52be 1224 3837 8e51 613e
00000220: 485e 7e36 9edf 5e3e 72fe 83b7 255d 613e
00000230: 4b2a 95b7 68a4 d937 cea6 5e3e 84fa b638
00000240: 73b7 5c3e b592 1a37 b32f 9d38 59b7 5a3e
00000250: 0b9e aab7 3b57 613e 472f b9b7 a841 2d37
00000260: 5874 61b7 2f0e 4e38 9fb6 593e 8ae6 43be
00000270: 942a e7b6 334e 61be fb5f 613e 8079 8a37
00000280: fa7b 2637 bffa 5abe 656e 613e 389f 8d36
00000290: b05f 613e cbea e837 a0b7 2a36 5c4f 85b7
000002a0: 5ed1 ff37 7c66 61be e865 5ebe ca56 61be
000002b0: b656 613e 0192 1c37 a3b2 21be a761 61be
000002c0: b353 61be 01d9 37b8 d4b2 21b7 9d5f 613e
000002d0: 7457 61be 58be eeb6 31bb 84b8 9442 50be
000002e0: 952f 5cbe f55e 613e dc68 a1b6 570b 50be
000002f0: c255 1338 e195 24be ecc8 02be d08b 47b7
00000300: c027 cb35 d811 c1b6 1018 20b8 7811 4b37
00000310: 1c87 403e 4b7e 1638 c51f 12be f75b 61be
00000320: fe4b 5b37 f76c 493e 5c1b 6138 2687 513e
00000330: a070 ab37 a39f 5737 e020 01b7 6fc6 123e
00000340: 2b01 6737 7053 613e ca67 55be b99e 18b8
00000350: 7e46 01b8 b151 213e a887 5a37 fa0e 0f38
00000360: 238e f837 4406 c936 3231 2238 5d57 613e
00000370: f0a0 5abe aa57 fdb6 bd4c 35b7 415d c3b7
00000380: 73dc 84b8 88cc 8a36 3839 0d37 b3a5 8037
00000390: c650 8eb6 89f2 b4b7 f951 8eb8 eee0 1137
000003a0: c228 83b7 96c9 60be 8869 2a38 72e5 9db6
000003b0: 0614 21be 74ed 2cb8 8724 223e 46e5 b837
000003c0: c90d 5d3e 182f 0fb7 a61b b8b7 7ca0 e4b7
000003d0: 395a 61be 9e02 9338 f357 61be 8d9b 58b8
000003e0: dfd5 1ab7 6b59 613e 0132 34b8 8e11 2a3e
000003f0: 08df 4bb6 200a c337 fb1a fd37 10ab fe37
-0.12694068 0.018357186 0.076002605 -0.07647699 0.110432334 -0.0075293137 0.069606915 0.044929758
0.031231444 0.009921286 0.049353812 0.008649943 -0.10051791 0.08342149 -0.0098573975 -0.040716216
0.1236568 -0.08759445 -0.02644447 0.07345152 0.058080275 0.017852373 0.09983499 0.052429635
0.07132753 -0.032843713 -0.09942091 0.012319017 -0.041565508 0.13380158 -0.08399832 0.07751269
0.08830651 0.11054223 -0.04391287 -0.0980223 0.075443774 0.07955227 0.11960388 0.047951583
0.055561442 0.04865903 0.13604528 -0.10297501 0.004397376 -0.07980378 -0.18005244 0.01892008
-0.053914767 0.03156764 -0.16080025 0.1519614 -0.1360911 -0.006757849 -0.015631923 0.119610995
-0.06920098 -0.047029648 -0.104779966 -0.00802581 -0.1225187 -0.11359268 0.051076476 -0.005424324
0.03427017 -0.114963174 -0.13125193 -0.0151747605 -0.059237923 0.019480743 -0.056508258 -0.09982976
-0.13831383 -0.085001834 0.18093212 -0.057255425 0.010172677 -0.06795581 -0.109702945 0.15514325
0.0051407795 -0.05977763 0.0738381 -0.07214247 -0.0033764776 0.10457099 0.08252076 -0.017633697
0.015704548 0.022436513 -0.081842944 -0.051484104 -0.04147945 0.056497402 -0.027036212 -0.069219775
-0.07216946 -0.11233841 -0.07390117 -0.058431003 -0.03483475 -0.093825825 -0.056202784 -0.05366337
-0.035100147 -0.025504459 -0.10970946 0.0051777354 0.059052996 -0.017183626 -0.053491477 -0.03845264
0.0995461 0.049041405 -0.102088615 -0.031735078 0.20864576 -0.10727787 0.11047998 -0.016699797
-0.028245967 0.10495602 -0.045973115 -0.028254198 0.08637003 0.017477153 0.078287184 -0.06386912
1.2272583e-05 -0.2200483 6.483562e-06 -1.0737271e-05 2.3280365e-05 -0.20580915 1.0975653e-05 0.22003767
3.7903828e-06 0.2176499 -1.5734902e-05 0.22008188 -1.7781878e-05 2.5944973e-05 0.21743318 8.7250985e-05
0.21554355 9.213273e-06 7.495228e-05 0.21359004 -2.0339174e-05 0.22005932 -2.2075734e-05 1.032689e-05
-1.34381335e-05 4.9127437e-05 0.2126107 -0.19130912 -6.889293e-06 -0.22002487 0.2200927 1.650746e-05
9.923237e-06 -0.21384715 0.22014768 4.220663e-06 0.22009158 2.776589e-05 2.5438858e-06 -1.589179e-05
3.0495863e-05 -0.22011751 -0.21718562 -0.22005764 0.22005734 9.332319e-06 -0.15790801 -0.22009908
-0.22004585 -4.38327e-05 -9.6379845e-06 0.2200913 -0.22006017 -7.1151117e-06 -6.3291176e-05 -0.20337898
-0.21502526 0.2200888 -4.810381e-06 -0.20316826 3.51274e-05 -0.160728 -0.12771958 -1.1893877e-05
1.5136247e-06 -5.7539255e-06 -3.8169383e-05 1.210381e-05 0.1880154 3.5880406e-05 -0.14269932 -0.22007738
1.30711105e-05 0.19670473 5.366966e-05 0.20461711 2.0437234e-05 1.2852167e-05 -7.6966535e-06 0.14333509
1.3768945e-05 0.22004485 -0.20840374 -3.6387446e-05 -3.0821648e-05 0.15753819 1.30253975e-05 3.4107805e-05
2.9630091e-05 5.990996e-06 3.8669627e-05 0.22005983 -0.21350455 -7.550193e-06 -1.0806308e-05 -2.3289236e-05
-6.335312e-05 4.136531e-06 8.417577e-06 1.5335949e-05 -4.241333e-06 -2.1570611e-05 -6.786356e-05 8.695044e-06
-1.5635396e-05 -0.21951899 4.0629442e-05 -4.7056756e-06 -0.15730295 -4.122914e-05 0.15834247 2.2041273e-05
0.2158729 -8.534429e-06 -2.1947384e-05 -2.725445e-05 -0.22007073 7.009994e-05 -0.22006206 -5.164328e-05
-9.228911e-06 0.22006766 -4.2961914e-05 0.16608259 -3.0379178e-06 2.3250526e-05 3.0172514e-05 3.0358817e-05

network.0.bias f4 [256]
00000000: eb62 5f3d d6a4 863d db8f a93c e94f 253d
00000010: 48e9 d03a 30de c13c 210a 823d 45a6 f33a
00000020: bcd4 093d daf3 113d f7df 333d ecdb 10bc
00000030: 392a 9a3d 98cb 9a3c cf1a 2e3d cfff e23c
00000040: 5508 053c 78f3 f33c ff14 633d 89e1 3b3d
00000050: ab10 8c3d 5759 ad3d 3ab4 523d 4147 2b3c
00000060: 250c e53c cf13 743d f35f f93c 0e84 313c
00000070: 264a b43d 5f2e 363c ef67 863c 5acc a63d
00000080: 8f2d 903c bde7 7a3c b5f5 533d ffc8 333c
00000090: 6820 7f3c 2a0a fb3c 83a0 fb3c 420b 233d
000000a0: c218 423a 053a b93c 5759 923d 7062 423d
000000b0: 72ea bf3c f638 0a3d 86b0 593d 2ed7 aa3c
000000c0: 7125 e03d 341c 5f3d b8ba 5e3b 3122 103d
000000d0: 1c8a 273d 4c99 8f3d 1275 bc3c fbd9 8c3c
000000e0: 1b59 c53d 5efb 6eba 6db9 ea3c b1d1 573d
000000f0: b67c 4b3c 474e 6e3d 1e1d 3abb b78e 143d
00000100: 3509 633c 3825 8f3c 5434 583b f233 fc3c
00000110: 9643 773d 7f31 f53c cfe3 fa3b 4fba 213d
00000120: 8db0 533d b635 703b ea69 533d ca76 cc3b
00000130: fbee e83b 01c0 0f3b cf0d ff3c 5ccf fb3c
00000140: 76b5 2f3d feea 833d 9512 013d 0b17 9e3c
00000150: 4e9c ed3c 129c 1c3d dcb2 203b 4129 563d
00000160: c95e 533d 7b00 243c 693c b33d 56db 28b9
00000170: 3d36 c53c 8994 813d 867a 3b3d 5f25 ff3c
00000180: 9b9b 8a3d cb8b 853c c89b 0e3d 0a78 983d
00000190: 8c19 7a3d adf5 d93c 4086 a93d b2f7 1f3d
000001a0: eacd 813c 4410 c23c 8c2a 3b3d 9440 153c
000001b0: 9e56 e53c c3f2 313d bdb1 fd3a eb56 3d3d
000001c0: d596 6c3d 4d07 0aba 6409 383d 3894 8e3c
000001d0: 8a8f 023c 8116 4f3d 014d 493d eb7f aa3c
000001e0: 1ece 233d 8b73 6b3d f805 433d fdd0 b33d
000001f0: 9a20 383d f3a7 d939 6e76 b03c ea42 9a39
00000200: 1d83 483d d6ed 933d 2929 1e3a 3754 483b
00000210: 6518 d53c 4c33 a63d 2925 743d a5fe 4a3d
00000220: c965 8c3c 2112 543d cafe 933d 1f4a fb3c
00000230: fed5 183d f1cc 4fbb 65a1 f03b 72a2 b1ba
00000240: 076a 0f3d cabc 00b9 a56f 913d 6180 98b9
00000250: c85d 163c 9d52 8e3c 4592 8fbb dc0b e73c
00000260: 6a96 183c 272f 5a3d f6f5 e03c 1779 933c
00000270: dbf1 e13c 9967 0e3d 6b4a 573d 6b9e e53c
00000280: e40e ac3c c3f1 233d 5f51 f23c f758 473d
00000290: f32f 4f3d 9520 013d de45 dd3c dcd4 883c
000002a0: a423 f63c 01e5 cb3c 17b4 393d 0596 0d3d
000002b0: e596 143d e91a 193d d005 013d 1ef6 0a3d
000002c0: 37bc e93b 4b5e 933d eb0c 103d a35f 003d
000002d0: ffe5 8d3c 4044 3b3c 69e0 e03c b446 493c
000002e0: d993 ad3c b3d4 a13c 8769 933b a462 083d
000002f0: d9e9 2e3d 42ca 013c c961 a13c e619 a43c
00000300: 765e f83c c382 703d 035d 203d b5e1 9f3c
00000310: 584c 993c 3fa3 c43b bc5b 4a3d 5e26 f03b
00000320: 40fb 863d cf9f 203d b0c9 a63c 0763 333c
00000330: 226b 553d 9d19 173d b4e9 b43c 7303 523d
00000340: 8ca7 7b3d 01f1 f23c a569 3b3c 98ff df3c
00000350: cb1b 043d 1e79 dab9 3460 4eb9 eb70 673c
00000360: caf9 d83d 039e 803c 75d0 613b c420 a13c
00000370: e40b b03d f553 623d f948 793d 6e74 29b9
00000380: 2db8 09ba a09f 663d e467 283d 5253 8a3d
00000390: 28c7 7e3d 1ebd c5b9 f6cd 563d 5551 023d
000003a0: 03ae 193c 18c2 c43c 9218 033d cb48 0e3d
000003b0: 65bf 563d 630a 2b3d 9f97 aa3c 3c78 bc3c
000003c0: 8560 ba3d 1ad2 b93d 5644 7eba 3a39 433d
000003d0: d85e 173d 8d8b d33c 48de e03c ac7b 853d
000003e0: f731 3a3d 0c87 d63b eeb1 d5b8 be54 3f3d
000003f0: 9f47 bb3a d7ea 55ba a703 8a3d b35a 9f3c
0.054537695 0.06574409 0.020698478 0.04035941 0.0015938664 0.023665518 0.06349588 0.0018588981
0.033650145 0.035632946 0.04391476 -0.008841496 0.075275846 0.01889591 0.042506035 0.02770987
0.008119662 0.02977918 0.055439945 0.045869384 0.06839117 0.08464306 0.05144141 0.010454
0.027959893 0.059589203 0.03044126 0.010834707 0.08803205 0.011119454 0.016406981 0.08144446
0.017599849 0.01531404 0.051747996 0.010973214 0.015571691 0.030644495 0.030716186 0.03980566
0.0007404202 0.022610674 0.071459465 0.04745716 0.023427222 0.03374573 0.05314686 0.020854559
0.109446414 0.054470256 0.0033985805 0.035188857 0.040903196 0.07011661 0.023005042 0.017193785
0.09636136 -0.0009116436 0.028652871 0.05269021 0.01241987 0.05818012 -0.0028398703 0.036268916
0.013857176 0.017473802 0.0032990174 0.030786488 0.06036719 0.029930828 0.0076565514 0.03948432
0.051682044 0.0036653108 0.05161468 0.0062397467 0.007108567 0.0021934512 0.031134514 0.030738525
0.042897664 0.064413056 0.03151186 0.019298097 0.029005196 0.038234778 0.002452067 0.052285437
0.051604066 0.01000988 0.08751757 -0.00016103438 0.024073714 0.06327159 0.045771144 0.03114575
0.06767961 0.01630201 0.034816533 0.07444771 0.06105952 0.026606405 0.08277559 0.03905458
0.015845258 0.023689397 0.045694873 0.009109635 0.027995404 0.043444406 0.0019355338 0.04622547
0.057761032 -0.000526537 0.04493083 0.01740466 0.007968793 0.05055857 0.049145702 0.02081295
0.03999149 0.057483237 0.047613114 0.08780096 0.044952966 0.00041514597 0.021540847 0.00029423024
0.048953164 0.07223098 0.0006033355 0.0030567774 0.026012609 0.08115253 0.05960575 0.049559254
0.017138379 0.0517751 0.072263315 0.030674992 0.037313454 -0.0031707848 0.0073434585 -0.0013552441
0.035013225 -0.0001227736 0.07101373 -0.0002908735 0.009177633 0.017373377 -0.0043814504 0.028203897
0.009313205 0.053267624 0.027461033 0.018002076 0.027581146 0.034766767 0.052561205 0.028029641
0.021003194 0.040025484 0.029579816 0.048668828 0.050582837 0.031525213 0.027010854 0.016703062
0.030046292 0.024889471 0.045337763 0.034566898 0.036276717 0.03737918 0.031499684 0.033926122
0.0071330327 0.07195719 0.03516857 0.031341206 0.017321585 0.011429846 0.027450757 0.012284923
0.021188663 0.019754743 0.004498664 0.033297196 0.042703483 0.007921757 0.019699948 0.02003188
0.03031848 0.058718454 0.039151203 0.019516805 0.018713161 0.0060009058 0.04940389 0.0073287925
0.06590891 0.039214905 0.020359844 0.010948903 0.052104123 0.03688966 0.022084095 0.05127282
0.061439082 0.029655935 0.011438762 0.027343556 0.032253068 -0.0004167044 -0.0001968153 0.014126043
0.105945185 0.015700346 0.0034456525 0.019668944 0.08596018 0.05525585 0.060860608 -0.0001616047
-0.00052535796 0.056304574 0.041114703 0.06754173 0.06220165 -0.0003771567 0.052442513 0.031815846
0.0093798665 0.024018332 0.032005854 0.03473739 0.05242862 0.041757952 0.020824252 0.023006551
0.09100441 0.09073277 -0.0009699514 0.047661997 0.036955684 0.025823379 0.027449742 0.06517729
0.045457806 0.0065468606 -0.000101897735 0.046711676 0.0014288313 -0.0008160299 0.06738978 0.019452428

network.2.weight f4 [192, 256]
00000000: 21c5 253d d29f 7b3d 24a5 8f3d 09f7 24bd
00000010: acc9 28bd 0120 01be d714 9e3d 6fd3 803c
00000020: 0668 a2bd bf97 253d 7328 d93d a25c b93d
00000030: 5ff3 083e 6a16 4d3c e85a 8e3d 1df1 9dbd
00000040: 2428 a8bc 4b78 4c3d 9f8f ff3d 21ec d3bd
00000050: ae51 e0bb f25f 453d bcc5 41bc 2d98 563d
00000060: f2f9 f03d c2bc b23d 8ea9 b03d fc23 00bd
00000070: f957 b83d 2e44 083e 8696 3fbd 747b 99bd
00000080: 3a9d 2dbd 9349 fd3d d87b 28be a2eb c8bc
00000090: f505 2b3d 2690 0bbd 3c6f 673d e7b5 73bd
000000a0: 15a5 0e3e 28e8 553c 45fe 7d3d 1586 8a3c
000000b0: dc30 d23b 1057 893d f073 883d 5984 023d
000000c0: b537 5c3d 9944 103d 6a62 0bbe 95c3 013d
000000d0: 2df2 5a3e 67e3 9439 d7e1 bfbd 2894 943d
000000e0: 1bd3 34bb 0511 4c3c fc57 ac3c 1c23 4a3d
000000f0: 4ec7 18bd 3bec 2dbd af4d 96bd d4ce 4f3c
00000100: e4f7 6a3d b7a9 453d ae52 aabd f095 c33d
00000110: 905e 26bc d287 e83c 7651 8e3d 382f 25bc
00000120: 6509 90bd 94fa 833d 3e15 5dbd 9032 5c37
00000130: 2a74 94bd b618 f83c ec2d b03d 2cdc a43d
00000140: 6180 923b f47c 8d3d eaed 393d 126e cf3d
00000150: 16c5 f33b 0aad 03bc f5c9 f0bc fd23 653d
00000160: 20bc cb3d ca78 f6bd 5fa3 153d 9987 2e3e
00000170: 6262 b63d 8e20 f33c fcde d4bd 733f 77bc
00000180: 9827 a5bd 8a4f 853c c909 ee3d 76e3 e6bb
00000190: 4c75 52bc 7df8 743c 4e2a fe3b 36d7 a9bd
000001a0: 6ba3 a8bc 3f1e d73c 64d5 e9bd f758 fdbd
000001b0: de58 373d 9b57 f43d 6a98 0f3d 8a6c ab3d
000001c0: 49f2 983c 012e f8bd b34b 653c 0509 4b3c
000001d0: a08a 363c cb72 81bd 906f a5bc 47b7 94bd
000001e0: 376c aabd b7da 21bd 4bc1 e03c c134 3d3e
000001f0: a22b 0d3e 66c9 833b c0c2 853d 8184 c6bc
00000200: 69ab 31be afea bdbb 6a38 9f3d 8c31 913c
00000210: 510b e4bd dbb4 a43c a249 1f3b 6ca0 503d
00000220: 1e05 e5bc ce0d aa3d 25d7 0b3d 3a5c fd3c
00000230: 01df ac3d 1e79 993d e81f a33d 05d1 8dbd
00000240: 605f 1d3d 2917 c63d 2cea 783d 4072 833c
00000250: 9acd 293d 9471 7ebd 4c40 f4bc bff3 363c
00000260: c93d 6b3d 96fa 303d 5b92 9e3d ec8f 81bd
00000270: eb9c 253d 57f7 ab3d a262 8e3d 761e 883d
00000280: b3aa a4bd b7e2 57bd 78ba 163e 8838 b5bc
00000290: 0f67 853c 0e9c dfbc 52b7 5fbc 8cb2 923d
000002a0: 5ef1 f73d f2a1 8c3d 0d34 17be dc86 a2bd
000002b0: 92f8 80bd dcc8 f23c fa12 453d 70d6 c2bb
000002c0: e137 00bb 4ab9 913c f495 253e edcb 1d3c
000002d0: d61d bebd 2dff 0a3d a8f7 763d 97d1 233c
000002e0: 3be5 bf3d 9337 02be 221c 07be 8422 87bd
000002f0: 6b53 043e c120 c33d 4703 993c c815 113e
00000300: ba69 363d 204d bb3c 3620 2cbd 1c93 0ebd
00000310: 15cc 67bd d1f2 f03c f172 423d 7bc7 9abd
00000320: 4f92 09bd f91a 4abb 7eba 753c ebdd 173e
00000330: d1b6 e63c 7911 a33d c642 5a3c 7bce 923d
00000340: ceb6 1abd 3836 023e a9df 563d 1007 283d
00000350: e913 93bb a3b6 b9bd ded4 3a3c 448d d5bc
00000360: e9b6 963c 7ef9 0abe 3b56 15be deda 153d
00000370: 06a2 4e3d 7ac8 f23c a023 253e b0e3 e33c
00000380: 9974 2f3d 05da 473d 7bb1 7b3d 8043 083d
00000390: 8d62 35bc a60f e33c f60b ca3d 9a28 40bd
000003a0: 4640 013e e28c f03d 1432 fcbb baa3 bb3b
000003b0: c48e 033e 746f a23d 3c18 d1bb 45d1 5c3d
000003c0: 4269 533d 2494 643c 51db 343d e714 99bd
000003d0: dfa8 78bc 7217 fbbc 5542 123e 0e21 d13a
000003e0: 53dc e8bb b40f bc3d 78bb 53bd e54f 3ebe
000003f0: b86d a8bd ed2e 1dbb 0483 a8bd cbe9 4a3d
0.0404712 0.061431713 0.0701392 -0.040274654 -0.041207954 -0.12609865 0.07718819 0.01572582
-0.07929997 0.04042792 0.10603418 0.090508714 0.13374089 0.012517551 0.06950933 -0.07712004
-0.020526953 0.049919408 0.124785654 -0.103477724 -0.0068456745 0.048187204 -0.011826929 0.05239122
0.11766423 0.08727409 0.0862609 -0.031284317 0.090011545 0.13307258 -0.04677441 -0.0749425
-0.04238627 0.12367549 -0.16453493 -0.024526421 0.041753728 -0.034073018 0.056502566 -0.059499647
0.13930161 0.013055839 0.06201007 0.016909638 0.006414516 0.06706059 0.06662738 0.031864498
0.053764064 0.03522167 -0.1361176 0.031680662 0.21381445 0.00028398188 -0.093692474 0.07254821
-0.002759165 0.01245523 0.021038048 0.04934989 -0.037299447 -0.042461615 -0.07339036 0.012683589
0.057365313 0.048257556 -0.08316551 0.09550083 -0.010154381 0.028385077 0.06949131 -0.010082059
-0.07033042 0.06444278 -0.053975336 1.3124794e-05 -0.07248719 0.03028522 0.08602509 0.08049807
0.0044708704 0.069085985 0.04539291 0.10128416 0.007439266 -0.008036861 -0.029393176 0.055942524
0.09947991 -0.120347574 0.036532756 0.17043914 0.08905484 0.02967861 -0.103940934 -0.015090811
-0.080641925 0.016273279 0.1162296 -0.0070461584 -0.012845349 0.014951822 0.007756508 -0.08293001
-0.020585736 0.02625954 -0.11417654 -0.12370484 0.044762485 0.11930772 0.035057463 0.083703116
0.018670218 -0.121181495 0.013995099 0.012392287 0.011141449 -0.06320723 -0.020194799 -0.0726152
-0.083214216 -0.039515223 0.02743592 0.18477155 0.13786176 0.0040218113 0.06531286 -0.024233105
-0.17350544 -0.0057957987 0.07774432 0.017723821 -0.11134971 0.02010577 0.0024305363 0.05093424
-0.027956542 0.08303414 0.034140725 0.030927766 0.08440972 0.074938044 0.0796507 -0.06924633
0.038421035 0.09672386 0.0607702 0.01604569 0.041455843 -0.062120035 -0.029815815 0.011166512
0.05743197 0.043207727 0.07742759 -0.06326279 0.04043285 0.08396786 0.069524065 0.06646435
-0.08040371 -0.052706446 0.1471957 -0.022121683 0.016284494 -0.027296092 -0.013654547 0.07162961
0.12106584 0.06866826 -0.1476595 -0.07935879 -0.06297411 0.029636793 0.0481138 -0.005945973
-0.0019564556 0.017788548 0.16170484 0.009631139 -0.092830345 0.03393476 0.060294777 0.009998701
0.09369894 -0.12716512 -0.13194326 -0.0659838 0.12922446 0.09527732 0.01867832 0.14168465
0.044534422 0.022863925 -0.042022906 -0.034808263 -0.056591112 0.029412659 0.047472898 -0.07557579
-0.033586796 -0.003083883 0.0149980765 0.14830749 0.028163346 0.07962317 0.013321584 0.07168289
-0.037771992 0.12715995 0.052459393 0.04102236 -0.0044884575 -0.09068038 0.011403291 -0.026068337
0.018397765 -0.13571736 -0.14583676 0.03658568 0.050447486 0.02963661 0.16126871 0.02781853
0.042835806 0.048791904 0.061448555 0.033267498 -0.01107086 0.027717423 0.098655626 -0.04691372
0.12622175 0.11745621 -0.0076963995 0.005726305 0.1284743 0.07931414 -0.006381063 0.053910512
0.051614054 0.013951335 0.04415447 -0.0747469 -0.015176981 -0.030650828 0.14283116 0.0015955286
-0.007106343 0.09182683 -0.051692456 -0.18585165 -0.08224052 -0.0023984269 -0.08228114 0.04953937

network.2.bias f4 [192]
00000000: 77db 033d 7abc 963c d7c3 7d3c d72e fa3c
00000010: d56b 873c 1ccd 193d dc5b 43bb 4e95 da3c
00000020: 3f27 093c 2a49 b43c 5df9 c33c 3f13 0c3d
00000030: 85c3 28bc 15cf af3c c374 3e3d 5559 083d
00000040: 649a f8ba be39 903c f70a 8cbc aa8b 4c3c
00000050: 519d 003d d144 063d 6385 243c 79d1 d83c
00000060: a4e8 163d f58d 213d 8527 373d cff3 043b
00000070: 9bff ca3c 3319 a73c 8aa2 283d 7780 e53c
00000080: 42b6 953c bea6 6f3d 0b37 813d e428 2f3d
00000090: a70f dd3c f52d 01bb c211 533c 12d4 c43a
000000a0: ba39 213d 6e34 9d3c 736d 1e3d f611 843c
000000b0: cd7b 2f3d d309 893c 3f98 d03c e125 663c
000000c0: 6823 86bc e6af 0c3c 5e8c 553d aeba b1bc
000000d0: 1793 013d 959d 043d 1c13 a43c 67e8 9c3b
000000e0: 2b13 cc3c 48d7 763b 2ddd 45bc 4752 bf3c
000000f0: 3230 5c3d 3654 cb3c e782 773b 0414 183d
00000100: d1d9 fb3b 3826 533d 22d5 b73b 35b4 fa3c
00000110: 2b06 413c 0e72 513d 8675 f73c 66a5 1d3d
00000120: f9ba 003d 45d9 e13c 32cb 7e39 d95a 653c
00000130: 4a61 583b 8e24 2cbb 0a4c cb3c 7e27 2d3d
00000140: 38ec aa3c e9ab 503c 032a 9f3c 5826 3c3b
00000150: d8a5 233c f42f f03c ba4e 5a3c 2f09 a93b
00000160: 7a36 4a3d 1084 993c 4c30 dc3c 9f60 353d
00000170: cc54 703c eb29 ce3c a83f 383c 50c5 eabc
00000180: 0542 50bc 0c76 75bb ae7c a43c b1ae 843c
00000190: 48f3 41ba fdfe 103d 6c4b a93c 0ca6 b83c
000001a0: 94b2 7c3c d023 ab3c 6f56 573c 2e16 b73c
000001b0: eb55 f33b 002c bbbb d1cc fe3c 9601 6c3c
000001c0: d12c 1f3d 326c 2d3c d89a 203d 918c b83c
000001d0: b221 f3bb 4b0a 983c 9aa3 323d dd16 b23c
000001e0: 98d4 c13c 63b3 2c3d ccf4 803c 1e97 d13b
000001f0: ad4f 933c 61f1 993c e66b 853c 236b 123d
00000200: f338 45bb 71ec 8e3c 95f0 8b3c fef3 c53b
00000210: ffce af3c 14d1 f03b 152a d93c 2771 f43c
00000220: f498 f83b 615a 72bc 3242 c23c 11d9 91bb
00000230: 44a7 9dbb 69f5 64bb 1101 f13c 6008 8d3c
00000240: 37c7 e2bb 95f7 da3c 960e 4cbb fa2e 8b3c
00000250: 0599 ba3c e2a1 2e3d 3a9a 65b9 2eec 963d
00000260: 5903 a73c 5ca8 a73c e7e7 4a3c ed01 a1bb
00000270: 1ea6 a83c 26fb f43c a728 a03c 00ed f93c
00000280: b72d a83b e2df 353d 9e7d a93b abd9 d83c
00000290: fd2a ec3c f613 e63c f21e 90bb f07f e83b
000002a0: 7da9 8dbc aeff 8a3c 9fb8 4b3d 5d79 233c
000002b0: eeda b13c e795 8fbb fb30 9e3c 3b7a 823c
000002c0: a487 90bc 2759 c23c aacd d83c 0680 083d
000002d0: 4e5e 053d 41b9 8f3c 8a17 593c c83f 413c
000002e0: 4018 ae3c 810b e03c 6a4e 88bc 89a9 3a3c
000002f0: 7cd4 393d 9b21 e23b c1a7 e1bb 69f5 d53b
0.03219172 0.01840042 0.015488586 0.030539913 0.01653091 0.037549123 -0.002980939 0.026682522
0.008371173 0.022007544 0.023922617 0.034198042 -0.010300522 0.02146105 0.04649807 0.03328832
-0.001896691 0.017605659 -0.017095072 0.01248447 0.03140003 0.032780472 0.0100415675 0.026467072
0.036842957 0.03944202 0.044715423 0.0020286923 0.024780085 0.020397758 0.041170634 0.028015358
0.018275384 0.058508627 0.06309327 0.042763606 0.026985003 -0.001971123 0.012882652 0.0015016815
0.039361693 0.01919004 0.038678598 0.016121846 0.042842675 0.016728317 0.025463222 0.014047117
-0.016374305 0.008586859 0.052135818 -0.021695461 0.031634416 0.032376844 0.020028643 0.0047884467
0.024911484 0.0037664939 -0.012076658 0.023354663 0.0537569 0.024820428 0.0037767233 0.037128463
0.007685878 0.05155012 0.005610124 0.030603508 0.011781256 0.05113416 0.030207407 0.038487814
0.03142831 0.027569422 0.00024299024 0.013998711 0.0033016973 -0.0026266905 0.024816532 0.04227399
0.020864591 0.012736299 0.019429212 0.0028709378 0.009988271 0.02931974 0.013324434 0.0051585655
0.04936836 0.01873973 0.026878498 0.0442816 0.014668655 0.025166472 0.011245646 -0.028658539
-0.012711053 -0.0037454395 0.020078983 0.01619658 -0.00073986175 0.035399426 0.020665847 0.022540115
0.015423436 0.0208911 0.013143166 0.022349443 0.0074260137 -0.0057120323 0.031103523 0.014404675
0.0388611 0.010584878 0.03921017 0.022527965 -0.0074197883 0.018559596 0.043613054 0.021739418
0.023660943 0.042163264 0.015741728 0.0063961884 0.017982328 0.018791856 0.016286802 0.035746705
-0.0030093759 0.017446728 0.017082492 0.006041049 0.021461008 0.007349143 0.026509324 0.029839111
0.007586593 -0.014792056 0.023713205 -0.004450925 -0.0048111994 -0.0034936315 0.029419454 0.017215908
-0.006920721 0.026729384 -0.0031136624 0.016990174 0.022778044 0.042634852 -0.00021896596 0.073692665
0.020387338 0.020466022 0.012384391 -0.0049135596 0.020587023 0.029904913 0.019550635 0.030508518
0.0051324028 0.044402964 0.0051724454 0.02647098 0.028829092 0.02808569 -0.00439822 0.0070953295
-0.017292732 0.01696762 0.049736615 0.009977666 0.02171084 -0.0043818834 0.019310465 0.015927425
-0.017642803 0.023724152 0.026465256 0.033325218 0.03256064 0.01754439 0.013250241 0.011794992
0.021251798 0.027349235 -0.016638953 0.011392959 0.045368657 0.0069009787 -0.006886453 0.0065294993

network.4.weight f4 [128, 192]
00000000: 2d5b d2bc dad1 a03d 4aea 8e3d 1014 bbbd
00000010: e700 ce3d 17ab fabd 8125 213d fcd9 993d
00000020: c53a 743d d70e 243e 06c2 eb3d 34e7 61be
00000030: 78cd fabd d1e0 823b cb25 d73d f80b 0b3c
00000040: 0857 b2bd 9df8 13be 606e 28bd 012c 0e3d
00000050: e172 2ebd 3cb3 43be 7ac7 17be 4504 bd3c
00000060: 3532 ddbd fbc8 ae3d 5063 033e 3db2 9fbc
00000070: 5b36 77bd c636 203b 7e44 af3d 5c72 1f3e
00000080: 90f9 293d e6fe 583d 97bf 413e 49a1 483e
00000090: 4b9a 19bd bb3a 1b3d 06b4 de3d 9353 c3bd
000000a0: 23de 853d 6bbd de3d 77aa 1ebd eb08 923d
000000b0: c029 20bd 4879 9e3c 4849 013e 29ec abbd
000000c0: 1e89 723d 4685 6cbd 959f 08be 6d63 93bd
000000d0: c1ad 4dbe d8a7 6e3d 9e66 573e a07f c4bd
000000e0: 32d6 d5bc b395 9abd f887 323e 7ec6 083d
000000f0: 2b97 253d c20b bcbb 8e85 523d e107 f8bc
00000100: fb79 cbbd e516 3c3e ec93 31bd 18b0 83bc
00000110: a16e 9ebd b300 d8bd e035 c73d 9fd0 863d
00000120: 1022 c83d 855f dabd eddb 823c 5d7d 8c3d
00000130: 01d0 623d 3495 033e fdee 75bd 6457 05b9
00000140: eb40 49bc 4922 e7bd 97cb 143e dc88 9ebb
00000150: a69d b3bd ce43 5d3c 0415 94bd b703 ad3d
00000160: 4eb2 873d ab99 283c e28c 05bc 74ed 52bc
00000170: 5e10 1d3e 7bf3 e7bc 304c 84bc 55bb 6dbd
00000180: 74a6 d43d 30c1 0dbe 71d6 b1bd 4c09 acbd
00000190: e85c 333c 2159 4e3e f7d1 f6bd 8833 513e
000001a0: 1229 f13d f960 903d 7e1d 093e 0507 4d3e
000001b0: 2e58 993c fd55 b83c 2028 bc3d 1f94 71bc
000001c0: f116 66bc a913 0e3e 0e8c 933d 0eb6 f53d
000001d0: 07d6 1d3b f6e5 f9bd ab57 a33d 7912 d83d
000001e0: 81c9 4bbd 8d44 ffbc ef03 08bd 29c7 043e
000001f0: fcfe 3b3b 24b4 b8bd b265 98bd 01d7 46bc
00000200: 0fa4 93bc a4b6 d4bd 1288 cc3d bc58 4f3e
00000210: 03a4 8e3d df1b c8bd 6edc 923d 229b 0bbd
00000220: 510a 8c3d 5be9 78bd a987 b7bd 318d 9abd
00000230: cb46 e6bc a455 ac3d 5da8 333d 466f 8ebd
00000240: 1b6f cbba 3861 f43d 6827 86bd 3b71 09be
00000250: 324a 36be 4baf adbd 5b30 e93a 5491 163e
00000260: bcc5 303e 7b42 0c3d affa 98bd 43dd b6bd
00000270: e12e 35be df23 063e c092 e93c 8558 22bc
00000280: 2e26 4dbd a986 ff3c 56f9 c33c 561d 2a3e
00000290: 7063 8fbb 118c b53d 2acc 2bbc ae4f bdbc
000002a0: 823e 0d3e 6975 b2bd 5325 263d 55cc 293e
000002b0: adac 62bd 006c 123e 6b28 fbbd 0781 bebe
000002c0: 5f3d b33d e67b fdba 4ebf 8ebc 001c b93d
000002d0: f292 34bd 885f 26bd 66bc c33b a9b3 e3bc
000002e0: 931c 35be 9d84 983c da04 b4bc 923e 3f3d
000002f0: 2b7e da3c f767 fbbc a9d1 24bd 1d17 943d
00000300: 3297 323e 69cf 1f3d 306d e1bc 2824 3fbd
00000310: dbdf 7dbd 745c b43d 7c7d ef3d 8ae8 fabc
00000320: 7848 9bbd d70d 073b 1bc3 8abd 955c 383e
00000330: 484d 2dbd 18c8 aabc f3ef 3fbe a7dc 4ebd
00000340: fefc fabc 55db 84bd 6d1a b8bd 3675 343e
00000350: d76c 303d 0869 42be 1bdf cfbd 87d0 823d
00000360: 558d ccbd d66b cbbd 4ef1 e83d 8787 103e
00000370: ae67 353d 9cde e83d 9c76 6b3d 7564 d3bc
00000380: 613e 10bd fe82 ddbc 25d0 5bbc ec86 4e3d
00000390: d071 943c bd06 5b3d 1386 1fbe 88f2 9ebd
000003a0: 6870 04be a293 c2bc 5a1c 563c dcdc cdbd
000003b0: e62d b33d cac8 acbd 8196 b3bc 7d30 98bd
000003c0: 151c 06be d8d7 f13d 8ec8 aebc bc93 0dbc
000003d0: 93fb 89bd 4914 7f3d e765 db3d 978f f63d
000003e0: ee04 bbbd 458c 0ebe a699 13be 5b95 483e
000003f0: add9 ff3d 1ca0 9dbd 5582 28be d9d4 d73d
-0.025678242 0.07852526 0.06978281 -0.09134686 0.10058766 -0.12239664 0.039342407 0.0751228
0.05962636 0.16021286 0.115116164 -0.22060853 -0.12246221 0.0039940854 0.10505255 0.00848674
-0.08708006 -0.14450307 -0.041120887 0.034709934 -0.042590026 -0.19111341 -0.14822188 0.023073325
-0.10800592 0.08534428 0.12830853 -0.01949417 -0.06035457 0.002444671 0.08557986 0.15570968
0.041497767 0.052977465 0.18920742 0.19592775 -0.03750066 0.037897807 0.108741805 -0.09537425
0.0653651 0.10875972 -0.038736787 0.07130607 -0.039102316 0.01934494 0.12625611 -0.08394653
0.059212796 -0.057744287 -0.13342126 -0.07196698 -0.20085813 0.058265537 0.21035239 -0.09594655
-0.026103113 -0.07548084 0.1743468 0.033392422 0.040427368 -0.0057387063 0.0513969 -0.030277194
-0.09935375 0.18368109 -0.04335396 -0.016075179 -0.077359445 -0.10547008 0.09727073 0.0658276
0.09772122 -0.1066275 0.01597401 0.06859849 0.05537415 0.12849885 -0.06004237 -0.00012716424
-0.012283544 -0.11285836 0.14530788 -0.0048380923 -0.087703034 0.013504935 -0.07230571 0.08447974
0.06625806 0.010290544 -0.008151265 -0.012873996 0.15338275 -0.028314343 -0.01614961 -0.058039982
0.10383311 -0.13843226 -0.086834796 -0.08400211 0.010947444 0.20151187 -0.12051766 0.20429814
0.11775412 0.07049746 0.13390157 0.20022209 0.018718805 0.02250194 0.09187341 -0.0147447875
-0.014043556 0.13874687 0.07204448 0.11997615 0.002408387 -0.12202065 0.07975706 0.105503984
-0.049752716 -0.031160617 -0.033206876 0.12966599 0.0028685918 -0.09018734 -0.07441272 -0.012136222
-0.018022565 -0.103863984 0.09986891 0.20248693 0.069648765 -0.09770941 0.0717095 -0.034083493
0.06837905 -0.06076942 -0.08961422 -0.075464614 -0.028109929 0.08414772 0.043861736 -0.069548175
-0.0015520783 0.119326055 -0.06550485 -0.134221 -0.17801741 -0.084807 0.00177909 0.14703876
0.1726293 0.03424309 -0.07469689 -0.08928921 -0.17693664 0.13099621 0.028512359 -0.0099088
-0.05008524 0.03119214 0.023922604 0.16612753 -0.0043758675 0.08864606 -0.010485688 -0.023109283
0.13793376 -0.087138005 0.04056294 0.16581853 -0.055340458 0.14299011 -0.122635685 -0.37207815
0.0875194 -0.0019339293 -0.017425206 0.09038544 -0.04408545 -0.04061845 0.0059733866 -0.02779563
-0.17686681 0.018617922 -0.02197497 0.04669053 0.02667149 -0.030689223 -0.04023901 0.07230971
0.17440489 0.03901616 -0.027517885 -0.04666534 -0.061981063 0.088066965 0.11693856 -0.030628461
-0.07582182 0.0020607614 -0.06775495 0.18004067 -0.04231003 -0.020847365 -0.18743877 -0.0505034
-0.030638214 -0.06487147 -0.08989415 0.17622837 0.043072548 -0.18985379 -0.10149976 0.0638743
-0.099878944 -0.099326774 0.1137415 0.141142 0.04428833 0.11370584 0.05748616 -0.025804738
-0.03521574 -0.027040001 -0.013416325 0.05042164 0.018120676 0.053473223 -0.15578489 -0.07761103
-0.12933505 -0.023752037 0.013068283 -0.10051891 0.08748989 -0.08436735 -0.021922352 -0.074311234
-0.1309665 0.11808747 -0.021335866 -0.00864118 -0.06737437 0.062275205 0.10712796 0.12039106
-0.091318 -0.13920696 -0.14414081 0.19588225 0.1249269 -0.07696554 -0.16455968 0.10538644

network.4.bias f4 [128]
00000000: ec9b b7ba 6951 0c3d 0a36 ba3c c221 0f3d
00000010: 7997 7bbc dc45 babc ad17 8a3c 1961 873c
00000020: 15b2 9f3c 6d9f a53b 755c 473b 4b9a 563d
00000030: b871 2f3c a29b 033d 9d36 ee3c 694c d33b
00000040: ee38 b33c 77a8 723c d912 1c3c f260 7c3c
00000050: 6f10 433c c5cd c7bb 9b76 213c b00c 663c
00000060: 6ec9 073d 3d03 4e3d 4e87 54bb 7860 fe3c
00000070: 4444 3e3b 16c8 7e3c 16f1 bfbb fe54 223c
00000080: fccd b33c 5e02 103d e42b 8e3c 727d 6c3c
00000090: 3d51 993a 1731 243b 8196 c53c bf21 49bb
000000a0: 9003 b03c e9e3 993c 3cc0 513c 98eb 033d
000000b0: cc10 3f3d b104 c53c 9f33 0e3d 2e10 833a
000000c0: 3535 1d3c 53c0 183d 9b8d 6d3c a38e a33c
000000d0: 71b8 a23b 0de2 163d 3d57 c63c c82d 6d3c
000000e0: a5df 243b 4322 d03b cab5 c73a de82 953a
000000f0: 6d2f e33c 02c5 123b 3591 1f3d 2bc7 3c3c
00000100: fdec 713c 5347 173c 2494 d83c 45e2 ac3c
00000110: 71a4 503c fc67 d9bb ca17 3e3c 8319 8bbc
00000120: 57f7 663c d2d1 683c b2ac 6ebc 5910 b5bb
00000130: c564 933c a10e d33c 65f6 883c 6440 aebb
00000140: 5618 4dbc 9072 143d ccac 503b ebc6 593c
00000150: 8b79 e23c 6bf0 803b 9064 2c3c 420d d739
00000160: 9430 03bc 2a02 4a3c fc14 263c b2c2 1b3d
00000170: 5d46 793c 83f5 8d3c 0e9a 7d3c 8dd9 4f3b
00000180: 1f78 5c3c c532 d03c 2f5b b23c 152e be3c
00000190: 3c57 923c 411c ad3c 2042 5dbc 505a f83c
000001a0: f9d3 383a 5ee5 c23c 0719 1f3c 66dd 94bb
000001b0: efc0 a53c fb71 f2bb 2ef5 4d3c 3bb4 053d
000001c0: 7a34 643c e12a b23c 6ffa 8b3c 087d 1c3c
000001d0: 9f4f 923c 1758 063c e00e 4abb 0c8a ab3b
000001e0: 6bcc 153d 89f1 0f3c 8092 0c3d 2f34 0cbc
000001f0: 9995 a6bb 90c3 f53c 30e9 8cbc 7e8f f8ba
-0.001400826 0.034257326 0.022730846 0.034944303 -0.015355938 -0.02273839 0.016856993 0.016525792
0.019494096 0.0050544054 0.00304201 0.05239324 0.010708265 0.032130845 0.029078776 0.006448318
0.021877732 0.014810673 0.009525978 0.015403973 0.011905774 -0.0060975277 0.009854938 0.014041111
0.033151083 0.050296057 -0.003242928 0.03105186 0.0029032389 0.015550634 -0.005857597 0.009907959
0.021948807 0.035158508 0.017354913 0.014434205 0.0011697185 0.0025053674 0.024119617 -0.003069028
0.021486074 0.018785434 0.01280218 0.0322071 0.046646878 0.024050089 0.0347172 0.0009999329
0.009595205 0.03729279 0.014499093 0.019965475 0.004965835 0.036836673 0.02421152 0.014476247
0.0025157717 0.0063517406 0.0015236672 0.0011406799 0.027732575 0.0022395258 0.03895684 0.011522095
0.014765975 0.009233314 0.026437826 0.021103987 0.012734518 -0.0066347104 0.011602351 -0.016979938
0.014097056 0.014210181 -0.014567541 -0.0055256304 0.017992387 0.025763812 0.016719053 -0.0053177346
-0.012518009 0.036242068 0.0031841276 0.013292055 0.027645847 0.00393491 0.010522023 0.00041017873
-0.008007187 0.0123296175 0.010136839 0.038027473 0.01521453 0.017328983 0.015478624 0.0031715364
0.0134563735 0.025414834 0.021771995 0.023215333 0.017863862 0.021131637 -0.013504535 0.030316502
0.00070506294 0.023791011 0.009710557 -0.0045429943 0.0202336 -0.0073988414 0.012570662 0.032642584
0.013928527 0.021748962 0.01708719 0.009551294 0.017860232 0.008199713 -0.003083162 0.0052349623
0.0365719 0.008785614 0.0343194 -0.008557363 -0.0050837514 0.030000478 -0.017201036 -0.0018963662

network.6.weight f4 [39, 128]
00000000: 414b 8abe 9107 dabb 99d7 06be b0fb 8abe
00000010: 1aeb 8a3e 97ea 8abe c604 4a37 1f96 423e
00000020: f1f2 45bd 1c02 8bbe d85e 61be 3ef0 42bb
00000030: 4aad 66be 9a7a c7bd 2432 6ebd cfbd a53d
00000040: 9c4d 6c3d 6b71 a7be 333b 30be 7cff 63be
00000050: a068 5f3e 5e02 4837 eef2 04be 5c53 46be
00000060: c80c 7fbe de66 36bc 26c3 de3d 3240 b4bc
00000070: 7838 17be a62a 6338 bb04 87bb 4007 1abc
00000080: 1668 90bb b74f 9abd 8038 83be 2ebd 92bd
00000090: ccfa 90b7 5d44 3137 bc97 0dbd 9e01 93bd
000000a0: d7e6 0f3e 1ad4 d5bd 2c71 b8bc cec8 c9bc
000000b0: 1771 1bb8 065b 5bbe 3479 68be faf6 d0bd
000000c0: c4f9 5cb8 7099 2fbe 82de 8abe 59bc 7ebd
000000d0: 0589 90bc 9c6d 7fbc f1f1 53bd 36d8 8a3e
000000e0: bddf b9bc bab3 9cbd 8317 543d faf3 35bd
000000f0: 91a4 08bd 707f 95bd b26a 0abf 1b4e 5abd
00000100: 589c 98bd 18df 12bd a8ae c1bd eb85 5cbb
00000110: 953a 37be 1f90 133d 681f 74bd 0fe9 8abe
00000120: ab6e 3cbd b6b8 483e 3fb4 183d 9524 27be
00000130: 988a bb3c f8d1 43be 9752 1ab7 f673 83bd
00000140: aa99 113a e2ae cf3b eeff 51be e7ea 3fbe
00000150: ec6a c1bd 0804 86bd 683d 383e ac87 70b7
00000160: 95a1 d8be 9197 9b3d 77f8 8fb8 aa6a 93bb
00000170: 9616 47bd 9266 f7bd 8511 a63b 3dd0 84bc
00000180: af4d f63c a4f8 31be 5414 5137 0b63 2ebe
00000190: 7731 85be 2cdf 163d 3a4a 4db6 89f1 8abe
000001a0: c3f1 d9bd f96e c33c 63f6 a3bd e9ea 8abe
000001b0: b7ab 89bd c306 1dbe 4eae 25be 0321 cc3d
000001c0: cf97 efbd 070f 7ebe f71d acbd 9d44 3fbd
000001d0: e6b1 dcbd 76a7 a3bc b9e8 33b9 68de 6cbd
000001e0: 98ef 8abe a03d e0bd 21b1 64bb eb1e 30be
000001f0: 32a3 93bd e392 3cbe d882 ad3d c6fa 1ebd
00000200: 3d0a 0ebe 5028 143e dad8 be3d da98 34bd
00000210: 4195 25b8 97e4 a23d 7457 6ebd c935 ef3d
00000220: 0a54 e23d 0f82 33be 97cf b53d 8615 883c
00000230: e6f5 e33d 8200 2ebd 227b 84be 9537 ecbd
00000240: 69b0 a6bd 3f90 babd db73 d0bd 1739 d9bc
00000250: 5077 0dbe 74d0 1b3e 7187 453e 51e7 c4bd
00000260: edb6 d4bd 9c2a 4d3d a623 19bd 9f6f 253e
00000270: bf28 483e b766 9a3e f3ed ebbd 91cb 1cbd
00000280: c525 d63d 3a3e dd3d fc53 46bd 4e22 e33d
00000290: 5ac4 4dbe 2327 063e efae 06bc bcb5 0dbd
000002a0: 9611 14be 221f 013e 34af 0cbe 0dc2 813e
000002b0: 22d1 013d ca1c 33be 03d9 143e a8a9 26bd
000002c0: 587a 91bb d450 59bd 78ed 31bd 54c7 95bd
000002d0: d87a d5bd c004 a1bb 1469 1dbe fff7 703c
000002e0: 2936 883d 965e 0bbe ba13 3abd bfcc a33d
000002f0: eb9d b9bd c946 43be 5036 1fbe 80a4 39be
00000300: 253f 43be d4a1 253e 5603 6e3e 5282 16be
00000310: 63d8 2c3e c608 1d3e 0e97 ebbd 64a0 7e3d
00000320: 79c7 9a3d 8b63 9ebd 5f7b b03d 4b04 f73d
00000330: de1e 843d 22f7 6a3c ab5b 243d 9c4c 863c
00000340: f6c7 c6bd d69e 093e 3835 3c3e 4986 603c
00000350: 12cd cbbd 8f61 af3c df28 ddbd a5b7 b0bd
00000360: 67cb 083d 8144 2e3e 8ba8 0b3d 8e5b 13be
00000370: 0ce0 823b d343 92bc 9683 8b3d f187 073d
00000380: 2d22 96be 8daa 663c c4fb 8a3e 2149 23bb
00000390: 0bf0 c0bd b4fa b8bd 3234 893e 5a99 fe3d
000003a0: 31fa 07bd 142d bebc 93d9 5c3e ee0c 8b3e
000003b0: cb17 05be 8ad7 60be b495 d83c ec54 e3bc
000003c0: 5af9 173e 89fc b5bd e20d a4bd 578f 113d
000003d0: 1dbc 233e 62d8 f33d 7ea4 dc3c 92ed 1b3e
000003e0: c458 41be 61db eb3d 34e7 b23d f9f7 463e
000003f0: 36ba 063d 3a9f bd3a 51c7 bc3d 4af8 a8bb
-0.2701054 -0.006653734 -0.13168181 -0.27145147 0.27132493 -0.27132103 1.204125e-05 0.19002579
-0.04832739 -0.27150047 -0.22008836 -0.0029745246 -0.22527042 -0.09740181 -0.058153287 0.08092844
0.0576912 -0.3270372 -0.17210083 -0.22265428 0.21817255 1.192148e-05 -0.12983295 -0.19367737
-0.2490722 -0.011132924 0.10877065 -0.022003267 -0.14767635 5.4160737e-05 -0.004120437 -0.009401143
-0.0044069393 -0.07534736 -0.25629044 -0.071649894 -1.7282924e-05 1.0565939e-05 -0.034568533 -0.07178043
0.14052902 -0.10440846 -0.022514902 -0.024631884 -3.7060203e-05 -0.21421441 -0.22702485 -0.10203357
-5.26847e-05 -0.17148376 -0.27122885 -0.06219134 -0.017643461 -0.015590098 -0.051744405 0.2711808
-0.022689695 -0.076514676 0.051780235 -0.044422127 -0.033360068 -0.072996974 -0.54069054 -0.053297143
-0.07451695 -0.03585729 -0.09457141 -0.0033649157 -0.17893441 0.036026116 -0.059600264 -0.27130935
-0.04600398 0.19601712 0.03728127 -0.16322549 0.022893235 -0.19123065 -9.198345e-06 -0.06418602
0.0005554209 0.0063379863 -0.20507786 -0.18741952 -0.09444222 -0.06543738 0.17992175 -1.4336703e-05
-0.42310777 0.075972684 -6.8650515e-05 -0.0044987993 -0.048605524 -0.120801106 0.0050680065 -0.016212577
0.03006634 -0.17380005 1.2462104e-05 -0.1702997 -0.260143 0.036833927 -3.0590586e-06 -0.27137402
-0.106418155 0.023856627 -0.08005979 -0.27132347 -0.06722205 -0.1533461 -0.16179773 0.09967234
-0.11698877 -0.2481042 -0.08404153 -0.046696294 -0.10776119 -0.019977313 -0.00017157466 -0.05782929
-0.2713592 -0.10949254 -0.0034895616 -0.17199294 -0.072088614 -0.18415408 0.08472222 -0.038813375
-0.13871093 0.14468503 0.09318705 -0.044091083 -3.947807e-05 0.07953756 -0.05818887 0.116801806
0.110511854 -0.17530082 0.08877485 0.016611826 0.11130886 -0.042480953 -0.25875193 -0.11534039
-0.08139116 -0.09109544 -0.10178348 -0.02651648 -0.13815045 0.15216237 0.19289948 -0.096144326
-0.10386453 0.050089464 -0.037387513 0.16155861 0.19546793 0.3015649 -0.115199946 -0.038280074
0.10456423 0.108028844 -0.048419937 0.110905275 -0.20094433 0.13100867 -0.008220418 -0.034597144
-0.14459834 0.12609532 -0.1373871 0.25343361 0.031693585 -0.17491451 0.14535908 -0.04068914
-0.0044396333 -0.0530556 -0.04343936 -0.073134094 -0.10423821 -0.0049138963 -0.15372115 0.014707564
0.06650955 -0.136103 -0.04542897 0.079980366 -0.090633236 -0.19069971 -0.15548062 -0.18129158
-0.19067056 0.16175014 0.2324346 -0.14698151 0.1687942 0.15335378 -0.11503421 0.06216468
0.07557578 -0.0773383 0.08617281 0.12061366 0.064512 0.014341148 0.040126484 0.016393952
-0.09706108 0.13439497 0.18379676 0.013703891 -0.099512234 0.021408824 -0.10798811 -0.086287774
0.033397105 0.1701832 0.034096282 -0.14390394 0.0039939936 -0.017854607 0.068122074 0.03308863
-0.2932295 0.014078748 0.27145207 -0.0024915414 -0.094207846 -0.09032193 0.26797634 0.12431593
-0.033197585 -0.023214854 0.21567373 0.27158302 -0.12997358 -0.21957222 0.026438572 -0.027750455
0.14841214 -0.08886058 -0.080104604 0.03553709 0.15989728 0.11906506 0.026933905 0.15227345
-0.18881518 0.115164526 0.08735505 0.19430532 0.03289243 0.0014467009 0.09217704 -0.0051565515

network.6.bias f4 [39]
00000000: 3fb6 0ebd 843d 8abb da7f ca3c 25cf e6bb
00000010: 0003 abbc 09b4 003c 73b9 7e3c cb25 a33c
00000020: 33f0 933c 6be1 17bc 8bda 15bd 2cb4 bfbb
00000030: ace8 2fbd 1b97 3fb9 72cd 2b3c 4888 903c
00000040: 289a f2ba d951 a8bc 5967 283b f9d3 2b3c
00000050: 5570 83bc 3bdb 1e3c b623 25ba 6e99 c03c
00000060: 69d3 34bd cc94 743c fc0d ffbc 3390 5cbc
00000070: da49 0abb 5644 c039 62bc 883c c15d 23bc
00000080: 563e dbbb f8ee a8bc 051a 94bc d760 18bd
00000090: 9de3 33bd 830a e3bc fe4d c7bc
-0.034841772 -0.004218759 0.024719168 -0.0070437365 -0.020875454 0.007855424 0.015547144 0.019915482
0.018058872 -0.009270052 -0.036585372 -0.0058503356 -0.042946503 -0.0001827147 0.010485994 0.017643109
-0.0018509077 -0.02054684 0.0025696366 0.01048755 -0.016044775 0.009695823 -0.0006299572 0.023510661
-0.04414693 0.014928054 -0.031134598 -0.013462114 -0.0021101148 0.00036672008 0.01669139 -0.009971083
-0.0066907806 -0.020621762 -0.018078813 -0.03720173 -0.04391824 -0.027714973 -0.024329182
