Homework/HW2/results/quick_grid/run_13.pt (torch, 583917 bytes, 8 tensors)

network.0.weight f4 [256, 256]
00000000: 9988 653d aa38 b13d 88a4 ccbd 5058 23bd
00000010: 5e63 78bd f33d 6cbd 1c37 693d e762 61bd
00000020: 74f8 49bd c774 8e3d 65ac 9ebd a3a9 9a3d
00000030: 1816 5dbe b39b d73d 2df4 6f3d 7f8e 20bc
00000040: b8e5 b7bd 3cf9 1cbd c30a c73b 6c2f 183d
00000050: 979d 543b 19e0 98bd d001 d0bd 21ac 993c
00000060: 0255 3c3d 7105 653a fac5 233d 5b59 d5bd
00000070: ac5a cdbd 5d91 123d 3ad4 fdbc 00c3 123d
00000080: d4d1 bc3d 2efd 513d 85e0 953c 8083 503d
00000090: a803 533c b1f8 36be 4add 3b3e 0ec4 d1bd
000000a0: a3e4 863d 9d99 503d 4dc3 203e 128b ccbd
000000b0: c62b 033d 6f14 d2bc b315 0d3d 388f d23c
000000c0: 4232 f4bc 18c7 723d 810c af3d c89a c1bc
000000d0: cf0f dd3d b90f f63b 444b 7d3d a971 88bd
000000e0: 66d7 e3bc 1f5b cebc 176f 8ebd 846e 8fbc
000000f0: 861c 903d 0f98 6fbd 9add 993c 5a00 98bd
00000100: 2f2e c2bb 70bd 9a3c 5779 e33d 6fe6 5a3d
00000110: 44d8 e6bd 334a c63d 2eaa 88bd d93b 093e
00000120: 26d7 99bd 5010 27bc 4401 cd3d a313 d8bd
00000130: 0493 37be 26b2 7fb8 0149 78bd cde8 c53d
00000140: 01c3 a4bd 2c58 c53d 8e04 c73d 25d4 9f3d
00000150: d544 563d b839 74bc 71b3 30be a908 01bd
00000160: f140 cb3d 053e 81bd e7d6 f73d acbc d33d
00000170: 11f2 00bc 70f5 5cbc 8faf a8bd eac4 e3bd
00000180: a7fe 1a3c be2d 213d 9762 6dbc 7538 11bd
00000190: feb9 af3d 172d a63d 698a 233d 9298 f63d
000001a0: 5c3f 293c 06a6 663d fa4c 8ebd 1852 603c
000001b0: 56fd 99bd 1ad3 e43d 4d1e 6e3d 677b e2bd
000001c0: 3c4a 34bd 7453 293d deb3 a3bd 8028 593c
000001d0: 80e5 8abd f60d 9a3d 16ad d3bc e8ad 81bb
000001e0: d6fd 123d cabd 673c 10cf 043d 81be 1bbe
000001f0: 171d 673c e925 cf3c 1d02 e23b 8b1b 94bc
00000200: cb78 4c3e 2b77 4cbe 1eaf d337 b6d5 5437
00000210: e8b0 1bbe 0d69 3d38 0d37 aa38 13cf 9538
00000220: 55ea 7eb7 304c 07b8 02b8 443e 06fe 59b7
00000230: d07a d0b5 2778 4c3e 61db 8c37 20a2 a2b7
00000240: eb45 9838 d3a4 ab37 b173 4cbe c49d 44b7
00000250: e035 fe36 2f7c 4c3e 7002 6536 fdb4 43be
00000260: 166e 1537 c27a 4cbe 8f70 4c3e ca70 edb7
00000270: 321a 34be b268 ceb7 7af3 0e3e 5077 4cbe
00000280: 3a6f 4c3e 5907 6938 8452 d736 fc72 4c3e
00000290: 6a8b 77b7 d6b2 ed36 fb73 df36 c8ad b136
000002a0: 415a 1837 579e 4138 366d 9337 c476 4c3e
000002b0: f02e 2035 ee5d 2b3e d15c 9eb7 d570 4c3e
000002c0: 2f74 4c3e d4b0 443e aa79 4c3e d421 f9b6
000002d0: 7e68 b8b7 117a ecb6 f91e 2e3e 9a0a 4138
000002e0: 7b6d 4cbe 2574 4c3e 9e7a 4c3e ef23 4137
000002f0: b90c 5938 7190 dfb6 59ba af36 6d71 4cbe
00000300: 516f 4cbe 1774 4cbe 4e7c 4c3e 9d60 4cbe
00000310: 386a 2db8 1893 15be 30f7 4237 5b6e 4c3e
00000320: 5f7f 4c3e d170 4c3e 850b a7b8 1d78 4cbe
00000330: 42e0 9637 94c3 d4b6 4651 0bbe f84c 4b36
00000340: 0417 003e 2630 33be f397 4237 1638 103e
00000350: 1480 72b7 c0b3 a5b7 1ae5 01b7 dde9 20b7
00000360: 6ed1 39b8 1377 4cbe 126d 93b8 0eaa 9838
00000370: 0bd2 63b6 4b08 dc37 782b 7936 dccb 423e
00000380: b0ea a9b3 a278 4c3e 1668 db36 5ea6 5137
00000390: f41b 4637 e35b c337 051e 3cb7 2a72 4c3e
000003a0: 257b 4c3e 796f 4c3e caee d836 c684 48b7
000003b0: d082 6037 109e bab7 ba6d 4cbe 438b b137
000003c0: 983b 12b7 0408 24b7 32c3 8d37 1c90 dd37
000003d0: d9c5 3dbe f0f6 abb5 4ce8 bfb6 700a 4938
000003e0: 0d6a bfb7 d880 5fb7 2b1f 9bb5 e0c7 13b6
000003f0: da76 4c3e 1aaa d5b7 00d4 70b5 8413 4db7
0.056038473 0.08653386 -0.09992319 -0.039879143 -0.06064164 -0.057676267 0.056937322 -0.05502596
-0.04930921 0.06955867 -0.077477254 0.07551887 -0.2159046 0.10527744 0.058582474 -0.009799599
-0.08979362 -0.038323626 0.006074281 0.0371546 0.0032442564 -0.07464618 -0.10156596 0.018758835
0.045979507 0.00087364676 0.039983727 -0.10417434 -0.1002706 0.03578316 -0.030984987 0.035830498
0.09219709 0.05126684 0.018295536 0.05090666 0.01287929 -0.17868306 0.18346134 -0.102424726
0.06586578 0.050927747 0.15699501 -0.09987463 0.032024167 -0.02564451 0.034444522 0.025703058
-0.029809121 0.0592719 0.08547307 -0.023633376 0.10794031 0.0075091985 0.061839357 -0.06662304
-0.02781267 -0.025189934 -0.069547825 -0.017508753 0.070366904 -0.058494624 0.018782426 -0.07421942
-0.0059259157 0.018889159 0.11107128 0.053442415 -0.11271718 0.09682121 -0.06673084 0.13401736
-0.075117394 -0.01019676 0.10010007 -0.105506204 -0.17927176 -6.096265e-05 -0.060616497 0.09663544
-0.080450065 0.09635958 0.097176656 0.07804135 0.052311737 -0.014906339 -0.17255951 -0.0315024
0.09924496 -0.063106574 0.12101536 0.10338721 -0.007870213 -0.013486251 -0.0823661 -0.11121543
0.009460128 0.039350264 -0.014488838 -0.035454232 0.08580397 0.08114069 0.03992692 0.12040819
0.010330047 0.056310676 -0.06948276 0.013691448 -0.07519023 0.11173077 0.058134366 -0.110586934
-0.044016108 0.041339353 -0.07993291 0.013254285 -0.06782055 0.07522194 -0.02583937 -0.003957499
0.035886608 0.01414437 0.032424033 -0.1520939 0.014106057 0.025286632 0.0068972246 -0.01807954
0.19967954 -0.19967334 2.5234705e-05 1.2685943e-05 -0.15204203 4.5158948e-05 8.116486e-05 7.143444e-05
-1.5194139e-05 -3.2257463e-05 0.19210818 -1.2993352e-05 -1.5532951e-06 0.1996771 1.6791457e-05 -1.93874e-05
7.260948e-05 2.046154e-05 -0.19966008 -1.1719243e-05 7.5760618e-06 0.19969247 3.4125078e-06 -0.1911201
8.906723e-06 -0.19968703 0.19964813 -2.8305123e-05 -0.17588118 -2.4605866e-05 0.13960066 -0.19967389
0.19964305 5.5558372e-05 6.4171054e-06 0.19965738 -1.4754807e-05 7.0839696e-06 6.65942e-06 5.295242e-06
9.08092e-06 4.616225e-05 1.757462e-05 0.1996718 5.967295e-07 0.1673505 -1.8878289e-05 0.19964917
0.19966196 0.1920808 0.19968286 -7.4247164e-06 -2.1983167e-05 -7.0475585e-06 0.17004003 4.602466e-05
-0.19963638 0.1996618 0.1996865 1.1512063e-05 5.174868e-05 -6.662733e-06 5.2371e-06 -0.19965144
-0.19964339 -0.1996616 0.19969293 -0.1995873 -4.1345338e-05 -0.14606893 1.1620854e-05 0.19963972
0.19970463 0.19964911 -7.965326e-05 -0.19967695 1.7985822e-05 -6.3408606e-06 -0.13605222 3.029416e-06
0.1250878 -0.17498836 1.15986795e-05 0.14083895 -1.4454145e-05 -1.9753235e-05 -7.742341e-06 -9.591194e-06
-4.4302484e-05 -0.19967298 -7.029822e-05 7.2796e-05 -3.3947897e-06 2.6229905e-05 3.7129194e-06 0.19023079
-7.912365e-08 0.19967893 6.538826e-06 1.2496106e-05 1.1808228e-05 2.32886e-05 -1.1212663e-05 0.19965425
0.19968851 0.19964398 6.4651003e-06 -1.1951843e-05 1.3381898e-05 -2.2246531e-05 -0.19963732 2.1164893e-05
-8.716153e-06 -9.777028e-06 1.6899405e-05 2.641236e-05 -0.18532504 -1.2812361e-06 -5.7192865e-06 4.7931855e-05
-2.2818358e-05 -1.3321835e-05 -1.1557471e-06 -2.202105e-06 0.19967213 -2.5470788e-05 -8.971547e-07 -1.2223496e-05

network.0.bias f4 [256]
00000000: 66db 063d d88b 2e3d 7dab c23d e2c6 893c
00000010: 5d66 5ab8 fb56 0e3d a9f8 da3c 04fe 62bb
00000020: 0479 8c3d aa67 fe3c e24a 2b3d 52d7 113c
00000030: 98cc 483d a5d0 bc3b 5067 763a 6ae9 303d
00000040: a14e 8b3d 26e5 383d 8159 9e3b 33da 3d3d
00000050: bee7 86ba 1dc7 f63c 5709 2e3c 6d77 633d
00000060: 5d70 0f3d 02ab 113d 06a3 1e3d d6f9 5e3d
00000070: 7b66 ed3c 7d65 ad3c 19b1 af3d 3927 483d
00000080: 6efa ce3c 9191 9e3c 84e5 203d 62e1 6e3c
00000090: 5c89 513d 7c51 123d e4c6 073d 5d3f 683b
000000a0: 3d9f 733d 1730 af3c 3ee9 053d 8314 3c3d
000000b0: 7e65 1e3d fe7e 033d 69f6 a63d f38d 3a3b
000000c0: e565 3c3d 207a 113d 2599 3c38 e498 eb3c
000000d0: 4234 75b9 6429 773c 3c5d 383c 7c36 413c
000000e0: d5d0 833d c43b f93c 0650 d63b 9366 303d
000000f0: e8c4 af3d 0b88 9bbb afd3 763d 4420 033d
00000100: 559d 683d b271 a43c 12b2 893d c95c 963d
00000110: 366d fb3c 4b9f ddb9 835f e03c 5bd5 8b3c
00000120: fb9c 863d b45e 123c b9c4 403d 4e37 4c39
00000130: 961b bc3c 835b 953d 2f8e f23b ecc6 883d
00000140: d169 2f3d 3d86 623d f7cc 763d df1b 113d
00000150: 9869 bf3b 826a 3eba 5649 6f3d ee29 6839
00000160: 3161 3d3d 0b55 e73c 7e5e ab3d d81a b03c
00000170: 0b76 7e3d f0a1 6a3d 5764 a83c e6dc 923d
00000180: 665a 0e3d 453b 9c3c 3162 ff3c 87d0 1639
00000190: b194 7b3c c662 283d 6ce1 983d b329 003d
000001a0: c65d 0c3c 8789 e03c c7af 153d 2759 dc3c
000001b0: d3d4 b03b be35 923c 6dfa 063d b16d 763c
000001c0: fd7a 0f3d c710 793d 4eed 7a3d aa11 983c
000001d0: 1217 183d 5d97 7bb9 1b60 e23c 6590 723d
000001e0: 7803 bb3c 5c06 ac3c db10 96ba f03f d23c
000001f0: f453 823d 365a 143d e92d 3a3d 0db0 4e3d
00000200: d1fa ba3c 0123 703d 9df0 4d3c f1ad 0c3d
00000210: dd84 143d f518 183c b3e5 223d 0151 2c3c
00000220: ae6d 953c 08ec 993d 086b ffbb bc1e a5b9
00000230: 90c8 473d 6d2a 613d d4df 723c 7b2e 513c
00000240: 8514 97b9 283f d6b9 7e09 983c 4b57 093c
00000250: 43f7 6a3d 05f9 1d3c 3c99 193d 4f5b 703d
00000260: fa90 d43c 74a5 7b3d b5d1 2c3d dd6e 293d
00000270: 24a3 69b8 8e52 723d 1e5a 883d 5dd9 903c
00000280: c23d 2f3d 317d 133d 4675 a53d a99c a33c
00000290: 393e 373c a5a8 693c 709d 1e3d df34 fa3c
000002a0: 0b3e 1c3d a87e 543c 8376 373c 68b0 9c3b
000002b0: 30db 7e3d 8b85 713d 5f3e ab3c e296 973d
000002c0: 00d2 703b 15b2 3b3d bdf9 6d3d b17e 2d3c
000002d0: 2066 f73c 60b4 e03c f3dc 3a3d 0fae 753d
000002e0: 30ad e73c e745 473d 6775 0b3d f2ca 273d
000002f0: 3e00 18b9 1770 ac3d fb69 fbb9 a18e 763c
00000300: b53e b13d 9372 733d e008 b53c 050b 73b9
00000310: 3153 8cba 22a3 9f3c 9e20 963d ede0 0b3d
00000320: 4299 253d 48f6 fa3c 9fff b639 ceb5 073d
00000330: f57b 1b3d 2abd 883d a175 a23d 9f2e 473d
00000340: 3595 ba3c c2b7 e03c 949a 783d 628e fdb9
00000350: 4db6 ea3c cb3d 7e3d 19f4 333c e2eb 503d
00000360: f00c 283d d039 cbba 7a88 b1b8 915a 923c
00000370: f6ee 483d ca71 3e3d 1d8c 883d 005a d5bb
00000380: 75c1 213d 4f0b 583d 2297 5c3c 4503 703d
00000390: 13a0 8b3c 3dc7 ad3d 469a 16bb 1832 9fbb
000003a0: 7fbf 0f3d 30a6 3c3d 7a14 843d 327d a43c
000003b0: 11f3 ab3c cc64 843c 63e5 743d bb67 143d
000003c0: ca52 703c 2850 433c 9534 853c beda 9a3c
000003d0: ffc6 f23c 0583 1d3d 891b 423d f7a8 893d
000003e0: 5d5f a63b 5f2f 353d 539e 933d c2ca 2f3d
000003f0: f832 e23c 2603 2e3d 4f64 833d ce7e 133d
0.03292408 0.042613834 0.09505365 0.016818468 -5.2070583e-05 0.03475092 0.026729899 -0.0034636268
0.068590194 0.03105529 0.04181946 0.008901434 0.04902324 0.005762177 0.000939955 0.04319135
0.06802107 0.045140408 0.004832447 0.04635067 -0.0010292453 0.030124241 0.010622344 0.055533815
0.035019267 0.035563476 0.03872969 0.05443748 0.02897953 0.021166557 0.085787006 0.04886553
0.025265899 0.01935652 0.039281383 0.014580103 0.051156387 0.03572224 0.03314866 0.0035438158
0.059478033 0.021385236 0.03269314 0.045918 0.03867101 0.03210353 0.08152468 0.0028465956
0.04599561 0.035516858 4.496532e-05 0.028759427 -0.00023384488 0.015085552 0.011252698 0.011792775
0.06436316 0.030424006 0.0065403013 0.043066572 0.08582479 -0.004746442 0.06026047 0.032013193
0.05679067 0.020073745 0.06723417 0.07341916 0.030691724 -0.00042271087 0.027389294 0.01706951
0.065729104 0.008933712 0.04706261 0.00019475559 0.022962373 0.07292845 0.0074022035 0.06678566
0.042825524 0.0553038 0.060254063 0.03542697 0.005841445 -0.00072637957 0.058419548 0.00022140864
0.046235267 0.028238794 0.08367632 0.021497175 0.062124293 0.057283342 0.020555658 0.07171039
0.03475418 0.01907123 0.031174751 0.00014382797 0.015355275 0.041109823 0.07464871 0.031289767
0.008567279 0.027409328 0.036544587 0.02689798 0.0053964644 0.017847892 0.03295367 0.015040801
0.0350294 0.060807016 0.061261468 0.01856311 0.037131377 -0.00023993613 0.027633717 0.059219737
0.022828802 0.020999126 -0.0011449115 0.025665253 0.06363669 0.036218844 0.04545394 0.050460864
0.022824677 0.058627132 0.012569574 0.03434557 0.03625952 0.009283294 0.03976984 0.01051736
0.018240776 0.075157225 -0.0077947415 -0.0003149415 0.048775256 0.0549721 0.014823873 0.012767429
-0.00028816253 -0.00040864316 0.018559214 0.008382629 0.057364713 0.00964189 0.03749965 0.05868083
0.025948036 0.061437085 0.04219218 0.041365493 -5.5703465e-05 0.05916076 0.066578135 0.017681772
0.042783506 0.036008064 0.08079009 0.019972162 0.011184269 0.014261399 0.038724363 0.030542789
0.038145106 0.01296965 0.011197689 0.0047817715 0.062220752 0.058965247 0.020903764 0.074018255
0.0036746264 0.04582413 0.058099497 0.010589288 0.030200064 0.02742976 0.04562087 0.05998045
0.028280824 0.04865065 0.03404751 0.040965028 -0.0001449594 0.08419817 -0.00047953412 0.015048654
0.086545385 0.05943544 0.022098958 -0.00023178391 -0.0010705945 0.019486967 0.0733044 0.034150053
0.04042936 0.030635014 0.00034904198 0.033132367 0.03796001 0.06676705 0.07932592 0.048628446
0.022776226 0.027431373 0.060694292 -0.00048362004 0.02865138 0.06207065 0.01098349 0.051006205
0.041027963 -0.00155049 -8.4654384e-05 0.017865451 0.049056016 0.046495236 0.066673495 -0.006510973
0.039491136 0.05274516 0.013463767 0.058596868 0.017044103 0.08485267 -0.0022980138 -0.0048582666
0.035094734 0.046056926 0.06449218 0.020079229 0.020989927 0.016161345 0.059789073 0.036231738
0.014668176 0.011920966 0.016260425 0.018903133 0.029635904 0.038455028 0.04738954 0.067216806
0.005077286 0.04423463 0.07207932 0.042917974 0.027612194 0.04248347 0.06415617 0.036009602

network.2.weight f4 [192, 256]
00000000: 3eed 263d 48ca 053e 4284 c6bc e7cd b53d
00000010: b711 5bbd e4c4 d23b 55fc c13d a479 dd3c
00000020: 79fc 413e e14f ad3d 2c9b 8d3d 2092 283c
00000030: 034c 14bd 21c5 3e3b daad 983d 7022 8ebb
00000040: 1bdd 0abe a2bf 38bc 8be5 d43c 7129 da3c
00000050: 65f9 8a3d dc28 65bd d0e2 0b3d acb6 913c
00000060: a521 e9bc 39be a9bd 9066 ebbd d6f4 8ebc
00000070: 5e74 82bb e612 9dbd 0f90 2b3d 6313 803c
00000080: 5eab 7dbd 4970 963d 1087 b63d 9daa 9fbc
00000090: 7754 95bd d8ce f43c b28c ad3c 1d28 613d
000000a0: 3c7c 6b3a 7593 b83d d3ee 06bd 39c4 5e3d
000000b0: 7529 953c 141c a63d 96ff b13d 1b2d 313d
000000c0: 0515 ad3b 80f8 133d dfe9 17be 2b28 2ebc
000000d0: 6f9a fabc abea 3cbd 5301 123b b2cc b2bd
000000e0: 54d0 6a3d e0c4 053d c33a b7bb 5836 c73c
000000f0: bc08 fcbd c429 9b3c e538 963d 59c8 6a3d
00000100: 7d76 bf3d 402b 6dbd 4104 cdbb 9cb2 603c
00000110: b2b8 d8bd 8964 dabd 306b c63b 51bb cbbd
00000120: 5d57 bfbb e4d5 8bbd f4b0 7b3d 80ef 4fbd
00000130: d42a 0b3d b861 f53d dba9 29bc f736 d23d
00000140: 0a52 073c fde9 0c3c 8a89 8f3d ea3a 94bd
00000150: 286a 28bd 4c80 e93d f762 06bd 50b7 2f3e
00000160: 0ae1 b73d 20b1 873c 8975 883d ba52 ad3d
00000170: 5704 013e fd6a bebd eb3b 15bd 1984 a93d
00000180: 6216 9a3d 664d 8e3d cafb 593d 9c01 fbbc
00000190: 70ab 28bd eb9b a63d 8a6a d13c 71f8 743d
000001a0: 5f5b 89bd 60ed 6bbd 5931 63bd ef30 853d
000001b0: 0276 9c3d f06b 03bb 8ebe 14bd 61ba 353e
000001c0: ac25 eb3d b36b 803d 5882 15bd de50 4dbd
000001d0: a103 213e 8de7 da3c 2caa bc3d be12 08be
000001e0: 8d23 b13d 8ec3 e8bc 2354 9ebd de28 0c3e
000001f0: 5572 433d 0d23 4d3d 27bc 323e 0fbd bb3d
00000200: 48c3 3ebd 4dcb b43d e524 993d 41be 863d
00000210: a863 dabc 7b7c 1bbc a64e 403d 58a2 5b3b
00000220: bbfc 44bd e89b 8d3c dffd 16bd 0e64 e9bc
00000230: 6595 013d 5ac2 aa3d 2668 833d 1608 10bd
00000240: ab08 bdbd 2024 eabd 24fe 5f3d 4978 84bc
00000250: f96d 9abd 48f5 31bd ec5a 793d 622e 983c
00000260: 1c67 76bd ca0e 733a 7eaf 1ebd 0efe fd3d
00000270: ea97 64bd de3f a6bc f97c 1fbe c70f 3c3e
00000280: 8700 923d 98ab 8b3c 6f57 0a3b c257 c13c
00000290: bbb1 f0bd 80e9 1e3c f16d 003d 31cf 533d
000002a0: 90f1 2d3d 84fe 30bd e838 103d 20bc e23c
000002b0: efcb 4abc 5839 053e 9bf7 b73c 5e17 5f3d
000002c0: 48b4 b5bd d2c1 8e3c 3a1d 02be 0821 8fbd
000002d0: ded1 e6bc 04b7 813d d0f7 493d a796 2b3c
000002e0: cff8 1abd f9b1 96bb f812 8d3a 4c07 96bc
000002f0: 5e84 afbc c3d4 0fbd f1d2 cbbc 225e 6d3e
00000300: c922 6cbc d596 87bb 2929 2f3d 3964 34bc
00000310: 26c8 a53d b448 143e 5121 e2bd 7d48 1fbd
00000320: 091e 0fbd 3c04 323d 6d17 b43d cec8 3a3d
00000330: dcd8 8b3a 80f3 183d 18ff cfbd d8a5 1d3d
00000340: f361 eabc 4449 ff3d 84f8 3f3d 2fcf 10bc
00000350: e66a eebc ac58 d63d 8964 dc3d 1b3b 143d
00000360: 5d07 953d 0cb0 5b3d 6346 983d c031 cabd
00000370: 970e 63bd d1c3 c53a 5e0e a63d fede 9c3d
00000380: 133d 1e3e f75d 103c 9c9c acbb 1ae2 9c3c
00000390: 155b 073d 9cc8 963d d5a3 8b3d dbd6 45bd
000003a0: 65b2 cc3b 7ca4 c8bb 6ce1 5f3d 8988 c2bc
000003b0: 76f5 b0bd 1a94 943d 45ca 0d3e 6cde 0abe
000003c0: d8e9 083e ccbc 4f3d 6bc8 683d 5f4a cdbd
000003d0: 8bcd ae3d a07e bfbc b6be 50bc ddf4 b83d
000003e0: 9b93 14bc fec5 09bd 8044 833d 5e31 ec3c
000003f0: 0670 9a3c e64c a33c ac1c 613d 9efc 783c
0.040753596 0.13065445 -0.024232987 0.088771634 -0.05348369 0.0064321626 0.09471957 0.027035542
0.18943967 0.08462501 0.06914362 0.010288745 -0.036205303 0.0029109197 0.074550346 -0.0043376014
-0.13560908 -0.011276158 0.02598836 0.026631089 0.067858495 -0.05594717 0.034151852 0.0177873
-0.028458426 -0.08288235 -0.114941716 -0.017450731 -0.003981157 -0.0766962 0.04188543 0.015634244
-0.061931007 0.073456354 0.0891248 -0.019490534 -0.07291501 0.029883787 0.021185253 0.054969896
0.0008983051 0.090125 -0.032942604 0.05438635 0.018208245 0.08110824 0.08691327 0.043255907
0.0052820467 0.03612566 -0.14835308 -0.010629694 -0.030591218 -0.046122234 0.0022278621 -0.08730449
0.057327583 0.032658458 -0.0055917217 0.024317905 -0.123063534 0.018940814 0.073350705 0.057319973
0.09348772 -0.057902575 -0.0062566106 0.013714459 -0.10582103 -0.10663707 0.006055258 -0.09947837
-0.005839272 -0.06827906 0.061448053 -0.050765514 0.03397639 0.11981529 -0.010355438 0.1026439
0.008259306 0.008600709 0.07008655 -0.072377995 -0.041116863 0.11401424 -0.032809224 0.17159772
0.0897847 0.016563952 0.06663043 0.084630445 0.12599312 -0.0929775 -0.036434095 0.08277149
0.075238004 0.06948356 0.05321864 -0.030640416 -0.04117912 0.08135208 0.025563497 0.059807245
-0.06706881 -0.057599425 -0.055466983 0.06503474 0.07639696 -0.002005335 -0.03631454 0.17746879
0.11481795 0.06270542 -0.03650126 -0.05012595 0.1572404 0.02672174 0.09212145 -0.132884
0.08649359 -0.02841356 -0.077308916 0.13687465 0.047716457 0.050082255 0.17454587 0.091669194
-0.046572953 0.08827839 0.0747774 0.06579257 -0.026658848 -0.009490128 0.046950005 0.0033513512
-0.048092585 0.017286256 -0.036863204 -0.028490093 0.031636614 0.08337851 0.06416349 -0.03516396
-0.09230169 -0.114326715 0.054685727 -0.016170638 -0.07540507 -0.04344681 0.060877725 0.018576805
-0.060156927 0.0009271918 -0.03874158 0.12401973 -0.05580894 -0.020294126 -0.15575017 0.18365394
0.07129007 0.017049596 0.0021109243 0.023601416 -0.117526494 0.009699225 0.03135485 0.051711265
0.0424667 -0.043211475 0.03521052 0.027677596 -0.012377723 0.13010156 0.022456935 0.054465644
-0.088722765 0.017426405 -0.12706462 -0.06988722 -0.028176244 0.063337356 0.049308598 0.01047293
-0.03783494 -0.0045988527 0.0010763099 -0.018314026 -0.021425422 -0.035115015 -0.024880858 0.2318044
-0.01441259 -0.0041378536 0.042763863 -0.011010223 0.08094816 0.14480859 -0.11041511 -0.03888749
-0.034940753 0.04346107 0.087935306 0.04560166 0.0010669488 0.037341595 -0.10156077 0.03848824
-0.028611159 0.12465146 0.046867862 -0.008838459 -0.029103708 0.104661316 0.10761363 0.03618918
0.07276795 0.05363469 0.074353 -0.0987277 -0.055433836 0.0015088265 0.08108209 0.0765972
0.15452985 0.008811465 -0.0052676927 0.019150782 0.033045847 0.07362482 0.06818358 -0.048300605
0.006246852 -0.0061231237 0.05465834 -0.023746746 -0.08640568 0.07254811 0.13846691 -0.1356141
0.13370454 0.05071716 0.05683176 -0.10023951 0.08535298 -0.02337581 -0.0127407815 0.09031079
-0.009068395 -0.033636086 0.0640955 0.028832134 0.018852245 0.019934129 0.054958984 0.015196947

network.2.bias f4 [192]
00000000: 84a4 f73c 7abd f13c 8612 c63c e823 283d
00000010: 2bc9 bcba c961 0b3d c11b a33c 1f64 113c
00000020: 3028 043d a6dd 8b3c fc59 8a3c 921e af3c
00000030: 92c5 d93c a984 383c fe4e 313c 722e 8e3b
00000040: 77af 3d3c ab30 813c b80f 133d 76af cfb7
00000050: 5245 31ba 58e1 2f3c 9fc3 f43c 0bd5 c13c
00000060: 0b1d bf3c 584e b63c 9498 efba 3f81 543c
00000070: 134d 2d3b 385c 6d3c 34b8 81bc 5728 8fbb
00000080: 7d0d 363c 3b46 96bb ee2f c33c bcda dc3c
00000090: 2205 ec3c c05e c33c a4b6 513c 1135 3a3d
000000a0: 0b48 6d3d 54dc 123c e8ca d63c e37d b93c
000000b0: 4bb4 143a 511d 063c c7a6 933c d68e 3a3d
000000c0: 8b7b 213c df02 063d b76b 7c3c 1051 173d
000000d0: a432 f13c 04a8 5fba 3a85 8d3c 714b b33c
000000e0: d174 833c 8124 053d 2622 8a3c d3f3 ab3c
000000f0: 7f4b 273d 1513 f63c 8f0a 2a3c f703 863c
00000100: a984 ca3c 125c 013d bf3f 5b3d 11a7 8a3c
00000110: d15c e63c ad95 943b 1046 bd3c 60ee 0a3d
00000120: 30cd 3a3d 0cf2 f73b 0406 da3a de98 183d
00000130: 1d79 533c 6b87 8a3c 0ee5 823a 4238 263d
00000140: b03a b43c 8c25 173b 036b eb3c 8702 953c
00000150: ec58 923c f9ec eb3c a479 e23b 4768 db3c
00000160: a619 ca3c 9d82 493b c7fc a23c 7a6f f03c
00000170: 458b e23b aaa6 0f3d 5653 053d 6549 133d
00000180: f80a d6bb 6719 a33c b444 2c3d 1cc8 4abc
00000190: d9a6 1c3c d17e b03c 5ca1 823c bc87 46bc
000001a0: a246 03ba e71d a63c a644 653c aa81 223c
000001b0: 3a55 a93c 4dac 29bc c328 f53c d4cd a93c
000001c0: ecf5 113d ef00 b53c 848f ba3c 2c44 363c
000001d0: 3672 7bbc 5dab 9b3b 23d9 9b3c 4551 00bc
000001e0: 662e 833b 8736 193d 46f1 f7bb ed8e 193d
000001f0: 58c4 e43b 67b9 023d 1ad4 373c 5b73 aa3c
00000200: 9b73 1f3d c3ff 58bb 27c8 033d 1492 393c
00000210: 61a2 ad3b fbf4 ac3c e001 103d 55d8 bb3c
00000220: 696e 823c 147f 2b3c c1bd 0a3d 4185 d3bb
00000230: f21f 023d 9098 143c d5b5 2f3d 8e49 1b3d
00000240: e616 f73c e1f2 d73c 1b60 8e3b 0d9e 113d
00000250: 6a00 0c3b 2568 113d badb 723c d348 413d
00000260: 3fca ca3c c49e 9a3c 1389 463c 5bd8 153d
00000270: b590 ca3c ed43 dcba a9c0 873c f667 013c
00000280: e4e4 ae3b a12b 873c fdcb ed3c 5db4 353d
00000290: f374 b33c 80f2 103d eacc 4b3c cad3 213d
000002a0: dc00 003d d38e 973c 6077 6b3c 5e13 62bc
000002b0: 64fe c03c 182a 3b3b fdd2 7c3c 0a44 2e3d
000002c0: 945f 153d 90fb efba 8939 353d 060c 0bbb
000002d0: 24af 853c 392c e63c 3bd9 b1bb 6305 bd3c
000002e0: 598a 773c dd41 743b 8b5a e73c 0e68 fe3c
000002f0: 1753 7e3c ab59 933c ff76 3a3d bad2 683c
0.030229814 0.029509295 0.024178755 0.041049868 -0.0014403214 0.034028802 0.019910695 0.008873968
0.03226489 0.017073464 0.016888611 0.021376882 0.026583467 0.011262097 0.010822056 0.004339033
0.011577479 0.015770277 0.035903662 -2.4758028e-05 -0.00067623437 0.0107348785 0.029878436 0.023661157
0.023329278 0.022254154 -0.0018279725 0.012970268 0.0026443645 0.014487319 -0.015834905 -0.0043688226
0.011111614 -0.004586009 0.023826566 0.02695977 0.028811041 0.023848891 0.012799893 0.045460764
0.057930034 0.008963663 0.0262198 0.022643035 0.00056726177 0.0081857005 0.018023862 0.045546375
0.009856115 0.03271758 0.015406541 0.03694254 0.029443093 -0.0008531811 0.017275441 0.02188656
0.016046913 0.032505516 0.016861986 0.020990288 0.040843483 0.030038396 0.010378494 0.016359312
0.02472146 0.031581946 0.05352759 0.016925367 0.02812043 0.0045344443 0.023104697 0.03391874
0.04560584 0.007566696 0.0016633873 0.03725516 0.012907294 0.016910275 0.0009986477 0.040580995
0.02200064 0.0023063151 0.02873755 0.018189682 0.017864667 0.02879952 0.0069114733 0.026783122
0.024670433 0.0030748018 0.019895924 0.029350031 0.006913575 0.035071053 0.03255018 0.035958666
-0.0065320693 0.019909574 0.042057708 -0.012376811 0.009561264 0.021544846 0.015946083 -0.0121173225
-0.00050077785 0.02027793 0.013993418 0.00991861 0.020670522 -0.010356021 0.029926663 0.02072803
0.03563492 0.022095172 0.022773512 0.011124652 -0.015347054 0.0047506527 0.019024437 -0.007831876
0.004003334 0.037405517 -0.007566604 0.03748982 0.006981414 0.031915095 0.011220003 0.020806959
0.03892861 -0.003311143 0.032173302 0.011326332 0.005298898 0.02111291 0.03515804 0.022930304
0.015921788 0.0104673095 0.03387237 -0.006455094 0.031768747 0.009069577 0.042898018 0.037911944
0.030162286 0.02636093 0.0043449528 0.03555112 0.0021362551 0.03549971 0.014822895 0.04718859
0.024754642 0.018874533 0.012117642 0.036583286 0.024727205 -0.0016804911 0.01657136 0.007898321
0.0053373445 0.016500296 0.029027933 0.04436146 0.021906352 0.035387516 0.012438992 0.03950862
0.03125082 0.018500721 0.014371723 -0.013798563 0.023558803 0.0028559025 0.015431163 0.042545356
0.036468104 -0.0018309224 0.044244323 -0.0021216883 0.016318865 0.028097259 -0.005427507 0.023073858
0.015108668 0.0037270703 0.028241416 0.031055477 0.01552274 0.017987093 0.04552364 0.014210397

network.4.weight f4 [128, 192]
00000000: 5831 973d e14d 06be deed 89bc d60a 913d
00000010: 6d28 df3d 6bd1 523e 93af dbbc 34b7 9f3d
00000020: 916a 17bd d968 003d 8b77 8ebc 08e2 bcbc
00000030: fa4d 823d 71cd 0d3e d335 c0bb 182b 05bc
00000040: 25c8 72bd 80c4 fd3d cd3e 3f3e 7cd9 583d
00000050: 8307 dd3d 30cc 323b b4e1 903d 63c7 0cbe
00000060: 01e1 0d3d 319f 093d 4b94 9f3d 7c2b 87bd
00000070: f6ac 3b3d 650c a0bd 877e bf3d 6c0b 1e3d
00000080: fe23 ca3c f9d6 2d3c f43c 0cba 4706 98bb
00000090: 25ff 58bb a390 bd3d eb24 c13d c271 5a3d
000000a0: 8671 193e 8d98 243d e83a ef3c 2428 353d
000000b0: ca5c a93d f7fb 583d e698 8cbd 22cd 60b8
000000c0: 7768 893c 858f 1c3e eb13 78bd cd05 0cbe
000000d0: 44c8 903c c50f 5e3d b0b9 cabd 1354 e13c
000000e0: a447 f63d d513 00bd f29b a53c c3b0 9ebc
000000f0: 6c92 c7ba 1dc4 a23c 1e59 1cbd f09a d43d
00000100: c235 5cbd 3676 34bc 18b8 12be b07d 96bd
00000110: 4ffc 643c 3b79 01be 7a67 e2bd 54c7 05bd
00000120: caa6 df3c d40d 2a3d 6549 edbc dbbb 89bc
00000130: b54a 0d3e 5369 583d a4d0 8bbd 5cb6 ec3d
00000140: 1e42 10be 2a7b 233e bbbe 663d 6c7b 89bd
00000150: c86e a13d 020d 033e 8792 433c d9e6 633d
00000160: a411 d4bc 6ad8 98bd 7a18 3e3d a041 aabd
00000170: 61b6 3a3c 3b31 363d 7d99 503d 90bd 2dbe
00000180: 9a18 0bbd b01b c7bd ebbc 093d 96ed 6cbd
00000190: 0a16 e5bd f795 13bc 5e1c d33c 5893 febc
000001a0: 69ec ba3c 3a51 783d 3500 44bd 5421 7bbd
000001b0: 4d04 823d 2ff7 333d dcb5 c0bd 9030 213d
000001c0: eef4 7cbd a7de 06bd e947 3e3b dae4 2f3e
000001d0: a8df 273d d57b e3bd 630e 10bd bbd6 653c
000001e0: daa4 753d 3db6 debc 2ed8 843d f6b0 633d
000001f0: 6976 f53c 0254 323d 9eb7 b3bd d415 d4bb
00000200: 3877 92bd cbfd 87bd 5596 03be 72ba 3f3d
00000210: 8ea9 f03b 4aa5 5a3d fd78 2f3d c207 acbc
00000220: a73d 413d b62c 2b3d b099 bf3c 579d 2abe
00000230: 7045 573e 7cc2 293d 6c97 aebd 041f e73a
00000240: cd0f 003e e98e 013d 9bbb b6bd 2e38 a5bd
00000250: 1ceb 433d e6ab b3bb 8342 b4bc 1676 87bc
00000260: 1a45 033d abff 43be 82b8 a7bd 4687 5abc
00000270: 1a48 97bc 1046 793c 2fc7 193d e24a edbc
00000280: 7cc0 813d 1923 dc3d ab68 bb3d f491 863d
00000290: f46a f9bc d5f0 e8bd b815 403d 5a7b 33bd
000002a0: 13c2 14b9 e63f ea3c c2db c5bd 6b2d b93d
000002b0: 206c e63d e1e5 1fbe 8d8d 763d 5654 72bd
000002c0: 306d 373c 02cf a73d 910f fd3c 920b 783d
000002d0: 3f2d c63d 6278 aa3b 7d5f 013d 8688 bebd
000002e0: ae46 973b 567c cd3d b536 073e 87f2 ae3d
000002f0: a231 113e 91cf ba3d 61f7 3dbd 7cab 77bc
00000300: 6180 94bd afd3 34bd 1f87 c3bd 78d7 9e3c
00000310: 0803 1b3e f594 2f3d 0039 423e 9951 11bb
00000320: 848c 61bd 7c1c c23b 6f0b a63d 3e86 2fbe
00000330: 221f de3d 9493 0a3e 5e24 ffbd 5581 723d
00000340: 91e8 d23b 96ea 25bd 75ce 903c e670 b13c
00000350: 2608 003e 6037 b839 6477 cbbc ae4a 85bd
00000360: 8b6d 143c 2a96 8c3d 2e04 6abd ac15 433d
00000370: 6491 9f3d 09ab 933c 83d8 e83a 6cf3 7dbc
00000380: ee91 5abd cf65 a13b fda9 293d 4773 91bd
00000390: 5194 9ebd 3adf a13d 1951 0d3e 5ced c0bc
000003a0: cef7 bf3b 715f 64bb 3c76 1a3c 5837 4abe
000003b0: 7f8d dd3d f591 3bbe 4871 94be 9ed2 df3c
000003c0: dfa7 373d 6b62 8dbd 4bc9 15bd 6fc2 ec3c
000003d0: d441 433d bb65 dc3b f5a9 00bc 85da 063d
000003e0: 6078 1b3e dbf4 30bc fdac d13d e59f af3d
000003f0: ac04 3fbc 1a58 9cbc 2a4e 773e 7ed7 2ebd
0.073824584 -0.13115646 -0.016837057 0.07082145 0.108963825 0.20587699 -0.026817119 0.07798615
-0.036966864 0.03134999 -0.017390987 -0.023056999 0.06362529 0.13847901 -0.0058657913 -0.00812795
-0.059272904 0.12390995 0.186763 0.052941784 0.10792448 0.002728235 0.070742995 -0.13747935
0.03463841 0.033599082 0.077919565 -0.06600091 0.045819245 -0.07814864 0.09350305 0.03858511
0.024675366 0.0106103355 -0.0005349659 -0.00463942 -0.0033111062 0.09256103 0.0943087 0.053331144
0.14984712 0.040184546 0.029202893 0.044227734 0.08269651 0.052974667 -0.068651006 -5.3596807e-05
0.016773446 0.15289123 -0.06056587 -0.13674088 0.01767362 0.054214258 -0.09898698 0.02750591
0.12025383 -0.031268913 0.020215962 -0.019371396 -0.0015226132 0.019868905 -0.038170926 0.103811145
-0.053762205 -0.011014512 -0.14328039 -0.07348192 0.013976171 -0.12643902 -0.11054893 -0.032660797
0.02730121 0.041517094 -0.028965661 -0.01681321 0.1379803 0.05283482 -0.068269044 0.1155822
-0.14087722 0.15964952 0.05633424 -0.06712994 0.07882458 0.12797931 0.01193679 0.055640075
-0.025887318 -0.07463153 0.04641006 -0.08313298 0.011396022 0.044480544 0.050927628 -0.16966844
-0.03395901 -0.09722078 0.03362743 -0.057843767 -0.11185844 -0.009007922 0.025770362 -0.031076118
0.022817807 0.06062434 -0.04785176 -0.06131108 0.063484766 0.043936905 -0.09409687 0.039352953
-0.06175702 -0.03292718 0.002903456 0.17177144 0.04098478 -0.111076035 -0.03516997 0.0140282465
0.059971668 -0.027186507 0.064865455 0.055588685 0.029963689 0.043537147 -0.087752566 -0.0064723287
-0.071516454 -0.06640204 -0.12850316 0.046808667 0.0073444312 0.05338029 0.042839993 -0.020999793
0.047177937 0.041790687 0.023388714 -0.16661583 0.21022582 0.04144524 -0.08524975 0.0017633145
0.12506028 0.03163043 -0.08922502 -0.08067356 0.04783164 -0.0054831384 -0.022004372 -0.0165358
0.032048322 -0.19140498 -0.08189489 -0.013337916 -0.018466998 0.015214458 0.037543472 -0.028966371
0.063355416 0.10748882 0.09150823 0.06570807 -0.030446507 -0.1137406 0.046895713 -0.04381881
-0.00014186678 0.028594922 -0.09661056 0.09041866 0.11251092 -0.15615036 0.060193587 -0.05916246
0.011195466 0.081937805 0.030891212 0.06055791 0.09676599 0.005202339 0.031585205 -0.093033835
0.00461658 0.10033481 0.13204463 0.08542352 0.1417909 0.091216214 -0.046378497 -0.015116569
-0.07251049 -0.04414719 -0.09547257 0.019389853 0.15137875 0.042866666 0.18967056 -0.002217388
-0.055065647 0.0059238058 0.081076495 -0.17141053 0.10845782 0.13532859 -0.12458108 0.059205372
0.0064364155 -0.04050692 0.017676571 0.02166028 0.12503108 0.00035136472 -0.024837203 -0.06508385
0.00905932 0.06864579 -0.057132892 0.04762809 0.07791403 0.018025892 0.0017764721 -0.015499931
-0.053361826 0.0049254666 0.04142188 -0.071020655 -0.07743133 0.07903905 0.13800468 -0.023550682
0.005858398 -0.0034846927 0.009427603 -0.19747674 0.10818004 -0.18317397 -0.28992677 0.02732211
0.04483783 -0.06903537 -0.03656892 0.028901307 0.0476702 0.0067259944 -0.007853021 0.03292324
0.15182638 -0.010800566 0.10238073 0.08575419 -0.011658829 -0.019084979 0.24150911 -0.042685978

network.4.bias f4 [128]
00000000: 45df 94ba cd6d 8d3b 2949 9b3c 2765 3fbc
00000010: 7585 623a 2245 daba 3e86 2c3c bad4 e53b
00000020: f2a3 8e3c 0bb9 cabb e377 133c 6f83 923c
00000030: a90a 3cbb 0a8d 5a3c 726e 473c f599 0b3b
00000040: 623f 873c 58bc 283c f608 1fbb 00e1 c7bb
00000050: 3672 3e3c b39f c73c c7c1 3a3b 3b70 783c
00000060: a321 40ba 8d5b db3c 09d8 713c bd27 9f3b
00000070: ca0e 1bbc 28f6 983c 8dc6 5c3c e615 8a3c
00000080: a551 bcbb 1662 a03c 3521 88bc 600d b4bb
00000090: 275b f6ba 0af2 c83b b4f5 e93c 9a45 aa3b
000000a0: 6571 e53c cd16 2c3c 7865 8a3c 1446 3eb9
000000b0: 7139 47bc 8177 9e3c 4294 033c 26ba 033d
000000c0: ff28 babb 0754 083d 0ec6 0d3c dbd9 c73c
000000d0: c029 c03c d785 913c c5db f33c 5c3b 8c3c
000000e0: 7797 0a3c 4839 313b b524 33bc cec4 b23c
000000f0: 575c d33b 2816 733c 0954 1b3d f44e bbbb
00000100: b395 8d3c 88eb 343b 4662 11bc 1990 0f3d
00000110: 2a23 253d 4680 0d3c 78c9 9abb a77b f73b
00000120: 6e48 8e3c 16c1 053c cd06 1fbb 8bf2 363c
00000130: 3771 173c 42a8 293b e4a8 fd3c a2c2 b73c
00000140: f264 0e3c 46fe 7d3c d3f9 ab3a 9697 483a
00000150: d379 143c 1a27 f63c f5e9 ca3c 085c ed3c
00000160: f164 ddba 8bd0 f13c f0ba 9a3c aa3b 6e3c
00000170: 6c6c 0ebc 48d4 83bb 4fdd da3c 184f 03bc
00000180: 4ccb c7bb 18bc 8bbb 02c4 bb3c 6839 da3c
00000190: 9445 71ba 2cfe 8b3c caad ad3c 1621 083d
000001a0: 37e7 46bb 8e1e 2b3c 5411 723b 2594 81bb
000001b0: acd8 5bbb d7e2 7e3c 821a bd3b 7a97 433d
000001c0: 943a b6ba 434c b4bb 45f9 d03a c121 0c3d
000001d0: 55ba 533c 4ddb 223c 907c b8bb fafc 423c
000001e0: f451 3dba e0dc 83bb 608c 663c c217 553c
000001f0: 29c2 6e3c 0ac7 533c be31 e83c a64a e53c
-0.0011358043 0.004316068 0.018955784 -0.011681831 0.00086411025 -0.0016652683 0.010530053 0.0070138844
0.01741216 -0.0061866096 0.009000751 0.017884938 -0.0028692877 0.01333929 0.012172328 0.0021301482
0.016509715 0.010298811 -0.0024266816 -0.00609982 0.01162391 0.024368143 0.0028496848 0.015163477
-0.0007329231 0.026777053 0.014760979 0.004857032 -0.009463975 0.018672064 0.013475073 0.016856145
-0.0057470375 0.019578021 -0.016617397 -0.0054947585 -0.0018795476 0.006132369 0.028559543 0.0051962854
0.028008172 0.010503483 0.016894087 -0.00018145918 -0.012159691 0.019344093 0.008030953 0.032159947
-0.0056811566 0.03328326 0.008653177 0.024395874 0.023457408 0.017764015 0.02976788 0.017118149
0.008458964 0.00270422 -0.010934045 0.02182236 0.0064502168 0.014836825 0.03792194 -0.005716199
0.017283296 0.0027606208 -0.008873528 0.03504953 0.04031674 0.00863654 -0.004723724 0.0075525823
0.017368522 0.008163711 -0.0024265528 0.011166225 0.009243301 0.0025887643 0.030964322 0.022431675
0.008691059 0.015502518 0.0013120718 0.00076519826 0.009062248 0.030047942 0.024769763 0.028974548
-0.0016891045 0.029518386 0.018887967 0.014540592 -0.008692842 -0.0040231086 0.026716856 -0.008014463
-0.006097233 -0.004264366 0.022920612 0.026638702 -0.00092037884 0.017088972 0.021201033 0.03323468
-0.0030350217 0.0104442965 0.0036936598 -0.003954428 -0.0033545895 0.0155570125 0.0057709822 0.04775188
-0.0013902956 -0.005502255 0.0015943429 0.034211878 0.012922843 0.009939981 -0.0056300834 0.011901135
-0.000722199 -0.004024133 0.014071554 0.013006153 0.014572659 0.012925873 0.028344031 0.027989697

network.6.weight f4 [39, 128]
00000000: f2d0 15b7 6afa a2bd 2cc1 c1bd 4d6b 123e
00000010: 175a 853e 5b30 793e 0c56 1abe d497 02b7
00000020: 5003 ce3d 1f6e cfbc 3ea9 20be 43b4 19be
00000030: 8630 793e 2f79 2cbe 31e1 f43b 1213 653c
00000040: ab4e e13d f539 86be 6bb5 a83d 6b97 bfbd
00000050: 44b3 fe3c 6637 923d 1b09 7bbe 0158 1b3e
00000060: 8c00 323e a474 efbb 2085 073e 3297 fdbd
00000070: fd16 903d 10b3 75be 7038 d1bd fef9 36be
00000080: 4292 183c d1ad 20bd df92 f9be 81f1 d2bd
00000090: 4c8d 333e 5c04 a03d 72b9 dbbd 6cde 9cbd
000000a0: e89b eabd 190d 80be 5883 2bbe afb6 81bd
000000b0: 79f9 32bd 74d4 0dbe 2af1 78bd a7ea e4bd
000000c0: 81e2 21be a9c4 09be 1192 783e ce31 9dbd
000000d0: d0fa f53d 5486 d4bd af7b 15bd 2107 7cbd
000000e0: 8a26 2cbe 4af8 503e 9c00 90bd c703 c6bc
000000f0: 74fb 01be a88b 06bb 4119 7ebc ab6e 1737
00000100: 41ab 3b3e 7b35 35be 5adc 60be 0dfa ee3c
00000110: 2960 14be 48c0 173e 62fb cabc b4ae 233b
00000120: eb51 02b9 c27d 5fbe 53ce 783e 9f6e abbd
00000130: c4b1 77bd 60e4 efbd 9afe 17be 6ab0 2ebe
00000140: e3d0 b7bd d10e 9fbd f5a8 81be 58de 18bd
00000150: ef8f 37be 8e8b 5ebe e4bc 2fbd 8cab cdbb
00000160: 17ef 783e 19c5 59be b373 5fbe 8701 b03d
00000170: 2741 53bd 3db9 32bd ce2d c6bd 8e61 f1bd
00000180: 0d6e 303d 6a63 b9bd ce09 34be 3906 52be
00000190: 3fd3 f337 2eac c5bd c94d 88be 458f 4ebd
000001a0: 0033 43b7 26de 3d3d 0516 273d bb40 633e
000001b0: b462 a3bd 56ea 6a3e b6ae 80bd 1d9d d7bd
000001c0: d841 bcbd 3506 9eb7 6e9f b337 6ba1 b9bc
000001d0: b6f6 9cbd 5bb7 7bbc c694 5e3e 2c60 a73c
000001e0: 93c8 0c3e 6fa7 edb6 d005 81be 9422 243d
000001f0: 090f d83d 63e8 c83d 5c03 2ebe 548b f6bd
00000200: baa5 b9bd 6321 c2bd aa31 d73d a10e 163e
00000210: 78fe 133d 1a80 233e 752e e03d 1d8d f737
00000220: 6274 e53d fbdf 693e 8d01 543d e5c9 5cbe
00000230: 5491 f03c 9e35 683d 2ba1 52be b701 a1bd
00000240: f517 a6bd 75ec b63c a43b 18be 281c 523e
00000250: 9ec7 b2bd 7afd 223d 773b 2fbc af61 64bd
00000260: 9f9c 73bc 6366 c93d da17 82bd 170e 593e
00000270: a938 823d c3f4 0b3d 0480 b7bd a703 35be
00000280: 6a31 29bc bb71 503e c4e3 0238 7867 61bd
00000290: a15a dbbd c9f9 5bbe 52e5 663d 597c 273c
000002a0: f845 b5bd ee13 bbbd 2a67 a2bd eb2b 89bd
000002b0: bd4b 313d 1c9c 7c3d 836e 053d db01 abbd
000002c0: 5941 68bc 3673 903d 673c 81bd dd26 403e
000002d0: 2dd6 603e 52c4 253d 8a10 e4bc 3163 153e
000002e0: 3a11 7c3d f82c 4fbe 5203 b03c 9b85 913c
000002f0: 2e4c 153e b5e1 5d3d 6d42 debd 3505 9837
00000300: 5037 65bd b554 42be 7326 f0bd 18a1 7b3d
00000310: 9969 91bd 81a1 bfbd 8bb3 0636 4810 3f3e
00000320: 6094 35be ff98 efbd 2c8d 0a38 6e24 193c
00000330: 9b47 75be 8abc 883d 27ad 8ebc c09c d9bd
00000340: 30e7 933e 0de5 38bd 5ba2 d83d db2b fbbd
00000350: c94c 673d a6cd a33a fd0e 693d 67af 2abd
00000360: 8c59 c7bc 7552 593d b6fe 963d 6e95 313e
00000370: dfaa cd3c f500 3cbe 8958 b73d 9a15 b7bc
00000380: 9999 853c d5b8 9a3b ec37 60bd 267a 903e
00000390: 3687 7e37 b042 fbbc d820 2a3d 7ffa 1f3d
000003a0: 00d2 c4b2 eed8 bfbc ab96 c73d 9b4e ff3c
000003b0: a05b 48bd 58b5 c43d e864 b73c ccbb 463d
000003c0: 760e e33d c007 9bbc c084 2536 8bec 51bd
000003d0: 5002 dc3d 7bb7 153e 7e2d 98bd 5c8b 283d
000003e0: 1e7b 083e e917 7dbc a628 24be 6b13 ef3d
000003f0: 0bcf 8a3d 0d98 97bd a215 b93d 7fab 87be
-8.929741e-06 -0.07957919 -0.09460673 0.14298744 0.26045296 0.24334852 -0.15071887 -7.783954e-06
0.100592256 -0.025321065 -0.15689561 -0.1501017 0.24334916 -0.16843103 0.007473134 0.0139815975
0.11001333 -0.26216093 0.08237728 -0.093550526 0.03109134 0.07139473 -0.24515192 0.1517029
0.17383021 -0.007307606 0.13234377 -0.12382354 0.07035635 -0.23994088 -0.10215843 -0.17868802
0.009312214 -0.039228264 -0.48744866 -0.102999695 0.17534369 0.078133315 -0.1072873 -0.07659611
-0.11455518 -0.25009993 -0.16749322 -0.06333672 -0.043694947 -0.13850576 -0.060776867 -0.11177569
-0.1580906 -0.13453926 0.2427447 -0.07675515 0.12010729 -0.103771836 -0.036494907 -0.061530236
-0.16811576 0.20407215 -0.07031366 -0.024171723 -0.12693578 -0.002053002 -0.015508951 9.026068e-06
0.18327047 -0.17696182 -0.21959057 0.029171968 -0.14489807 0.14819443 -0.024778072 0.0024975957
-0.00012428283 -0.21825317 0.24297456 -0.08370709 -0.060472265 -0.11713481 -0.14843217 -0.17059484
-0.08975389 -0.07766498 -0.25324216 -0.03732142 -0.17926 -0.21732923 -0.04290475 -0.0062765535
0.24309956 -0.21266593 -0.2182148 0.08594041 -0.051575806 -0.04363369 -0.09676705 -0.11786185
0.043073703 -0.09052165 -0.17581865 -0.20510186 2.9066226e-05 -0.09651981 -0.26621845 -0.0504296
-1.163478e-05 0.046354435 0.040792484 0.22192661 -0.079778105 0.22940955 -0.062833235 -0.10528014
-0.09192246 -1.8837958e-05 2.1412703e-05 -0.022659978 -0.07664244 -0.01536354 0.2173644 0.0204316
0.13748388 -7.0826422e-06 -0.25199747 0.04007204 0.10549743 0.09809949 -0.16993469 -0.120382935
-0.09064813 -0.09479024 0.105075195 0.14654018 0.036131352 0.15966836 0.10946361 2.9510406e-05
0.11203839 0.22839348 0.05175929 -0.21561392 0.029366173 0.05669176 -0.20569293 -0.07861655
-0.08110038 0.022329548 -0.14866501 0.20518553 -0.0872948 0.039792515 -0.01069533 -0.05575722
-0.014868884 0.09833982 -0.063522056 0.21196781 0.06358463 0.03416897 -0.08959964 -0.17677175
-0.010326723 0.20355885 3.120654e-05 -0.055030316 -0.107106455 -0.21482004 0.05637104 0.010222518
-0.08851236 -0.09134661 -0.07929833 -0.0669783 0.04328512 0.061672315 0.032576095 -0.08349963
-0.014175736 0.07053225 -0.06310349 0.18764825 0.21956702 0.04047043 -0.027839918 0.1458862
0.061539866 -0.20231998 0.021485958 0.017763903 0.14579841 0.05417033 -0.108525135 1.8122237e-05
-0.055960953 -0.18977626 -0.117260836 0.061432928 -0.07100219 -0.09356976 2.0072064e-06 0.18658555
-0.17732382 -0.116991036 3.303324e-05 0.009347064 -0.23953097 0.06676586 -0.01741655 -0.10625601
0.2888732 -0.045140315 0.10577842 -0.12264224 0.056469712 0.0012497201 0.05689906 -0.041671183
-0.024334691 0.053057153 0.07372801 0.17342159 0.025105892 -0.1835974 0.089524336 -0.022349168
0.016308593 0.0047217407 -0.05474083 0.28218192 1.5171061e-05 -0.030671448 0.04153523 0.03905725
-2.29129e-08 -0.02341887 0.097455345 0.031165412 -0.048915505 0.09604901 0.022386983 0.04851894
0.110867426 -0.018924594 2.4664187e-06 -0.051250976 0.107426286 0.14620773 -0.07430552 0.04114853
0.13328215 -0.015447595 -0.16031131 0.116736256 0.067777716 -0.07402048 0.09037329 -0.2649803

network.6.bias f4 [39]
00000000: 6445 dbbc dcf2 173b 7722 273d 2231 773c
00000010: 616c 06bc 0269 cabc bcac 0e3b 103e 8a3b
00000020: 31d7 373c 90da 3abc 3901 b9bc 2d49 84bc
00000030: d8fb 37bc 64e3 b13a 9264 3c3c cc53 9b3c
00000040: 5ee9 c4ba 95f3 bbbc 496d 7a3c 44ab 2e3c
00000050: db30 bdbc cfbc ecbb 3b18 a5bc f71a ba3c
00000060: b859 d2bc 082e 5b3c 26c8 a8bc 342f 16bc
00000070: f842 183b 5c89 aa3b 4142 253c ee8c a4bb
00000080: a5ba b6bc e130 a2bc 970d 74bc 2a0b dcbc
00000090: 5446 bdbc 4a52 c4bc 25dc eabc
-0.026766486 0.0023185527 0.040804353 0.015087398 -0.0082045505 -0.024708275 0.0021770438 0.004218824
0.011220739 -0.011404648 -0.02258359 -0.016148174 -0.011229478 0.0013571796 0.011498587 0.018960856
-0.0015023162 -0.022943297 0.015284845 0.01066095 -0.023094585 -0.007224656 -0.020153156 0.022717936
-0.025677547 0.013377674 -0.02060325 -0.009166528 0.0023233276 0.005204363 0.010086597 -0.005021683
-0.022305796 -0.019798698 -0.014895818 -0.026860792 -0.023104824 -0.02396502 -0.028669426
