Homework/HW2/results/quick_grid/run_01.pt (torch, 583917 bytes, 8 tensors)

network.0.weight f4 [256, 256]
0	0x3dc60e13	0.09670653
1	0xbb5a5a02	-0.003331781
2	0xbddb9180	-0.10721111
3	0xbbb491d5	-0.0055105486
4	0x3d90c8e7	0.07069569
5	0x3d28ce50	0.04121238
6	0x3ba778c7	0.0051108333
7	0x3a88cc65	0.0010436891
8	0xbc607ad4	-0.0137011595
9	0x3cc484ff	0.023989199
10	0xbd0112f1	-0.031512205
11	0xbe051dc0	-0.1299963
12	0xbce85cc3	-0.028364545
13	0x3c5758aa	0.013143698
14	0xbd640cfb	-0.05567644
15	0xbcb66f12	-0.02226976
16	0x3dae1dff	0.08501815
17	0x3ce3d2e3	0.02781052
18	0xba02d9e1	-0.0004991573
19	0x3c06ec2e	0.008235021
20	0x3d32faf2	0.04369635
21	0x3bc8882a	0.0061197476
22	0x3e05d41f	0.13069199
23	0x3e4b907f	0.1987934
24	0x3e4c1de0	0.19933271
25	0xbdaa7033	-0.083221816
26	0xbd9e84c9	-0.077401705
27	0x3d08c629	0.033392105
28	0xbd6958aa	-0.056969322
29	0xbda43905	-0.08018688
30	0xbdbe2530	-0.09284437
31	0xbe06c67d	-0.13161655
32	0x3c725c6b	0.014792542
33	0xbd946a47	-0.07246833
34	0xbb807335	-0.0039199837
35	0x3d5787b2	0.052619644
36	0x3d16ec2f	0.036846336
37	0xbcba7709	-0.022761839
38	0x3cbb25a6	0.0228451
39	0x3d04bbe3	0.032405745
40	0x3d40fdb2	0.047116943
41	0x3da01d2d	0.07818065
42	0xbdfd1bb3	-0.12358799
43	0xbd71e329	-0.059054527
44	0x3df474c5	0.119363345
45	0x3ca87948	0.020565644
46	0xbce73fad	-0.028228605
47	0x3db54ba1	0.08852316
48	0x3d2b98f0	0.0418939
49	0xbd3c16b7	-0.0459201
50	0x3ab1fbcc	0.001357907
51	0xbd494429	-0.04913727
52	0xbd6c5d80	-0.057706356
53	0xbcd3e7ec	-0.025867425
54	0xbd143e5f	-0.036192294
55	0x3e051bfc	0.12998956
56	0x3c1e1172	0.009647714
57	0xbdff9051	-0.12478698
58	0x3e235887	0.15951739
59	0xbd9cc8f5	-0.07655517
60	0x3ded694c	0.115923494
61	0xbdd12d0c	-0.1021367
62	0x3c9926a0	0.018695176
63	0x3c45dcfe	0.012076614
64	0xbc0570b1	-0.0081445435
65	0x3d8d5f6f	0.06902968
66	0xbda8c0f0	-0.08239925
67	0x3dd3dd17	0.10344904
68	0x3ba74f47	0.005105886
69	0xbd215605	-0.039388675
70	0xbce982d6	-0.02850477
71	0x3d5b1b8b	0.053493064
72	0xbc4d592d	-0.012533468
73	0xbd7a591e	-0.061120145
74	0x3d75d672	0.060018964
75	0x3d852462	0.0650108
76	0x3dc93f79	0.098265596
77	0xbc69ac2f	-0.014262243
78	0x3dc8eff5	0.09811393
79	0x3d502013	0.05081184
80	0x3d7afba2	0.061275132
81	0xbd7e5bfd	-0.062099446
82	0xbd183e55	-0.03716882
83	0xbc736742	-0.014856162
84	0x3df0a71b	0.11750623
85	0xba99afae	-0.001172533
86	0x3c18ac96	0.009318491
87	0xbb16619f	-0.002294637
88	0x3d70c45d	0.058781017
89	0x3d4cd76c	0.05001013
90	0x3d8f565f	0.06998896
91	0x3c5f955d	0.013646451
92	0x3dc4bc73	0.09606256
93	0x3d8e71f9	0.06955332
94	0xbc1c90eb	-0.0095560355
95	0xbd250648	-0.040289193
96	0x3d8854f8	0.066568315
97	0x3dd28f10	0.10281193
98	0xbd85f381	-0.06540585
99	0x3da89cc3	0.08233025
100	0xbe4323f3	-0.19056682
101	0x3e14f57c	0.1454677
102	0xbd718ec2	-0.058974035
103	0xbd2e1c95	-0.042507727
104	0x3943e190	0.00018680678
105	0x3d131e12	0.03591735
106	0xbe04ed3a	-0.1298112
107	0x3cec5bba	0.028852332
108	0xbd5626ec	-0.052283213
109	0x3d8350ff	0.06411933
110	0x3d81775b	0.063215934
111	0xbd975968	-0.073901
112	0x3e03446d	0.12819071
113	0x3d3f594a	0.046716012
114	0x3d375166	0.044755362
115	0x3da373ed	0.079810955
116	0xbd851a2e	-0.06499134
117	0x3db8e74c	0.090284914
118	0x3d00d9f5	0.03145786
119	0x3d6c43ec	0.057681963
120	0x3d684a03	0.056711208
121	0x3d8a05f7	0.06739419
122	0x3dfcfa32	0.123524085
123	0x3d940e4b	0.07229289
124	0x3b43c7a8	0.0029873643
125	0x3bfe04fe	0.00775206
126	0xbcfd13e4	-0.030893274
127	0xbd0cb4a0	-0.034351945
128	0xb6ef2780	-7.1273535e-06
129	0x390a164e	0.00013169015
130	0x37f36ede	2.9019484e-05
131	0xb88064c8	-6.1222876e-05
132	0xb8a21ea4	-7.730469e-05
133	0x3e780f9d	0.24224706
134	0xb81077b1	-3.4443747e-05
135	0x386be86c	5.6244826e-05
136	0x3e78797f	0.24265097
137	0xb94692bb	-0.00018937413
138	0xb6a44778	-4.895901e-06
139	0xb92714f2	-0.00015934164
140	0xbe787c4a	-0.24266163
141	0xb8c58d16	-9.419971e-05
142	0xb881ceb8	-6.189704e-05
143	0x35efad60	1.7857346e-06
144	0xb8a333ea	-7.7821154e-05
145	0x3e786563	0.24257426
146	0x37283ae0	1.0027288e-05
147	0x397b969f	0.00023993336
148	0xbe788939	-0.24271096
149	0xbe7845b8	-0.24245346
150	0x3830e688	4.217637e-05
151	0xb88b210b	-6.634191e-05
152	0xb7501bd8	-1.2404249e-05
153	0x3e78bf96	0.24291834
154	0x377a2c50	1.49114785e-05
155	0xb809e83b	-3.2879627e-05
156	0x393e573d	0.00018152311
157	0xbe78a69e	-0.2428231
158	0xb8c55d16	-9.4110306e-05
159	0x39b31ddc	0.00034163787
160	0x38f6cadc	0.000117679796
161	0xb7ca6edc	-2.41319e-05
162	0x383d8e2f	4.519353e-05
163	0x3e7899e7	0.24277459
164	0x38b68e47	8.7049375e-05
165	0xb90193cc	-0.00012357457
166	0xbe786966	-0.24258956
167	0xbe787b8b	-0.24265878
168	0x36f29610	7.2296316e-06
169	0x394d5d51	0.00019585087
170	0xbe787455	-0.24263127
171	0x39173143	0.00014418834
172	0x3e7893fe	0.24275205
173	0xb8becf74	-9.098547e-05
174	0xb8b414f2	-8.58697e-05
175	0x399ada68	0.00029535894
176	0xb88301e2	-6.2469175e-05
177	0x3e784221	0.24243976
178	0xb832545c	-4.2517073e-05
179	0x3e787fe8	0.24267542
180	0x3e785059	0.242494
181	0x3e788d6d	0.242727
182	0xbe786ba6	-0.24259815
183	0xb79d5cd8	-1.8759092e-05
184	0x3e7896c8	0.24276268
185	0x386323a2	5.4154203e-05
186	0x372b75d7	1.0219831e-05
187	0x38f6dd63	0.000117714306
188	0xb851cb2e	-5.001871e-05
189	0xb954e2b7	-0.00020302353
190	0xb81b0746	-3.6961654e-05
191	0xb91199e9	-0.00013885614
192	0xb860201c	-5.3435666e-05
193	0x394fffb8	0.00019836321
194	0xbe789ce2	-0.24278596
195	0xb8041564	-3.1491174e-05
196	0xb906ad7d	-0.00012843865
197	0x36c98330	6.005539e-06
198	0xb7b1a0cc	-2.1174921e-05
199	0x383497c2	4.305668e-05
200	0x3e788949	0.2427112
201	0xb97c5f59	-0.00024068113
202	0x394df5b7	0.0001964186
203	0x389abee9	7.378852e-05
204	0x3835fa42	4.3386834e-05
205	0x3e785674	0.24251729
206	0xb9022a0a	-0.00012413427
207	0xbe7872ae	-0.24262497
208	0xbe29fa4b	-0.16599385
209	0xb8ff6b92	-0.00012179384
210	0xb8d0f227	-9.963317e-05
211	0xb91c4606	-0.00014903405
212	0xb7cf135e	-2.4685341e-05
213	0x3e7856b1	0.2425182
214	0x3e7892b7	0.24274717
215	0x380ce16c	3.358854e-05
216	0x3833cc2a	4.286707e-05
217	0xb8ed4ab8	-0.00011314958
218	0x3e7861f4	0.24256116
219	0x38e15e90	0.0001074645
220	0xbe32a1ed	-0.17444582
221	0xb91971c0	-0.00014633592
222	0x3972fcaf	0.0002317305
223	0x38c197eb	9.231254e-05
224	0x38fabc83	0.00011956042
225	0xbe78b1ed	-0.24286623
226	0xbe787e8f	-0.24267028
227	0x393d97dc	0.00018081017
228	0xbe784e79	-0.24248685
229	0x38816eb0	6.1718165e-05
230	0xb68d2862	-4.2068286e-06
231	0xb930b388	-0.00016851549
232	0x3919f9a8	0.00014684221
233	0x3e786ace	0.24259493
234	0xb8e18dd5	-0.00010755254
235	0xbe537175	-0.20648749
236	0xbe788379	-0.24268903
237	0x3e7889fc	0.24271387
238	0x3e45e628	0.19326079
239	0x37c15ae9	2.3049726e-05
240	0x3e788ae4	0.24271733
241	0x3901dd37	0.00012384808
242	0x385b1fd0	5.2243297e-05
243	0x3e787698	0.2426399
244	0xb90741bb	-0.0001289909
245	0x38c7791f	9.51162e-05
246	0xb87ba1d9	-5.9993796e-05
247	0xb84b2e52	-4.844211e-05
248	0x37d7f2eb	2.5743115e-05
249	0x386332b1	5.4168228e-05
250	0x382c3f46	4.1066924e-05
251	0xb9d58f42	-0.0004073326
252	0x36fe02c8	7.5701137e-06
253	0x3e785bd1	0.24253775
254	0x39561112	0.0002041499
255	0x38ac76a3	8.223697e-05

network.0.bias f4 [256]
0	0x3c87aed1	0.016562851
1	0x3c71da09	0.014761456
2	0x3ca40492	0.02002171
3	0x3d362767	0.04447117
4	0x3bdda83b	0.0067644394
5	0x3c5be68f	0.013421669
6	0x3d62faab	0.055414837
7	0x3cbbbc92	0.022917066
8	0x3c9a1623	0.018809384
9	0x3c84d98d	0.016217018
10	0x3d141d00	0.03616047
11	0x3b1b30c7	0.0023680197
12	0x3c38216a	0.011238435
13	0x3d15ac09	0.03654102
14	0x3d27d93e	0.040978663
15	0xbca97af9	-0.02068852
16	0xbc257ef2	-0.010101067
17	0x3d45cec7	0.0482929
18	0x3b8a7519	0.004225385
19	0x3d1eec44	0.03879954
20	0x3d28be92	0.041197367
21	0x3d10e8b7	0.035378184
22	0xbca752b0	-0.02042517
23	0x3d097fe5	0.033569235
24	0x3d3387ef	0.04383081
25	0x3d3a95cd	0.045553017
26	0x3c894ae9	0.016759353
27	0x3d487c39	0.048946593
28	0x3d9cec93	0.076623105
29	0x3c89eeab	0.016837439
30	0x3c90460a	0.017611522
31	0x3d43e3bf	0.047824617
32	0x3d535ddd	0.051603187
33	0x3ca5b88a	0.020229597
34	0x3c62f18b	0.013851534
35	0x3c9fd8e9	0.01951261
36	0xbba3a292	-0.004993745
37	0xbcad74f0	-0.021173924
38	0xbc80580b	-0.015666982
39	0x3ca98876	0.020694952
40	0x3c0d8b75	0.008639206
41	0x3d0bf6b2	0.034170814
42	0x3c0852d6	0.008320531
43	0x3c53f4b4	0.01293676
44	0x3bcbc037	0.006217982
45	0x3c1684e4	0.009186957
46	0xbc0b3fff	-0.008499145
47	0x3cd24637	0.025668247
48	0x3c66a9a8	0.014078535
49	0x3cf887de	0.030338224
50	0x3c5365b8	0.01290267
51	0x3cc3a0c9	0.02388038
52	0x3b76a362	0.0037634005
53	0x3cf14edf	0.029456554
54	0x3cadcef6	0.02121685
55	0x3d0f9bc1	0.035060648
56	0x3d23ba95	0.03997286
57	0xbcc6abbe	-0.024251815
58	0x3d7fc81d	0.062446702
59	0x3d2bbe32	0.04192943
60	0x3ce545f9	0.027987467
61	0xbabdc5d1	-0.001447851
62	0xbd0febcf	-0.035136994
63	0x3cf38a3d	0.029729003
64	0x3d33cc80	0.0438962
65	0x3cb2931a	0.02179866
66	0x3d364203	0.044496547
67	0x3d883bf0	0.06652057
68	0x3d09e5bd	0.03366636
69	0xbc943a78	-0.018094286
70	0x3c188d9f	0.009311109
71	0x3cd90235	0.02649031
72	0x3ba7d29e	0.005121543
73	0x3d49dc6f	0.049282487
74	0x3c730ac3	0.014834109
75	0x3d2224e3	0.03958596
76	0x3d0a5715	0.033774454
77	0x3d18c3ef	0.03729623
78	0x3b0c8bdc	0.0021445667
79	0x3bf6a701	0.0075272326
80	0x3d5767d3	0.05258925
81	0x3d8ebc95	0.06969563
82	0x3d759dd4	0.05996497
83	0x3c91f3a0	0.017816365
84	0x3ca836ea	0.020533998
85	0x3d360267	0.044435885
86	0x3c84c228	0.016205862
87	0x3c3cedf5	0.011531343
88	0x3d8b5848	0.06803948
89	0x3c746702	0.014917137
90	0xbc0a89dd	-0.008455721
91	0x3caddad7	0.021222515
92	0x39ca468c	0.00038581004
93	0x3c26a141	0.010170282
94	0x3d1b8235	0.037965972
95	0x3cfca8e1	0.030842246
96	0x3d1dc933	0.038521957
97	0x3d94b82e	0.07261692
98	0xbcba4969	-0.022740083
99	0x3d38aa80	0.045084476
100	0x3c54daf7	0.012991658
101	0xb917904d	-0.00014454238
102	0x3bdec1cb	0.0067980043
103	0xbb770dbd	-0.0037697398
104	0x3d513fec	0.05108635
105	0xbb013b2e	-0.0019719112
106	0x3bafe044	0.0053673107
107	0xbb86b147	-0.0041104886
108	0x3c6d538e	0.014485253
109	0x3d9779a8	0.07396251
110	0x3d700ef2	0.058608003
111	0x3ca169f0	0.019703835
112	0x3ca5861b	0.020205548
113	0x3c002bb4	0.00782292
114	0x3d9915b5	0.074748434
115	0xbca5546c	-0.020181857
116	0x3c45a2a0	0.012062699
117	0x3c0c527e	0.00856459
118	0x3d6612ed	0.056170393
119	0x3c94b606	0.018153202
120	0xbb4b7559	-0.0031045286
121	0x3cdcbb89	0.026944892
122	0x3cb711fd	0.022347445
123	0x3c87ca30	0.016575903
124	0x3bd432e2	0.0064757923
125	0x3d33f015	0.043930132
126	0x3b31b2e5	0.0027114686
127	0x3d66d92b	0.05635945
128	0xbc96a0b3	-0.018387174
129	0x3d2100d7	0.03930744
130	0x3c7c2335	0.015389253
131	0x3cae89c6	0.02130593
132	0x3d6a4d3a	0.057202555
133	0x3d1b0aa9	0.037851963
134	0x3c670e84	0.014102582
135	0x3b2ab354	0.002604683
136	0x3c869848	0.016430035
137	0x3bbd91ec	0.0057852175
138	0x3cd3d113	0.02585653
139	0x3d719d2c	0.05898778
140	0x3c74cdeb	0.014941673
141	0x3d127e9e	0.035765283
142	0x3c299e5c	0.010352697
143	0x3d279803	0.040916454
144	0xbc4b8c9e	-0.0124236625
145	0x3d519e3c	0.051176295
146	0x3c619fe3	0.01377103
147	0x3cff3774	0.031154372
148	0xbcbd156d	-0.023081506
149	0x3d487602	0.048940666
150	0xb8a36c24	-7.7925884e-05
151	0x3d1386d3	0.03601725
152	0x3d023c72	0.031795926
153	0x3d074383	0.03302337
154	0x3d1b6dd2	0.03794653
155	0x3ca17bea	0.019712407
156	0x3cec1e24	0.028822966
157	0x3d103b3a	0.035212733
158	0x3d031321	0.032000665
159	0x3cfdda02	0.030987743
160	0x3c51f6a6	0.012815153
161	0x3d73924a	0.059465684
162	0x3d0ca098	0.03433284
163	0x3cf7f6f4	0.030269124
164	0x3cda7834	0.026668645
165	0x3d0e3692	0.03472001
166	0x3cc3f069	0.023918347
167	0x3c3f0f77	0.011661402
168	0x3cfe3260	0.03102988
169	0x3d239e82	0.039946087
170	0x3bd11289	0.0063803834
171	0x3d242583	0.040074836
172	0x3c99aa6d	0.018758023
173	0x3da55a61	0.08073879
174	0x3cdd59ae	0.027020302
175	0x3d82c1af	0.063845985
176	0x3d8ea54d	0.06965122
177	0x3d397cb5	0.045284946
178	0x3d48982e	0.048973255
179	0xbb2c7f63	-0.0026321046
180	0x3d1d2072	0.03836102
181	0x3d2647d8	0.04059586
182	0x3d0ef75b	0.034903865
183	0x3daa582c	0.08317599
184	0x3d0c6caf	0.034283336
185	0x3b929419	0.004473221
186	0x3cd3a438	0.025835142
187	0x3cc21027	0.023689343
188	0x3ce39199	0.027779387
189	0x3d71c5d7	0.059026565
190	0x3c9aaad6	0.018880289
191	0x3d93e3d5	0.0722119
192	0x3d20770b	0.03917603
193	0x3c58f6a2	0.013242396
194	0x3d873486	0.06601815
195	0xbccbbd13	-0.024870431
196	0x3d655614	0.055990294
197	0xbbf896a2	-0.007586316
198	0x3d3947d5	0.04523452
199	0x3d270879	0.040779565
200	0xbac9574d	-0.0015361101
201	0x3d31572f	0.043296035
202	0x3dca19fb	0.09868237
203	0xbb177b99	-0.0023114441
204	0x3d6cf1f1	0.05784792
205	0x3cad914b	0.021187445
206	0x3c6aa420	0.014321357
207	0xbc284576	-0.010270467
208	0x3d97cf6a	0.07412608
209	0x3d10059c	0.0351616
210	0x3cac3e9d	0.02102595
211	0x3c668d61	0.014071793
212	0x3c23639a	0.009972477
213	0x3cdacfad	0.026710356
214	0x3d244b12	0.040110655
215	0x3be04c3f	0.0068450267
216	0x3cbbd047	0.022926463
217	0x3c9e27c5	0.019306073
218	0x3d1adb8e	0.03780704
219	0x3cc52ed2	0.024070177
220	0x3c46c566	0.012132024
221	0x3cf8cf83	0.030372387
222	0x3d1f0c18	0.038829893
223	0xbbab5e30	-0.005229734
224	0x3da54c91	0.080712445
225	0xba76aed6	-0.0009410208
226	0x3c1ff445	0.009762828
227	0x3c9f141d	0.01941877
228	0x3b6f8c2e	0.003655206
229	0x3cf98c6b	0.030462464
230	0x3d207a89	0.03917936
231	0xb7d3a4d0	-2.5229907e-05
232	0x3d6b5172	0.05745072
233	0xbc1aef78	-0.009456508
234	0x3cdfb5ae	0.027308311
235	0x3c1e53d2	0.009663539
236	0x3c9fa809	0.019489305
237	0x3bd9a3bd	0.0066418336
238	0x3c75306a	0.014965156
239	0xbc254564	-0.010087345
240	0x3d28ab28	0.041178852
241	0x3d57997d	0.052636612
242	0x3c6e723e	0.014553605
243	0x3ca04354	0.019563355
244	0x3ca88670	0.020571917
245	0xbccf6a99	-0.025319384
246	0x3c91b0bf	0.017784474
247	0xbc1b4c75	-0.009478678
248	0x3d0f523f	0.034990545
249	0x3cfdff0a	0.031005401
250	0x3d52c30e	0.05145555
251	0x3c9a5800	0.01884079
252	0xbcab816b	-0.020935735
253	0xbc92c2ed	-0.017915213
254	0xbc3bb517	-0.011456749
255	0x3d6b6814	0.057472304

network.2.weight f4 [192, 256]
0	0x3d86986e	0.065720424
1	0xbdd1d57d	-0.10245798
2	0x3d08e563	0.033421885
3	0x3cae1c00	0.021253586
4	0x3e034048	0.1281749
5	0x3d9935d9	0.07480974
6	0x3c3820ec	0.011238318
7	0xbe2d1591	-0.16902758
8	0xbc9a5d37	-0.018843276
9	0xbca80be4	-0.020513482
10	0xbcfd4997	-0.03091888
11	0xbd32ba46	-0.043634675
12	0xbc9f801c	-0.019470267
13	0x3db7159e	0.0893967
14	0x3d16a4ec	0.036778376
15	0xbd14afd6	-0.036300503
16	0xbd8629a1	-0.06550909
17	0x3d0a2d1c	0.033734426
18	0xbc99eee0	-0.018790662
19	0x3bb2d55f	0.0054575647
20	0xbca1d206	-0.019753467
21	0x3c373da6	0.011184132
22	0x3d2cd1ac	0.042192146
23	0xbe0e754b	-0.13911931
24	0xbdede751	-0.11616386
25	0x3dc9792b	0.09837564
26	0x3d0e62f7	0.03476235
27	0xbcb5a916	-0.022175353
28	0x3d321806	0.04347994
29	0xbe05eb52	-0.13078049
30	0x3d57ddec	0.052701876
31	0x3d867a1b	0.065662585
32	0x3d88ab6c	0.06673321
33	0xbd2bc3ca	-0.041934766
34	0x3d2a3709	0.041556392
35	0xbd352c94	-0.044231966
36	0x3da0c2f9	0.07849688
37	0xbdb6d0c6	-0.08926539
38	0xbe023ff4	-0.12719709
39	0xbc324422	-0.010880502
40	0xbd9f77e2	-0.07786538
41	0x3cc36ff9	0.023857104
42	0x3dca2a75	0.09871379
43	0x3cc89d9f	0.024489222
44	0x3d1f0f5e	0.038833015
45	0xb6497280	-3.0017982e-06
46	0x3d3cef27	0.04612651
47	0x3bfc0e4e	0.007692135
48	0xbe068156	-0.13135275
49	0xbce450ab	-0.027870497
50	0x39b4a722	0.000344568
51	0xbccef20a	-0.025261898
52	0x3cc07f8c	0.02349832
53	0xbddd7610	-0.10813534
54	0xbd9a5dda	-0.07537432
55	0x3e09d0cf	0.1345856
56	0x3dcd12b3	0.10013332
57	0xbda3e544	-0.08002713
58	0xbe3d9035	-0.18512042
59	0x39fa3204	0.0004772098
60	0x3d04de0e	0.03243833
61	0xbde0a6a1	-0.10969282
62	0x3cf83e32	0.030303095
63	0x3b409e13	0.0029391095
64	0xbe176745	-0.14785488
65	0xbd620af7	-0.05518624
66	0x3dc2f37a	0.09519096
67	0xbcae07ae	-0.021243896
68	0x3adfc4aa	0.001707216
69	0x3dd822be	0.105535015
70	0xbd6ba0d8	-0.05752644
71	0x3deec456	0.11658542
72	0x3e193237	0.14960562
73	0x3da4cd98	0.080470264
74	0xbdb4fbfc	-0.08837125
75	0x3b669431	0.0035183544
76	0x3e0da8bc	0.13833898
77	0xbc4b721a	-0.012417341
78	0x3ca758c1	0.020428063
79	0xbce13455	-0.027490774
80	0x3d086663	0.03330077
81	0xbd8605bf	-0.06544065
82	0xbbf44a0f	-0.0074551175
83	0xbd3a76f2	-0.04552359
84	0x3d973e2e	0.07384907
85	0x3e5e5807	0.21713267
86	0x39726944	0.00023118133
87	0xbaf883cd	-0.0018960178
88	0x3da1e4ad	0.079049446
89	0xbd61d2bf	-0.055132624
90	0xbd874698	-0.066052616
91	0xbc1babef	-0.009501441
92	0x3d2f7ab7	0.04284164
93	0x3db22c8a	0.086999014
94	0x3e224391	0.15846087
95	0xbda0f49b	-0.07859155
96	0x3e258634	0.16164476
97	0x3e273baf	0.16331361
98	0xbc4e07f9	-0.012575143
99	0x3ce15217	0.027504964
100	0x3e399607	0.18123637
101	0x3e494867	0.19656526
102	0x3dcb7e8a	0.09936245
103	0x3d01ed9b	0.03172074
104	0xbd54cbdf	-0.05195224
105	0x3d27c26a	0.040956892
106	0xbd2b4208	-0.04181102
107	0xbd05c223	-0.032655846
108	0x3c36139b	0.011113073
109	0x3c3ef6d4	0.011655528
110	0xbddf3f5c	-0.10900757
111	0x3db0b7e2	0.08628823
112	0xbdbb1dd5	-0.091365494
113	0x3ceda37c	0.02900862
114	0xbd8742ad	-0.06604514
115	0x3bf7ade2	0.0075585702
116	0x3c1702d4	0.009216983
117	0x3e1ce420	0.15321398
118	0xbd8e14d2	-0.06937565
119	0x3d1d0fe2	0.038345225
120	0x3da3777d	0.07981775
121	0x3d5f834b	0.05456857
122	0xbcb6b8a0	-0.022304833
123	0x3e311939	0.17294778
124	0x3d4c2ad5	0.049845535
125	0xbd004e57	-0.03132471
126	0x3dbbf699	0.09177894
127	0x3ca07e00	0.019591331
128	0xbda5f493	-0.081032895
129	0xbd03af4b	-0.032149594
130	0x3de8cc36	0.11367075
131	0xbc8e0da9	-0.017340498
132	0xbdd7341a	-0.105079845
133	0x3dc9dae3	0.098562025
134	0xbd2c0473	-0.04199643
135	0x3cf33d53	0.029692328
136	0x3d54717b	0.051866036
137	0x3dbc75d1	0.09202159
138	0xbc764a15	-0.015032311
139	0x3b7896b8	0.0037931632
140	0xbe0cbae5	-0.1374317
141	0xbdab289d	-0.08357356
142	0xbd6d209a	-0.05789242
143	0xbd1a8039	-0.03771994
144	0x3de0c4f0	0.10975063
145	0x3b09d834	0.0021033408
146	0xbd06f050	-0.032944024
147	0xbd28662a	-0.041113056
148	0xbd98fccf	-0.074700944
149	0xbdfd1dac	-0.12359175
150	0xbc29d720	-0.010366231
151	0x3dc229f5	0.09480659
152	0xbd7e2398	-0.062045664
153	0x3d8722b5	0.06598417
154	0x3cdd3045	0.027000556
155	0x3da1b3fd	0.07895658
156	0xbc7581ec	-0.014984589
157	0x3b9a501c	0.004709257
158	0x3bb7c673	0.005608374
159	0x3bdc98fe	0.0067321053
160	0x3d213553	0.039357495
161	0xbe17f058	-0.14837778
162	0x3da8ad23	0.08236148
163	0x3d59946e	0.05312007
164	0xbda0e0ed	-0.07855401
165	0xbd374b97	-0.044749822
166	0x3d6f4d45	0.0584233
167	0xbd44a99e	-0.048013322
168	0x3d054423	0.032535683
169	0xbc9c219e	-0.019058999
170	0xbb2c2676	-0.0026268042
171	0x3de5a1bc	0.11212489
172	0xbc4c80dc	-0.012481894
173	0x3de5f4c0	0.11228323
174	0x3dcc9e6e	0.099911556
175	0x3d83ae1f	0.06429695
176	0x3d55f664	0.05223693
177	0xbc8de51e	-0.017321166
178	0xbd96ef8c	-0.07369909
179	0xbdf6fbd9	-0.12059755
180	0xba5f9d93	-0.0008530255
181	0x3dc6c1a1	0.097049005
182	0xbd8362ac	-0.064153045
183	0x3e51ebd5	0.20500119
184	0x3d422b67	0.047404673
185	0xbd8859dc	-0.06657764
186	0xbc600fea	-0.013675669
187	0x3cabec50	0.020986706
188	0xbde62cad	-0.1123899
189	0x3debf19e	0.11520694
190	0x3e17d641	0.14827825
191	0xbc6ee8d8	-0.014581881
192	0x3d1166e8	0.03549853
193	0xbcdeae5f	-0.027182756
194	0xbaa91980	-0.0012901276
195	0xbd7d4788	-0.061835796
196	0x3d1f2c48	0.03886059
197	0xbcb80e7a	-0.02246784
198	0x3d4342c4	0.047671095
199	0x3e454e21	0.19268085
200	0x3d959a06	0.07304768
201	0xbc9564d6	-0.018236559
202	0xbd97b10d	-0.07406817
203	0xbc92c03c	-0.01791393
204	0xbd996235	-0.07489435
205	0xbe0e295e	-0.13882968
206	0xbe47ca3c	-0.1951074
207	0xbd2d817d	-0.042359818
208	0x3c8a10bb	0.01685368
209	0xbdde98c9	-0.10868985
210	0xbcb00d93	-0.021490848
211	0x3cd8de10	0.026473075
212	0x3dbc3327	0.09189444
213	0x3d186740	0.037207842
214	0x3a087048	0.00052047195
215	0xbba072f5	-0.0048965164
216	0xbcaa74b7	-0.020807607
217	0xbc804859	-0.015659498
218	0x3c395e1f	0.011313944
219	0xbc4de400	-0.0125665665
220	0x3c99fd18	0.018797442
221	0x3d17a0b5	0.037018497
222	0xbd496314	-0.049166754
223	0xbcc8cc6b	-0.024511537
224	0xbd629a30	-0.055322826
225	0x3e192b31	0.14957882
226	0xbbe5f2c6	-0.0070174662
227	0x3c9c8812	0.019107852
228	0x3d88df04	0.06683162
229	0xbd99cf7f	-0.0751028
230	0x3d89034e	0.066900834
231	0x3db963f7	0.0905227
232	0x3d85a15e	0.06524919
233	0x3c4d3966	0.012525892
234	0xbc17ec52	-0.009272652
235	0xbdc1b056	-0.094574615
236	0xbd07721d	-0.03306781
237	0x3d77c033	0.06048603
238	0xbafae7e4	-0.0019142595
239	0x3c8624f9	0.016375052
240	0x3d73808e	0.05944877
241	0x3da3e8f8	0.0800342
242	0xbceab0ab	-0.028648695
243	0xbe0d8f79	-0.13824262
244	0xbd2da72f	-0.042395767
245	0xbd882bb3	-0.0664896
246	0xbd17e87a	-0.03708694
247	0x3e549fb7	0.20764051
248	0x3e13c390	0.1443007
249	0xbde34b93	-0.11098399
250	0x3cff3567	0.031153394
251	0xbd1556dd	-0.036459792
252	0x3cd406ba	0.025882114
253	0xbc389cc7	-0.011267847
254	0x3d405feb	0.046966475
255	0xbdf4905b	-0.11941596

network.2.bias f4 [192]
0	0x3c8483cc	0.016176127
1	0x3c8b4532	0.017000768
2	0x3b552640	0.003252402
3	0x3cebb470	0.028772563
4	0x3cb6c526	0.022310805
5	0x3abb107c	0.001427188
6	0x3bbe8f1f	0.005815401
7	0x3c86f464	0.016473956
8	0x3c1f8047	0.009735174
9	0x3c4f3bad	0.012648505
10	0x3c008545	0.007844274
11	0x3ca7cdfe	0.020483967
12	0x3b01aa9c	0.001978553
13	0x3cc589bd	0.02411353
14	0x3d89f5b2	0.06736316
15	0xbaa47814	-0.0012547993
16	0xb9dd743c	-0.00042239006
17	0x3c80b9c7	0.015713586
18	0x3b53cfa0	0.00323198
19	0x3c7a21d2	0.015266852
20	0x3c8254a8	0.015909508
21	0x3d00a3f8	0.031406373
22	0x3c2f5738	0.010701947
23	0x3bed052a	0.0072332816
24	0x3c3e9904	0.011633161
25	0x3cbf65ec	0.02336403
26	0x3c8cf6d2	0.017207537
27	0x3ceedad1	0.029157074
28	0x3a90e538	0.0011054641
29	0x3d23cf1e	0.039992444
30	0xbb879c5e	-0.0041385135
31	0x3d4f375d	0.050589908
32	0x3a3d976f	0.0007232343
33	0x3c8a4a67	0.01688118
34	0x3cf46810	0.029834777
35	0x3bfed4d4	0.007776836
36	0xbc252cda	-0.010081494
37	0x3d256e93	0.040388655
38	0x3c577fe7	0.013153053
39	0x3c8440f4	0.016144253
40	0x3cac48e8	0.021030858
41	0xbb419cca	-0.0029542916
42	0x3ccb149d	0.024790103
43	0x3b482373	0.0030538708
44	0x3cceae0f	0.025229482
45	0x3cfe033e	0.031007405
46	0x3cffb757	0.031215353
47	0x3d32975c	0.04360138
48	0x3bb6a3d6	0.00557373
49	0x3cc87a92	0.024472509
50	0xbb9cf635	-0.0047900924
51	0x3cb8a95f	0.0225417
52	0x3d341b2c	0.043971226
53	0xbb049144	-0.0020228187
54	0x3cba1728	0.02271612
55	0x3bef17e5	0.0072965496
56	0x3c36db5e	0.0111607
57	0x3c98b188	0.018639341
58	0xbb187d83	-0.002326817
59	0x3c697889	0.014249929
60	0x3c62e24b	0.013847898
61	0x3aa3240c	0.0012446656
62	0x3d1ed904	0.03878118
63	0x3d4feb93	0.05076177
64	0x3cafccd1	0.021459969
65	0x3cb21300	0.021737576
66	0x3c0f7ada	0.008757317
67	0x3c2eeb7f	0.010676264
68	0xbb65f596	-0.0035089008
69	0x3d05ca43	0.032663595
70	0x3ce24301	0.02761984
71	0x3ca0c3af	0.01962456
72	0x3ce415de	0.027842458
73	0x3c2551e2	0.010090323
74	0xbc7d26ee	-0.015451176
75	0xbb3e9a95	-0.0029083837
76	0x3d06655f	0.03281152
77	0x3cd5e674	0.026110865
78	0x3cac35be	0.02102172
79	0x3d40b631	0.04704875
80	0x3d3bc53f	0.045842405
81	0xbc8d340c	-0.017236732
82	0x3c9c388f	0.019069938
83	0x3d05c3dc	0.03265749
84	0x3c18fbc8	0.009337373
85	0xbae949c6	-0.0017798475
86	0x3c940417	0.018068356
87	0x3d060ea4	0.032728806
88	0x3c64eef2	0.013972985
89	0x3c6843b7	0.014176301
90	0x3bdd1952	0.006747403
91	0x3c4c1e4e	0.012458397
92	0x3ccc0771	0.024905892
93	0x3c91e17f	0.01780772
94	0x3c1ba451	0.009499625
95	0xbca34ac1	-0.019933106
96	0xbb76f22b	-0.0037680964
97	0x3c9da816	0.019245189
98	0x3cc09ae7	0.023511363
99	0x3cdfb2dd	0.027306968
100	0x3d17f1e8	0.037095934
101	0x3bfd4d72	0.0077301795
102	0x3c862d0d	0.016378904
103	0xbb148a0a	-0.0022665286
104	0x3c6e4463	0.014542672
105	0x3bdf426b	0.0068133376
106	0x3d2e1072	0.042496152
107	0x3ca8f399	0.020623969
108	0x3cb212d8	0.021737501
109	0x3c649778	0.013952129
110	0xbca55b3c	-0.020185106
111	0xbbc5b9dd	-0.0060341195
112	0x3c33ab42	0.010966124
113	0x3c0f26a0	0.008737236
114	0x3cb74681	0.022372486
115	0xbc18c032	-0.009323167
116	0x3d49c5bb	0.049260836
117	0x3c823351	0.01589361
118	0x3d3058dc	0.043053493
119	0x3bd0956e	0.0063654697
120	0x3d15d915	0.03658398
121	0xbc211f0d	-0.009834063
122	0x3c85f351	0.016351374
123	0x3cb8ef29	0.022574978
124	0x3cb9d35e	0.022683796
125	0x3d3f02af	0.04663342
126	0xbba07042	-0.0048961947
127	0xbc10c007	-0.008834845
128	0x3ce864ec	0.028368436
129	0x3cadbb01	0.021207334
130	0xbc86aec9	-0.016440766
131	0x3aec36bc	0.0018021683
132	0x3d2e8290	0.042604983
133	0x3c56100f	0.013065352
134	0x3b8d468b	0.004311388
135	0x3bdd8c48	0.0067611076
136	0x3c9229f6	0.017842274
137	0x3d3a6d81	0.045514587
138	0x3d4ff449	0.050770078
139	0x3cf35436	0.02970324
140	0x3d6a2e40	0.057173014
141	0xbad9eb42	-0.0016625898
142	0x3d0d045d	0.03442799
143	0xbb7fe234	-0.003904474
144	0xbbd9855e	-0.006638213
145	0x3ccfbfa8	0.025359944
146	0x3cefbc88	0.029264703
147	0x3c7827eb	0.015146236
148	0x3c9126bc	0.017718665
149	0x3c2f5e61	0.010703654
150	0x3cae240c	0.021257423
151	0x3ad29326	0.0016065582
152	0x3b084ffa	0.0020799623
153	0x3bc442e3	0.005989419
154	0x3d6c9b3c	0.05776523
155	0x3cfe6548	0.031054154
156	0x3c8666d0	0.016406447
157	0x3d2adb89	0.04171327
158	0x3d1d904f	0.0384677
159	0x3d2c5f73	0.042083215
160	0x3d07b275	0.033129174
161	0x3ccb5a40	0.024823308
162	0x3c734c1e	0.014849691
163	0x3d17c702	0.037055023
164	0xbaa993ba	-0.0012937703
165	0x3d32f899	0.043694112
166	0x3cd11910	0.025524646
167	0x3c9075ee	0.017634358
168	0x3b88a416	0.004169951
169	0xbad0aa9a	-0.0015919984
170	0x3cf3ff20	0.029784739
171	0x3cc50e18	0.024054572
172	0x3c8fa20c	0.017533325
173	0x3ca24b2c	0.019811235
174	0x3c807eeb	0.01568552
175	0x3d6bb5bb	0.05754636
176	0x3cd67ed2	0.02618352
177	0x3c99829b	0.018739035
178	0xbaf65980	-0.0018794984
179	0x3cb29e27	0.021803929
180	0xbc1dce98	-0.009631775
181	0x3c845b20	0.016156733
182	0x3c4db54d	0.0125554325
183	0x3cae81b9	0.021302091
184	0x3d22987a	0.039696194
185	0x3d302848	0.043007165
186	0x3cb69fe8	0.022293046
187	0x3be23cea	0.006904234
188	0x3c942f22	0.01808888
189	0x3cdb417a	0.02676462
190	0xbbdc9617	-0.0067317593
191	0x3c7c5340	0.015400708

network.4.weight f4 [128, 192]
0	0x3db13b2b	0.086538635
1	0x3e20818c	0.15674418
2	0x3d3984ab	0.045292538
3	0xbd9ec071	-0.07751549
4	0x3d379fd9	0.044830177
5	0x3d83f628	0.06443435
6	0x3e41e05d	0.18933244
7	0xbd21d72f	-0.039511856
8	0x3d8eb618	0.069683254
9	0xbda6d75c	-0.08146545
10	0xbdc0988d	-0.09404097
11	0x3e6b7deb	0.22997253
12	0x3b946e4a	0.004529749
13	0x3e01b9ff	0.12668608
14	0xbc749485	-0.014927988
15	0x3d9b5050	0.07583678
16	0x3e084346	0.13306913
17	0xbd79a937	-0.06095239
18	0x3d735898	0.05941066
19	0xbcf2d616	-0.0296431
20	0xbd2f0012	-0.042724676
21	0x3d51a00c	0.051178023
22	0x3d5f3c60	0.054500937
23	0x3d6aefd3	0.05735762
24	0xbc116bc7	-0.008875794
25	0x3d922843	0.071365856
26	0xbdde6dcf	-0.10860788
27	0xbc507161	-0.012722344
28	0xbe2f5fb8	-0.17126358
29	0x3e17d1ed	0.14826174
30	0x3da740ac	0.08166632
31	0xbe26eca3	-0.16301207
32	0x3e1826da	0.1485857
33	0xbda88155	-0.08227793
34	0x3cfa0f47	0.030524863
35	0xbab6ab4c	-0.0013936548
36	0xbcb62e04	-0.022238739
37	0x3d09fd88	0.033689052
38	0xbce850fd	-0.02835893
39	0x3e06598e	0.131201
40	0x3dc772bc	0.09738681
41	0x3d9e75f3	0.07737341
42	0x3d28fadb	0.04125486
43	0xbc8f044d	-0.017458105
44	0xbba3690f	-0.004986889
45	0x3e17897e	0.14798543
46	0xbc010304	-0.007874254
47	0xbdd8e9df	-0.10591482
48	0xbdaf1636	-0.08549158
49	0x3a2079b7	0.00061216526
50	0xbda1b496	-0.07895772
51	0xbd4ca8c6	-0.049965642
52	0xbcfb0757	-0.030643148
53	0x3c9e4e2f	0.01932439
54	0xbe1a8a6a	-0.15091863
55	0x3c89d795	0.01682643
56	0xbdaa6df2	-0.08321752
57	0x3d764925	0.06012835
58	0x3d13530c	0.03596787
59	0x3b19dc85	0.0023477387
60	0xbd175a14	-0.03695114
61	0xbe0acbc7	-0.13554297
62	0xbd553a8b	-0.052057784
63	0x3cf3c881	0.029758694
64	0x3ccaa247	0.024735583
65	0x3cd683e7	0.026185943
66	0xbd825222	-0.06363322
67	0x3d8759da	0.06608935
68	0xbe16ce53	-0.14727144
69	0x3ddb7d21	0.10717226
70	0xbd89ffed	-0.06738267
71	0x3e1f68b0	0.15567279
72	0xbd355de0	-0.04427898
73	0xb86873d8	-5.5421e-05
74	0x3d22ad89	0.039716277
75	0x3dfefc6d	0.1245049
76	0xbdc7437c	-0.097296685
77	0xbd37d775	-0.04488321
78	0xbe10e2f9	-0.14149083
79	0xbb9411d6	-0.004518728
80	0x3d683d7d	0.056699265
81	0x3e135e51	0.14391448
82	0xbcc5ab25	-0.02412946
83	0xbc405be9	-0.011740663
84	0xbe2d48c3	-0.16922288
85	0x3cb0b2d1	0.021569641
86	0x3dd7a13d	0.10528801
87	0x3cc8fd65	0.02453489
88	0x3d6b0efd	0.05738734
89	0x3d05dc3e	0.032680742
90	0xbd08526e	-0.033281736
91	0x3d674f6c	0.056472227
92	0xbd8a7967	-0.06761437
93	0x3e32f7a7	0.17477284
94	0x39ab1f16	0.00032638822
95	0xbe35c536	-0.17751011
96	0x3dcad347	0.09903579
97	0xbd0151a1	-0.031571988
98	0xbc9c93ae	-0.019113388
99	0xbdb248bb	-0.087052785
100	0x3c26768e	0.010160102
101	0xbde41be9	-0.11138136
102	0x3d57969c	0.052633867
103	0x3dee9f7f	0.11651515
104	0xbd2c8832	-0.042122073
105	0xbdb65a74	-0.08903971
106	0x3db8293a	0.08992238
107	0xbcaca203	-0.021073347
108	0xbd3df80d	-0.046379138
109	0xbe1c6e05	-0.15276344
110	0x3e2092bd	0.15680976
111	0xbb9ff869	-0.0048819077
112	0x3d43959e	0.047750108
113	0x3d25d88f	0.04048973
114	0x3d4abf55	0.049498875
115	0xbb037f66	-0.002006495
116	0x3da02cb4	0.078210264
117	0x3ddf58c4	0.109056026
118	0x3d0eb696	0.034842096
119	0x3bd137b8	0.006384816
120	0x3e1b1ef0	0.1514852
121	0x3e0246f7	0.12722383
122	0x3dcaba2a	0.09898789
123	0x3de220cb	0.11041411
124	0xbd53eb26	-0.051737927
125	0x3d8c81fd	0.06860731
126	0xbe0394b6	-0.12849697
127	0xbb1fa308	-0.0024358649
128	0x3e0a2266	0.13489684
129	0xbe5e58a9	-0.21713509
130	0x3cc71c08	0.024305359
131	0xbceb7610	-0.02874282
132	0xbce88a98	-0.0283864
133	0xbd40fb2f	-0.047114547
134	0xbe09e59c	-0.13466495
135	0x3c9ff416	0.019525569
136	0x3e215498	0.15754926
137	0xbcbe1dbd	-0.02320754
138	0xbdbf8934	-0.09352341
139	0xbe395b36	-0.181012
140	0x3d036290	0.03207642
141	0xbd1989b6	-0.037484847
142	0x3cd5949b	0.026071837
143	0x3de25e8f	0.11053192
144	0x3dada258	0.0847823
145	0x3d73805b	0.05944858
146	0x3d694bf5	0.056957204
147	0x3db6c622	0.089245096
148	0xbcff088a	-0.031132001
149	0xbd8ba490	-0.06818497
150	0x3d6a0487	0.057133224
151	0xbde9d9dd	-0.11418507
152	0xbe02e54d	-0.12782784
153	0x3e062659	0.13100566
154	0xbcaf1382	-0.021371607
155	0xbe36314f	-0.17792247
156	0x3d9c57d3	0.07633939
157	0xbdcb9d89	-0.09942157
158	0xba2d0293	-0.000659981
159	0xbd7f8656	-0.062383972
160	0x3cb704da	0.02234118
161	0xbde0f3f8	-0.10984033
162	0xbda12a27	-0.07869368
163	0xbc6c7188	-0.014431365
164	0xbdc7943a	-0.09745069
165	0xbdab1d45	-0.08355192
166	0x3d1feedf	0.039046165
167	0x3d0112ea	0.03151218
168	0x3d7beecd	0.061507035
169	0xbde78914	-0.113054425
170	0xbd05a23c	-0.032625422
171	0x3ca7a868	0.020466045
172	0xbdffb738	-0.12486118
173	0x3e58ef25	0.21184976
174	0x3c99ba6b	0.018765649
175	0xbbbafe39	-0.0057065752
176	0xbd1ed616	-0.038778387
177	0x3dc0b3a0	0.09409261
178	0xbda5eb1f	-0.081014864
179	0x3cce7a4b	0.025204798
180	0x3cd7c1e7	0.026337577
181	0x3ddaac99	0.10677452
182	0x3d864a01	0.06557084
183	0xbcdf3cc7	-0.02725066
184	0x3d8fde42	0.07024814
185	0xbe217c8f	-0.15770172
186	0x3dd71a40	0.10503054
187	0x3d2267fe	0.039649956
188	0xbd56df00	-0.052458763
189	0x3d017c27	0.03161254
190	0xbd003860	-0.031303763
191	0x3e3b7695	0.18306954
192	0x3df28393	0.11841502
193	0x3e232131	0.1593063
194	0x3e5b272c	0.21401662
195	0x3db10175	0.08642856
196	0xbdff5673	-0.12467661
197	0x3d7808d9	0.060555313
198	0x3ddadacc	0.106862634
199	0xbdaba09d	-0.08380244
200	0xbd1e6e60	-0.03867948
201	0xbd1a02ec	-0.037600443
202	0x3e0a71c5	0.13519962
203	0x3de2b86e	0.110703334
204	0xba0638b6	-0.0005120145
205	0x3a323c5a	0.0006799154
206	0xbc7fb7fa	-0.015607828
207	0x3df09d6f	0.11748778
208	0x3d8ba3c8	0.06818348
209	0x3b232ad7	0.002489736
210	0x3d7b39c5	0.06133439
211	0x3da58e7d	0.08083818
212	0xbc423444	-0.011853281
213	0xbce2804a	-0.027649064
214	0xbd34ad15	-0.044110376
215	0x3df45f01	0.11932183
216	0xbce0b005	-0.027427683
217	0xbc8ee99c	-0.017445378
218	0xbdd31557	-0.103068046
219	0xbdb0011b	-0.08593961
220	0xbd2d300e	-0.042282157
221	0xbdecc349	-0.11560685
222	0xbcba3c5f	-0.022733865
223	0xbd05663b	-0.032568198
224	0xbddcadff	-0.107753746
225	0x3d9227aa	0.071364716
226	0xbde54eaf	-0.11196648
227	0xbd3b3719	-0.045706842
228	0xbd230ae9	-0.039805327
229	0xbd1320e5	-0.035920043
230	0xbd2c4d4e	-0.04206591
231	0x3e08cf8b	0.13360421
232	0xbcc6a4d5	-0.02424852
233	0xbe1b1e22	-0.15148214
234	0xbe17964d	-0.14803429
235	0x3c02c1e7	0.0079808
236	0x3c263d6b	0.010146479
237	0x3e66639c	0.22498935
238	0xbddc028c	-0.10742673
239	0x3dd4f8b1	0.103989966
240	0xbcc046b1	-0.023471208
241	0xbe6f893b	-0.23392193
242	0x3ca7d670	0.020487994
243	0x3e3490f0	0.17633414
244	0xbc83d2cd	-0.016091729
245	0xbe08e22f	-0.13367532
246	0xbe048689	-0.12941946
247	0x3be8e2cd	0.007107115
248	0xbd9039f6	-0.07042305
249	0xbd32d445	-0.043659467
250	0xbde76b50	-0.11299765
251	0xbe88acdc	-0.2669438
252	0xbde9fc6e	-0.114251
253	0x3ddbc614	0.1073114
254	0xbd3bec2d	-0.04587953
255	0xbe378fbe	-0.17925927

network.4.bias f4 [128]
0	0x3c5f56b1	0.013631509
1	0x3b56684e	0.003271598
2	0x3d2e8f82	0.04261733
3	0x3c927413	0.017877614
4	0x3ce6c430	0.028169721
5	0x3ca84c0d	0.020544076
6	0x3ce7b662	0.02828521
7	0x3d0c266b	0.034216326
8	0xbbc2c462	-0.005943821
9	0x3c6ab326	0.014324939
10	0xbc2099f2	-0.009802328
11	0xbc581903	-0.013189557
12	0xba422304	-0.00074057304
13	0xbb0c63c9	-0.0021421781
14	0xbcd8ab5f	-0.026448904
15	0x3c97fca8	0.018553093
16	0x3c915a56	0.01774327
17	0xbc3d9fe5	-0.011573766
18	0xb9ebf42f	-0.00045004624
19	0x3c665412	0.01405813
20	0x3c7c2329	0.015389242
21	0xbc247873	-0.010038483
22	0xbc99a918	-0.018757388
23	0x3a4e551c	0.00078709587
24	0x3c8b4d35	0.017004589
25	0x3d3e1d83	0.046414863
26	0x3c1c88bc	0.009554084
27	0x3ac8f827	0.0015332744
28	0x3d0958ee	0.033532076
29	0x3d263910	0.040581763
30	0x3d07c971	0.033151094
31	0xbc7505d5	-0.014955004
32	0x3c1f7641	0.009732784
33	0x3b90045a	0.00439505
34	0x3be336eb	0.006934037
35	0xbb7dee27	-0.0038746686
36	0xbc6a4411	-0.014298455
37	0x3b3d486f	0.0028882285
38	0x3c8febda	0.017568517
39	0xbc78b614	-0.01518013
40	0xbca16778	-0.019702658
41	0x3cb74e63	0.022376245
42	0x3ca38866	0.0199625
43	0xbb1fda2a	-0.002439151
44	0x3c3ca7d8	0.011514626
45	0x3d4aba2c	0.049493954
46	0xbc81b366	-0.015832614
47	0xbb6493fa	-0.003487824
48	0x3c01c971	0.0079215625
49	0x3b9620ea	0.0045815604
50	0xbcc132dd	-0.023583824
51	0x3cc81810	0.024425536
52	0x3b38d58f	0.0028203463
53	0xbc446bad	-0.0119885625
54	0xbbfa05d6	-0.00763009
55	0xbc6df6aa	-0.014524141
56	0x3d1d0c1d	0.03834163
57	0x3c95558b	0.018229267
58	0x3c456bee	0.012049658
59	0xbc45cd98	-0.012072943
60	0x3b9e23e6	0.004826057
61	0x3c38aa4a	0.011271069
62	0xbcd54409	-0.026033418
63	0xbc4c75d3	-0.012479263
64	0x3c55f7cf	0.01305957
65	0x3cdf11d3	0.027230179
66	0xbca895ea	-0.020579297
67	0xbb739e7e	-0.0037173326
68	0xb880c9e4	-6.141121e-05
69	0x3cf9e448	0.03050436
70	0xbc5f640c	-0.013634693
71	0x3d05d085	0.032669563
72	0x3bf9782f	0.007613204
73	0x3c554c8f	0.013018741
74	0xbc1e3547	-0.009656257
75	0x3c0d5cf2	0.008628117
76	0xbc6ad22a	-0.014332334
77	0xbb0f6ecf	-0.0021886115
78	0x3b762130	0.0037556402
79	0x3b60f9ce	0.0034328583
80	0x3c5b8bea	0.013400057
81	0xbc97114e	-0.018440869
82	0xbc851e1e	-0.016249713
83	0x3d249b2a	0.04018704
84	0x3cf4d6be	0.029887553
85	0x3cd20f0d	0.025641942
86	0xbc122321	-0.008919508
87	0x3c1886da	0.009309495
88	0x3cf82107	0.030289186
89	0x3cf15ee0	0.029464185
90	0x3d470481	0.04858828
91	0xbb5b6379	-0.0033476038
92	0xbd06ac63	-0.032879245
93	0x3d08fd7e	0.033444874
94	0x3c2affb5	0.010436942
95	0x3c56d303	0.013111833
96	0x3c26276c	0.010141235
97	0x3d1bbc15	0.038021166
98	0xbb7b8e4d	-0.0038384378
99	0x3d1c0171	0.038087312
100	0x3d3e10bf	0.04640269
101	0x3d58d0d3	0.052933525
102	0x3d195602	0.03743554
103	0x3c6f5804	0.014608387
104	0x3d166813	0.036720347
105	0xbb344320	-0.002750583
106	0x3b6674f4	0.0035164924
107	0x3c757177	0.014980665
108	0x3c4252aa	0.011860529
109	0x3c51a416	0.012795469
110	0xbc059a83	-0.008154514
111	0x3c7c339a	0.015393162
112	0x3ca96549	0.02067818
113	0x3d2e2d3f	0.04252362
114	0xbc92d5ff	-0.017924307
115	0xbc8e6b49	-0.017385142
116	0xbc84c7f5	-0.016208628
117	0x3cd7425f	0.026276765
118	0xbc08fa72	-0.008360492
119	0xbb230806	-0.0024876609
120	0x3d2865d4	0.041112736
121	0xbca39dc5	-0.019972691
122	0x3bb8a629	0.005635042
123	0x3b2038f1	0.0024448002
124	0xbc55cdbd	-0.01304954
125	0x3c94be50	0.018157154
126	0x3cc82801	0.024433138
127	0x3ca22781	0.019794228

network.6.weight f4 [39, 128]
0	0xbe00074e	-0.12502787
1	0x3d0f886c	0.03504221
2	0xbe5dc8f1	-0.21658684
3	0xbd93f555	-0.07224528
4	0x3b20f5d8	0.0024560597
5	0xbc0a02af	-0.008423491
6	0xbd99d07e	-0.0751047
7	0xbe07c238	-0.13257682
8	0xbd99d1ec	-0.075107425
9	0xbd74b20c	-0.05974011
10	0xb8135636	-3.512782e-05
11	0x370530e0	7.938797e-06
12	0xbe08a79c	-0.13345188
13	0xbe8825bd	-0.26591292
14	0x38869ac5	6.418446e-05
15	0xbe46face	-0.19431612
16	0x3b8c9373	0.0042900383
17	0xb99c97a2	-0.00029867614
18	0xbd213348	-0.039355546
19	0xbe46c224	-0.19409996
20	0xbe410e11	-0.18853022
21	0xbd8f8f77	-0.070097856
22	0x376f27de	1.4254792e-05
23	0x3ca6851e	0.020327147
24	0xbcd63850	-0.026149899
25	0xbea46a03	-0.3211213
26	0xbe782992	-0.24234608
27	0x3d2b7d21	0.04186738
28	0xbe832cb6	-0.2562005
29	0x3e65f071	0.22455002
30	0xbdbf3718	-0.0933668
31	0x3875fdc6	5.8648897e-05
32	0xbd8fd873	-0.07023706
33	0xbdf6eaee	-0.12056528
34	0xbdcea1ad	-0.10089431
35	0x3e2c5c42	0.16832069
36	0x3d3b7d4f	0.0457738
37	0xbd914c22	-0.07094599
38	0xbdabef65	-0.0839527
39	0xbe072a6b	-0.13199775
40	0x3d7228f8	0.059121102
41	0xbea7e0b2	-0.32788616
42	0xbdd3dbf8	-0.1034469
43	0xbe6fa119	-0.23401298
44	0x3e08109a	0.13287583
45	0xbdebc13b	-0.11511465
46	0x3d70d745	0.058799047
47	0x3dbe568c	0.09293851
48	0xbdc793d1	-0.097449906
49	0x3e27be88	0.16381276
50	0xb715e2ba	-8.933881e-06
51	0xbeacbd38	-0.33738112
52	0xbcab3fc3	-0.020904427
53	0x3e4b8060	0.1987319
54	0x3cba0cb9	0.022711145
55	0xbb28f34b	-0.002577978
56	0xbddfe8d9	-0.10933084
57	0x3d96c502	0.07361795
58	0xbe2f4a5c	-0.1711821
59	0x3d5952c8	0.053057462
60	0xbe22aeb7	-0.15886961
61	0xbe32ab89	-0.17448248
62	0x3de326c1	0.11091376
63	0xbd46346e	-0.048389845
64	0x3b9ef91d	0.004851474
65	0xbdd4ec2f	-0.10396611
66	0x37f606e8	2.9328701e-05
67	0xbe73227b	-0.23743622
68	0x3bdda9a6	0.0067646084
69	0xbe063e50	-0.13109708
70	0xbe6cc343	-0.23121361
71	0xbeaed8a2	-0.34149653
72	0xbe33eac8	-0.1757003
73	0xbbf2e06a	-0.007412006
74	0x36423740	2.8940412e-06
75	0x3c89fbc6	0.016843688
76	0xbd09ad69	-0.033612642
77	0x3d978813	0.07399001
78	0xbde39e72	-0.111142054
79	0xbe78006b	-0.2421891
80	0xbe6e4860	-0.23269796
81	0xbe10dbc4	-0.14146334
82	0x3d2585c3	0.04041077
83	0xbdae955e	-0.08524583
84	0xbe1b6978	-0.15176952
85	0xbc291678	-0.010320298
86	0x38bcd988	9.005057e-05
87	0xbd84c099	-0.064820476
88	0xbdc2a598	-0.09504241
89	0x3ce6ab76	0.02815793
90	0xbe30284f	-0.17202877
91	0xbc223d36	-0.009902289
92	0xbe12e282	-0.14344218
93	0xbdf4bd08	-0.11950117
94	0xbe04703f	-0.12933443
95	0xbcd1f839	-0.025631057
96	0x3d2014e4	0.039082423
97	0xbe2babcf	-0.16764759
98	0xbd33142e	-0.043720417
99	0xbd23690b	-0.0398951
100	0xbd8c1d8f	-0.06841575
101	0xbec34dab	-0.38145193
102	0xbe4f0435	-0.20216449
103	0xbe58b8b5	-0.2116421
104	0xbe959697	-0.29216453
105	0x3e44fc97	0.1923698
106	0xbc96c6df	-0.018405376
107	0xbd98f781	-0.074690826
108	0xbe72265d	-0.23647447
109	0x3b204190	0.002445314
110	0x3d696109	0.056977306
111	0xbe709df5	-0.23497756
112	0xbe09e88e	-0.13467619
113	0xbc97c6b5	-0.018527368
114	0xbd41923e	-0.047258608
115	0xbd848187	-0.06470018
116	0xbd61cd17	-0.05512723
117	0xbe1923f8	-0.14955127
118	0x3e13557d	0.1438808
119	0xbe77a632	-0.24184492
120	0x3e6f42c4	0.23365313
121	0x3e45c95a	0.19315091
122	0xbe41c44a	-0.18922535
123	0x3e073bbe	0.13206384
124	0xbd92f3c5	-0.071754016
125	0x3e126234	0.14295274
126	0xbe4c73ab	-0.19965999
127	0xbe6653f8	-0.22492969
128	0xbc07ab58	-0.008280598
129	0xbe1cfc3d	-0.15330596
130	0xbdfe558f	-0.12418663
131	0x3d12577b	0.03572796
132	0x3e011b32	0.1260803
133	0xbb5a8c83	-0.0033347912
134	0x3df4184d	0.119186975
135	0xbd1c699b	-0.03818665
136	0xbd0dce94	-0.034620836
137	0xbe4f7ae9	-0.2026173
138	0xbe749866	-0.2388626
139	0xb851b074	-4.9993818e-05
140	0x3e14f533	0.14546661
141	0x3c1c8503	0.009553197
142	0x3e6fe124	0.23425728
143	0x3d8eb165	0.06967429
144	0x3cd98b9b	0.026555827
145	0xb87d271b	-6.035632e-05
146	0x3e0decb0	0.1385982
147	0x3c49d46b	0.012318711
148	0xbd87f4c8	-0.06638485
149	0x3bdd8803	0.0067605986
150	0x3cb07bbf	0.021543382
151	0x3d5816c4	0.052756086
152	0x3e6a65ae	0.2289035
153	0x3e4dd52c	0.2010085
154	0xbcd4ad44	-0.025961526
155	0xbd42666a	-0.04746095
156	0xbb988c5f	-0.0046554054
157	0x3cbc203a	0.022964586
158	0x3cb41b65	0.021985719
159	0x3cdc7bb2	0.026914451
160	0xbd9b93b2	-0.0759653
161	0x3dd2b6f9	0.102888055
162	0xbd1bb2a3	-0.038012158
163	0xbdd20b54	-0.10256067
164	0xbe21dca1	-0.1580682
165	0xbe484e13	-0.19561033
166	0xbdb07fa4	-0.086180955
167	0xbd527287	-0.051378753
168	0xbcec1c3b	-0.028822055
169	0x3c9a84c5	0.018862138
170	0xbe1929b3	-0.14957313
171	0x3888cc8f	6.523087e-05
172	0xbe03cc27	-0.12870847
173	0x3e0f69e4	0.14005238
174	0x3b587656	0.0033029518
175	0xbc41122c	-0.011784118
176	0xbc602e3e	-0.0136829
177	0x3da260cc	0.07928619
178	0xbca05c0c	-0.019575141
179	0x3e2265b6	0.15859112
180	0x3dc83123	0.09774997
181	0xbd5d82cf	-0.054079827
182	0x3c49dcd2	0.012320714
183	0x3db0be96	0.086301014
184	0x3d0fad1f	0.03507721
185	0xbd316b63	-0.043315303
186	0x3e1a8793	0.1509078
187	0x3dd93d0c	0.10607347
188	0x3d833651	0.064068444
189	0xbd2bcdb1	-0.04194421
190	0xbd25d82c	-0.04048936
191	0x3e0eec1b	0.13957255
192	0xbc0840a9	-0.008316197
193	0x3e0b98ee	0.13632557
194	0xb682e188	-3.900557e-06
195	0xb822e1f8	-3.883426e-05
196	0x3d9f0a13	0.077655934
197	0x3dd8abc4	0.10579637
198	0xb93fc48a	-0.00018288396
199	0xbd102a43	-0.035196554
200	0x3e1684e8	0.14699137
201	0xbc18f9fc	-0.009336945
202	0xb8d48b26	-0.00010134866
203	0xbcb0495d	-0.021519357
204	0xbe56378c	-0.20919627
205	0x3ae8d3b8	0.0017763292
206	0xbe66204a	-0.22473255
207	0x3e98c445	0.29837242
208	0x3c21a8dc	0.009866919
209	0xbe387e11	-0.1801684
210	0xbe705cb2	-0.2347286
211	0xbe29e6f4	-0.16592008
212	0x3d878982	0.066180244
213	0x3c34eb1a	0.011042381
214	0xbe24c7fd	-0.16091914
215	0x3d0448c8	0.032295972
216	0x3d8c8c22	0.06862666
217	0x3d9f4a63	0.0777786
218	0xbd8b2549	-0.06794221
219	0xbc31d18a	-0.010853181
220	0xbd8dcc93	-0.06923785
221	0xbd46a820	-0.04850018
222	0x3c8a7c41	0.016904952
223	0x3cddc083	0.027069336
224	0x3d51fa9e	0.051264398
225	0x3dc82206	0.097721145
226	0xbdc070b2	-0.09396495
227	0x3d6e331e	0.058154218
228	0xbe248fe2	-0.16070512
229	0x3d75bed0	0.059996426
230	0xbd33de69	-0.04391328
231	0x3c9fe77e	0.019519564
232	0xbdcb02bf	-0.09912633
233	0x3da00585	0.07813553
234	0x3e99face	0.3007416
235	0x3d63da09	0.055627856
236	0xbc1d7be8	-0.009612061
237	0x3d2b363f	0.04179978
238	0xbca6d51e	-0.020365294
239	0xbdda7d86	-0.10668473
240	0x3e27c092	0.16382053
241	0x3dcc0a7a	0.09962936
242	0xbe3044cb	-0.17213742
243	0xbd926018	-0.07147235
244	0xbc03b742	-0.008039298
245	0x3e92eeab	0.28697714
246	0x3e33d123	0.17560248
247	0xb90bca5d	-0.00013331459
248	0x3e376c3e	0.17912385
249	0x3dde5955	0.108568825
250	0xbd50fd5d	-0.051022876
251	0x3e108a04	0.14115149
252	0xbe2657c6	-0.1624442
253	0xbd5596e2	-0.052145846
254	0xbd9513cd	-0.07279167
255	0xbdb6b7b7	-0.089217596

network.6.bias f4 [39]
0	0xbd73bcb5	-0.059506137
1	0x3b349b53	0.00275584
2	0x3d0a396f	0.03374618
3	0x3c40dcc0	0.011771381
4	0x3c065504	0.00819898
5	0xbca209ee	-0.019780125
6	0x3a7c703c	0.00096297613
7	0x3cc79cf5	0.024366835
8	0x3cb8313d	0.022484416
9	0xbbd93dd5	-0.0066296854
10	0xbd2ae2ac	-0.041720077
11	0xbc9a8515	-0.018862287
12	0xbd0d54b4	-0.034504607
13	0x3c12ecff	0.008967637
14	0x3be4946e	0.006975702
15	0x3d07bf4a	0.03314141
16	0xbc39ed5b	-0.011348094
17	0xbd0cdc95	-0.03439005
18	0x3c389ffd	0.011268613
19	0x3c1df1f1	0.009640203
20	0x3ba0942c	0.004900476
21	0xbb55d4cc	-0.0032628058
22	0xbcb2193c	-0.021740548
23	0x3d2920ad	0.041290928
24	0xbd45567c	-0.04817818
25	0x3c90d500	0.017679691
26	0xbd5d9507	-0.0540972
27	0xbcf151c4	-0.029457934
28	0xbd0c5334	-0.034259036
29	0xbc722bca	-0.014780948
30	0xbc9178be	-0.01775777
31	0xbcd67f16	-0.026183646
32	0xbcf1ba12	-0.02950767
33	0xbd1952e4	-0.037432566
34	0xbd28bd85	-0.041196365
35	0xbd69e103	-0.057099354
36	0xbd5280af	-0.051392253
37	0xbd706742	-0.058692224
38	0xbd44df51	-0.048064534
