Homework/HW2/results/quick_grid/run_10.pt (torch, 583917 bytes, 8 tensors)

network.0.weight f4 [256, 256]
000000 b0 8d 93 bb 88 9e 52 bd 5b 72 e0 bc 67 69 82 bd
       -0.0045029745 -0.05142072 -0.027398279 -0.0636776
000010 be 77 e0 3d c1 f4 bb 3d ca 5c 64 3d 43 ac db bd
       0.10960339 0.091775425 0.055752553 -0.10726216
000020 1a 91 06 3e e8 5e 14 3d d3 c8 ff bd 2b 49 f9 3c
       0.1314129 0.036223322 -0.12489476 0.030430397
000030 2b 68 80 bc ec 6a 55 3c 4f e3 1b 3c 0d 65 9a bd
       -0.015674671 0.01302598 0.009514644 -0.07538805
000040 7b 6f bb bd 37 1b d4 bd ac 6d ed 3d 7b c4 21 bd
       -0.091521226 -0.10356753 0.11593184 -0.03949402
000050 f5 81 02 3d 26 cb f9 bd 25 dc d7 bb 2e 3a 25 3e
       0.031862218 -0.121969506 -0.0065875226 0.16135475
000060 bf a9 86 3b e8 87 90 3d 4f ca b8 3c 2c 1e fc bd
       0.004109591 0.07057172 0.022557406 -0.12310442
000070 fc 64 93 3d eb ae ca bd 36 0b df bc c2 00 e6 bc
       0.071969956 -0.09896644 -0.027227025 -0.028076533
000080 c3 49 aa bc b8 4c 48 bd 7e 77 bb bd 48 a3 8f bd
       -0.020787125 -0.04890129 -0.09153651 -0.07013565
000090 82 42 85 3c 5c b1 07 be 42 a8 90 bc 5a d8 82 bd
       0.016267065 -0.13251251 -0.017658357 -0.06388922
0000a0 f1 aa b0 bd 99 ee a2 3c 3e c0 da 3d db 77 a6 bd
       -0.086263545 0.019889163 0.106811985 -0.08128329
0000b0 ad d0 72 bd 24 2f b6 bc 57 a7 8e 3d ff 5c 36 3e
       -0.05928104 -0.022239275 0.06965511 0.17808913
0000c0 d9 9e a5 bd db f5 0c 3d 8b a3 c1 bc 6d fc e1 bd
       -0.080869384 0.034414154 -0.023637554 -0.110344745
0000d0 9f ef 4c bc 01 f5 1f 3d b8 bd 9c 3d f9 a4 85 be
       -0.012508302 0.039052013 0.076533735 -0.26102427
0000e0 c2 3f 26 3e ee 39 de bc 5d e5 95 bc f2 ba 0a 3e
       0.16235259 -0.027127232 -0.018297845 0.13547876
0000f0 88 09 8e 3d b1 d8 23 bd 71 60 1d 3e 2f e3 6a bd
       0.06935412 -0.040001575 0.1536882 -0.057345565
000100 65 55 a7 3d ca 84 31 bd a4 d4 dd bd f9 4b 4e 3c
       0.081705846 -0.04333953 -0.108315736 0.0125913555
000110 bb 6c 49 bd 01 6c 6e bc d3 28 a6 b9 8f 18 f2 3c
       -0.04917596 -0.014552117 -0.00031692404 0.029552726
000120 1d 75 83 3d 42 4a 90 bc 42 60 75 bd 3b ed 32 3d
       0.06418822 -0.017613534 -0.05990625 0.04368327
000130 27 99 d8 3d f4 e6 db bd fb ea 8c bc 2d d9 09 bc
       0.105760865 -0.1073741 -0.017201891 -0.008413595
000140 f0 93 a9 3b 2a a9 f3 3c d3 e3 b2 bd 13 fb a4 3d
       0.005175106 0.02974375 -0.0873486 0.08055701
000150 21 d7 40 bc 2d 80 81 bd 1b da 8f bc 78 08 e3 3d
       -0.011770041 -0.06323276 -0.017560055 0.110856
000160 36 ff f9 3c 6d 65 49 bd b1 7b ff 3d 73 7d d2 bd
       0.030517202 -0.049168993 0.12474764 -0.10277834
000170 96 ec e0 3b 9b fa ab 3c bd b4 64 3c a5 71 a5 ba
       0.0068641407 0.020993521 0.013959107 -0.001262237
000180 1a bd 44 3e 07 1d 80 bc 7d 3f c8 bc 4f 91 fa ba
       0.19212762 -0.015638841 -0.024444336 -0.0019116792
000190 60 ab 2c 3d 60 a0 83 bd b8 70 17 3e 02 83 29 3c
       0.042155623 -0.064270735 0.14789093 0.010346176
0001a0 d7 be c3 3c 32 9a 13 3d c9 ac b8 3d 7e 72 60 3d
       0.02389471 0.036035724 0.09017331 0.05479669
0001b0 1a 62 6a 3c 54 80 58 bd 69 67 28 3d cf 18 4d 3d
       0.014305616 -0.05285676 0.041114245 0.050072487
0001c0 d2 df 98 bc f2 e8 12 bc de 8e 0d 3d ee 0c 26 3d
       -0.018661413 -0.008966671 0.034560077 0.040539674
0001d0 0e 32 45 3b d5 3a 6d 3d 77 b0 74 3d 16 ba 6f 3d
       0.003008965 0.057917435 0.059738602 0.058527075
0001e0 b2 2c f2 3c 57 87 7b bd 14 41 c0 bd 5e a4 71 bc
       0.029562328 -0.061408367 -0.09387413 -0.014748661
0001f0 dd d6 36 3c e1 f4 57 3d 2e 3a 45 bd de b8 8f 3d
       0.011159626 0.05272377 -0.048151188 0.070176825
000200 6e 9f 58 3e 96 dc 36 b8 ac 84 58 be 8a 96 4c 38
       0.21154568 -4.3597618e-05 -0.2114436 4.877759e-05
000210 e4 9a b0 34 e8 5b 58 36 f2 7d 4a 38 62 a1 58 be
       3.2895252e-07 3.2240005e-06 4.827785e-05 -0.21155313
000220 38 cc 5b b6 2a af a4 37 9d c1 3e b7 16 d5 a2 b8
       -3.2752414e-06 1.963189e-05 -1.1369962e-05 -7.764452e-05
000230 50 06 23 38 a3 62 c6 b7 7e 2f 74 37 c8 c1 2c b5
       3.8868107e-05 -2.364937e-05 1.4554591e-05 -6.435698e-07
000240 68 be f8 35 82 40 27 b7 36 db e1 b7 cd 95 58 3e
       1.8532855e-06 -9.968995e-06 -2.6924168e-05 0.21150894
000250 40 5e cf b7 f1 b2 d7 37 dd f2 46 3e d0 6c aa 37
       -2.4720212e-05 2.5713323e-05 0.19428582 2.0316249e-05
000260 2c 47 d5 36 da 03 24 38 4f b9 97 37 64 8e 58 3e
       6.35618e-06 3.9104234e-05 1.8086894e-05 0.21148068
000270 2a e4 4e 36 3a 8c 58 3e cb 73 04 3e c1 19 35 38
       3.08292e-06 0.21147242 0.12934797 4.3177748e-05
000280 d3 26 6a b8 6d 38 52 3e 72 71 5d 38 97 90 a9 36
       -5.5826105e-05 0.20529337 5.279616e-05 5.053425e-06
000290 15 91 58 3e 80 4e 37 38 ac ab 30 37 2a f0 e3 b7
       0.21149094 4.370371e-05 1.0530388e-05 -2.7172344e-05
0002a0 c8 85 df b6 a8 d5 e6 37 c2 5a bf b6 48 be bf 37
       -6.661492e-06 2.7517628e-05 -5.702809e-06 2.2857581e-05
0002b0 34 37 2d 38 8a a0 4f 3e 12 5a ef b7 23 98 58 3e
       4.1297826e-05 0.20276085 -2.8532962e-05 0.21151786
0002c0 c8 b5 d4 b5 41 a8 db 37 1b 0b 24 b7 b4 2f 2b 36
       -1.5848136e-06 2.6185184e-05 -9.777747e-06 2.5508753e-06
0002d0 42 39 93 b7 e3 05 82 37 b4 91 58 be 85 26 06 38
       -1.7550428e-05 1.5499949e-05 -0.21149331 3.1983964e-05
0002e0 ab f0 13 b8 f2 99 58 3e 70 5a 81 b7 b0 ca a9 35
       -3.527167e-05 0.21152475 -1.5420112e-05 1.2650471e-06
0002f0 c3 29 95 b6 13 2e 04 37 f0 cd 52 b7 76 5a 8f b8
       -4.4454077e-06 7.878541e-06 -1.2564924e-05 -6.835621e-05
000300 bd 3f ea 37 bf 27 8f b8 87 c7 53 be 47 be 52 be
       2.7924654e-05 -6.826175e-05 -0.20681582 -0.20580398
000310 6c 22 1f b8 28 96 58 3e a1 dd 2e 38 33 1f 77 b7
       -3.7940612e-05 0.2115103 4.169124e-05 -1.4729611e-05
000320 93 7b 02 3e 20 f7 69 b6 23 37 32 3e 22 c8 fd 36
       0.12742452 -3.4863551e-06 0.17403845 7.563286e-06
000330 40 c2 86 b3 58 b4 3a b7 66 b6 7a 36 64 47 d9 36
       -6.275195e-08 -1.11284535e-05 3.7359073e-06 6.475415e-06
000340 e2 bb 1c 3e ef f7 ce 37 3f 8a 58 be a4 39 82 36
       0.15306047 2.4672567e-05 -0.21146487 3.881012e-06
000350 90 4d c9 35 40 ae 6f b8 c6 90 58 3e 1a 58 3e b7
       1.4998241e-06 -5.7144323e-05 0.21148977 -1.1345395e-05
000360 3a 64 96 b7 59 30 1d b7 e0 0c 8b 35 c8 65 2b b8
       -1.7928065e-05 -9.369186e-06 1.0360054e-06 -4.086437e-05
000370 b4 72 02 37 f0 8e 54 37 1e f5 bb b7 fd d9 68 b7
       7.77531e-06 1.2669465e-05 -2.2406279e-05 -1.3879032e-05
000380 4d 57 1a 3e d6 80 f5 37 ee da 88 37 9e 76 2a b7
       0.15072365 2.926627e-05 1.631441e-05 -1.0160407e-05
000390 a2 dd 08 38 c3 95 58 be 7c 93 c1 b6 10 1f cd 37
       3.263134e-05 -0.2115088 -5.7690177e-06 2.4452369e-05
0003a0 60 88 58 3e e9 9e 08 b8 b5 ad 0b 3e ea db b4 36
       0.21145773 -3.2572923e-05 0.13640483 5.3900194e-06
0003b0 ed 8f 58 3e e4 47 8c b8 4d f2 2d b8 89 9e 10 3e
       0.21148653 -6.689111e-05 -4.1472074e-05 0.14122976
0003c0 44 65 4c 37 60 11 bd b6 70 96 58 be 65 97 58 3e
       1.2182925e-05 -5.6346616e-06 -0.21151137 0.21151502
0003d0 93 89 58 be 36 c8 51 b7 f0 dc 83 b6 10 c7 0a 35
       -0.2114623 -1.2503986e-05 -3.9298247e-06 5.169868e-07
0003e0 be 7c 06 b8 70 94 58 3e 68 78 99 35 b0 5f 91 b6
       -3.2064265e-05 0.21150374 1.1434431e-06 -4.3324762e-06
0003f0 7a 2d 4f 3e 5a 12 94 37 64 af 00 37 da 03 a1 b7
       0.20232192 1.765152e-05 7.670231e-06 -1.919449e-05

network.0.bias f4 [256]
000000 d3 7e be 3c 47 a8 36 3d f4 43 3a 3d 53 42 82 3d
       0.023253834 0.044594076 0.04547496 0.063603066
000010 53 39 4c 3a 4f b6 e5 39 63 b1 8e 3d 9d d0 28 3d
       0.00077905244 0.00043814114 0.069674276 0.041214574
000020 93 f6 df 3b 54 c8 2e 3d 04 c6 8a 3d fd 76 aa 3d
       0.006834814 0.042671517 0.0677605 0.083234765
000030 e7 a7 b5 3b 12 11 8a 3d c4 61 8b 3c d0 73 e3 3c
       0.005543697 0.06741537 0.017014392 0.027765185
000040 39 09 d2 3a 4a 16 83 3d 70 6f af 3b ee 19 20 3d
       0.0016024477 0.06400736 0.0053538606 0.03908723
000050 17 75 49 3d c3 f9 38 3d f1 75 46 3d 1b 64 16 3d
       0.04918393 0.045160066 0.04845232 0.03671656
000060 70 54 b8 3c 2c cf f8 b9 46 29 b5 3b 34 6f 91 3a
       0.0225012 -0.000474566 0.005528602 0.0011095763
000070 f7 f5 43 3d 9e fc 7f 3d 70 10 e3 39 c0 50 99 bc
       0.047841992 0.062496774 0.0004330906 -0.018715262
000080 34 ae 82 3d 5c 71 4d 3d d2 e4 9e 3d ca b5 4e 3c
       0.06380883 0.050156936 0.07758488 0.012616584
000090 d3 8d 87 3b 49 17 1a 3d f4 33 89 3c 38 69 3b 3d
       0.00413678 0.037619863 0.016748406 0.04575464
0000a0 3c 96 20 3d 4b 0f 52 3d d4 46 63 ba ad af cc 3c
       0.039205775 0.051284116 -0.0008669917 0.024986112
0000b0 f9 a6 82 3c d2 9f ca 3c dd d7 13 3c dd 23 7e 3d
       0.01594876 0.024734411 0.009023634 0.06204592
0000c0 1b 21 63 3d 3d 3b 1f 3d 14 ab 15 3d d5 7f 62 3c
       0.055451494 0.038874853 0.036540106 0.013824423
0000d0 28 87 0b 3d 6f 42 4a 3d 23 6e 68 3c 5d 72 55 3d
       0.034064442 0.049379762 0.014186415 0.05211102
0000e0 b0 0e d6 ba be 39 0f 3d ed a2 83 3c 0b d4 a9 3b
       -0.0016331282 0.034967177 0.0160689 0.005182748
0000f0 97 b0 3f 3d ff 8c 29 3d 1a 93 52 3c f2 ee 46 3d
       0.04679927 0.04139423 0.012852455 0.04856772
000100 41 68 7b 3c 59 34 30 3d e2 27 94 3d a9 6e 2a 3d
       0.01534468 0.043018673 0.072341695 0.04160944
000110 a7 b3 46 3d 4f ec 1c 3c 78 fc aa 3c 58 a6 1e ba
       0.048511174 0.009577825 0.02087234 -0.0006052009
000120 c0 8c 83 3c b6 2b dd bb 89 86 0e 3c e5 df 58 3d
       0.016058326 -0.0067495955 0.008699068 0.052947897
000130 c1 06 e0 3c 1c 1f 23 3d 41 51 b7 3c d1 f4 24 3d
       0.02734697 0.03982459 0.022377612 0.040272538
000140 3b f4 0e 3d 9c d4 70 3c ad 75 a4 3c dd 1e b8 3c
       0.034900885 0.0146991275 0.020075643 0.022475654
000150 bb 6e 1c 3d 15 38 d8 3c c3 0b 29 3d c6 ec 2f 3d
       0.03819154 0.02639393 0.041270982 0.042950414
000160 6a 46 3c 3d 4b 5d 2a 3d 64 5c 1b 3d 33 d6 38 3d
       0.04596559 0.041592877 0.037929907 0.04512615
000170 67 25 0f 3d be 9e aa bb 10 fe 85 3d 02 90 51 3d
       0.03494778 -0.005206912 0.06542599 0.051162727
000180 58 b3 8e 3d e0 de 15 39 b7 f5 72 3d 96 97 91 3d
       0.06967801 0.00014292775 0.059316363 0.07108991
000190 70 da 45 3d d0 69 05 3d ae e7 aa 3c 9c 5f 56 3d
       0.04830402 0.032571614 0.020862427 0.052337274
0001a0 a7 73 16 3c 04 5a 92 3c da 9b 4a 3b 92 91 8f 3d
       0.009182847 0.017865188 0.0030915649 0.07010187
0001b0 fa 5e 64 3d 88 4e 91 3d 71 f5 7d 3d 57 1e 58 3d
       0.05575464 0.07095057 0.06200165 0.05276331
0001c0 7e 87 66 3d b9 22 b0 3c b7 d7 46 3d e7 1b 2c 3c
       0.05628156 0.021500932 0.048545565 0.010504699
0001d0 8a 38 2d 3d a6 b4 4d 3d de 79 6c 3d ce 61 73 3d
       0.042290248 0.050221108 0.05773341 0.059419446
0001e0 65 2b 04 3c f4 27 4c 3d 73 14 32 3d d1 14 36 3b
       0.008066987 0.04984279 0.043476533 0.0027783404
0001f0 30 95 db 3c 87 63 86 3d ab a9 39 3d 72 71 9c 3c
       0.026804537 0.06561952 0.045327824 0.019097064
000200 4e 2c 89 3b 81 3f 54 3c 69 50 40 3d bf 09 24 3d
       0.0041861897 0.012954594 0.046951685 0.040048357
000210 f3 36 9c 3c 66 3c 79 3d cd b8 8f 3b c4 04 4e 38
       0.01906917 0.060848616 0.0043860436 4.9118666e-05
000220 26 58 d1 3b 6c b5 41 3c c6 78 a5 ba e5 77 18 3d
       0.006388682 0.0118230395 -0.0012624494 0.037223715
000230 7e d1 b3 3c d8 d9 c7 ba 51 de 2f 3d c2 52 f6 3b
       0.02195048 -0.0015247418 0.042936627 0.0075171897
000240 c9 0c d9 3c 66 e9 48 3d 4b ce f9 3b dc 64 df 3a
       0.026495354 0.04905071 0.007623469 0.0017043608
000250 4f 1c 48 3d eb d4 a9 3c 69 d8 23 3d 18 6c 87 3d
       0.048855122 0.02073141 0.040001307 0.06612414
000260 b0 39 0d 3d 2b ce 3e b8 41 3c 2e 3d 93 87 4e 3d
       0.034478843 -4.549154e-05 0.04253793 0.050422262
000270 60 44 83 3b 7b 70 90 3d 74 32 96 3c 5f c4 38 3d
       0.0040059537 0.07052704 0.018334605 0.04510915
000280 7f cd eb 3c 23 fd 65 3d 17 a7 48 3d 9c 66 ae 3c
       0.028784512 0.056149613 0.048987474 0.021289162
000290 bb bb ed 3c 57 18 be 3c 5d 85 16 3c 5c 25 21 3d
       0.02902018 0.023204966 0.00918707 0.03934227
0002a0 d1 1d ca 3c e0 08 12 3d 71 4b 63 3c 78 1b 3b 3d
       0.02467242 0.035652995 0.013872967 0.045680493
0002b0 2f 6f 08 3d d6 e4 2e 3c 51 58 d1 3c 70 39 6f 3d
       0.033309158 0.010674676 0.025554808 0.058404386
0002c0 86 20 90 3c 6d 75 19 3d b2 85 22 3c 85 42 11 3d
       0.017593633 0.0374655 0.009919571 0.03546383
0002d0 98 0c 5c 3c 59 01 c4 3c 9d 61 15 3d 07 cb e9 3b
       0.013430737 0.023926424 0.036470044 0.0071347984
0002e0 e3 05 64 3d d8 c0 2f 3d a7 47 b6 3b a8 01 67 3d
       0.055669677 0.04290852 0.005562741 0.056398064
0002f0 0b 4e 7e 3c e1 f0 4a 3d 84 c9 cf 3c bd 3f 3c 3c
       0.015521537 0.049546126 0.025364645 0.011489806
000300 cb 9f 36 3d 5b 8a 6d 3d 9a 74 8b 3d 1c aa cb 3c
       0.044585984 0.057993274 0.06809349 0.024861388
000310 21 ee 28 3a d2 a6 11 ba ee de 8d 3c 95 84 51 3d
       0.00064441754 -0.0005556169 0.017318215 0.05115183
000320 c9 49 97 3d c1 34 ae 3d 09 f0 03 3c fc 88 84 3d
       0.0738712 0.08506156 0.008052834 0.0647144
000330 7f 85 67 3d 73 20 5b 3d 0e b2 b0 3c 25 f7 88 3d
       0.056523796 0.053497743 0.021569278 0.06687764
000340 ec e2 4c 3d e3 8b a1 3c 32 8a 14 3d e9 e0 a5 3c
       0.050021097 0.019720023 0.036264606 0.020248847
000350 8d ff af 3c db a0 ed 3c bb e7 42 3d a6 7d af b9
       0.02148416 0.029007366 0.047584277 -0.00033472216
000360 28 e2 4d 3d 38 1c 02 3d cf e5 85 b7 93 d8 70 3d
       0.050264508 0.031765193 -1.5961848e-05 0.05880029
000370 16 ca 87 3d e7 79 a0 39 75 e3 b6 3c 54 e4 de 3c
       0.06630342 0.00030608402 0.022325257 0.027208485
000380 17 d9 39 3d 91 99 2d 3d 1e 47 ca 3c be 59 11 3d
       0.04537305 0.04238278 0.024692114 0.035485975
000390 e9 31 a9 3b e1 9c 86 3d db fb 1d 3d d2 60 b1 3c
       0.0051634205 0.06572891 0.038570266 0.021652613
0003a0 6d 98 43 3d 7f 43 60 3d b0 02 2f 3d 79 ea 5e 3d
       0.047752786 0.05475187 0.042727172 0.05442283
0003b0 11 ee bc 3b d8 8e 6c b6 93 60 dd 3c e0 7d 00 3d
       0.0057656844 -3.5249886e-06 0.02702359 0.031370044
0003c0 15 dd 47 3b f1 66 7b 3c 6a 74 39 3d 85 fb a2 3c
       0.0030496765 0.015344367 0.045277037 0.019895324
0003d0 28 81 54 3c c7 eb c4 3c 21 cc d6 3c 65 b9 ef 3c
       0.012970246 0.024038209 0.026220383 0.029263208
0003e0 74 8d 38 3d 09 92 29 3d 9d 26 11 3d 5c 8e e8 3c
       0.045056775 0.041399036 0.035437215 0.028388195
0003f0 9b a9 0b 3d 8c b9 5b 3c 54 c5 51 3d db f2 3d 3d
       0.034097295 0.013410937 0.051213577 0.046374183

network.2.weight f4 [192, 256]
000000 47 74 01 bd 7b 28 81 bc eb 23 c6 bc b0 1f 2a bd
       -0.03160503 -0.015766373 -0.024187049 -0.041534126
000010 7c d8 a9 3c cf 61 84 3d 6b 26 85 3d b1 e4 30 bc
       0.02073311 0.06463968 0.06501468 -0.010796712
000020 18 74 6d 3c 53 6e e2 3d a6 b0 45 3c d3 14 3b 39
       0.014493011 0.11056199 0.012066042 0.00017841467
000030 dd cf 04 bc ae a0 7d 3d 97 33 4d bd 24 1d 16 3e
       -0.008106199 0.061920814 -0.050098028 0.14659554
000040 f0 a3 46 bb 85 4e 3f 3c 8d 6a 3a bd 26 54 4e 3e
       -0.0030310117 0.011676435 -0.04551177 0.20149288
000050 ad f8 e8 bc 23 5d 89 bd 4a 35 ca bd e4 ac 82 3c
       -0.02843889 -0.067072175 -0.09873445 0.015951581
000060 c5 9e d4 3c e0 1a 35 be e3 d2 83 3c 8d f3 9e 3d
       0.025954613 -0.17686033 0.01609177 0.077612974
000070 c6 59 a9 3b 84 1b 75 bd 61 ff db 3d 2b 29 4e bc
       0.0051681725 -0.059840694 0.10742069 -0.012583057
000080 a9 9d 19 bb 7b 90 67 ba 30 81 06 3d 85 f2 97 bd
       -0.002343992 -0.000883348 0.032838047 -0.07419304
000090 91 51 e5 bc 38 90 5e bc 51 f3 4a bc 24 be 7d 3c
       -0.027992995 -0.013584189 -0.012387113 0.015487228
0000a0 e5 e7 f2 3d 83 0d b2 bb 76 d0 9e 3d 35 3c 5f bc
       0.118606366 -0.0054337396 0.077546045 -0.013625194
0000b0 62 58 ed 3b b4 a7 e8 3b b9 09 0e 3d 52 d4 64 bd
       0.007243202 0.00710007 0.03467724 -0.055866547
0000c0 72 e9 1a bd e5 0e cc 3c 15 14 0d 3d b2 68 e1 bc
       -0.037820287 0.024909446 0.03444298 -0.027515743
0000d0 6d d7 8e 3b a8 2f 5b 3d 6f 1c 2d bd c3 4a ef bd
       0.004359177 0.053512245 -0.042263445 -0.116841815
0000e0 5c eb 2e bd 2d a0 15 bd 8a b3 c4 bd bd 26 b1 3a
       -0.042704925 -0.03652971 -0.09604557 0.0013515573
0000f0 e0 ac 83 bd 32 a9 f1 3c b9 ba 2f bc 62 ec b5 3d
       -0.06429458 0.029499624 -0.0107256705 0.08882977
000100 85 4e 8b bd 56 7f b3 bd 4d 32 f4 3c 27 a0 94 3d
       -0.06802086 -0.08764522 0.029809142 0.07257109
000110 b5 97 f2 bd a2 da 23 3e 0f 01 e4 bb ae c9 04 3e
       -0.11845342 0.1600137 -0.006958134 0.1296756
000120 7c 0e fc 3d 5c 80 79 3d a6 53 f6 bc de 02 cb 3d
       0.1230745 0.06091343 -0.030069184 0.09912656
000130 0d 4e 5f bd 9a 55 a0 bc de 7a f2 bd 57 e2 b5 bd
       -0.054517794 -0.019572068 -0.11839841 -0.088810615
000140 74 a2 32 be 3f 4f 0f 3e f8 4b b4 3d b6 60 09 3d
       -0.17444783 0.13995074 0.088035524 0.033539496
000150 ad 40 d7 3d d9 df ba 3c 24 d8 da ba 01 7e a9 bc
       0.10510383 0.022811817 -0.0016696495 -0.020689966
000160 e6 80 34 3e 10 06 a6 3b 51 0f 99 bc f2 37 3c 3d
       0.17627296 0.0050666407 -0.018684061 0.04595179
000170 d4 1c 22 3e 52 bc 94 3d 0a 45 0b 3d 51 bd f8 3c
       0.1583131 0.07262482 0.034001388 0.03036371
000180 9c 2f 8e bd d0 47 ba 3d f6 26 c4 3d d0 82 c8 3c
       -0.069426745 0.090957284 0.09577744 0.024476439
000190 e0 1a a3 bc ce 3a 30 3d ce 27 f8 3d 5c 5a e6 3c
       -0.019910276 0.04302483 0.12116967 0.028119259
0001a0 c0 85 07 bb 21 14 45 3a 4d 0b 24 bc a9 75 ae bd
       -0.0020679086 0.0007517953 -0.01001246 -0.08518536
0001b0 c6 1b ba bc a3 5c c4 bc 3f eb 33 bd 1d 71 c9 bc
       -0.022718322 -0.023969954 -0.04392552 -0.02459007
0001c0 47 03 e0 bc 43 c5 9d 3d 0d 97 83 bd 4b bf 6c 3d
       -0.027345313 0.0770364 -0.06425295 0.05779962
0001d0 32 c2 8c bd 35 68 87 bc 23 95 d6 3c 2a 15 ec 3c
       -0.06872977 -0.016529182 0.02619416 0.028818686
0001e0 e2 26 8a 3d 59 85 5e bd 6b d4 6c bd 0c 6b 20 3e
       0.067456976 -0.05432639 -0.057819765 0.15665835
0001f0 3b de a1 bd ae c1 ae 3d 5b 4c 9b 3d 72 d8 65 3d
       -0.07903715 0.08533035 0.07582923 0.05611462
000200 c4 da 6c bd 46 74 e0 bc 5b 33 a8 bd 1d 76 c3 3c
       -0.05782582 -0.027399193 -0.0821292 0.023860032
000210 86 76 15 3d 89 ee f8 3c 7d ca 8a bd 6a 44 89 bd
       0.036489986 0.03038718 -0.06776903 -0.06702502
000220 0b f2 67 bc be ac b2 3d d7 51 eb bc f4 fe 4e bd
       -0.014156829 0.08724354 -0.028725548 -0.05053611
000230 1e d0 08 bd 78 a9 fd 3d f7 d0 d4 3b c6 f2 90 3d
       -0.0334016 0.12385839 0.006494637 0.07077555
000240 46 5f 24 3c b5 3a f5 3c 2e 86 e7 bd bc e0 69 3d
       0.010032481 0.02993522 -0.113048896 0.05709909
000250 6c 9a a9 bc 5d 0e 43 bd 82 7b 82 3d bd 56 51 3d
       -0.020703517 -0.04762112 0.063712135 0.05110811
000260 09 e3 6b 3d f2 80 0f be c5 00 c6 bd 56 58 ed bc
       0.057589564 -0.14014032 -0.096681155 -0.028972786
000270 95 66 d6 bc 4e ce 07 bd be 1f 33 bd dd 70 39 3d
       -0.026171962 -0.03315573 -0.043731444 0.04527365
000280 2c 4d 07 3e a4 8c 2d 3d 81 b1 45 3d a7 6b 1b bd
       0.13213032 0.042370453 0.048264984 -0.037944462
000290 c2 39 8b 3d e7 3d 05 be 74 cb 77 bc 79 4e 9d bd
       0.06798126 -0.13011895 -0.015124191 -0.07680983
0002a0 87 33 b0 bd 61 67 92 3d 6d 10 64 be 41 ba 7b 3d
       -0.08603578 0.07148624 -0.22271891 0.061456922
0002b0 06 5f b0 3c c4 96 45 3d 65 d9 bd 3c a0 b3 f9 3d
       0.021529686 0.048239484 0.02317495 0.12192464
0002c0 a5 4e 38 bd 9e 63 bf 3d 8b 60 55 3c 50 a2 e4 3d
       -0.044996876 0.09345172 0.013023506 0.11163771
0002d0 e7 cb e8 3c 5d 39 56 3c 94 f8 71 bd 36 50 85 bc
       0.02841754 0.0130752 -0.059074953 -0.0162736
0002e0 83 fe f3 3b 5d de ae bc 89 f6 53 bd 2f ea 5c bd
       0.0074461116 -0.021346265 -0.051748786 -0.053934272
0002f0 7d f9 93 3c 75 5a 8f 3d 18 7d 0d 3d b9 2d 5b bd
       0.018063301 0.06999675 0.034543127 -0.0535104
000300 71 e7 68 3d 7b 4b 8d bd 42 c6 17 3d b8 c6 20 3d
       0.056861345 -0.068991624 0.037054308 0.039252013
000310 d9 05 1a 3d 37 50 8b bc b4 66 ba bd a8 89 ed bc
       0.037603233 -0.017006023 -0.0910162 -0.028996304
000320 ac eb 44 3d 10 bb 1d 3e 2e 02 16 3e f5 23 8b bd
       0.048076317 0.1540339 0.14649269 -0.06793968
000330 38 71 1b 3c 60 f1 aa 3d 1e 25 6d bc ae 5f 1d 3e
       0.009487443 0.0834682 -0.014474181 0.1536853
000340 92 61 7d 3b 0a 9a 46 3c 95 36 fe bb 6e 8c 96 3d
       0.0038662893 0.012121687 -0.0077579715 0.073510036
000350 42 52 95 bd 79 20 c4 bd e8 e8 41 3d dc 2c fe 3c
       -0.0729108 -0.09576506 0.047341257 0.03102725
000360 43 10 25 3e 87 ea 0c be 23 8a b5 bb 45 42 8b 3d
       0.16119485 -0.1376134 -0.005540149 0.06799749
000370 06 c6 ae bd b1 15 07 be fb ec be 3d 11 45 cd bd
       -0.08533864 -0.13191868 0.09322544 -0.10022939
000380 aa e4 fa 3c 94 f2 a6 bd d9 83 36 3e c5 fd ac 3d
       0.030626614 -0.08151737 0.17823733 0.0844684
000390 85 d4 d2 bd dc 86 60 bd 71 7c b7 3d 46 1e 4b bb
       -0.10294441 -0.054816112 0.08959282 -0.0030993386
0003a0 7a 41 f2 bc 8c 5e 80 3e 2f 33 10 3d da ec 6f 3d
       -0.029572237 0.25072134 0.035205062 0.05857549
0003b0 be 1d 5d 3e 29 d3 03 3e 01 e8 ac bd 21 23 c9 bc
       0.21593377 0.1287352 -0.08442689 -0.024552884
0003c0 0a 4f 2c bd d9 24 b4 bc 00 ae a1 bd b4 c6 f0 3c
       -0.042067565 -0.021990227 -0.07894516 0.029391624
0003d0 2d 39 f7 3d 24 d9 c2 3c 00 e3 66 3d fe ec b3 3d
       0.12071452 0.023785181 0.056368828 0.08785437
0003e0 c2 9b 8c 3d d6 8d 3b bd 71 1c c3 3d cf e5 16 3c
       0.06865646 -0.045789562 0.09526909 0.009210064
0003f0 ad 91 d7 3c b6 9c 8a 3d 36 bb 77 3c 53 a5 88 3d
       0.02631458 0.067681715 0.015120318 0.06672158

network.2.bias f4 [192]
000000 6d d0 bd 3c 4a 7c 69 bc f6 00 4a 3d 5f ee 6e 3c
       0.023170674 -0.014250824 0.049317323 0.014583199
000010 31 61 da 3c 07 8f 6c 3c a6 00 5c 3c 5f 6b e4 3c
       0.026657673 0.014438397 0.013427889 0.02788323
000020 a1 4d 96 3c 0b e2 18 3c 95 6b 85 3c 2c db 0a 3c
       0.018347563 0.009331237 0.01628665 0.008475106
000030 1b 93 bc 3c a8 96 13 3d 30 f8 14 3d a2 f2 e7 3b
       0.023019364 0.03603235 0.036369503 0.0070784846
000040 95 67 42 bc 9f 14 dd 3c 88 6a cb 3c 48 13 82 3c
       -0.011865516 0.026987372 0.024831071 0.015878335
000050 ec 3e b5 3c 55 f5 de 3c 4d 9f 64 3c ac ff 14 3d
       0.02212473 0.027216593 0.013953996 0.03637664
000060 8a 39 ff 3c 51 1e e8 3b e3 81 e6 3c 35 b4 d9 3b
       0.031155366 0.007083692 0.028138107 0.006643797
000070 ca 82 3a 3c a0 db a2 3c 06 bb c8 3c 4f 2e 20 3d
       0.011383722 0.019880116 0.024503242 0.039106663
000080 de 23 86 3c be cd 23 3d 4d 05 e9 3c d8 27 b5 3c
       0.016374525 0.039991133 0.02844491 0.022113726
000090 42 22 cd 3b 66 1d e4 3c 21 34 e4 3c e5 00 ad 3c
       0.0062601874 0.02784605 0.027856888 0.02111859
0000a0 24 a5 1c 3d e1 1e 04 3d fe 75 03 3d e3 c0 05 bc
       0.038243428 0.03225601 0.032094948 -0.008163664
0000b0 9e e4 f5 3c 76 1c 0f 3d 2d 9e 2b 3c 61 29 d0 3b
       0.03001624 0.03493925 0.010474724 0.006352589
0000c0 28 51 52 3c 1a 64 c1 3c eb 3d 7a 3d 48 7c 90 3c
       0.012836732 0.023607302 0.061094206 0.017637387
0000d0 9e fa 0e 3d db d6 a8 3c d9 8b 81 3b e9 6c e5 3c
       0.034906976 0.020610264 0.0039534387 0.028006034
0000e0 9e 71 0d 3d 00 d9 e3 3c e6 cf bd 3a b1 74 12 3d
       0.034532182 0.027813435 0.0014481514 0.035755817
0000f0 a3 0f 89 3c c4 e7 13 3d 09 50 0e 3d 37 51 17 bb
       0.016731089 0.0361097 0.034744296 -0.002308918
000100 45 98 8c bb b9 2d 23 3d b3 a6 88 ba 49 d7 b1 3c
       -0.004290613 0.039838526 -0.0010425657 0.021709101
000110 89 34 80 3c 4a a4 cc 3c 06 9d 6b 3c 95 c4 57 3d
       0.01565005 0.024980683 0.014380699 0.05267771
000120 af c0 c6 3b 4b d7 3d 3d 11 2b 84 3c 68 1f c2 3c
       0.00606545 0.046347897 0.016133817 0.023696616
000130 5a 63 a0 3c 0f 57 ff 3b 7d f6 2b 3c 45 a2 5a 3c
       0.019578625 0.0077923606 0.010495779 0.013344352
000140 b3 5f 1c 3c 02 e3 a6 bb ce 1f 82 3c e2 19 c3 3c
       0.009544301 -0.0050929794 0.015884306 0.023816053
000150 56 14 18 3c f6 a4 da bb 2c 2e 32 3c 12 4d 14 3d
       0.009282192 -0.006672497 0.010875266 0.036206312
000160 80 f3 53 3d f2 c2 f2 ba fc df a6 bb e5 4f b5 3b
       0.05174589 -0.0018521233 -0.005092619 0.005533206
000170 e8 7b ef 3c e3 7b 36 3c 26 fe fe 3c 01 02 9c 3c
       0.029233888 0.011137935 0.031127047 0.019043924
000180 0c 33 99 3c c4 06 45 bc 0c 58 2b 3c 2f 38 18 3d
       0.018701099 -0.012025539 0.010458004 0.037162956
000190 e7 4c 18 3d 36 a6 05 3d ed 1f c7 3c dd c5 cd 3b
       0.037182715 0.032629214 0.024307216 0.0062796907
0001a0 f5 fa 9c 3c 48 5c 0b 3d f9 1c 53 3d a7 4e 1f 3c
       0.019162634 0.034023553 0.051541302 0.009723342
0001b0 65 92 c8 3c 3c a9 f6 3c 1b 30 a8 3c 82 fd a0 3c
       0.024483869 0.030109994 0.020530751 0.019652132
0001c0 48 80 8b 3b 68 37 26 bb 95 ee 07 3d 07 bd 5e 3c
       0.0042572357 -0.0025362615 0.033186514 0.013594872
0001d0 ff 07 c9 3c 29 96 14 3d 0f 69 86 3a 3d 8b 00 3d
       0.024539946 0.036276016 0.0010254699 0.031382788
0001e0 c6 97 08 3c d8 e5 eb 3c b0 88 9b 3c f9 97 e3 3c
       0.008336967 0.028796121 0.018986076 0.027782427
0001f0 d0 1d 37 3b 73 4a 25 3d 36 49 03 3d c1 50 92 3c
       0.0027941354 0.040354203 0.03205224 0.017860772
000200 f0 11 c5 3c 53 23 eb 3c 05 74 a1 3c fd fb 03 3b
       0.024056405 0.028703367 0.019708643 0.002013921
000210 ae f7 d1 3b f0 0a 35 3c 1f cb 78 3c 17 06 7b 3c
       0.0064076995 0.011049971 0.015185147 0.015321276
000220 24 c3 6c 3c 83 65 87 3c b4 6a 7e 3b d1 8f 2c bc
       0.014450822 0.016527897 0.0038820924 -0.010532335
000230 e4 6a 16 3c 02 84 ee 3c 5b 04 9b 3c 8f f1 20 3d
       0.009180758 0.02911568 0.018922975 0.03929287
000240 4d 87 66 bb ba 27 6d 3c 8e 46 fe bb 2a 45 b7 3b
       -0.003517586 0.014474804 -0.0077598756 0.005592962
000250 bf 29 05 3d 85 ed 7b 3c fd d8 a9 ba 17 2b a2 3c
       0.032510515 0.015376453 -0.0012958344 0.019795937
000260 96 5a 56 3d 62 38 41 3c 58 90 e8 3c 44 ea 27 3d
       0.052332483 0.011793228 0.028389141 0.040994897
000270 26 59 87 3c 01 cb 3e bc ce 4f 9d ba 71 eb 77 3b
       0.016522001 -0.01164508 -0.0012001933 0.0037829543
000280 7e 0d 46 3c 53 3c b8 3b 73 6a d3 3c ba 50 12 3d
       0.012088178 0.0056224256 0.025807595 0.035721518
000290 12 74 8b 3c 9f 57 ca 3b 19 b6 00 3d ee c4 2f 3c
       0.01702312 0.006174996 0.03142366 0.010728104
0002a0 ae 94 4f 3c 09 84 d2 3c 99 ab ac 3c 92 7b 7f 3c
       0.012669725 0.025697725 0.021077918 0.015593426
0002b0 08 e4 c0 bb 40 db b1 3c 5f 5e ae 3b bf fe 18 3d
       -0.0058865584 0.021710992 0.0053213085 0.03735232
0002c0 46 93 c9 3c ba fc f3 3c 20 a2 ae 3c 76 b1 e4 bb
       0.024606358 0.029783595 0.021317542 -0.006979163
0002d0 d8 7b 61 3d 0c 34 e2 3c d7 be 25 3d 87 63 3f ba
       0.055049747 0.027612709 0.040465202 -0.00073009025
0002e0 b3 11 2b 3c e5 55 66 3d 23 30 e8 3c 2e 33 b5 3c
       0.010441232 0.05623426 0.028343266 0.022119131
0002f0 05 8f 04 3d c6 ad cc 3c a5 e5 d5 3c 55 03 38 3c
       0.032362957 0.024985205 0.02611048 0.011231263

network.4.weight f4 [128, 192]
000000 0b eb 9e 3c d5 ec 8c bd a0 8c 39 3e 2c 85 94 3c
       0.019399187 -0.068811096 0.1812005 0.018129908
000010 6d f7 09 be fd cf 08 bd dc 00 cd bd ba da 73 38
       -0.13473292 -0.033401478 -0.100099295 5.813942e-05
000020 ea 11 13 bd 27 90 a5 bd 1f 47 51 3e 59 3f 0e 3e
       -0.035905756 -0.080841355 0.20437287 0.13891353
000030 d8 1a be 3d 86 66 a8 bc e5 de b3 3d b0 d9 94 3d
       0.09282464 -0.0205567 0.08782748 0.07268083
000040 6a ac f8 3b b5 10 f7 3d cb c8 c3 3d c1 f6 ed 3b
       0.0075889127 0.120637335 0.095597826 0.0072620814
000050 8c 82 72 bd 9a 01 60 bc 1a 04 21 3e 3c 3c 28 3e
       -0.05920653 -0.013672257 0.15724221 0.16429228
000060 b5 87 20 3d 66 3a d0 3d d9 79 7e bd f9 33 84 bc
       0.03919192 0.101673886 -0.06212792 -0.016138064
000070 fa b0 26 bd 1f 3d f0 3d b6 89 79 3d 89 27 cb 3c
       -0.04069612 0.11730408 0.060922347 0.024799125
000080 b7 b4 1e 3e 52 96 99 bd 06 f9 0e be 59 04 7a bd
       0.15498625 -0.074993744 -0.13962182 -0.061039302
000090 48 38 d1 3a 3a c2 f4 3b 07 b6 07 3d 42 ca 20 bd
       0.0015962208 0.0074694427 0.03313258 -0.039255388
0000a0 62 96 df 3d 84 ea 6a 3d 53 a3 19 3e 0f 25 97 bd
       0.10917355 0.057352558 0.1500371 -0.07380115
0000b0 8c 9f 2e bd 2a a7 52 3e 56 78 9b 3d b2 2b 90 3d
       -0.042632625 0.2057158 0.07591312 0.07039584
0000c0 62 b9 3f bd 1b 24 81 bc 5c b7 1e 3e cd 41 ac 3d
       -0.046807654 -0.015764287 0.15499634 0.08410988
0000d0 11 a6 c4 3d ec 54 47 3d 88 1f 14 bd da 42 8a bd
       0.09601987 0.048664972 -0.036162883 -0.06751032
0000e0 d1 f7 dc 3b 87 a3 81 bd 65 15 c2 bd 19 22 09 be
       0.006743409 -0.063300185 -0.09476737 -0.13391913
0000f0 12 ab 1f 3c ae b5 1b be ef 97 cc 3d 2f c0 65 bd
       0.009745376 -0.15206024 0.099899165 -0.056091484
000100 eb db 45 3c 3c fb ff 3d 17 9a 87 3d 9a 73 1c be
       0.012076358 0.12499091 0.06621187 -0.15278473
000110 ce cb 30 3d 09 33 2d be b3 36 85 3d 2e 04 07 3e
       0.043163113 -0.16914 0.06504574 0.13185188
000120 ea 72 70 b8 f4 c5 08 3c 4f 09 0e 3e a8 ae 14 3e
       -5.732748e-05 0.008347977 0.13870738 0.14519751
000130 43 e0 92 bd 99 92 74 3d 3a c2 87 bc aa 6a 1b be
       -0.07171681 0.05971012 -0.016572107 -0.15177408
000140 fb d4 9d 3d 34 32 2e bd 8e d4 51 3c 3d 7e 85 bd
       0.077066384 -0.042528346 0.012807025 -0.06518219
000150 39 6a 9f 3d f3 df 16 be bc b4 ed bd 2c 1c 90 bd
       0.07783932 -0.14733867 -0.11606738 -0.07036623
000160 4d e3 02 3e 63 d2 49 be 69 e3 7f bc 6d e9 3c be
       0.12782021 -0.19709162 -0.015618184 -0.1844842
000170 fe de 83 bc 98 9c 14 be 86 00 15 be 18 28 ce 3c
       -0.016097542 -0.14512861 -0.14550981 0.025165603
000180 8e 13 82 bd b7 a2 14 bd 34 ca 01 be 2c 25 14 3e
       -0.06351386 -0.03628799 -0.1267479 0.14467305
000190 78 cd 62 3d 79 66 e3 3d 6f f4 cb 3c 72 86 46 bd
       0.05537173 0.111035295 0.024896828 -0.04846806
0001a0 65 d8 28 3d c7 af d1 3d aa 73 9e bd fd 18 ca 3c
       0.041221995 0.10238605 -0.07736905 0.024670118
0001b0 1e 3a ce 3c a1 72 ba 3d e5 c6 11 3d 90 57 d4 bc
       0.025174197 0.09103895 0.03559007 -0.02592066
0001c0 e1 c1 c2 bd cb 93 0a 3e ae f2 75 3d a2 84 9d 3d
       -0.09509636 0.13532941 0.06004589 0.07691313
0001d0 b9 54 94 bc 6a 18 ac bd ba 11 f2 bc 83 a9 9c 3d
       -0.018106805 -0.08403094 -0.029549468 0.07649519
0001e0 39 de 34 3d 69 97 35 bc d1 47 b3 bd f7 75 b1 bc
       0.04415724 -0.011083462 -0.08753932 -0.021662695
0001f0 9c 56 ac 3d 93 e2 cb bd 31 d9 31 bd e2 e7 3e 3e
       0.08414957 -0.09955325 -0.04342002 0.18643144
000200 58 1d b0 bc 44 01 bf 3d 77 a4 22 bc f4 a2 0c bd
       -0.021498367 0.09326413 -0.009926907 -0.03433509
000210 0c 87 d9 bb 71 c8 84 bc 56 05 92 ba 70 84 cb bd
       -0.0066384133 -0.01620886 -0.0011140506 -0.0993737
000220 11 7d cf bd dc 61 77 3d b3 71 d7 bd bf 5e 24 bd
       -0.101312764 0.06039606 -0.10519733 -0.04012942
000230 20 0e b1 3d 90 c3 62 3c 3b 29 6d 3c b1 10 8a bd
       0.08645272 0.013840571 0.014475162 -0.06741465
000240 7d 60 89 bd cc 30 f2 bd bc ea 05 be 23 61 94 3c
       -0.06707857 -0.118257135 -0.13077825 0.018112725
000250 1f 2e f2 3d 5f 92 32 3d 21 5a d4 bb ad 67 bb bd
       0.11825203 0.04359662 -0.0064804708 -0.09150634
000260 d1 21 54 3d ac 9e 02 3d 77 c7 b1 3d 72 d7 8e bd
       0.051790062 0.031889603 0.08680623 -0.06974687
000270 a0 1a 09 3d 5c e2 c9 bd 7a 1b 2e 3d 82 d5 5a bd
       0.033472657 -0.09857628 0.042506672 -0.053426273
000280 4d b3 b0 3d 75 4e f2 3c 4b 87 e3 3d f1 cc 3c 3d
       0.08627949 0.029578427 0.111097895 0.046093885
000290 43 6a e0 bd 16 fa 4a 3d a5 73 67 3d 47 76 06 3e
       -0.10957768 0.049554907 0.05650677 0.13131057
0002a0 25 9e 8d 3c bf ae 02 3d 05 8f ef 3d b9 6e c0 3d
       0.017287323 0.031904932 0.11697201 0.09396119
0002b0 01 cb 91 bd a1 0b 1e bd e7 57 fc bd dc ae b9 bc
       -0.07118798 -0.03858531 -0.123214535 -0.022666387
0002c0 4f 40 0f 3d c0 ac de bd da 52 54 bd 4b 46 fd bd
       0.03497344 -0.10872793 -0.051836826 -0.12366923
0002d0 47 e5 87 bd 2f 6e 29 bd 34 8a 3f 3e 78 2a 07 bd
       -0.06635528 -0.041364845 0.18705064 -0.032999486
0002e0 36 5a 1b 3c 06 57 e8 3c cf ee 82 3d 0d 2c c7 3c
       0.009481957 0.028361809 0.063932054 0.024312997
0002f0 2c 49 cd bd 51 21 f8 3c f5 b2 b1 bd b4 eb 0f bc
       -0.10023722 0.030289324 -0.086767115 -0.008784223
000300 43 1d 3d be 2e 21 bf 3d de d9 ef 3d 62 c0 f1 bb
       -0.18468194 0.093325004 0.11711477 -0.00737767
000310 4a 12 d0 3c 51 2f 97 bd 00 1d ba 3c a7 9f 03 3e
       0.025399346 -0.07382072 0.022718906 0.12853871
000320 60 26 f3 3d 5b 8c 3f 3e 90 5b 08 3e 3b 6d 84 bd
       0.11872554 0.18705885 0.13316178 -0.064661466
000330 27 06 2c 3c 02 8e 64 bd f0 21 2b 3e 66 61 f8 3d
       0.010499514 -0.05579949 0.16712165 0.12127952
000340 09 55 64 be 95 bd b1 3d 96 e1 03 3d c9 a5 f9 3c
       -0.22298063 0.08678738 0.032197557 0.03047456
000350 f9 64 18 3e 78 aa a5 3c 01 ea 99 bb ef 16 c8 bd
       0.14882268 0.020222887 -0.004697085 -0.09769999
000360 54 67 bb bd bd 6a 87 3d c8 10 b8 bc 7e 5c 0c bc
       -0.09150568 0.066121556 -0.02246894 -0.008566974
000370 6d 06 87 3d 92 68 63 3c 88 e9 c3 3d b4 84 8a bd
       0.065930225 0.013879912 0.09566027 -0.06763592
000380 04 55 18 bd 7f 4a 88 3d 5e 27 28 3e f8 39 91 3d
       -0.037190452 0.06654834 0.16421267 0.07091135
000390 bf a1 87 be 52 41 00 3e 86 bb 34 3e 36 02 ae 3c
       -0.2649059 0.12524918 0.1764966 0.021241289
0003a0 50 98 e1 bd 0d 2a 56 bd de f6 2f 3e d0 76 4d bd
       -0.110153794 -0.052286197 0.17184016 -0.050162137
0003b0 75 37 23 bd 2f 36 86 bd d3 fa 9d 3d f8 a0 ab 3c
       -0.03984781 -0.065533035 0.077138565 0.02095078
0003c0 7d 08 7c bd 63 38 bf 3d 99 1f 23 3d fc 9a 57 be
       -0.061531533 0.09336927 0.039825056 -0.21055216
0003d0 5f ed 6b bd 50 88 4a 3e dc 5a 01 be 17 e3 2e 3d
       -0.05759942 0.19778562 -0.12632316 0.04269704
0003e0 9c 1f d6 3c e7 86 d5 3d ba 84 bc bb af 13 f4 3b
       0.02613812 0.10426121 -0.005753127 0.0074486355
0003f0 34 d4 3f be 1f e1 cf 3d 42 a0 8d 3c 1b ea 85 bd
       -0.18733293 0.1015036 0.017288331 -0.06538793

network.4.bias f4 [128]
000000 82 5e 8f 3c ea ca 16 3d 64 f2 ba 3c 94 44 a9 3c
       0.01750112 0.036814608 0.022820659 0.020662583
000010 ab d3 b1 3c 7e c6 81 bc 9f 7c c3 3c 2d 91 d3 bb
       0.021707376 -0.015841719 0.023863135 -0.0064565153
000020 1c a3 bd 3b 33 e6 26 3c ee 1c 4e 3b 6d f8 0f 3d
       0.0057872664 0.01018672 0.003145035 0.035149027
000030 7e dd 8d bb 0a 0e 0b 3b 66 23 d8 3c f8 76 e5 3c
       -0.0043293824 0.0021218085 0.026384067 0.02801083
000040 d3 e6 e3 3b ee 74 4e 3c e9 67 68 3b 44 2f ac 3c
       0.0069550066 0.01260112 0.0035462326 0.021018632
000050 f7 fa e9 3b e4 ff f5 3a 54 94 7d 3c 27 c0 c9 bb
       0.007140513 0.0018768278 0.015477259 -0.0061569395
000060 9e dd b4 3c 5e 0e 04 3d 9f cd ce 3c 4d bc cd ba
       0.022078332 0.032240264 0.025244532 -0.0015696377
000070 a4 18 18 3b 20 12 48 3b 96 87 0c 3d bd ce 6a 3c
       0.0023208046 0.0030528381 0.034308992 0.014331517
000080 7c ad c5 3c 4b 32 d0 bb f5 29 32 3c af 00 f8 3c
       0.024130575 -0.0063536516 0.010874261 0.030273763
000090 dc 70 1c 3c e1 cc e6 bb 52 56 d2 3b 30 41 7c 3c
       0.009548392 -0.0070434664 0.0064189816 0.015396401
0000a0 e9 e4 a6 3c bf 8a 37 3c 3c 4d 20 3b 28 8e d8 3c
       0.020372825 0.011202513 0.0024460098 0.026434973
0000b0 1c 69 37 3c 1d 7c 36 3c f6 68 8e 3c 05 7e ed bb
       0.011194494 0.011137989 0.017384034 -0.0072476887
0000c0 e8 11 fa 3c 9a bf 68 3c 00 dc d4 3a 7f b7 a8 bc
       0.030526116 0.014205838 0.0016239882 -0.02059531
0000d0 a6 d3 1c 3c 61 f7 22 3c 4a c5 8b 3c f7 ff b7 3a
       0.009571945 0.009946675 0.017061848 0.0014038075
0000e0 10 74 73 3c 54 98 37 3c bd 32 98 3c 16 7b d5 3c
       0.014859214 0.011205751 0.018578881 0.026059669
0000f0 d1 32 ed 3c 55 9b ca 3b 33 ef cc 3c 5f d5 4c 3b
       0.028954895 0.006183068 0.025016403 0.0031255109
000100 3e bf ea 3b 67 df 27 3d d4 da 56 bc c4 75 41 bc
       0.007163911 0.040984537 -0.013113696 -0.011807863
000110 32 ed 8d 3b 0d 9c 0c 3c 92 08 4e bb 59 42 51 3c
       0.0043312544 0.008582127 -0.0031438214 0.012772166
000120 22 6e 05 3b 0a 39 71 3c 66 42 2d bc 13 4c 6f 3c
       0.0020359834 0.014723072 -0.010574913 0.01460554
000130 29 be ff bb 7d c4 11 39 b9 a1 71 bc 51 f2 ec bb
       -0.0078046513 0.00013901475 -0.01474803 -0.007231035
000140 4f dc a4 3c 7d 87 86 bb a9 74 9b 3c 7b 17 2d 3d
       0.020124583 -0.004105507 0.018976526 0.04225872
000150 d5 bc 83 3b 61 bf 83 3b 21 16 c1 3c c1 3f 85 3b
       0.0040203133 0.004020617 0.023570122 0.004066438
000160 7c 71 10 3b 5e dd d1 3b a2 98 02 3c ce 8c 94 3c
       0.0022040298 0.006404563 0.007970961 0.018133547
000170 c9 c7 b7 3c cc 7c 9d 3b 26 ac 0a 3d 72 9d cd 3a
       0.022434132 0.0048061367 0.03385558 0.0015687181
000180 81 7d 27 3c 5a 76 9c 3c 28 7b c6 3c fc 9d 32 3c
       0.010222794 0.019099403 0.024228647 0.010901924
000190 74 c0 bd bc 8b 57 de 3c 2a 60 36 bb b2 11 72 3c
       -0.023163058 0.027141353 -0.0027828314 0.014774727
0001a0 6b 40 79 3c 7d 7a 09 3c b2 f4 12 3c 62 d3 1b bc
       0.015213112 0.00839102 0.008969473 -0.009510847
0001b0 b4 f0 8b 3b 3a 93 b8 bb 46 f8 06 3d 8a 25 44 3c
       0.0042706374 -0.005632785 0.032951616 0.011971841
0001c0 00 dc 84 3c c3 c3 cf ba b4 8e 90 3c 0d 4d bf bc
       0.016218185 -0.0015851188 0.017646171 -0.02335217
0001d0 8a b2 88 ba 25 92 3a 3c 7c 29 b8 3b 01 cf 0e bc
       -0.0010429185 0.011387383 0.0056201797 -0.008716346
0001e0 d1 40 df 3c d3 07 ac 3c 20 ed 1a 3d eb 88 15 3d
       0.027252587 0.020999825 0.037823796 0.03650753
0001f0 e4 53 52 bc b4 71 8a bc a8 96 ac 3b d5 c7 ff 3a
       -0.012837384 -0.016899921 0.005266983 0.0019514511

network.6.weight f4 [39, 128]
000000 ea 03 17 bd 37 29 b3 bd ce a1 a6 3c 67 45 91 be
       -0.036868967 -0.087480955 0.020340826 -0.28373262
000010 8f ed e4 bd cd 03 4c be 05 d2 1e be 19 eb a2 be
       -0.11178123 -0.19923325 -0.15509804 -0.3181999
000020 36 c8 fd bb c2 2d e1 3c 3a 91 97 bd 55 ec c7 bd
       -0.0077448143 0.02748764 -0.07400747 -0.09761874
000030 bc 55 62 bd 4c ea cc 3c da ce 51 bd f5 93 c7 bd
       -0.055257544 0.025014065 -0.05122266 -0.097450174
000040 08 ae 82 3d 0c eb 87 be 33 b7 0e 3e 61 17 0b be
       0.0638085 -0.26546514 0.13937072 -0.13583137
000050 31 22 b6 bd 00 9f de 33 48 ef 00 bd d7 1b dd b5
       -0.0889324 1.03666025e-07 -0.031478196 -1.6473886e-06
000060 6a 23 96 bd a7 48 c6 3d 14 d3 39 be cd 8c 06 bd
       -0.073309734 0.09681826 -0.18146926 -0.03284912
000070 f6 70 51 37 42 b8 3a bb ce 6d be bb f1 a3 2e be
       1.24836715e-05 -0.0028491174 -0.0058114296 -0.17054726
000080 28 43 0c 3e 7f 32 be bd f4 e7 28 bd 4d 2f 42 bd
       0.13697493 -0.09286975 -0.041236833 -0.04740839
000090 7a 7b c0 bd ec f2 b8 bd 4f d9 39 be cb 70 e5 3a
       -0.09398551 -0.09030709 -0.18149303 0.0017504928
0000a0 7c 0e 44 bc 70 6e 4e bd e7 44 7c 3d 0a b7 a1 bd
       -0.011966344 -0.05039829 0.061589148 -0.0789624
0000b0 e9 e1 ad bd b1 77 0a 3d 92 d0 3a be 6b 07 43 be
       -0.084903546 0.033805553 -0.18243626 -0.19045798
0000c0 fc 81 19 be 15 93 b2 3b 5f 73 c4 bd 90 dc 1a 35
       -0.14990991 0.0054496625 -0.09592318 5.769043e-07
0000d0 5d 69 9b bd a7 4b 03 be 5c ee 4d bd c7 6b 88 3e
       -0.07588456 -0.12821828 -0.050276145 0.26644728
0000e0 b7 48 c7 bd 6d 59 87 3d 81 76 4c 3e 75 57 9c be
       -0.09730666 0.066088535 0.1996708 -0.30535474
0000f0 57 31 a5 3d a7 89 e3 bd 1b 40 cd bd fe 99 89 be
       0.080660515 -0.111102395 -0.10021993 -0.268753
000100 b3 3b 21 be 77 56 8c be ea 52 c4 3c 04 14 40 37
       -0.1574543 -0.27409717 0.023965318 1.1448752e-05
000110 3d e5 15 3e af 81 37 3e 76 d6 09 36 cd 85 fe bc
       0.14638229 0.17920564 2.0539424e-06 -0.03106966
000120 d3 49 07 be 95 60 95 bc a8 fe 2f 3e e8 c7 f3 3c
       -0.13211755 -0.01823453 0.17186987 0.029758409
000130 60 ab 89 36 13 9d 88 3e 48 0c 38 b7 0b d4 3c bc
       4.102869e-06 0.26682338 -1.0970114e-05 -0.011525164
000140 f0 69 df 3c ac 07 0e be ce 87 83 be 3c 1d 15 be
       0.027272195 -0.13870114 -0.25689548 -0.14561933
000150 6f b3 8f 3d 65 69 af be 25 04 9f bc fa 3a 7d 3c
       0.07016646 -0.34260097 -0.019411156 0.015455956
000160 16 6d 12 bd 49 f2 c0 3c 8d 8d bb be 19 bf dc bd
       -0.035748564 0.02355303 -0.36631432 -0.107786365
000170 4f 86 52 be db bd 89 3c 9d 5a 5c 3d dd c0 4b be
       -0.20559047 0.016814163 0.053797353 -0.1989779
000180 08 c0 50 bb cb df f7 3d 98 f1 88 be af 79 63 be
       -0.003185274 0.12103232 -0.2674682 -0.22214387
000190 a5 77 06 3d 3a 96 55 be dc 17 7a 37 71 53 0c be
       0.032828946 -0.20858088 1.4906716e-05 -0.13703705
0001a0 2d 13 95 bd 87 df fe bc d9 e8 f8 bd 3c b2 4e b7
       -0.07279048 -0.031112446 -0.12153787 -1.2320055e-05
0001b0 0f 2d 31 be 31 8f 88 bc 1b 36 cb bd 6f 00 8a be
       -0.17302345 -0.016669841 -0.09922429 -0.26953456
0001c0 b5 34 89 be d4 9f eb 3c bb 21 3a be 38 f6 b5 3b
       -0.26798025 0.028762735 -0.1817693 0.005553033
0001d0 9f e7 95 3d e6 6c b4 be 04 ff 80 be f2 cd 4c 3e
       0.07319569 -0.35239333 -0.2519456 0.20000437
0001e0 9f 1f 1f be b4 87 1c bb f7 d6 a1 be 63 a4 9b be
       -0.15539406 -0.0023884596 -0.31609318 -0.30398855
0001f0 78 52 c6 bd ff ad 28 3e 09 b1 d2 bd 37 cc 29 be
       -0.096836984 0.16472624 -0.10287673 -0.16581808
000200 d9 a2 95 3d 73 9a 60 3e 52 5c 06 be 17 52 39 be
       0.07306451 0.21933918 -0.13121155 -0.18097721
000210 1b 8d 1d 3e 66 48 8f bd 9b 2c 91 3e d9 f2 28 3e
       0.15385859 -0.06996231 0.28354344 0.16498889
000220 23 49 55 3d dc bc bf 3d 3c 4f b3 3d ae ae 94 bc
       0.0520717 0.09362194 0.08755347 -0.0181497
000230 54 14 61 be 43 24 84 3c ed e8 61 3e 2d ed 25 3d
       -0.21980411 0.016130572 0.2206151 0.04050939
000240 d6 3f 7e bd 87 61 4c bc e5 f5 8b bd 5a ca 20 bd
       -0.062072597 -0.012474424 -0.0683401 -0.039255477
000250 e2 42 fd 3c 7a cc a6 b7 35 bc 72 3c fd 60 fb 34
       0.030915681 -1.9883959e-05 0.01481538 4.6822962e-07
000260 cf 66 1a bd cd 23 34 3d 2f cb 07 3e 0f db 62 be
       -0.037695702 0.043979455 0.13261102 -0.22153877
000270 ba e5 1a 36 1b e1 1a 3d 90 67 2e 3d 63 56 b2 bd
       2.3081507e-06 0.037812334 0.042579234 -0.08707883
000280 c5 59 c5 bd 91 ba 90 3d 6c 0e 3a bc e2 a4 58 be
       -0.09636263 0.07066835 -0.0113559775 -0.21156648
000290 f4 5e f9 3d 54 15 38 be bb c8 17 be b0 ff 4c 3d
       0.12176314 -0.17976886 -0.14822666 0.05004853
0002a0 7e d9 58 bd 07 c2 6c 3d 4f cd 7c 3e 8a dc d9 bd
       -0.05294179 0.057802226 0.24687694 -0.106377676
0002b0 b0 6f ae 3d bf 38 15 be 3c a4 90 bc e4 c9 a4 be
       0.085173965 -0.14572428 -0.017656438 -0.3218528
0002c0 6f 68 5d be 3e 73 14 be ac 86 1e bd df 62 50 be
       -0.2162187 -0.14497086 -0.03870265 -0.20350216
0002d0 98 c5 fd 3d 40 11 c7 3d ff d1 39 bd 95 d9 5d 3e
       0.12391204 0.09720087 -0.045366284 0.21665032
0002e0 f5 34 11 bc 4b ab c5 bd ef 03 94 3d 2f 26 53 be
       -0.008862724 -0.09651812 0.07227313 -0.20620035
0002f0 61 68 08 3e 6f ad d8 3d 40 ea 58 bb b7 34 a9 be
       0.13321067 0.10579955 -0.0033098608 -0.3304803
000300 81 76 57 bd 50 bc 57 3d 2b e3 08 3c 3b 89 2d 3a
       -0.05260325 0.052669823 0.008354942 0.0006619875
000310 d9 9a 08 3e 4e 8d 71 3c 49 aa 92 bc 50 ed 41 bd
       0.1334032 0.014743162 -0.017903464 -0.04734546
000320 0b 9a 34 3e a1 e4 69 3e 4b c2 42 3e 19 73 10 3e
       0.17636888 0.22841121 0.1901943 0.14106406
000330 1e 97 2c 37 64 1d 02 b8 42 2e b0 3d 02 18 09 bc
       1.0287184e-05 -3.1021787e-05 0.08602573 -0.00836754
000340 88 c8 17 3d 32 3f 6c 3e e0 71 90 3d 1f f4 23 bc
       0.037056476 0.23070982 0.0705297 -0.0100069335
000350 cf 7e 01 3e 8a 5c 84 be 3b 9f 9d 39 9c aa e8 bd
       0.1264603 -0.25851852 0.0003006401 -0.11360666
000360 a9 60 b3 3d 12 9d 31 be 0a 84 97 3d 49 44 c0 bd
       0.08758671 -0.17345074 0.07398231 -0.09388024
000370 e2 f5 b2 bd c6 49 0a be 78 d4 9a bb 89 1f bb 3c
       -0.08738305 -0.13504705 -0.0047250353 0.022842186
000380 3c 61 8f 3e ba bc 3a bd 1d eb 72 bd 43 78 83 3d
       0.2800387 -0.04559014 -0.059306253 0.064194225
000390 74 c4 11 3e a4 07 08 bd 8d 10 8b b7 bb 8f 45 be
       0.14235097 -0.03321041 -1.6577798e-05 -0.1929311
0003a0 90 32 b6 bd f9 fb 85 3d b0 80 ff bc 52 8a 9a bd
       -0.08896363 0.065422006 -0.031189293 -0.07545914
0003b0 49 59 80 bd 5e f7 30 3c 61 ee 36 bd 8b a2 98 3d
       -0.0626703 0.010801164 -0.04466093 0.074528776
0003c0 e8 2b ca 3a f1 58 90 bd b1 e0 b2 3d be e7 17 3e
       0.0015424462 -0.07048214 0.08734263 0.14834496
0003d0 fc ff 3e be dc 3a a7 be 4e ad 6f 3e 1c 47 4e 3c
       -0.18652338 -0.32662094 0.23405954 0.012590196
0003e0 28 c8 e9 3c 70 7a 35 3c 8b 37 56 3e 49 de 9c be
       0.028537825 0.011076555 0.20919625 -0.3063834
0003f0 22 da 84 be 9d 3d 80 bd 02 0b 7a be ef a8 12 be
       -0.25947672 -0.06261752 -0.24418262 -0.14322256

network.6.bias f4 [39]
000000 7e ea fe bc 48 e9 1e 3b 24 9d 05 3d e4 84 9b 3b
       -0.031117674 0.0024247933 0.032620564 0.0047460664
000010 0a 4d 17 bc f8 c1 a1 bc da af fe 3b f1 ad ec 3b
       -0.009234676 -0.019745812 0.007772428 0.007222884
000020 d9 38 9c 3c 56 cb 26 bb c6 15 03 bd 7c c1 59 bc
       0.019070076 -0.0025450788 -0.032003187 -0.013290759
000030 93 7e 61 bc f0 d9 94 3b b2 64 77 3a 69 2b ad 3c
       -0.013763088 0.0045425817 0.0009437307 0.021138864
000040 08 b4 38 bb 77 42 bb bc 13 bd c5 3c fa 82 0b bb
       -0.002818348 -0.022858841 0.02413801 -0.0021287785
000050 0a 0c 08 bd c8 7e 90 ba f6 c3 aa bc 85 75 e7 3c
       -0.033214606 -0.0011024112 -0.020845395 0.02825428
000060 a6 b3 f7 bc c3 60 ab 3c 01 67 cf bc 56 9e a1 bc
       -0.03023703 0.020920163 -0.02531767 -0.01972882
000070 81 40 96 bc 3a 61 81 bc 12 4c 7a bc b5 23 c2 bc
       -0.018341305 -0.015793432 -0.015276926 -0.023698667
000080 bd c7 7e bc a5 e5 c7 bc de 02 e6 bc ad 8a fa bc
       -0.015550551 -0.024401495 -0.028077539 -0.030583704
000090 a0 76 11 bd d0 eb 15 bd 42 78 13 bd
       -0.03551352 -0.03660184 -0.03600336
