Homework/HW2/results/quick_grid/run_06.pt (torch, 583917 bytes, 8 tensors)

network.0.weight f4 [256, 256]
0	0x3c98bb6b	0.018644055
1	0x3d15beda	0.036558963
2	0xbdd8d9fa	-0.10588451
3	0x3df202f6	0.11816971
4	0xbdd4c931	-0.10389937
5	0xbd18b6b5	-0.037283618
6	0x3e13f0a4	0.14447266
7	0xbdb65487	-0.08902841
8	0xbe1b0305	-0.1513787
9	0x3c71a1ed	0.014748079
10	0x3d6ff980	0.05858755
11	0x3dc54226	0.096317574
12	0x3cb94c2d	0.022619331
13	0x3ba3c863	0.004998253
14	0x3d3f6664	0.046728507
15	0x3dbe8597	0.09302824
16	0x3dc96b16	0.09834878
17	0x3df61cb1	0.12017191
18	0xbc921e85	-0.017836818
19	0xbc74ee39	-0.014949375
20	0xbdf3fa4b	-0.11912974
21	0x3dd7e907	0.10542493
22	0xbae8c7e1	-0.0017759764
23	0x3d26a5da	0.040685512
24	0x3e1af935	0.15134127
25	0x3dc9e98c	0.09858999
26	0xbd797b45	-0.060908575
27	0x3db647d1	0.08900417
28	0x3dda1f6d	0.10650525
29	0xbdd9fe2c	-0.106441826
30	0x3cede443	0.029039508
31	0xbcbf34b0	-0.023340553
32	0x3da9815a	0.08276625
33	0xbcac15e7	-0.021006538
34	0xbe0b42bd	-0.13599677
35	0xbe188698	-0.14895093
36	0x3dfa62f1	0.12225903
37	0xbb11a6d0	-0.0022224672
38	0xbdd0850d	-0.101816274
39	0xbe280ce2	-0.16411164
40	0xbd4aee22	-0.049543507
41	0x3e08910d	0.13336582
42	0x3d8d545b	0.06900855
43	0xbc904f5a	-0.017615963
44	0x3d3da04f	0.04629546
45	0xbc85ef79	-0.016349541
46	0x3e213c8a	0.1574575
47	0xbdb5cb59	-0.08876676
48	0xbc7c1310	-0.015385404
49	0x3d1992a6	0.03749337
50	0x3cd2f175	0.025749901
51	0xbdc033da	-0.0938489
52	0xbe5447ef	-0.20730565
53	0x3c901091	0.017586024
54	0x3c034777	0.008012644
55	0x3da309eb	0.07960876
56	0xbcf9d119	-0.030495213
57	0xbc4a4f5a	-0.01234802
58	0xbdb9ddfe	-0.09075545
59	0x3dc1e3b0	0.09467256
60	0xbd8e688e	-0.06953536
61	0x3de1645b	0.110054694
62	0xbcf1e904	-0.029530056
63	0xbb6d5121	-0.0036211687
64	0x3d429916	0.047509275
65	0x3d9059a1	0.07048345
66	0xbd215f78	-0.039397687
67	0xbd75cd02	-0.060009964
68	0xbd289c61	-0.04116476
69	0x3d293e7a	0.041319348
70	0xbcca6a84	-0.024708994
71	0xbba23b7a	-0.004950938
72	0xbc1ad2d2	-0.009449678
73	0xbdd34b6b	-0.10317119
74	0xbd8046c9	-0.06263501
75	0x3dad1bb1	0.08452547
76	0xbdb49cf4	-0.08818999
77	0xbd64655d	-0.05576073
78	0xbc5c15af	-0.013432904
79	0x3c85239a	0.016252328
80	0xbdc4fc31	-0.09618414
81	0xbad8f45e	-0.0016552319
82	0x3a9c7aca	0.001193845
83	0xbd00f0ad	-0.031479526
84	0xbd5abfaf	-0.05340546
85	0x3da1fb52	0.07909264
86	0xbc2d8e10	-0.010592952
87	0x3b95109a	0.004549098
88	0xbc1a92f0	-0.009434447
89	0x3d81a463	0.063301824
90	0x3dd279af	0.102771156
91	0x3b541d44	0.0032366076
92	0xbdd19d61	-0.10235096
93	0x3d652354	0.055941895
94	0x3dd07712	0.10178961
95	0xbd52c0f0	-0.05145353
96	0xbcd34951	-0.025791796
97	0x3de1cb97	0.1102516
98	0x3e17f7bb	0.14840595
99	0x3ce25167	0.027626706
100	0x3c78a437	0.015175871
101	0xbe0da52a	-0.13832536
102	0xbd8767d7	-0.06611603
103	0xbdec2a5d	-0.11531518
104	0x3b50424e	0.0031777802
105	0xbcaae471	-0.020860882
106	0xbc4c5884	-0.012472276
107	0xbde7d0f8	-0.113191545
108	0x3d2b45fa	0.04181478
109	0x3c1bd2a0	0.009510666
110	0x3e196f00	0.1498375
111	0x3ddfbb51	0.109244
112	0x3ca4633d	0.020066852
113	0xbd8d994e	-0.06914006
114	0x3e14e603	0.14540868
115	0xbda5d386	-0.080969855
116	0xbd9920b5	-0.074769415
117	0xbddfa4dc	-0.10920116
118	0xbd3d5578	-0.046224087
119	0x3e21c8e9	0.15799297
120	0xbd8b7e6c	-0.068112224
121	0x3db52d56	0.08846538
122	0xbcaf9d9e	-0.021437462
123	0x3dbb998d	0.09160147
124	0xbd90161f	-0.07035469
125	0xbde0e933	-0.10981979
126	0x3b7349c9	0.0037122837
127	0xbce961db	-0.028489044
128	0x369fae10	4.758833e-06
129	0x38035f1d	3.1321415e-05
130	0x37a25ae3	1.9354227e-05
131	0x3e5e2248	0.21692765
132	0xb7073790	-8.059564e-06
133	0x388da13c	6.753436e-05
134	0x38552104	5.0813906e-05
135	0xbe5e19f8	-0.21689594
136	0xb6e6e4b0	-6.881157e-06
137	0xbe5e1e9a	-0.21691361
138	0x37014399	7.704738e-06
139	0x38426a82	4.6352397e-05
140	0xbe5e2085	-0.21692093
141	0x351b973c	5.7962075e-07
142	0xbe5e228e	-0.21692869
143	0xb7715af4	-1.4385896e-05
144	0xb680eaa4	-3.842013e-06
145	0x3e5e20b8	0.21692169
146	0x3836c99f	4.3579956e-05
147	0xbe5e263f	-0.21694277
148	0x3725e578	9.888194e-06
149	0xb8038241	-3.1354142e-05
150	0xb801d493	-3.0953972e-05
151	0xb8131426	-3.5066296e-05
152	0x3e5e1dc5	0.21691044
153	0x38627a14	5.3996293e-05
154	0x37c079d6	2.2944918e-05
155	0xb85ecafa	-5.311796e-05
156	0xbe5d8fc3	-0.21636872
157	0xb71f9876	-9.512636e-06
158	0xb8559ad4	-5.0927352e-05
159	0xbe5e18b3	-0.2168911
160	0xb6ddf3be	-6.6146886e-06
161	0x3e5e15b5	0.21687968
162	0x37742061	1.4551072e-05
163	0x37bfcf42	2.2865486e-05
164	0xbe5d4a2b	-0.21610324
165	0x3e5e1615	0.21688111
166	0xbe5e2680	-0.21694374
167	0x3803e1c8	3.144311e-05
168	0xb814936e	-3.5423254e-05
169	0xb7b8b450	-2.2018474e-05
170	0x38458306	4.7090485e-05
171	0x35d880b8	1.6130716e-06
172	0xb78ffdec	-1.716517e-05
173	0xb70ede03	-8.515551e-06
174	0xb7bf6d52	-2.281988e-05
175	0xb80a01db	-3.2903492e-05
176	0x38075396	3.2264354e-05
177	0x3e55c122	0.20874456
178	0x37770b63	1.4724998e-05
179	0xb686fc4a	-4.0228815e-06
180	0x38308467	4.208498e-05
181	0x3797ce60	1.8096704e-05
182	0xb5e034da	-1.6704682e-06
183	0x382e7d7e	4.1601706e-05
184	0x37076e3e	8.072295e-06
185	0xb62df98a	-2.592426e-06
186	0xb79da600	-1.8793158e-05
187	0x37e3a2a2	2.713624e-05
188	0xb5ffd238	-1.9060162e-06
189	0xb6dc1890	-6.5593704e-06
190	0x388441da	6.306516e-05
191	0xb7278aee	-9.986323e-06
192	0xb6d8a030	-6.45595e-06
193	0xb7059647	-7.962407e-06
194	0xb849ad6a	-4.808364e-05
195	0x3801f428	3.0983385e-05
196	0xb72d3d55	-1.03258835e-05
197	0x379f26be	1.8972318e-05
198	0x3e5e2b98	0.21696317
199	0x368333c6	3.9101315e-06
200	0xb8465b1b	-4.7291727e-05
201	0xb78e88f4	-1.6991493e-05
202	0x3e22a0fb	0.15881722
203	0xbe5e1f08	-0.21691525
204	0x382f1bf7	4.1749296e-05
205	0xb7dd5600	-2.63853e-05
206	0xb7bb38c2	-2.2318567e-05
207	0xb50d49f8	-5.263423e-07
208	0x3e5e2341	0.21693136
209	0x3e0fdfd4	0.14050227
210	0xb7181152	-9.063939e-06
211	0xb6b8cc77	-5.50743e-06
212	0xbe53ed79	-0.20696057
213	0x37ccaa2c	2.4397938e-05
214	0xbe5e0faa	-0.21685663
215	0xbe5e182d	-0.2168891
216	0xbe563ea0	-0.20922327
217	0x360b4770	2.0754196e-06
218	0x3852d7f6	5.026903e-05
219	0xb80172b9	-3.086284e-05
220	0xb7bf937a	-2.2837648e-05
221	0x383212ea	4.2456122e-05
222	0xbe5e2338	-0.21693122
223	0x380e3a0a	3.390949e-05
224	0xbe5e1f66	-0.21691665
225	0xb8738840	-5.8062607e-05
226	0xbe09862a	-0.13430086
227	0xbe5e260d	-0.21694203
228	0xb78b3420	-1.6594364e-05
229	0x38019c69	3.0901665e-05
230	0x3e1cd2a6	0.15314731
231	0xb7f582d0	-2.926719e-05
232	0x3e5e1fac	0.2169177
233	0x3e5d5f26	0.21618327
234	0xb69624b6	-4.474622e-06
235	0xb742d791	-1.1613492e-05
236	0x38931f74	7.015365e-05
237	0xb672dd72	-3.6189708e-06
238	0x37900a29	1.7170869e-05
239	0x3727e1bc	1.0006534e-05
240	0x37c18e9e	2.3073804e-05
241	0xb82374e2	-3.8971084e-05
242	0x37561a3b	1.2761501e-05
243	0x38104729	3.439855e-05
244	0x3e5cf04a	0.21576038
245	0x3747c166	1.1906353e-05
246	0xb7727aec	-1.4452944e-05
247	0xb5901480	-1.0734802e-06
248	0x381959c6	3.656165e-05
249	0x3728e82a	1.0067635e-05
250	0xb6164470	-2.2391578e-06
251	0xb8843650	-6.304367e-05
252	0xb6ed32d4	-7.0690676e-06
253	0x37541256	1.2640454e-05
254	0x3e08449c	0.13307422
255	0xb79f8702	-1.9017145e-05

network.0.bias f4 [256]
0	0x3aab0b27	0.0013049588
1	0x3d60b464	0.054859534
2	0x3b61a464	0.003443026
3	0x3d5a3ced	0.05328076
4	0x3d6b9526	0.057515286
5	0x3c5ed41a	0.013600374
6	0x3cd1d555	0.02561442
7	0x3d46a7a3	0.048499715
8	0x3d0afd35	0.033932883
9	0x3bf0e511	0.0073515256
10	0x3dbcc563	0.09217336
11	0x3c78fda0	0.015197188
12	0x3d3346da	0.04376874
13	0x3d61a6f5	0.055090863
14	0x3c9b7715	0.018977681
15	0x3d4c58dc	0.04988943
16	0x3d5be3f1	0.05368418
17	0x3c86fe41	0.01647866
18	0x3d0da9c4	0.03458573
19	0x3d50f05a	0.051010467
20	0x3cb1f076	0.021721106
21	0x3d87a594	0.066233784
22	0x3cbed984	0.023297079
23	0x3d0dbaa2	0.034601815
24	0x3cdb37ea	0.02676006
25	0x3cf03591	0.029322417
26	0x3ccac949	0.024754183
27	0x3d0aafc5	0.033859033
28	0x3d040821	0.032234315
29	0x3c8a3220	0.016869605
30	0x3d8a3143	0.06747677
31	0x3d5fe96e	0.054665975
32	0x3d0bc32d	0.03412168
33	0x3bd9ecc6	0.00665054
34	0x3d0bdd4a	0.034146585
35	0x3d4e83b2	0.050418563
36	0x3ab968be	0.0014145595
37	0x3d7ce656	0.061743103
38	0x3c3d54d3	0.011555868
39	0x3dc5b74a	0.096541
40	0x3d46a9ab	0.04850165
41	0x3cedb3cb	0.029016396
42	0x3d0cf400	0.034412384
43	0x3c641b61	0.013922543
44	0x3a257027	0.00063109625
45	0x3ccbee7c	0.024893992
46	0x3d821ecd	0.06353531
47	0x3d0cd9c0	0.03438735
48	0x3bccd896	0.006251405
49	0x3ccd1575	0.025034646
50	0x3d826599	0.063670345
51	0x3c8926fe	0.016742226
52	0x3c691d48	0.014228173
53	0x3a660ff5	0.00087761815
54	0x3d4ecef0	0.05049032
55	0x3d5c18da	0.053734638
56	0x3d50ae1d	0.050947297
57	0x3d179067	0.037002947
58	0x3b5465f5	0.0032409404
59	0xbb8ccab1	-0.0042966236
60	0x3cb50ef2	0.022101853
61	0x3c87d172	0.016579363
62	0xb9813338	-0.00024642958
63	0x3cb4afd6	0.022056501
64	0x3c81f98d	0.015866065
65	0x3d5f7e7f	0.054563995
66	0xba06e590	-0.0005145902
67	0x3d23ef25	0.040022988
68	0x3d52b7fa	0.051444985
69	0x3d04e49e	0.03244459
70	0xb8d8be65	-0.00010335146
71	0x3d4d4801	0.050117496
72	0x3ceb19d8	0.028698847
73	0x3b7459f4	0.0037285062
74	0x3ce7037d	0.028199906
75	0x3d7c5f1d	0.061614145
76	0xb92db421	-0.00016565669
77	0x3d19c6a9	0.037542973
78	0xbcd70777	-0.026248677
79	0x3c5640ac	0.013076942
80	0x3d86b195	0.0657684
81	0x3d3d3099	0.046188924
82	0x3c8e62d5	0.017381111
83	0xba7c9056	-0.0009634545
84	0xbac0e763	-0.0014717396
85	0x3d2206ac	0.039557144
86	0x3cdc16fb	0.026866427
87	0x3a244dab	0.0006267677
88	0x3d27429d	0.04083501
89	0x3d52fa8d	0.051508475
90	0x3d1dbb9e	0.038509004
91	0x3d90ff34	0.07079926
92	0x3d70387b	0.058647614
93	0x3d2c6abd	0.04209398
94	0x3c53a704	0.012918238
95	0x3d82171a	0.063520625
96	0xb83cf986	-4.505508e-05
97	0x3d1798b0	0.03701085
98	0x3da0c4bb	0.07850023
99	0x3db08248	0.08618599
100	0x3d3c53eb	0.045978468
101	0xbaece4a5	-0.0018073512
102	0x3d10c309	0.03534225
103	0x3d02c0da	0.0319222
104	0x3db1a6d7	0.086744
105	0x3d812a80	0.06306934
106	0x3d1ffade	0.039057605
107	0x3c1c1485	0.009526377
108	0xbac8df29	-0.0015325296
109	0x3d45f872	0.04833264
110	0x3d0c4e61	0.034254435
111	0x3dd24421	0.10266901
112	0x3d1964b5	0.037449557
113	0x3a17e50b	0.0005794323
114	0x3ce7710c	0.028252147
115	0x3d3979c6	0.045282148
116	0x3c903a70	0.01760599
117	0x3d9d7919	0.07689113
118	0x3a2dc138	0.0006628218
119	0x3d37ca19	0.04487047
120	0x3cfbd7bf	0.030742524
121	0x3d565276	0.052324735
122	0x3d7f2636	0.0622923
123	0x3d477e71	0.04870457
124	0x3c938799	0.018008994
125	0x399270fc	0.0002793147
126	0x3d6c797e	0.05773305
127	0x3cbac40a	0.022798557
128	0x3d6b8f3e	0.057509653
129	0x3d497877	0.04918715
130	0x3cec8760	0.028873146
131	0x3cce1f52	0.025161419
132	0xbbaaa6d9	-0.005207878
133	0x3d2b7a3c	0.04186462
134	0x3d1e9e7b	0.038725358
135	0x3db89d3e	0.090143666
136	0xba62595d	-0.0008634532
137	0x3d38487c	0.044991
138	0xb98cb6c0	-0.0002683904
139	0x3ce71793	0.028209483
140	0x3d1d03b1	0.0383336
141	0x3d0744c7	0.033024576
142	0x3c6992df	0.014256208
143	0x3a0c1a8a	0.0005344531
144	0x3d151143	0.036393415
145	0x3cacaefd	0.021079535
146	0x3cf51366	0.029916476
147	0x39099632	0.0001312129
148	0x3d407dc5	0.046994943
149	0xba9f05f4	-0.0012132511
150	0x39def66a	0.00042526732
151	0x3d1db138	0.038499087
152	0x3d5deaf1	0.054179136
153	0x3d332161	0.043733004
154	0x3d16da9c	0.036829576
155	0x3d15b53d	0.036549795
156	0x3d95823b	0.0730023
157	0x38c420d2	9.3521216e-05
158	0x3c056e75	0.008144011
159	0x3c564231	0.013077305
160	0x3d39e7ac	0.045386955
161	0x3bba2144	0.005680235
162	0x3d9396b4	0.07206479
163	0x3d09d329	0.033648644
164	0x3d9f62d3	0.07782521
165	0x3d5e3ced	0.054257322
166	0x3c686255	0.0141836
167	0x3b0ca7b3	0.0021462261
168	0x3db1f1c2	0.0868869
169	0x3d011e6a	0.031523146
170	0x3c96b1d3	0.01839534
171	0x3c9d4aee	0.019200768
172	0x3d29f87e	0.041496746
173	0x3cffadf0	0.03121087
174	0x3d1e7158	0.03868231
175	0x3d171647	0.03688648
176	0xbbd62673	-0.006535345
177	0x3a9ec2ee	0.0012112537
178	0x3ced4987	0.028965725
179	0x3ca3f77e	0.020015474
180	0x3d897fc4	0.067138225
181	0x3c91c7e4	0.01779551
182	0x3bd8488e	0.006600446
183	0x3c17ac8c	0.009257447
184	0x3d92cd91	0.07168115
185	0x3d7435d1	0.059621636
186	0x3d36172a	0.044455685
187	0x3d65e2a6	0.056124352
188	0x3ca3f873	0.02001593
189	0x3d8f692e	0.07002483
190	0x3d86538d	0.06558905
191	0x3c5827c2	0.013193073
192	0x3c88118e	0.016609933
193	0x3d922460	0.07135844
194	0x3cd263ea	0.025682408
195	0x3d55ec6e	0.05222743
196	0x3d14a196	0.036286913
197	0xb955ebf9	-0.0002040117
198	0x3d42afe0	0.04753101
199	0x3cf8c422	0.03036696
200	0x3d11eec4	0.035628095
201	0x3dac8e71	0.08425606
202	0x3abeb0d2	0.0014548546
203	0x3cd6f5b5	0.02624021
204	0x3ca35b14	0.01994089
205	0x3d1e72d8	0.038683742
206	0x3cd8d41c	0.02646833
207	0x3d4108d7	0.04712757
208	0x3d3ac576	0.04559847
209	0x3cff1d9f	0.031142054
210	0x3d827b61	0.06371189
211	0xb93ad98f	-0.00017819389
212	0x3cfbab38	0.030721292
213	0x3d9a119e	0.075228915
214	0x3d630b6b	0.05543081
215	0xbc0642e2	-0.008194657
216	0xb9dbb0a2	-0.00041902537
217	0x3ca77178	0.020439848
218	0x3d3de6c5	0.046362657
219	0x3d0a793e	0.03380703
220	0x3d55e535	0.052220542
221	0x3a8fd62c	0.0010973862
222	0x3d41fa1a	0.047357656
223	0x3d345a03	0.044031154
224	0x3d791475	0.060810525
225	0x3cead1a5	0.02866442
226	0x3ca0b544	0.019617684
227	0x3cfc045b	0.030763796
228	0x3d754fe4	0.059890643
229	0x3dc26bdf	0.09493231
230	0x3d809e6d	0.06280217
231	0x3ced304f	0.0289537
232	0x3d61f956	0.055169426
233	0x3d1da949	0.03849152
234	0x3c36b8f7	0.0111524975
235	0x3d2b4a22	0.041818745
236	0x3d33a23a	0.043855883
237	0x3cfd91b3	0.030953264
238	0x3d3bcbc8	0.045848638
239	0x3d14f827	0.03636947
240	0x3d7e1ce1	0.06203926
241	0x3dbd3a8e	0.09239684
242	0x3d929b3f	0.07158517
243	0x3c862fb1	0.016380163
244	0x3cffed85	0.031241188
245	0x3c8ebf8c	0.017425321
246	0x3cd899a7	0.026440455
247	0x379cf03c	1.8708517e-05
248	0x3d227153	0.039658856
249	0x3cb3fe78	0.021971926
250	0x3aaaa132	0.0013018011
251	0x3d2f87da	0.042854168
252	0x3cc35e2d	0.023848617
253	0x3da9cd29	0.08291084
254	0x3c9f9856	0.01948182
255	0xbadfdc4b	-0.0017079202

network.2.weight f4 [192, 256]
0	0x3c9dc16b	0.019257268
1	0x3d52a54e	0.051427178
2	0x3d3c8697	0.046026792
3	0x3c67e0fa	0.01415276
4	0xbd0f1e45	-0.034940977
5	0xbcf3cefd	-0.029761786
6	0x3c5e8c5e	0.013583271
7	0xbda80c6b	-0.082054935
8	0xbdea6653	-0.11445298
9	0x3cbb510b	0.022865793
10	0x3ce99efe	0.028518196
11	0x3d1c1a5a	0.03811107
12	0x3ca28d73	0.019842839
13	0x3bd2d566	0.0064341305
14	0xbdbdfc06	-0.09276585
15	0xbda578e1	-0.080796964
16	0xbd88cf96	-0.06680219
17	0x3dcc3a7d	0.09972093
18	0xbd185671	-0.037191812
19	0xbc850ef9	-0.016242491
20	0xbd878dde	-0.06618856
21	0xbca07756	-0.019588154
22	0xbc86a324	-0.016435213
23	0xbd8e37d1	-0.0694424
24	0x3b767e7f	0.0037612019
25	0x3cde0fb9	0.027107107
26	0x3c54084c	0.012941431
27	0x3dc369f4	0.09541693
28	0x3bd77b2e	0.0065759635
29	0xbc88d56f	-0.016703336
30	0x3c6db7d1	0.014509157
31	0xbd1e90f2	-0.03871245
32	0x3ce29e3c	0.027663343
33	0x3a82df3e	0.0009984744
34	0xbb21b153	-0.0024672344
35	0x3d0710e6	0.0329751
36	0x3d612192	0.054963656
37	0xbd63da4c	-0.055628106
38	0x3daa2e83	0.08309653
39	0x3d17a68b	0.037024062
40	0x3cc77d44	0.024351723
41	0x3d9c974e	0.076460466
42	0x3e032e42	0.12810615
43	0xbde21a08	-0.11040121
44	0x3e2790c6	0.1636382
45	0x3c8ddde9	0.01731773
46	0x3d96b49f	0.073586695
47	0x3e4c2663	0.19936518
48	0x3db6e5bc	0.08930537
49	0x3ddf621b	0.10907384
50	0x3dad60d2	0.08465733
51	0xbe336aa2	-0.17521146
52	0xbd0bcf71	-0.03413338
53	0x3bf559c6	0.0074875085
54	0x3dc21d89	0.0947829
55	0x3dce85ca	0.10084112
56	0xbddea77c	-0.10871789
57	0xbe0ce5cf	-0.1375954
58	0xbd8c5264	-0.06851652
59	0xbd71574f	-0.058921155
60	0x3d4d0c93	0.05006082
61	0x3c55b338	0.013043217
62	0xbc787300	-0.015164137
63	0x3b17d895	0.0023169864
64	0xbe323010	-0.17401147
65	0x3d9c8835	0.07643167
66	0x3c97d784	0.018535383
67	0xbd25a90a	-0.04044441
68	0xbbc684be	-0.0060583046
69	0xbd1d08df	-0.03833854
70	0xbd760e95	-0.0600725
71	0x3c2adadb	0.010428156
72	0x3d084058	0.033264488
73	0x3d55a5c2	0.052160032
74	0xbd74f817	-0.05980691
75	0x3d3c5310	0.045977652
76	0x3da2c912	0.07948507
77	0xbcabec44	-0.020986684
78	0xbe3a2e87	-0.18181811
79	0xbe1b5a56	-0.15171179
80	0x3d9328c4	0.0718551
81	0x3cbf366d	0.023341382
82	0xbced28d2	-0.028950129
83	0xbc6cc6e9	-0.014451721
84	0xbcdd7ee3	-0.027038043
85	0x3d3a44de	0.045475833
86	0xbbad1d20	-0.005283013
87	0xbd01ed51	-0.031720463
88	0x3ce80a0a	0.0283251
89	0xbdbe40dc	-0.09289715
90	0x3c7f7f53	0.015594321
91	0xbd12b4c2	-0.035816915
92	0xbb90db23	-0.0044206544
93	0x3d3e0ca3	0.04639877
94	0x3d1a5d9a	0.03768692
95	0x3c1e1a10	0.0096497685
96	0x3cadf771	0.021236153
97	0x3de1c6d6	0.11024253
98	0x3cc3c4a4	0.023897476
99	0x3dea6267	0.1144455
100	0xbcfcfc61	-0.030882062
101	0x3cd7ac5d	0.026327306
102	0xbbf22486	-0.007389608
103	0x3d5076f1	0.05089468
104	0xbcae0d3b	-0.021246543
105	0x3e32e3a5	0.17469652
106	0xbc8ea878	-0.017414317
107	0xbcf7722b	-0.030205807
108	0x3dfce8b7	0.12349074
109	0x3bf1eb98	0.0073828213
110	0xbd814104	-0.06311229
111	0x3e5752e1	0.2102771
112	0xbc8ccf34	-0.017188646
113	0x3d6e9927	0.058251526
114	0x3df75995	0.12077633
115	0xbddb5983	-0.107104324
116	0xbd1455bd	-0.03621458
117	0xbd3d94e6	-0.04628458
118	0xbe067947	-0.13132201
119	0x3c98578c	0.018596433
120	0x3d112ee0	0.035445094
121	0x3d3ae130	0.04562491
122	0xbd48d67c	-0.049032673
123	0xbd03a793	-0.032142233
124	0x3d0e4fa6	0.034743927
125	0xbbe019b7	-0.006839003
126	0xbd6b4fbb	-0.057449084
127	0x3b55d7ec	0.003262992
128	0xbd04c46f	-0.032413896
129	0xbdfe7936	-0.12425463
130	0xbdc8aacd	-0.09798203
131	0xbe095e93	-0.13414983
132	0xbca976b4	-0.020686485
133	0xbd6c0eea	-0.05763141
134	0xbd19a884	-0.037514225
135	0xbd7a9eb1	-0.061186496
136	0x3d8c3cb6	0.06847517
137	0xbd16a664	-0.036779776
138	0xbd207fe4	-0.039184466
139	0x3e3c146d	0.18367167
140	0xbdb2e38c	-0.08734807
141	0xbd063946	-0.032769464
142	0x3b3671a5	0.0027838734
143	0xbbeb17af	-0.007174454
144	0x3cc6771e	0.024226721
145	0x3d143d0f	0.036191043
146	0xbd3e5657	-0.04646906
147	0x3e109082	0.14117625
148	0xbd5dd85a	-0.054161407
149	0x3c9008d4	0.017582335
150	0x3db99fe4	0.090637
151	0xbd97f769	-0.074202366
152	0xbcc4fdae	-0.024046745
153	0xbd2e055b	-0.042485576
154	0xbd9188e4	-0.07106188
155	0x3d0f8470	0.03503841
156	0x3c78d8a8	0.015188374
157	0xbe0a965b	-0.13533919
158	0xbc9d93fa	-0.0192356
159	0x3d0fa0a1	0.035065297
160	0x3cc6a5f2	0.02424905
161	0xbd5f878c	-0.054572627
162	0xbc8daab2	-0.017293308
163	0xbe22819a	-0.15869752
164	0xbca3908f	-0.019966392
165	0x3d59193a	0.053002574
166	0xbde7ddf7	-0.11321633
167	0x3df613cd	0.120154954
168	0x3a6edc07	0.0009111766
169	0xbe131b49	-0.14365877
170	0xbc9d432f	-0.019197075
171	0x3d281737	0.041037764
172	0x3d18b243	0.03727938
173	0x3d694921	0.056954507
174	0x3d79c535	0.060979087
175	0xbc3874bf	-0.011258303
176	0xbb59ae45	-0.0033215445
177	0x3dc4ee1c	0.09615728
178	0xbde84b2f	-0.11342465
179	0xb895acdb	-7.1370705e-05
180	0x3d617504	0.055043235
181	0xbdcc1e12	-0.09966673
182	0x3c1441e4	0.009048913
183	0xbca41c2e	-0.020032968
184	0xbcfbffc2	-0.030761603
185	0x3da7765a	0.08176871
186	0xbcaa5e2c	-0.020796858
187	0x3bbb2131	0.005710744
188	0x3d6f0fd8	0.05836472
189	0x3d8a7ae2	0.06761719
190	0x3d24260b	0.040075343
191	0xbd6eb557	-0.058278408
192	0x3d37da77	0.04488608
193	0xba978bdc	-0.0011562067
194	0x3cb3b1e8	0.021935418
195	0x3dcaeb35	0.099081434
196	0xbc04ff74	-0.008117545
197	0xbd94557b	-0.072428666
198	0xbe16564a	-0.14681354
199	0x3d0ca21d	0.03433429
200	0x3da16dd8	0.07882279
201	0x3c8a52de	0.016885217
202	0x3c4bd72f	0.0124414405
203	0x3d3f3c45	0.046688337
204	0x3d97dc1b	0.07415029
205	0x3d88832c	0.06665644
206	0x3b6d4280	0.0036202967
207	0xbcf8ea18	-0.030385062
208	0x3dbf896b	0.09352382
209	0x3d9ad394	0.075598866
210	0x3d538fbd	0.05165075
211	0xbced275e	-0.028949436
212	0x3d1b67ac	0.037940666
213	0x3b2c1b13	0.0026261255
214	0x3b59244b	0.0033133205
215	0xbd2d2bfb	-0.04227827
216	0x3c4e71d5	0.012600382
217	0xbc467208	-0.012112148
218	0xbb7d4edf	-0.0038651747
219	0x3dc2f9c4	0.09520295
220	0xbe41636b	-0.18885581
221	0xbdc3095f	-0.09523272
222	0x3de87dc5	0.11352114
223	0x3d7c1436	0.061542712
224	0xbc53cd6f	-0.012927397
225	0x3e1ea723	0.15493445
226	0xbc2280ba	-0.009918386
227	0xbc98d013	-0.018653905
228	0x3ba1d77a	0.004939017
229	0xbda2e537	-0.079538755
230	0x3dd43580	0.10361767
231	0x3cc3efd8	0.023918077
232	0xbc7f8e22	-0.015597852
233	0xbc8e35ef	-0.017359702
234	0x38cb907a	9.706705e-05
235	0x3d9f2fe7	0.077728085
236	0x3dd18f5e	0.10232423
237	0xbdf3498e	-0.11879264
238	0xbc59767d	-0.013272879
239	0xbdae8aa0	-0.08522534
240	0xbcd46022	-0.025924746
241	0xbd256118	-0.0403758
242	0xbd992924	-0.0747855
243	0xbca912d1	-0.020638855
244	0x3dd75045	0.10513357
245	0x3e50a5a2	0.20375684
246	0xbdea690c	-0.11445817
247	0x3d3ccf10	0.046095908
248	0xbde66cbb	-0.112512074
249	0xbe54c2ba	-0.20777407
250	0x3c0ed6b3	0.0087181805
251	0xbd9a68c4	-0.07539514
252	0xbd03b46f	-0.032154497
253	0x3c853672	0.016261313
254	0xbd0865cb	-0.033300202
255	0x3d9f6df0	0.07784641

network.2.bias f4 [192]
0	0x3ccb3e1a	0.024809886
1	0x3d0c8962	0.034310706
2	0x3cbefe91	0.023314746
3	0x3c350b43	0.011050048
4	0x3d059866	0.03261604
5	0x3cf083ed	0.029359782
6	0x3cdbd02e	0.026832666
7	0x3cf7de5d	0.030257398
8	0x3d06b347	0.032885816
9	0x3d307de8	0.043088824
10	0xbab5ba5c	-0.0013864744
11	0x3d0cc7ac	0.03437011
12	0x3ceab280	0.028649569
13	0xbb91e578	-0.0044524036
14	0x3ced672f	0.028979866
15	0x3cf05dac	0.029341541
16	0x3cd025fb	0.025408735
17	0x3c511e6e	0.012763603
18	0x3c66c086	0.014083987
19	0x3c81f6f5	0.015864829
20	0x3cb68c20	0.022283614
21	0x3d3b722d	0.045763183
22	0x3cb6bc28	0.022306517
23	0x3d227255	0.039659817
24	0x3d17836c	0.036990568
25	0x3b889479	0.00416809
26	0x3c9f5500	0.01944971
27	0x3d35210b	0.044220965
28	0x3cac452a	0.021029074
29	0xbb6f4fc7	-0.0036516057
30	0x3c55b4f0	0.013043627
31	0x3cbbcf36	0.022925954
32	0x3ce165ff	0.027514456
33	0x3d0c992a	0.034325756
34	0x3ce8a6c2	0.028399829
35	0x3cb553df	0.02213472
36	0x3ce30e0d	0.02771666
37	0x3cb32991	0.021870406
38	0x3d214733	0.03937454
39	0xbb8b8b1f	-0.004258528
40	0x3d2dc530	0.04242438
41	0xbc1d7f64	-0.009612892
42	0x3cb86797	0.022510333
43	0xbb38e963	-0.0028215281
44	0x3c4bbea8	0.012435593
45	0x3cb1412a	0.021637518
46	0x3c987d1f	0.01861435
47	0x3d0221b0	0.03177041
48	0x3c6e11be	0.014530597
49	0x3bd1cdff	0.0064027305
50	0x3d34e436	0.04416295
51	0x3ca7a310	0.020463496
52	0x3d133b75	0.035945375
53	0x3afa6e44	0.0019106348
54	0x3c88e502	0.016710762
55	0x3d4834de	0.048878543
56	0xbc72a953	-0.014810878
57	0x3cf535a8	0.029932812
58	0x3cb48e29	0.022040443
59	0x3c92c21c	0.017914824
60	0x3b9a2889	0.004704539
61	0x3d54ca2c	0.05195062
62	0x3c8d7b26	0.017270636
63	0x3c9ea3a0	0.019365132
64	0x3d607bb1	0.05480546
65	0x3b34f95f	0.0027614457
66	0x3cfd2d41	0.030905368
67	0x3b8d3b08	0.0043100156
68	0xbba30664	-0.004975127
69	0x3bb11cf8	0.0054050647
70	0x3cfe6c37	0.03105746
71	0x3caa00fe	0.020752426
72	0xbbb879aa	-0.005629738
73	0x3ce4598e	0.027874734
74	0xbc469d55	-0.012122472
75	0xba00c341	-0.00049119076
76	0x3c22e563	0.009942385
77	0x3ce8a422	0.028398577
78	0xbb4ace34	-0.003094566
79	0xbb1e9ce8	-0.002420241
80	0x3c8fa078	0.017532572
81	0x3c3fcf7e	0.011707185
82	0x3cb95b7f	0.022626637
83	0x3d0bd2c6	0.034136556
84	0x3cd192d2	0.025582705
85	0x3a8c8200	0.0010719895
86	0x3c8c81de	0.01715177
87	0x3ce8e3f6	0.028429013
88	0x3bbd8d07	0.005784634
89	0x3d218354	0.039431885
90	0x3c32e341	0.010918439
91	0x3cd99d3c	0.026564233
92	0x3d186f8a	0.037215747
93	0x3c6e3b6b	0.014540534
94	0x3ce5e352	0.028062496
95	0x3d03f330	0.032214344
96	0xbc650a52	-0.013979511
97	0x3a586cb8	0.00082559464
98	0x3ca561fc	0.020188324
99	0xbbad2692	-0.005284139
100	0x3b743b41	0.0037266763
101	0x3d394465	0.04523124
102	0x3ca5a4e0	0.02022022
103	0x3d068827	0.03284469
104	0xb9ada396	-0.00033119012
105	0x3c58f6c5	0.013242428
106	0x3c15caba	0.009142572
107	0x3c0eafdd	0.008708921
108	0x3cadbe2f	0.02120885
109	0x3b9fde04	0.0048787612
110	0x3cf378f3	0.029720759
111	0xba24f21c	-0.00062921806
112	0x3d31be6b	0.043394487
113	0x3d086d56	0.033307396
114	0x3d011d78	0.031522244
115	0x3c7a94ca	0.015294263
116	0x3cf8f38d	0.030389572
117	0x3ce6a317	0.02815394
118	0x3b9f3e5f	0.00485973
119	0x3d0437c2	0.032279737
120	0xbc1bab40	-0.009501278
121	0x3d210a59	0.03931651
122	0x3ce3c963	0.02780599
123	0xbc0d7a2d	-0.008635086
124	0x3bf6b783	0.0075292005
125	0xbc8d86c5	-0.017276177
126	0x3c8642ca	0.01638927
127	0x3d38ac9b	0.045086484
128	0x3af2c9c1	0.0018523262
129	0x3ce6f9d4	0.0281953
130	0x3cbcf088	0.023063913
131	0x3cfa8ff6	0.030586224
132	0x3c8c459d	0.017123038
133	0x3cfc9acf	0.030835537
134	0xbba55c82	-0.005046428
135	0x3c7a74c5	0.015286629
136	0xbba3b0b9	-0.004995432
137	0x3cce4c0e	0.02518275
138	0x3d4758ae	0.048668556
139	0xbbf7da2d	-0.0075638504
140	0x3c0db9b0	0.008650228
141	0xbc9a5c82	-0.01884294
142	0x3d85a62a	0.06525834
143	0x3cc65cd6	0.02421419
144	0x3d06dcef	0.032925542
145	0x3d1aeaae	0.037821464
146	0x3ce9e96d	0.028553689
147	0x3cf4aa19	0.029866265
148	0x3d54f128	0.051987797
149	0x390f94eb	0.00013693019
150	0x3c13b6e5	0.009015773
151	0x3d4c3edf	0.049864646
152	0x3d6757dc	0.056480274
153	0x3d09633a	0.033541895
154	0x3c5d4fc9	0.013507792
155	0x3ce30500	0.027712345
156	0x3c53547e	0.0128985625
157	0x3d5b89ec	0.05359833
158	0x3be992c7	0.007128093
159	0x3cba7a5c	0.022763424
160	0x3ba6992e	0.0050841784
161	0x3caee94b	0.021351477
162	0x3d1d1d9a	0.03835831
163	0x3d29f08d	0.041489173
164	0x3c4c54e5	0.012471412
165	0x3cc9402c	0.024566732
166	0xbbc235d6	-0.005926828
167	0x3cd11a74	0.02552531
168	0xbbc83c44	-0.0061107
169	0x3b78c38f	0.003795836
170	0x3cd5e326	0.02610929
171	0x3cdb358c	0.026758932
172	0x3d27f7dc	0.04100786
173	0x3c4820f9	0.012214893
174	0x3d333283	0.043749344
175	0x3c2cb51c	0.010541227
176	0x3c4bedb2	0.012446808
177	0x3c7bfc4c	0.0153799765
178	0x3c641b20	0.013922483
179	0x3bf34da6	0.007425028
180	0x3c8e134a	0.017343182
181	0x3cecd36c	0.028909408
182	0x3c6f8fa0	0.014621645
183	0x3cce469e	0.025180157
184	0x3c7c1745	0.015386407
185	0x3c409326	0.011753833
186	0x3d11242d	0.03543489
187	0x3bd272ac	0.0064223614
188	0x3c88484a	0.016636033
189	0xbb8ce4a3	-0.0042997166
190	0x3c49f986	0.012327557
191	0x3c400639	0.011720234

network.4.weight f4 [128, 192]
0	0x3c673c40	0.014113486
1	0x3e0478cd	0.12936707
2	0x3d07f1a8	0.033189446
3	0x3cbd3cbd	0.023100251
4	0x3d92c23a	0.07165952
5	0x3cfe172b	0.031016907
6	0xba805da7	-0.0009793536
7	0x3d59088b	0.052986663
8	0x3e43b213	0.19110899
9	0x3bc13e0a	0.005897288
10	0xbdbf51d8	-0.09341782
11	0x3d88d7af	0.066817634
12	0xbe013dfa	-0.12621298
13	0x3d997881	0.074936874
14	0xbbf2cdce	-0.0074097877
15	0xbd83d79b	-0.06437608
16	0xbdc3d8b6	-0.09562819
17	0x3d041587	0.032247093
18	0x3d16a19a	0.03677521
19	0x3e0f7664	0.14010006
20	0x3dcbdfeb	0.09954818
21	0xbc1a5207	-0.009418971
22	0x3c36cd4e	0.011157347
23	0xbd3e7250	-0.046495736
24	0xbdb2a742	-0.08723308
25	0x3c3a0ca1	0.01135555
26	0xbcbbd337	-0.022927864
27	0xbcbeb899	-0.023281382
28	0x3dd8d0ce	0.10586701
29	0xbdb5ebca	-0.08882864
30	0x3d9a922a	0.0754741
31	0xbe004fba	-0.12530413
32	0x3d34c932	0.044137187
33	0x3d75801f	0.05993664
34	0xbdb38a58	-0.08766621
35	0xbc2cdb42	-0.010550322
36	0xbd3e6c49	-0.046489988
37	0xbe25df16	-0.16198382
38	0x3e3281a1	0.17432262
39	0xbdbe63ba	-0.09296365
40	0xbd9d4868	-0.07679826
41	0x3db40f62	0.087919965
42	0x3d196960	0.03745401
43	0x3bacc5bd	0.0052725957
44	0x3d75d112	0.060013838
45	0xbc328f0f	-0.010898366
46	0xbc070d3c	-0.008242901
47	0xbc78b761	-0.01518044
48	0xbdaee289	-0.08539302
49	0xbcad4f8d	-0.021156097
50	0xbcb85adf	-0.022504268
51	0xbe0e5ef3	-0.13903408
52	0x3d595108	0.053055793
53	0xbdb46139	-0.08807606
54	0x3d36d1ae	0.04463356
55	0xbb8c8b1d	-0.0042890445
56	0xbe30b881	-0.17257883
57	0x3c64e63f	0.013970911
58	0xbc05966b	-0.008153538
59	0xbc29f290	-0.010372773
60	0xbd72799b	-0.059198003
61	0xbc9058e5	-0.017620513
62	0xbbea87ae	-0.0071572876
63	0xbdaf70ae	-0.08566414
64	0x3ddbc073	0.10730066
65	0x3e84575c	0.258479
66	0xbd24ba47	-0.04021671
67	0x3d35d153	0.04438908
68	0xbbae0588	-0.005310718
69	0x3cf5e085	0.030014286
70	0xbe815028	-0.25256467
71	0x3da3afad	0.07992492
72	0x3c631e03	0.013862136
73	0xbe38c221	-0.18042804
74	0xbddbf3b2	-0.107398406
75	0x3dcf9f83	0.10137846
76	0xbc5edca5	-0.01360241
77	0x3d823f42	0.06359722
78	0xbd8e9828	-0.06962615
79	0xbcd7fbdc	-0.026365213
80	0xbc317704	-0.010831598
81	0xbd5dae84	-0.05412151
82	0x3d91990d	0.0710927
83	0x3db334f5	0.08750335
84	0x3d8ae4fb	0.06781956
85	0x3e0ad586	0.13558015
86	0x3e340a44	0.17582041
87	0xbd81d1bc	-0.06338832
88	0xbdb7ba50	-0.08971083
89	0x3df02ff8	0.11727899
90	0xbe22d232	-0.15900496
91	0xbd8c8068	-0.06860429
92	0xbe124f80	-0.1428814
93	0xbb5d22a9	-0.0033742583
94	0xbde4c2c3	-0.1116996
95	0x3e0fd6cb	0.14046781
96	0x3db1873a	0.086683705
97	0xbb9a5ea3	-0.0047109886
98	0x3de42ccd	0.111413576
99	0xbc9eaf06	-0.019370567
100	0xbc8cb83e	-0.017177697
101	0xbcf8ca1f	-0.030369816
102	0x3de6174d	0.11234913
103	0x3de233e6	0.11045055
104	0x3e09ee13	0.13469724
105	0xbbe37898	-0.006941866
106	0x3c58ba88	0.013228066
107	0xbe0d0da5	-0.13774736
108	0xbc0c2751	-0.008554296
109	0x3d8c49b7	0.068499975
110	0x3c1875b8	0.00930541
111	0x3eb40c86	0.35165805
112	0xbd875fcb	-0.06610068
113	0xbdf447e9	-0.11927778
114	0xbe1e479e	-0.15457007
115	0x3c7025a1	0.014657409
116	0x3c38b88f	0.011274471
117	0x3d056188	0.032563716
118	0xbcbbb909	-0.02291538
119	0x3da3b1bd	0.07992885
120	0xbdb768fd	-0.08955572
121	0x3ca907e8	0.020633653
122	0x3e381692	0.1797736
123	0xbd99be53	-0.075070046
124	0x3de40e72	0.11135568
125	0x3da20291	0.07910646
126	0x3db78619	0.08961124
127	0x3c30da9e	0.01079431
128	0x3e229ffc	0.15881342
129	0xbdc41a72	-0.095753565
130	0x3d13e114	0.036103323
131	0x3e1139ff	0.1418228
132	0xbe293601	-0.16524507
133	0xbc2df319	-0.010617041
134	0x3cd8bbae	0.02645668
135	0xbd3ce95e	-0.046120994
136	0x3e2dde3e	0.1697931
137	0xbe25604f	-0.1615002
138	0x3bd96414	0.0066342447
139	0xbe24cedb	-0.16094534
140	0x3d8980c6	0.06714015
141	0x3d919818	0.07109088
142	0xbcf6cb8a	-0.030126352
143	0xbd0cfd9a	-0.03442154
144	0xbb882418	-0.0041546933
145	0xbd800638	-0.06251186
146	0x3d0f1759	0.034934375
147	0xbdaa0475	-0.08301631
148	0x3d397036	0.04527303
149	0x3d689705	0.05678465
150	0x3c742949	0.014902421
151	0xbdc55bf5	-0.0963668
152	0xbe0ca7c6	-0.13735875
153	0xbcc33e4e	-0.02383342
154	0xbd29115d	-0.041276325
155	0x3c686e17	0.014186404
156	0x3d8af222	0.067844644
157	0xbe2d7e14	-0.16942626
158	0xbdd8b003	-0.105804466
159	0xbd83cd9f	-0.064357035
160	0xbd043dbc	-0.032285437
161	0x3dad868c	0.084729284
162	0x3c09e0e0	0.008415431
163	0xbccc8ed2	-0.024970446
164	0xbb2a5496	-0.0025990359
165	0xbe181750	-0.14852643
166	0x3ca939e0	0.02065748
167	0xbda6f3e8	-0.0815199
168	0x3c8d2f26	0.017234396
169	0xbdd1973b	-0.10233923
170	0x3d9d0453	0.076668404
171	0x3ce1df96	0.027572434
172	0xbd464030	-0.048401058
173	0xbad738e2	-0.0016420151
174	0x3d6b3484	0.05742313
175	0x3cce0abb	0.025151601
176	0x3c3919e1	0.011297674
177	0x3df3740c	0.118873686
178	0x3e1d725c	0.15375656
179	0x3d6e13f9	0.058124516
180	0xbcec833e	-0.028871175
181	0x3dd9ce8b	0.10635098
182	0x39decb0d	0.00042494424
183	0xbc190fb8	-0.009342127
184	0xbd08d325	-0.033404488
185	0x3c9a568f	0.018840102
186	0xbd9712cd	-0.07376633
187	0xbcdbe8c7	-0.026844395
188	0xbdabfb68	-0.08397561
189	0x3d8a2b63	0.067465566
190	0x3e428148	0.1899463
191	0x3d4b25ca	0.049596585
192	0x3d358074	0.044311956
193	0xbdfabf1f	-0.12243485
194	0x3de11d1a	0.10991879
195	0x3c173b47	0.009230441
196	0xba7faa61	-0.00097528665
197	0xbb18e24a	-0.0023328238
198	0x37958107	1.7822267e-05
199	0x3cf10bf2	0.029424641
200	0xbb7036c8	-0.0036653746
201	0x3e14cf92	0.14532307
202	0xbb6ae7c0	-0.00358437
203	0xb3e71498	-1.0760522e-07
204	0xbd5641dc	-0.052308902
205	0x3dd4a4b4	0.10382977
206	0x3ca569c4	0.020192035
207	0xbd81a299	-0.06329841
208	0xbd4fc148	-0.050721437
209	0x3ada6a22	0.001666371
210	0x3d8973f5	0.0671157
211	0x3d7e93ba	0.0621526
212	0xbb8cec11	-0.0043006022
213	0xbe0c05a7	-0.13674031
214	0xbc7caf82	-0.015422704
215	0xbd83172a	-0.064009026
216	0x3e3e89e1	0.18607284
217	0x3d180220	0.0371114
218	0xbd1817a7	-0.03713193
219	0xbe321df6	-0.17394242
220	0xbd3e92dc	-0.046526775
221	0xbe332290	-0.17493653
222	0xbd8cace7	-0.06868916
223	0xbd33aa22	-0.043863423
224	0xbd9fea1a	-0.07808323
225	0xbcb501c9	-0.022095578
226	0xbcdd9dd8	-0.027052805
227	0x3b2267b1	0.0024781043
228	0xbc4a19ca	-0.01233525
229	0xbe9502b8	-0.29103637
230	0xbdfa08c8	-0.12208706
231	0xbe0ae493	-0.13563757
232	0xbe12cfa7	-0.14337026
233	0xbd026b09	-0.031840358
234	0xbb6d29d2	-0.0036188257
235	0x3ccd239c	0.025041394
236	0x3cfb229b	0.03065615
237	0x3dbdb2b8	0.092626035
238	0xbe1e0338	-0.15430915
239	0xbb811c37	-0.003940131
240	0x3d1c9b00	0.038233757
241	0x3d05560a	0.032552756
242	0xbd179af9	-0.037013028
243	0xbcbd6cce	-0.023123171
244	0xbd5b907b	-0.053604584
245	0xbd8cbf8e	-0.06872474
246	0xbd3e94f5	-0.046528775
247	0xbc86240c	-0.01637461
248	0xbd8f7266	-0.07004242
249	0xbe13aeeb	-0.14422195
250	0x3d56ba2c	0.05242364
251	0x3dc1c08b	0.09460553
252	0xbc89e21e	-0.016831454
253	0xbd09d2af	-0.03364819
254	0xbd8d9a3d	-0.06914184
255	0xbd65e387	-0.05612519

network.4.bias f4 [128]
0	0x3c0bc7a3	0.008531484
1	0xbc181d50	-0.009284332
2	0x3caab20a	0.020836849
3	0xbb86912a	-0.0041066604
4	0xbb03a736	-0.002008868
5	0x3ad0435c	0.0015889215
6	0x3d142c11	0.036174837
7	0x3cf4130e	0.029794242
8	0x3d1d67a7	0.03842893
9	0xbb781585	-0.0037854624
10	0x3ce7ab8b	0.02828004
11	0x3c69d668	0.01427231
12	0x3c5e2d0d	0.013560546
13	0x3d2dbe4d	0.042417813
14	0x3c4d680c	0.012537014
15	0x3c8e9308	0.017404094
16	0x3c79d88a	0.015249381
17	0xbb9791f8	-0.004625555
18	0xbbc4b3b7	-0.006002869
19	0x3b75907e	0.0037470157
20	0xbbfefc58	-0.0077815466
21	0x3baaea35	0.005215908
22	0x3cc8335a	0.024438549
23	0x3c164f42	0.00917417
24	0xbab62336	-0.0013895992
25	0x3cc3b992	0.023892198
26	0x3c1fae00	0.009746075
27	0xbadde056	-0.0016927819
28	0x3a30568a	0.00067267625
29	0x3b846965	0.0040408843
30	0x3d27480e	0.0408402
31	0xbb86f55a	-0.0041186037
32	0x3c8f8b37	0.017522437
33	0x3d20545f	0.039142963
34	0x3c586607	0.013207919
35	0x3cb7e010	0.022445709
36	0x3bdca427	0.0067334357
37	0x3d02913f	0.0318768
38	0x3a47255a	0.00075968134
39	0x3be3d133	0.0069524287
40	0x3bf412ce	0.0074485308
41	0xbc5b993b	-0.013403232
42	0x3d136876	0.035988294
43	0x3c8992ed	0.016793692
44	0xbc04e3fa	-0.0081109945
45	0x3c89af1d	0.016807133
46	0xbbe0396e	-0.0068427837
47	0x3c9ebd3d	0.019377345
48	0x3ceb703a	0.028740037
49	0x3ba5ca18	0.005059492
50	0xbb0bacd0	-0.002131272
51	0x3c3c23e4	0.011483166
52	0x3c50bcc6	0.01274032
53	0xbc005940	-0.007833779
54	0x3cb89c60	0.022535503
55	0xbc2c0e77	-0.010501496
56	0x3c05f305	0.008175616
57	0xb99dd18a	-0.00030101492
58	0x3c2f36e8	0.010694243
59	0x3d57550b	0.052571338
60	0x3cddcd16	0.027075332
61	0xb892d21e	-7.00096e-05
62	0xbcae2007	-0.021255506
63	0x3cee98f9	0.029125677
64	0x3c354d1a	0.011065746
65	0x3c889115	0.016670743
66	0x3bff5816	0.007792483
67	0x3c9e79b4	0.019345142
68	0x3cbf3ee0	0.02334541
69	0x3c3d8d2b	0.011569302
70	0x3cd96764	0.026538558
71	0x3cf160bd	0.029465074
72	0xbc3dc045	-0.011581485
73	0x3d054379	0.03253505
74	0xbacee46a	-0.0015784625
75	0x3c0e3c8f	0.0086814305
76	0xbc9c4dc9	-0.01908006
77	0x3d3e640b	0.046482127
78	0x3cdfa03b	0.027298084
79	0xbc78640f	-0.015160575
80	0x3c84d51c	0.0162149
81	0x3c6d09c3	0.014467659
82	0xbad40795	-0.0016176576
83	0x3cbec14a	0.023285527
84	0x3ca99104	0.020699032
85	0x3cd9c2e2	0.026582185
86	0x3cf221f3	0.029557204
87	0x3c56fbb2	0.013121532
88	0x3c620957	0.013796172
89	0x3ca38e28	0.019965246
90	0x3c9725bf	0.018450616
91	0x3c4fc846	0.012682026
92	0x3cd19e9c	0.025588326
93	0x3c074d51	0.00825818
94	0x3c7cf9a1	0.015440376
95	0x3c0aaad1	0.008463577
96	0x3bc06cdc	0.005872352
97	0x3c49fe17	0.012328646
98	0xbc0cdd49	-0.00859768
99	0xbbb79bc3	-0.005603285
100	0x3c0fa8e6	0.008768296
101	0x3cb421bb	0.02198874
102	0x3b0a4b5a	0.0021102042
103	0xbbf29b93	-0.0074038
104	0x3bfe4f86	0.007760945
105	0x3d0d1786	0.03444626
106	0xbbc5ca03	-0.0060360446
107	0x3d3d711d	0.04625045
108	0x3cecdb8d	0.028913284
109	0x3c23197c	0.009954806
110	0x3b289949	0.002572613
111	0x3bb4726c	0.005506804
112	0x3b9b044f	0.0047307382
113	0xbbc778cb	-0.0060873977
114	0x3c8910a6	0.016731571
115	0x3c9f15b8	0.019419536
116	0x3c2f3659	0.01069411
117	0xbc0cefdf	-0.008602112
118	0x3d0c9e51	0.03433067
119	0x3c90cd38	0.01767598
120	0x3ca081c4	0.019593127
121	0xbc40ac03	-0.011759761
122	0x3b500d2f	0.003174614
123	0x3c85d775	0.01633809
124	0x3c25a87b	0.01011097
125	0x3a22f7d4	0.0006216739
126	0x3c9b608c	0.018966936
127	0x3c4962bf	0.012291609

network.6.weight f4 [39, 128]
0	0xbda7013b	-0.081545316
1	0x3e7eb455	0.24873479
2	0xbe0ac1da	-0.13550511
3	0x382c5186	4.108392e-05
4	0x3c66c78b	0.014085661
5	0x3c89b76c	0.016811095
6	0xbcf74dd4	-0.030188479
7	0xbe0fcdab	-0.140433
8	0xbe0593d0	-0.13044667
9	0xbda8dbcd	-0.08245049
10	0xbe8a16f6	-0.26970643
11	0xbe79c340	-0.24390888
12	0x3d6a34c1	0.057179216
13	0xbd93c863	-0.07215955
14	0xb7ce5d60	-2.4600595e-05
15	0xb8b99378	-8.8489556e-05
16	0xbdf24ea4	-0.11831406
17	0xbe804e53	-0.25059757
18	0xbe658954	-0.22415668
19	0xbe14fb7e	-0.14549062
20	0x3d263189	0.040574584
21	0xbb13450e	-0.002247158
22	0xbe19794e	-0.1498768
23	0xbe38523f	-0.18000124
24	0x3e6f5482	0.23372081
25	0xbcc32d43	-0.023825293
26	0xbc966299	-0.018357562
27	0xbc669a1a	-0.014074827
28	0xbd9b8b57	-0.07594936
29	0xbdf31505	-0.118692435
30	0xbd8737de	-0.06602453
31	0x3c396778	0.011316173
32	0xb764307a	-1.3601146e-05
33	0xbe2fbb39	-0.17161264
34	0xbe651067	-0.22369538
35	0xbe4e3760	-0.20138311
36	0xbc1ee852	-0.009698944
37	0xbdb019af	-0.08598649
38	0xbdacda54	-0.0844008
39	0x3d54c1cf	0.051942643
40	0xbe761d45	-0.24034603
41	0xbcc44262	-0.023957435
42	0xbd2ae083	-0.041718017
43	0xbe444119	-0.19165458
44	0xbd01c18f	-0.031678732
45	0xbdb77adb	-0.0895898
46	0xbe5abeda	-0.21361867
47	0xbcaf55c4	-0.0214032
48	0xbdeeaef4	-0.116544634
49	0xbe22db85	-0.15904053
50	0xb778b68c	-1.4824454e-05
51	0x3d091521	0.033467416
52	0xbd497ebd	-0.049193133
53	0xbe80a63a	-0.2512682
54	0xbe11ac7d	-0.14225955
55	0x3e7a7111	0.24457194
56	0xbe8cdd0f	-0.27512404
57	0x3d4db2dd	0.050219405
58	0xbe51e941	-0.20499136
59	0xbe804f0a	-0.25060302
60	0xbe5dcf48	-0.21661103
61	0xbd1ea51e	-0.038731687
62	0xbd318341	-0.043338064
63	0xbd707340	-0.05870366
64	0xbe4394ed	-0.1909978
65	0xbe4905d5	-0.19631131
66	0x3cf4003e	0.029785272
67	0xbdd5e77c	-0.10444543
68	0xbd783bd0	-0.060603917
69	0x3de753f5	0.112953104
70	0xbbf64e15	-0.0075166323
71	0xbd421189	-0.047380004
72	0x3e71452d	0.23561545
73	0x3e67395f	0.22580479
74	0x3e0ccf71	0.13751008
75	0x3e3f17f1	0.18661477
76	0x3d7814a9	0.060566578
77	0xbe0f6379	-0.1400279
78	0xbc34eda3	-0.011042985
79	0xbe61eeb0	-0.22063708
80	0xbd91fb2f	-0.071279876
81	0xb6e79bde	-6.902482e-06
82	0xbe8041d2	-0.25050217
83	0xbe8074e4	-0.2508918
84	0xbd3f2b9f	-0.04667246
85	0x3d0535f7	0.032522168
86	0xbec8835a	-0.39162713
87	0xbe87cc65	-0.26523128
88	0xbe081e74	-0.13292867
89	0xbcf8d867	-0.030376626
90	0x3d87a024	0.06622341
91	0xbd0887f9	-0.0333328
92	0xbc6e2f3d	-0.01453763
93	0xbde8089a	-0.113297656
94	0x3ca3df6b	0.020003995
95	0x3c6d72f9	0.014492744
96	0xbcbcf384	-0.023065336
97	0xbbb3f953	-0.0054923682
98	0xbe80fa82	-0.25191122
99	0x378e2321	1.6944077e-05
100	0xbda4ef82	-0.08053495
101	0xbe22ffbb	-0.15917866
102	0xbd3acd77	-0.045606103
103	0xbe41a7e6	-0.18911704
104	0x37586e44	1.29002765e-05
105	0xbc005957	-0.0078338
106	0x36af0bf4	5.216798e-06
107	0xbdb251d8	-0.08707017
108	0xbe3fc40c	-0.1872713
109	0xb91d7bf0	-0.00015018857
110	0xb7c534f6	-2.3508892e-05
111	0xbc7f5e49	-0.015586444
112	0xb7a1f77e	-1.9307943e-05
113	0x35ae2240	1.2973978e-06
114	0xbe2b48d7	-0.16727005
115	0xbe79182b	-0.24325626
116	0xbd04bdfd	-0.03240775
117	0xb77a87db	-1.49327925e-05
118	0xbc431a34	-0.011908103
119	0xbe5c707b	-0.21527283
120	0xbd4bd088	-0.049759418
121	0x3dcc9385	0.099890746
122	0xb69502b4	-4.4408607e-06
123	0xbea0cc08	-0.31405663
124	0xbcac290c	-0.021015666
125	0x36ad97a3	5.1734546e-06
126	0xbcba5179	-0.022743927
127	0xbe37686f	-0.17910932
128	0xbb647959	-0.0034862368
129	0xbc9ea18d	-0.019364143
130	0xbe459c85	-0.19297989
131	0x367d9148	3.7784503e-06
132	0xbd8230bc	-0.063569516
133	0xbd234e07	-0.039869335
134	0x3d91e45c	0.07123634
135	0xbc1b5952	-0.009481745
136	0xbda79e0b	-0.08184441
137	0x3e15fab5	0.14646418
138	0x3d51dcd2	0.05123598
139	0x3d9a3044	0.07528737
140	0xbde4dcdc	-0.11174938
141	0xbd9d86af	-0.076917045
142	0x3e7b0c0e	0.24516317
143	0xbe2e05fa	-0.16994467
144	0x3d69d66a	0.057089247
145	0xbcadbe7b	-0.021208992
146	0x34361420	1.6957392e-07
147	0x3d09c83c	0.033638224
148	0xbd95c919	-0.07313747
149	0xbe691e72	-0.2276552
150	0xbdd685e3	-0.104747556
151	0x3e23ceb7	0.15996824
152	0xbd1b3c72	-0.037899442
153	0x3e237c50	0.1596539
154	0xbe1338cf	-0.1437714
155	0x3c256d7b	0.010096903
156	0x3e3c8f20	0.18413973
157	0xbd0a6b69	-0.03379384
158	0xbe2b7e71	-0.16747452
159	0xbcb4d916	-0.02207617
160	0x3e63989a	0.22226182
161	0xbc1aac90	-0.009440556
162	0x3e15a4da	0.14613667
163	0x3e0d4db6	0.13799176
164	0xbd870c8f	-0.06594192
165	0xbe0d5ce6	-0.13804969
166	0x3e82af24	0.25524247
167	0xbe0542c5	-0.13013752
168	0xbd04d159	-0.032426212
169	0x3cea87ee	0.02862927
170	0xbdfc961d	-0.12333319
171	0x3d618619	0.055059526
172	0x3db98f18	0.09060496
173	0xbcaea910	-0.02132085
174	0xbdda30b0	-0.10653818
175	0x3dda5fab	0.106627785
176	0x3e170218	0.14746892
177	0x3e346516	0.17616686
178	0x34908440	2.6918315e-07
179	0xbe528cc8	-0.20561516
180	0xbe2fe431	-0.17176892
181	0x3e80290e	0.25031322
182	0x3e850746	0.25982112
183	0xb689cb2e	-4.1065714e-06
184	0xbcf98800	-0.030460358
185	0xbe32cb26	-0.17460307
186	0xbdb21b0d	-0.08696566
187	0xbde31adb	-0.11089107
188	0xbe6a313b	-0.22870342
189	0x3df99fcf	0.12188684
190	0x3d0504b9	0.032475207
191	0xbdb32423	-0.08747127
192	0x3de1036f	0.10986983
193	0x3d2c3a58	0.04204783
194	0x3ce6da62	0.028180305
195	0xbc2dcea7	-0.010608352
196	0x3cc37272	0.023858283
197	0x3ddbf1f7	0.107395105
198	0x3cd6e286	0.026231062
199	0xbe1e184d	-0.15438958
200	0x3df1c7d0	0.11805689
201	0x3e1a86d3	0.15090494
202	0xbe3d27f3	-0.1847227
203	0xbd956427	-0.07294493
204	0xbcbc083e	-0.022953149
205	0xbe0a3ddb	-0.13500158
206	0xbe247bf0	-0.16062903
207	0xbd855ccb	-0.065118395
208	0x3b1667eb	0.0022950124
209	0xbe3fae14	-0.1871875
210	0xbe804fb2	-0.25060803
211	0x3da0570a	0.078291014
212	0x3bf46cdb	0.0074592656
213	0xbd89faea	-0.06737311
214	0x3e98d5b7	0.2985055
215	0xbe0c9150	-0.13727307
216	0x3e13737e	0.14399526
217	0x3de71a2c	0.11284289
218	0xbdafec2d	-0.08589969
219	0x3d265bbe	0.040614836
220	0x3e1aadaf	0.15105318
221	0xbd593f7a	-0.05303905
222	0x3e3e3fbc	0.18579
223	0x3c8be4e8	0.017076924
224	0xbdfc9618	-0.123333156
225	0x3de9737b	0.11398979
226	0xbe468e87	-0.19390307
227	0x3bd0f91e	0.0063773533
228	0xbe022eb0	-0.12713122
229	0x3e51ae33	0.20476608
230	0xbcbd276f	-0.023090092
231	0xbd0507fd	-0.03247832
232	0xbe1760e6	-0.14783058
233	0xbd932f60	-0.071867704
234	0x380e6bcd	3.3955836e-05
235	0xbcd08b92	-0.025457177
236	0xbd8d4cc3	-0.06899407
237	0x3c5892d2	0.013218598
238	0xbdb08973	-0.08619966
239	0x3da792b7	0.081822805
240	0x3d8960f5	0.06707946
241	0xbe59ce9b	-0.2127022
242	0x3e8709be	0.2637462
243	0x3cd4543b	0.02591907
244	0xbdcf2620	-0.10114694
245	0x3dd2850f	0.10279285
246	0xbb0040fc	-0.0019569984
247	0x3cd873a3	0.026422327
248	0xbe67bb11	-0.22629954
249	0xbe0785a1	-0.13234569
250	0xbd16ac0d	-0.036785174
251	0xbdab5429	-0.08365662
252	0x3e36905a	0.17828503
253	0x3d621b71	0.05520195
254	0xbc24a790	-0.010049716
255	0xbdcc65ec	-0.099803776

network.6.bias f4 [39]
0	0xbd0b4231	-0.033998672
1	0xbaacb1bb	-0.0013175526
2	0x3c3dc532	0.01158266
3	0xbae1aea4	-0.0017218185
4	0xba9bae65	-0.0011877535
5	0xbcdea0fd	-0.027176375
6	0x3c9551a7	0.018227411
7	0xbaefe8d4	-0.0018303641
8	0x3cd76820	0.026294768
9	0xbc86302e	-0.016380396
10	0xbd001268	-0.031267554
11	0xbc2e49fc	-0.010637756
12	0xbb2198a4	-0.0024657631
13	0xbbef79cd	-0.007308221
14	0x3bf984ab	0.007614692
15	0x3ce60a2e	0.028081026
16	0xbaf92a1e	-0.0019009744
17	0xbca405cd	-0.020022297
18	0x3c22b38a	0.009930501
19	0x3c5b4cbd	0.013384995
20	0xbb3e339a	-0.0029022456
21	0xb7ebe38c	-2.8120143e-05
22	0xbc59be7d	-0.013290045
23	0x3cdd8374	0.02704022
24	0xbcd7768f	-0.02630165
25	0x3c8c864e	0.017153885
26	0xbcecf421	-0.028925003
27	0xbca961fe	-0.02067661
28	0xbba939d5	-0.005164365
29	0x3b15b9c9	0.0022846332
30	0xbc2348fc	-0.009966131
31	0xbc7c5357	-0.015400729
32	0xbcaaa010	-0.020828277
33	0xbc349d87	-0.011023886
34	0xbcf41271	-0.02979395
35	0xbd2ec180	-0.042665005
36	0xbd1ab1c9	-0.037767205
37	0xbd060d03	-0.032727253
38	0xbca02f44	-0.019553788
