Homework/HW2/results/quick_grid/run_12.pt (torch, 583917 bytes, 8 tensors)

network.0.weight f4 [256, 256]
0	0xbda7e4e1	-0.08197952
1	0x3d34ccf3	0.044140767
2	0x3d37687c	0.04477738
3	0x3d3974a2	0.045277245
4	0xbd869524	-0.06571415
5	0xbc734a0b	-0.014849196
6	0x3c5500e1	0.013000698
7	0x3d809cd5	0.06279913
8	0x3d21f833	0.03954334
9	0xbdacab6a	-0.08431132
10	0xbbfe0a88	-0.0077527203
11	0xbd698822	-0.057014592
12	0xbda6a7cd	-0.08137474
13	0x3d152358	0.03641066
14	0xbc908205	-0.017640123
15	0xbd130646	-0.035894655
16	0xba3fe9fd	-0.0007320939
17	0x3d1092c6	0.035296224
18	0x3e042f82	0.12908748
19	0xbcdbe453	-0.026842272
20	0x3e04ee56	0.12981543
21	0xbde0a1f9	-0.10968394
22	0x3daa042f	0.08301579
23	0xbb6b691f	-0.0035920811
24	0xbca83f3f	-0.02053797
25	0xbd643152	-0.055711098
26	0xbcfce391	-0.03087023
27	0xbc2e9ea1	-0.010657937
28	0x3daad09e	0.08340572
29	0x3d0c34db	0.034230094
30	0xbd50c407	-0.050968196
31	0xbe01a2f1	-0.12659813
32	0x3bfe4286	0.007759395
33	0xbdf38069	-0.11889727
34	0x3c9ad2b4	0.0188993
35	0xbe2d35b6	-0.1691502
36	0xbc758a3e	-0.014986573
37	0x3c5d7967	0.013517714
38	0xbcfcd47d	-0.030863041
39	0xbd6c380a	-0.05767063
40	0xbda6fdca	-0.08153875
41	0xbc29fd7a	-0.010375375
42	0xbe12feba	-0.14354983
43	0xbcb0874a	-0.021548886
44	0x3d815408	0.06314856
45	0x3afb5700	0.0019175708
46	0x3da8fdd3	0.08251538
47	0x3dc16946	0.094439074
48	0x3d98dbe7	0.07463818
49	0xbd532a88	-0.051554233
50	0x3c859862	0.016308013
51	0x3bfa1b8a	0.0076326774
52	0x3c67c7a5	0.01414672
53	0xbd2a9094	-0.041641787
54	0x3d24efe0	0.040267825
55	0xbcac1377	-0.021005375
56	0xbc942395	-0.018083373
57	0x3d749134	0.05970879
58	0xbd7569bd	-0.059915293
59	0x3cb4919e	0.022042092
60	0xbd474ffc	-0.048660263
61	0xbd39a7ea	-0.04532615
62	0xbd76ba1f	-0.060236093
63	0xbd8cd03f	-0.06875657
64	0x3d2ca847	0.04215267
65	0xbd8b404e	-0.067993745
66	0xbdc0bcf5	-0.09411041
67	0xbd96a9b6	-0.073565885
68	0xbdea0c64	-0.114281446
69	0xbddab05a	-0.10678168
70	0xbdbd7ada	-0.09251948
71	0xbd5676cf	-0.0523594
72	0x3e16032f	0.14649652
73	0x3d7c743c	0.061634287
74	0x3dc911bc	0.09817836
75	0x3debf567	0.11521416
76	0xbc28508c	-0.01027311
77	0x3e27b0ac	0.16375989
78	0xbca120ab	-0.019668898
79	0xbe017a51	-0.12644316
80	0xbdecae28	-0.11556655
81	0xbd57da6a	-0.05269853
82	0x3d5c7354	0.053820923
83	0x3d17c751	0.037055317
84	0x3d936451	0.07196868
85	0x3dc7c548	0.09754425
86	0xbc6b90c6	-0.014377778
87	0x3dd84eab	0.1056188
88	0xbd85fcc5	-0.065423526
89	0x3d5447d6	0.05182632
90	0x3d2638c4	0.04058148
91	0xbcfeccb9	-0.031103479
92	0x3cd5b093	0.026085174
93	0x3defd5a4	0.117106706
94	0xbd578ac0	-0.052622557
95	0x3dcaa802	0.09895326
96	0x3d1a08a1	0.037605885
97	0x3d82390c	0.06358537
98	0xbcf940bf	-0.030426381
99	0xbcc22fc0	-0.02370441
100	0xbd993536	-0.07480852
101	0x3da1f064	0.07907179
102	0x3d4a4d7c	0.0493903
103	0xbd529806	-0.051414512
104	0xbdbb90c9	-0.09158475
105	0xbd8503cf	-0.06494867
106	0xbb3be3f3	-0.0028669804
107	0x3d1d9959	0.03847632
108	0xbd3348af	-0.04377049
109	0x3d940890	0.07228196
110	0x3cfb71ff	0.030694006
111	0xbdeafcf7	-0.114740305
112	0xbdd51abb	-0.10405489
113	0x3de74dd8	0.112941444
114	0x3d362cfe	0.0444765
115	0xbca1f1df	-0.019768653
116	0x3d5622fe	0.052279465
117	0xbd355583	-0.044271003
118	0xbdc3a33b	-0.09552618
119	0xbdb1c346	-0.086798236
120	0x3dc97ec0	0.09838629
121	0xbdb98572	-0.09058656
122	0xbcf7f69e	-0.030268963
123	0xbd42304a	-0.047409333
124	0x3dc3c55d	0.095591284
125	0x3b18e3bd	0.0023329102
126	0xbd991aae	-0.07475792
127	0x3db17f2c	0.08666834
128	0x37299618	1.0108131e-05
129	0x3e4abedb	0.19799368
130	0x383e9bb7	4.544455e-05
131	0xb8246fd4	-3.9204795e-05
132	0x38274503	3.9880175e-05
133	0x379443c6	1.7674534e-05
134	0x37a2e01e	1.9416268e-05
135	0xb812b1a6	-3.497456e-05
136	0x3806898a	3.2076183e-05
137	0xbe6a67c9	-0.22891153
138	0xb7c9246a	-2.3978024e-05
139	0x37474022	1.1876256e-05
140	0x3e40d5ff	0.18831633
141	0x3789f4f8	1.6445745e-05
142	0xb7f42d86	-2.9108265e-05
143	0xbe6a60e9	-0.22888531
144	0x36205658	2.3892117e-06
145	0xb6c202e0	-5.7819852e-06
146	0xb804677c	-3.156763e-05
147	0x378a0ac0	1.6455888e-05
148	0xb44983e0	-1.876756e-07
149	0xb7c14a87	-2.3042097e-05
150	0x3e6a671c	0.22890896
151	0xb7a2dde4	-1.941523e-05
152	0xb73b897e	-1.1178081e-05
153	0xb71f15ac	-9.482184e-06
154	0x3e6a6b52	0.22892502
155	0xb742ff6d	-1.1622772e-05
156	0x3e686e6b	0.22698371
157	0xbe6a5acd	-0.228862
158	0x3e6874ff	0.2270088
159	0x37bb6d9e	2.2343182e-05
160	0x377b0c8b	1.4963686e-05
161	0x3801d9aa	3.0958712e-05
162	0x3e64f679	0.22359647
163	0xb7d31126	-2.5161145e-05
164	0x34b52820	3.3743072e-07
165	0x37d3851e	2.5215148e-05
166	0xb67d5584	-3.7749714e-06
167	0xb7c22ad4	-2.3146546e-05
168	0xb688e364	-4.0795876e-06
169	0xb7aa8a87	-2.0330086e-05
170	0x3e6a7637	0.22896658
171	0xb7dbeefc	-2.621812e-05
172	0x37cec6ed	2.4649746e-05
173	0xbe6a5b32	-0.22886351
174	0xb7ad3f48	-2.0652675e-05
175	0x36f4bf1a	7.294014e-06
176	0x37edbee4	2.8341492e-05
177	0xb6edf2e8	-7.0914284e-06
178	0x37d0216c	2.4811095e-05
179	0x37df4972	2.6617872e-05
180	0x342d4080	1.6135346e-07
181	0x342b9a00	1.5981641e-07
182	0x37647568	1.3617195e-05
183	0xb7b02ab0	-2.1000713e-05
184	0x383876ab	4.3979537e-05
185	0xbe6a6c2c	-0.22892827
186	0xb789cef2	-1.6428039e-05
187	0x3810d6ec	3.4532437e-05
188	0x3e6a6711	0.22890879
189	0x36e50224	6.824981e-06
190	0x38044a2c	3.154033e-05
191	0xb8376643	-4.372584e-05
192	0x3e6a626e	0.2288911
193	0xb70c626c	-8.367566e-06
194	0xbe129cac	-0.14317578
195	0xb7eb62f8	-2.8060269e-05
196	0xbe176a8d	-0.1478674
197	0xb7681fa2	-1.3835643e-05
198	0xb5a55ca8	-1.2320425e-06
199	0x3775e244	1.46558195e-05
200	0xb731a369	-1.0588069e-05
201	0xb8ac43b6	-8.214211e-05
202	0xb5688ec0	-8.6634464e-07
203	0x36ee91e8	7.1099385e-06
204	0xb719fb0c	-9.177962e-06
205	0x3e15a45f	0.14613484
206	0xb5723e3c	-9.024259e-07
207	0x383274c9	4.254727e-05
208	0xbe6a7385	-0.2289563
209	0x37fe0424	3.0281088e-05
210	0xbe4b2aa1	-0.1984048
211	0xb835a860	-4.3310574e-05
212	0x3e6a5fff	0.22888182
213	0x3e6a6c5c	0.22892898
214	0x3795e5d6	1.786921e-05
215	0x3e5894c6	0.21150503
216	0xb7d8821a	-2.580979e-05
217	0x3836486e	4.3459637e-05
218	0xb68318a0	-3.906971e-06
219	0x3e6a683b	0.22891323
220	0xb78f402a	-1.7076807e-05
221	0xb6eeede7	-7.120648e-06
222	0x373f9c2a	1.1420847e-05
223	0xb7c6591b	-2.3644932e-05
224	0xb4651b00	-2.133711e-07
225	0x37aee758	2.0850144e-05
226	0xb4a428d0	-3.0577075e-07
227	0x37cecb66	2.4651828e-05
228	0xb6968ca1	-4.4867197e-06
229	0x37818546	1.5440059e-05
230	0xbe6a6671	-0.22890641
231	0x3e6a7623	0.22896628
232	0x38149558	3.5425037e-05
233	0x374af83a	1.2097933e-05
234	0xbe502bf1	-0.20329262
235	0x3e6a6af0	0.22892356
236	0x37cb8f64	2.4266257e-05
237	0xb6fc8eb0	-7.5267963e-06
238	0xb744d518	-1.1732125e-05
239	0x3725e51e	9.888112e-06
240	0xb7b772ca	-2.1868753e-05
241	0xbe6a6f41	-0.22894002
242	0xb8735f21	-5.802431e-05
243	0xb80a698b	-3.300006e-05
244	0xb592fbf8	-1.095118e-06
245	0x38862032	6.395615e-05
246	0xb80cd54d	-3.3577253e-05
247	0xb75a6486	-1.30172175e-05
248	0x37c14a40	2.3041968e-05
249	0x382d9076	4.1380954e-05
250	0x36d7623c	6.4189353e-06
251	0x3658a72e	3.228382e-06
252	0x37a8ec7e	2.0137286e-05
253	0x3e6a6dcf	0.22893451
254	0x382ed698	4.168469e-05
255	0x37fcc03e	3.013026e-05

network.0.bias f4 [256]
0	0x3d994de7	0.07485562
1	0x3d118d9b	0.035535436
2	0x3ce1e540	0.027575135
3	0x3d51a81a	0.051185705
4	0x3c88e78c	0.016711973
5	0x3d207692	0.039175577
6	0x3cec679a	0.028857995
7	0xb940b30e	-0.0001837725
8	0x3d914e61	0.07095028
9	0x3d0a8619	0.03381929
10	0xb991ea0e	-0.0002783094
11	0x3d9c7fa0	0.0764153
12	0x3a4e0527	0.0007859044
13	0x3c949b5f	0.018140493
14	0xba93c14b	-0.0011272816
15	0xba6ee0dc	-0.0009112486
16	0x39227a39	0.00015495055
17	0x3d3a2781	0.04544783
18	0x3cfd215b	0.030899694
19	0xba781b06	-0.0009464476
20	0x3d782ce5	0.06058969
21	0x3d253418	0.040332884
22	0xb9f9e2db	-0.00047662
23	0x3d26fe51	0.04076988
24	0xbb7294b7	-0.003701491
25	0x3c5cf42b	0.013485949
26	0x3c9e9d23	0.019362038
27	0xb9e97c22	-0.0004453371
28	0x3d4e0a6d	0.05030291
29	0x3d0a2059	0.033722255
30	0x3d61ddd4	0.055143192
31	0x3d7a66d7	0.061133232
32	0x3d07654b	0.033055585
33	0x3c825296	0.01590852
34	0x3d9dc702	0.07703973
35	0x3d7fd3cf	0.062457856
36	0x3ce1e691	0.027575763
37	0x3d5e0836	0.05420705
38	0x38826368	6.217399e-05
39	0x3cb76952	0.022389088
40	0x3cce8476	0.025209647
41	0x3c2de1f3	0.0106129525
42	0xbcff40ec	-0.031158887
43	0x3cf10d3c	0.029425256
44	0x3ccd5924	0.02506692
45	0x3be7c131	0.0070725908
46	0x3d2c9056	0.042129837
47	0x3cd15ffd	0.025558466
48	0x3c7fd53a	0.015614802
49	0x3d3762eb	0.04477207
50	0xb9c9ce8c	-0.00038491597
51	0x3c3808fc	0.011232611
52	0xb9f03353	-0.00045814607
53	0x3d52cb4f	0.05146342
54	0x3ce0f7fb	0.027461996
55	0x3cbf8966	0.023380946
56	0x3cc072cc	0.02349224
57	0x3c934d63	0.017981237
58	0x3d052c5b	0.032513004
59	0x3d9f2f29	0.07772667
60	0x3c096270	0.008385286
61	0x3d614f61	0.055007342
62	0x3d7f95da	0.06239877
63	0x3ca9e380	0.020738363
64	0x3d43ac08	0.047771484
65	0x3d14fc2f	0.036373314
66	0x3c5ef844	0.013608996
67	0x3d2850e3	0.041092765
68	0x3c791dbf	0.015204846
69	0x3ce7395f	0.028225599
70	0x3c71dc40	0.014761984
71	0x3d0eb10b	0.03483681
72	0x3c6ca8b7	0.014444522
73	0x3c162c2c	0.009165805
74	0xba64f6f6	-0.000873431
75	0x3d9e012b	0.077150665
76	0x3d20b81e	0.039238088
77	0x3bb2d13f	0.005457073
78	0x3d7af619	0.061269853
79	0x3d292180	0.041291714
80	0x3c366cba	0.011134321
81	0x3d1655f2	0.036703058
82	0x3d8ce713	0.068800114
83	0x3ae15959	0.0017192765
84	0x3cbb94a2	0.022898022
85	0x3d97385f	0.07383799
86	0x3d7201d2	0.059083767
87	0x3d2961a6	0.04135289
88	0xb9e74a6f	-0.0004411521
89	0x3d858af6	0.06520645
90	0x3c77d073	0.015125382
91	0x3d46aaee	0.048502855
92	0x3c688c13	0.014193553
93	0x3c88c5cf	0.016695885
94	0x3c9be578	0.019030318
95	0x3c83a0f7	0.016067965
96	0xba5412d0	-0.00080899615
97	0x3d0ccf8e	0.034377627
98	0x3c9e9800	0.019359589
99	0x3da4575f	0.08024477
100	0x3d44e72d	0.04807203
101	0x3da00ee1	0.07815338
102	0x3d178a70	0.03699726
103	0xbbce651b	-0.006298674
104	0xbb065ea8	-0.0020503197
105	0x3d406749	0.0469735
106	0x3c314a91	0.010821001
107	0x3d17da0b	0.037073176
108	0x3d5a5bd3	0.053310227
109	0xb86000f8	-5.3406664e-05
110	0x3d2db577	0.042409386
111	0x3d6cc593	0.05780561
112	0x3d76a2eb	0.060213964
113	0x3cd2843d	0.025697822
114	0x3c18c365	0.009323929
115	0x3c67b2fd	0.014141795
116	0x3d4b9f8a	0.049712695
117	0x3d43c23c	0.04779266
118	0x3d50f03a	0.051010348
119	0x3d6e80ae	0.058228187
120	0x3cae7598	0.021296307
121	0x39cdefcb	0.00039279307
122	0x3c886797	0.016650958
123	0x3b763c1b	0.0037572447
124	0x3b8d0a6e	0.004304222
125	0x3d930510	0.071787
126	0x3c543c66	0.012953853
127	0x3d3d3417	0.046192255
128	0x3c37af89	0.011211284
129	0x3d6ec448	0.058292657
130	0x3cb6630e	0.02226403
131	0x3d806ec4	0.06271127
132	0x3ccac906	0.024754059
133	0x3db2248b	0.08698376
134	0xbab69cd7	-0.001393224
135	0x3d52b252	0.05143959
136	0xba65c453	-0.00087649113
137	0x3d0bff36	0.034178935
138	0x3c3b5b5b	0.011435355
139	0x3ce39164	0.027779289
140	0x3da90bc2	0.08254196
141	0x3b1e78c7	0.0024180876
142	0x3db10d76	0.086451456
143	0x3d1b6bac	0.03794448
144	0x3d066b28	0.032817036
145	0x3d749a38	0.059717387
146	0x3d08e2b4	0.033419326
147	0x3da502f6	0.080572054
148	0x3d8929eb	0.06697448
149	0xbc3c2cef	-0.011485322
150	0x3cb1addd	0.02168935
151	0x3d3d73b2	0.046252914
152	0x3cfb435e	0.030671772
153	0x3d43fe75	0.04785009
154	0x3ab24cae	0.0013603175
155	0x3d72fbb4	0.059322074
156	0x3d36e582	0.04465247
157	0x3d90338e	0.07041083
158	0x3cf50108	0.029907718
159	0xbb9d19ef	-0.0047943513
160	0x3d17b4cc	0.037037656
161	0x3a475204	0.0007603469
162	0x3cf5bb56	0.029996555
163	0x3b513026	0.0031919568
164	0x3c76a703	0.015054467
165	0x3d3a2efb	0.04545496
166	0x3c2d4d3d	0.010577497
167	0xbc8a9f42	-0.016921643
168	0x3ccfdc64	0.025373645
169	0x3d78a99f	0.06070864
170	0x3d526138	0.051362246
171	0x3a47458d	0.00076016114
172	0x3d019d36	0.03164407
173	0xba8693b0	-0.0010267403
174	0x3d0d8783	0.034553062
175	0x3cb55988	0.022137418
176	0x3da43e6c	0.080197185
177	0x3da42824	0.08015469
178	0x3d24b254	0.04020913
179	0x3ca7497b	0.02042078
180	0x3d616600	0.055028915
181	0x3d204c8f	0.039135512
182	0x3d9e94ea	0.07743247
183	0x3cd814d6	0.026377123
184	0x38a14b8c	7.69115e-05
185	0x3d4f7de2	0.05065716
186	0x3c9e01ce	0.01928797
187	0xbb40efea	-0.0029439875
188	0x3c971830	0.01844415
189	0x3cf25522	0.02958161
190	0x3d63dfb9	0.05563328
191	0x3d8bf857	0.068344764
192	0x3e099f9d	0.13439794
193	0x3d4afcdb	0.049557548
194	0x3d405986	0.046960376
195	0x3a2866cc	0.00064240093
196	0x3c8e1859	0.017345594
197	0x3bad1651	0.0052822013
198	0x3d1530e3	0.036423575
199	0x3cb50431	0.022096725
200	0xb94f3c48	-0.00019763515
201	0x3d9f20cc	0.077699274
202	0x3d174cdb	0.03693853
203	0x3d99f8af	0.07518136
204	0x3c0c69ba	0.008570129
205	0x3cad5de2	0.02116293
206	0x3ce7b25c	0.02828329
207	0x3d6b54dd	0.05745398
208	0x3c972b8a	0.018453378
209	0x3d65663a	0.056005694
210	0x3cb45a38	0.022015676
211	0x3c8a20f7	0.016861422
212	0x3d92a461	0.07160259
213	0x3d5a3abf	0.05327868
214	0x3b20c5b0	0.0024531893
215	0x3d56adf9	0.052412007
216	0x3da5cfc0	0.08096266
217	0x3d26895b	0.040658336
218	0x3d9557fe	0.07292174
219	0x3d8ecaa6	0.06972246
220	0x3bd2a0ea	0.006427874
221	0x3c8fd4f6	0.017557602
222	0xb95eb0d0	-0.00021237438
223	0x3d43a955	0.04776891
224	0x3cf90d48	0.03040184
225	0x3ccc1d94	0.024916448
226	0x3d9c11b2	0.076205626
227	0x3d029e95	0.031889517
228	0xbb46363e	-0.0030244733
229	0x3d9025cb	0.070384584
230	0x3d6b9ee2	0.05752457
231	0x3d34aab7	0.04410812
232	0x3c83473a	0.016025174
233	0x3d6dfff9	0.058105443
234	0x3ce6de7e	0.028182264
235	0x3c8fb9d4	0.017544664
236	0x3d8020b5	0.06256238
237	0x3d34543c	0.044025645
238	0x3cfdb5cc	0.030970477
239	0x3d13b614	0.036062315
240	0x3d5d3946	0.0540097
241	0x3d349b95	0.044093687
242	0x3d9d4950	0.07679999
243	0x3d15858f	0.036504325
244	0x3d25440c	0.040348098
245	0x3c5ddbf6	0.013541212
246	0x3d6cb482	0.057789333
247	0xbbfb9f87	-0.0076789293
248	0x3d31be06	0.04339411
249	0x3d6c3e93	0.057676863
250	0x3dc7f748	0.09763962
251	0x3d8c29b8	0.06843895
252	0x3d58be6e	0.052915983
253	0x3c80cd37	0.015722854
254	0x3b1efedf	0.0024260802
255	0x3a24f2c4	0.00062922784

network.2.weight f4 [192, 256]
0	0xbd6ca6e2	-0.05777634
1	0xbb285c64	-0.0025689835
2	0xbb865d92	-0.00410051
3	0x3d1b8734	0.037970737
4	0x3d9d0e71	0.0766877
5	0x3d37ae69	0.044844065
6	0xbdbc317c	-0.09189126
7	0x3dacadfe	0.08431624
8	0xbde4f801	-0.111801155
9	0xbcd40b9d	-0.025884444
10	0x3d8125c0	0.06306028
11	0x3d4dbd7f	0.050229546
12	0x3dcbc6ba	0.099500135
13	0xbcbddb18	-0.023175761
14	0x3c2cac18	0.010539077
15	0x3deee5af	0.116649024
16	0xbc21b674	-0.00987016
17	0x3c31428c	0.010819089
18	0x3e2badb7	0.16765486
19	0xbd134e0b	-0.0359631
20	0x3c5aefd5	0.0133628445
21	0xbd361f3f	-0.044463392
22	0xbcc30e3c	-0.023810498
23	0xbce1388d	-0.027492786
24	0xbe02e978	-0.12784374
25	0xbe06254a	-0.13100162
26	0x3dedf3cb	0.116187654
27	0x3a9e8de1	0.0012096727
28	0x3cc1555d	0.023600275
29	0xbcbb831b	-0.022889664
30	0xbd80c289	-0.06287105
31	0xbd312995	-0.043252546
32	0x3d3d0e9e	0.04615652
33	0xbdb8a796	-0.090163395
34	0xbcf7944b	-0.030222079
35	0xbd8785be	-0.06617306
36	0xbd8776c8	-0.066144526
37	0xbdb7aefd	-0.08968923
38	0xbd8857fa	-0.06657405
39	0xbdef420f	-0.116825216
40	0x3d2f33a1	0.042773847
41	0x3db28674	0.08717051
42	0xba882a63	-0.0010388609
43	0xbe272535	-0.16322787
44	0x3df9c307	0.12195402
45	0x3a0ebac1	0.00054446986
46	0xbc331ce7	-0.010932184
47	0x3d82408e	0.06359969
48	0xbdf7d65f	-0.12101435
49	0x3e24f470	0.1610887
50	0x3e098a19	0.13431586
51	0xbdbbbbc8	-0.09166676
52	0xbd36a12a	-0.04458729
53	0x3d5ad997	0.053430166
54	0x3cd90675	0.026492337
55	0x3e01de05	0.1268235
56	0xbd7c5f62	-0.0616144
57	0x3c4985c9	0.012299963
58	0x3d2a5582	0.041585453
59	0xbcad5db9	-0.021162855
60	0x3b2b1190	0.0026102997
61	0xbd77023a	-0.060304858
62	0xbdabbdd0	-0.08385813
63	0x3dc48992	0.09596552
64	0x3e0bca6a	0.13651434
65	0xbba9e370	-0.0051845834
66	0xbe2fda20	-0.17173052
67	0xbd1fbb26	-0.038996838
68	0x3bc81863	0.0061064227
69	0xba9869b4	-0.0011628182
70	0x3d020388	0.03174165
71	0x3d6de4c7	0.058079507
72	0x3e028d25	0.12749155
73	0x3db23c00	0.0870285
74	0xbd64b53d	-0.055836905
75	0xbde57f30	-0.112059
76	0x3d05de0d	0.032682467
77	0x3d2625cb	0.040563386
78	0xbdcdb5f7	-0.10044473
79	0x3d93ad41	0.0721078
80	0xbd205353	-0.039141964
81	0x3d21c5de	0.03949534
82	0x3b253e86	0.0025214269
83	0xbd95c5f6	-0.07313149
84	0x3d9f761f	0.07786202
85	0xbd933d2f	-0.07189404
86	0xbd1b7c98	-0.03796062
87	0x3caa2eb2	0.02077422
88	0xbd50db22	-0.05099023
89	0xbb58a747	-0.003305869
90	0xbdf95f64	-0.121763974
91	0xbcc10f3a	-0.02356683
92	0xbd342fa3	-0.043990742
93	0x3d6433d1	0.05571348
94	0x3bf80454	0.0075688753
95	0xb9e80f19	-0.00044261737
96	0xbd88073b	-0.06642004
97	0xbb95e9f5	-0.004575009
98	0x3d0e37cc	0.03472118
99	0x3dbfc7f1	0.09364308
100	0xbd1d1c4e	-0.03835707
101	0xbde11e36	-0.109920904
102	0xbdaf1352	-0.08548607
103	0x3db4acf5	0.088220514
104	0x3dac2e93	0.08407321
105	0xbdb16fcc	-0.08663902
106	0x3dacfc71	0.08446587
107	0xbcbe06f6	-0.023196679
108	0x3dd0e8e9	0.10200674
109	0xbd19e7ec	-0.037574694
110	0xbe2501de	-0.16113994
111	0xbc9ea27e	-0.019364592
112	0x3da8e274	0.082463175
113	0xbd84735f	-0.06467318
114	0xbccae579	-0.024767624
115	0x3e050a24	0.1299215
116	0xbd6487e5	-0.05579366
117	0x3cb7c02d	0.022430504
118	0x3d526d04	0.051373497
119	0x3d15e0ca	0.03659133
120	0x3d0ee940	0.034890413
121	0x3dd2c681	0.10291768
122	0x3da91000	0.08255005
123	0x3d3df911	0.046380106
124	0xbded56ae	-0.115887985
125	0xbde575ad	-0.112040855
126	0xbcd9d11e	-0.026588973
127	0xbdb5eac8	-0.088826716
128	0x3e16a29b	0.14710467
129	0x3b5cd5ad	0.0033696697
130	0xbcab4671	-0.020907613
131	0x3cae7a5f	0.021298585
132	0x3c976815	0.018482247
133	0xbd04ea33	-0.032449912
134	0x3b1ee88b	0.0024247493
135	0x3c136f96	0.008998772
136	0x3d048c6c	0.03236048
137	0x3d20c667	0.03925171
138	0x3d0c802b	0.034301918
139	0x3d27feb4	0.04101439
140	0xbe280baf	-0.16410707
141	0xbcaa27df	-0.020770965
142	0x3d82ded2	0.06390156
143	0x3d95879c	0.07301256
144	0xbd3ca747	-0.046057966
145	0x3dbc8708	0.09205443
146	0x3d2cede5	0.04221906
147	0x3cf026c7	0.029315365
148	0x3db7205e	0.089417204
149	0xbd984423	-0.07434871
150	0x3b4b8275	0.00310531
151	0xbdc336a5	-0.09531907
152	0xbd71a509	-0.05899528
153	0xbd9e6a90	-0.07735169
154	0xbd1e5155	-0.038651783
155	0x3d4c5d81	0.04989386
156	0xbc9761c1	-0.01847923
157	0x3ba73245	0.005102428
158	0x3b32ee71	0.0027302767
159	0xbd36a486	-0.044590496
160	0xbcba9a9e	-0.022778805
161	0x3d722553	0.059117626
162	0x3d0ef317	0.034899797
163	0xbcab1f5b	-0.020888975
164	0x3db83a04	0.089954406
165	0xbd35d9d0	-0.044397175
166	0x3d3ae9c4	0.045633093
167	0x3d871901	0.06596566
168	0xbcdfd4fa	-0.027323235
169	0x3dd5b53e	0.1043496
170	0xbc8d1cd0	-0.017225653
171	0xba55fd0a	-0.0008163011
172	0x3c90dbd1	0.017682942
173	0xbd85e694	-0.0653812
174	0x3c0876f9	0.008329147
175	0xbd49ddfa	-0.04928396
176	0xbc3a2fc8	-0.011363931
177	0x3e13d097	0.1443504
178	0x3cd2ce2c	0.025733076
179	0x3def751c	0.11692259
180	0x3e0ecb45	0.13944729
181	0xbdb7c934	-0.08973923
182	0xbcf0567e	-0.029338118
183	0xbdd42885	-0.10359291
184	0xbd4a9772	-0.049460836
185	0x3d9efed3	0.077634476
186	0xbd7eddd3	-0.062223267
187	0x3e022334	0.12708741
188	0x3cff17ba	0.031139243
189	0xbdd6514c	-0.10464725
190	0x3cbb06ec	0.022830449
191	0xbdd34c90	-0.103173375
192	0xbdd2cc30	-0.10292852
193	0xbd401809	-0.04689792
194	0x3df08034	0.11743203
195	0x3dfd13e5	0.1235731
196	0x3cffb65e	0.03121489
197	0xbddfe253	-0.1093184
198	0x3c8b2ca9	0.016989069
199	0xbd849380	-0.06473446
200	0x3d8d0f83	0.06887724
201	0xbd6d621e	-0.0579549
202	0x3dcdeb19	0.10054607
203	0xbd9f7765	-0.077864446
204	0xbd281202	-0.0410328
205	0x3ae5a432	0.0017520247
206	0x3d97dbc4	0.07414964
207	0x3ddd3995	0.108019985
208	0xbd85037d	-0.06494806
209	0x3d639c71	0.055569116
210	0x3d10d10d	0.035355616
211	0x3dcd19a0	0.10014653
212	0xbbdd040f	-0.0067448686
213	0x3d9c6d17	0.07637995
214	0x3cd7a7e9	0.026325183
215	0xbe206f80	-0.15667534
216	0xbe24dc98	-0.16099775
217	0x3dbf746c	0.093483776
218	0xbb806f6f	-0.003919534
219	0x3ba9cc10	0.005181797
220	0x3d4ece82	0.05048991
221	0xbb2e862f	-0.0026630273
222	0x3ca75835	0.020427803
223	0xbc4a6516	-0.012353202
224	0x3c7b7576	0.015347829
225	0x3d94f0b0	0.0727247
226	0x3c8b53ca	0.017007727
227	0xbbec9290	-0.00721962
228	0xbc904764	-0.017612167
229	0x3d9e521d	0.077305056
230	0x3de84288	0.11340815
231	0xbb4f06c4	-0.0031589726
232	0x3cf71575	0.030161599
233	0xbd2c93a0	-0.042132974
234	0x3d3457d0	0.044029057
235	0x3de543da	0.11194582
236	0x3c95917b	0.018257847
237	0xbcfbb017	-0.030723615
238	0xbd03ae0b	-0.032148402
239	0xbc33ca43	-0.010973516
240	0x3dd7b4d3	0.10532536
241	0x3d80b0f1	0.06283749
242	0xbda6b927	-0.08140784
243	0xbdc4ed8d	-0.09615622
244	0x3e122684	0.14272505
245	0x3db19402	0.086708084
246	0xbd5a81cc	-0.05334644
247	0x3e6af49b	0.22944872
248	0xbace5c97	-0.0015744147
249	0x3e085d67	0.1331688
250	0xbe32a681	-0.17446329
251	0xbda991a3	-0.08279731
252	0xbd1ca9a3	-0.038247716
253	0x3d445c4e	0.04793959
254	0xbce73f54	-0.02822844
255	0xbc812279	-0.015763508

network.2.bias f4 [192]
0	0x3b8bee19	0.004270327
1	0x3cb2c0c9	0.021820443
2	0x3cf8deb0	0.030379623
3	0x3d1ffac0	0.039057493
4	0x3ca8aba3	0.020589655
5	0x3c97bb4b	0.018521925
6	0xbb1a76b3	-0.0023569285
7	0x3c14deff	0.00908637
8	0x3cc9b46c	0.024622165
9	0x3cb1e8b5	0.021717409
10	0x3d0fdd4f	0.035123166
11	0x3bd21404	0.0064110775
12	0x3d68dc37	0.05685064
13	0x3d54d18c	0.051957652
14	0x3cceb110	0.025230914
15	0x3c7d6574	0.015466083
16	0x3b9999a2	0.004687504
17	0x3c83b287	0.01607634
18	0x3c4d17a5	0.012517844
19	0x3c60121d	0.013676194
20	0x3c582448	0.013192244
21	0x3d025796	0.03182181
22	0x3d068dda	0.032850124
23	0x3cbe7f9c	0.023254208
24	0xb9b69b1e	-0.00034829316
25	0xbc0baf49	-0.008525678
26	0x3b4d7bfa	0.0031354413
27	0x3d08476f	0.03327125
28	0x3d04d6b7	0.03243133
29	0x3c8db2b6	0.01729713
30	0x3cebe812	0.028797183
31	0xb85faa23	-5.3325795e-05
32	0x3d736833	0.059425544
33	0x3cf76054	0.0301973
34	0x3ca1a9f4	0.01973436
35	0x3cff698b	0.031178256
36	0x3ae7566b	0.0017649656
37	0xbb82997b	-0.0039855815
38	0x3c227959	0.009916627
39	0x3bcc88a1	0.0062418734
40	0x3c12d049	0.008960792
41	0x3d312b3a	0.043254115
42	0x3ca7444a	0.020418305
43	0x3c8e161f	0.017344533
44	0x3c79113b	0.015201862
45	0x3d10329f	0.035204526
46	0x3cf338d9	0.029690193
47	0x3d0ea14f	0.034821805
48	0x3cf1c193	0.029511249
49	0x3c304dd7	0.010760746
50	0x3d16fff0	0.036865175
51	0x3c4ed4f5	0.012624015
52	0x3c9a75e1	0.018855037
53	0x3d25b43a	0.04045508
54	0x3c603880	0.013685346
55	0x3c9c32eb	0.019067248
56	0x3d058008	0.032592803
57	0x3c761449	0.015019485
58	0x3d4bde9d	0.049772847
59	0x3c8c789a	0.017147351
60	0x3d3ac16a	0.04559461
61	0xbac47028	-0.0014987038
62	0x3d80193f	0.06254815
63	0x3d19cde5	0.037549872
64	0x3d3b552c	0.045735523
65	0x3c77a5b8	0.015115194
66	0xbbea99af	-0.007159434
67	0x3d03d602	0.032186516
68	0x3c94d056	0.018165749
69	0x3d0de57d	0.034642685
70	0x3d5dfab3	0.054194164
71	0x3c663cd6	0.01405259
72	0xb994f3a1	-0.00028410277
73	0x3cc38447	0.023866786
74	0x3c6a8d73	0.014315951
75	0xb9c593f5	-0.00037685005
76	0x3d18a883	0.03727008
77	0xbb16bbf6	-0.0023000217
78	0x3c9d66c1	0.019214036
79	0x3c82e837	0.01597987
80	0x3d3082b2	0.04309339
81	0x3d527daa	0.051389374
82	0x3d3a1d2b	0.045437973
83	0x3d4b0618	0.04956636
84	0x3ca14a49	0.019688742
85	0x3d059f97	0.0326229
86	0x3c2d7423	0.010586771
87	0xbc478f9c	-0.012180235
88	0x3c82b2c7	0.015954388
89	0x3cb99526	0.022654127
90	0x3c093b32	0.00837593
91	0x3b921bf3	0.004458898
92	0xbc4185d2	-0.01181169
93	0x3cb804cd	0.022463227
94	0x3d37b26e	0.0448479
95	0x3d197338	0.037463397
96	0x3cdef70d	0.027217412
97	0x3c2b368e	0.010450019
98	0x3c55c884	0.013048295
99	0xb92751c0	-0.00015956815
100	0xbc9c6ac6	-0.019093882
101	0xbbbf3962	-0.005835698
102	0x3d1f459f	0.038884755
103	0xbaedce41	-0.0018143133
104	0x3d22993f	0.039696928
105	0x3d0ae3d8	0.033908695
106	0x3b1feebb	0.002440377
107	0x3c690540	0.014222443
108	0x3d4f30b9	0.050583575
109	0x3c9d41c2	0.019196395
110	0x3b935711	0.004496463
111	0x3d17261f	0.03690159
112	0x3c768f93	0.015048879
113	0x3d0fb4c1	0.03508449
114	0x3c9a6047	0.018844737
115	0x3ca33ae7	0.019925548
116	0x3c4b5735	0.0124109285
117	0x3c48feda	0.012267793
118	0x3c8d3e37	0.01724158
119	0xbb9fe23c	-0.004879264
120	0x3c82f18f	0.015984325
121	0x3ceac4df	0.028658329
122	0x3cfd541b	0.030923894
123	0x3cd5b8e9	0.026089149
124	0x3c9df7cd	0.0192832
125	0x3bad3ea2	0.0052870074
126	0x3cee619a	0.029099274
127	0x3d0aaa98	0.033854097
128	0x3cea5ff2	0.028610203
129	0x3cf7501b	0.030189564
130	0x3d209603	0.039205562
131	0x3d1679d6	0.036737286
132	0xbc95b0e6	-0.018272828
133	0x3cd69877	0.026195748
134	0x3bfae8c5	0.007657143
135	0x3ce06721	0.027392926
136	0x3c578b9d	0.013155845
137	0xbc74356c	-0.014905315
138	0x3c472ecb	0.012157152
139	0x3d83ed82	0.064417854
140	0xbc390f32	-0.011295127
141	0x3c74094b	0.014894794
142	0x3d0f8c4a	0.0350459
143	0x3d401aae	0.046900444
144	0x3c3e39c7	0.011610455
145	0x3c91a349	0.017778056
146	0x3d096a1b	0.033548456
147	0x3d902fd7	0.07040375
148	0x3d0d2d75	0.03446718
149	0x3d276ec9	0.040877137
150	0x3c41a10e	0.011818184
151	0x3cd9d660	0.02659148
152	0x3b9f86a3	0.004868345
153	0x3c5738a5	0.013136064
154	0x3d00951b	0.031392198
155	0x3cc5cdc1	0.024145963
156	0x3d327216	0.043565832
157	0x3cd02b24	0.025411196
158	0x3abb9e71	0.0014314187
159	0x37ba4314	2.2204164e-05
160	0x3d327365	0.04356708
161	0x3c9cac0c	0.019125007
162	0x3ca8e11f	0.020615159
163	0x3c118daa	0.008883873
164	0xbad30d5a	-0.0016102002
165	0x3cd16389	0.025560157
166	0x3cbe3e7f	0.02322316
167	0x3c474012	0.012161272
168	0xbc951ce5	-0.018202255
169	0x3c2d6480	0.010583043
170	0x3be0eb19	0.0068639633
171	0x3cbdd79d	0.023174101
172	0x3c5ca877	0.0134678995
173	0x3ce90277	0.028443558
174	0x3d0002aa	0.03125254
175	0x3c58643e	0.013207493
176	0x3cb74786	0.022372972
177	0x3c43877c	0.011934157
178	0xbbaa0dc3	-0.005189629
179	0x3d0091f9	0.03138921
180	0x3d478ba1	0.048717145
181	0x3cf79f45	0.030227313
182	0x3c9e29f8	0.019307122
183	0x3c67828c	0.014130246
184	0xb9aaf0bf	-0.00032604297
185	0x3c2cd980	0.010549903
186	0x3ce7d5aa	0.028300125
187	0x3d4713e9	0.048602972
188	0x3cd75af2	0.026288483
189	0x3b2d9739	0.002648784
190	0x3ccc5477	0.02494262
191	0x3cb3bdb7	0.021941049

network.4.weight f4 [128, 192]
0	0xbd29d2f7	-0.041460957
1	0x3c8eed5f	0.017447172
2	0x3e0302b9	0.12794007
3	0x3c3d6ea5	0.011562024
4	0xbe3c0383	-0.18360715
5	0x3e2b3232	0.16718367
6	0x3b269433	0.0025417923
7	0xbc7a8a8e	-0.015291823
8	0xbd97a75f	-0.074049704
9	0x3ce99454	0.028513111
10	0x3da2bd5c	0.07946274
11	0xbe3b7482	-0.18306163
12	0xbbadcbc1	-0.0053038304
13	0xbdf2ff53	-0.118651055
14	0xb96cf68b	-0.00022598558
15	0x3cdbf027	0.026847912
16	0x3df59dc7	0.11992984
17	0xbe07ac7d	-0.13249393
18	0x3ce9e7a4	0.028552838
19	0xbe2c2fb3	-0.16815071
20	0xb3cdc268	-9.581419e-08
21	0x32a95d00	1.9716481e-08
22	0xbc8aa280	-0.01692319
23	0xbbe022e6	-0.0068400977
24	0xbcd6ae58	-0.02620618
25	0xb1466c80	-2.8874467e-09
26	0xbc2a8030	-0.010406539
27	0xbe05dc9e	-0.1307244
28	0x3b8e44fe	0.0043417206
29	0xbe393577	-0.18086801
30	0xbc76c966	-0.015062666
31	0x3c4d8c2c	0.012545627
32	0x3db1f80b	0.086898886
33	0xbcb17681	-0.021662952
34	0xbc54823b	-0.0129705025
35	0x3bdb0100	0.006683469
36	0x3d662c36	0.056194507
37	0x344dd730	1.9170398e-07
38	0x3da21eac	0.079160064
39	0xbd119d68	-0.035550505
40	0xbe1b3f86	-0.15160951
41	0xbe261af2	-0.16221216
42	0xbd0d5fc5	-0.03451516
43	0xbd9ebab1	-0.07750452
44	0x3df5c823	0.12001064
45	0xbcd33a7d	-0.025784725
46	0x3c611939	0.013738924
47	0x3b4f99da	0.0031677396
48	0x3da3bdcc	0.07995185
49	0xbc047a6c	-0.008085828
50	0xbd28989e	-0.041161172
51	0xbe373091	-0.1788962
52	0xbe5e3948	-0.21701539
53	0x3c9ab227	0.018883778
54	0xbbd3bb33	-0.006461525
55	0xbe6b58f2	-0.22983149
56	0xbd284680	-0.04108286
57	0xbe1bcfa4	-0.15215927
58	0x3b7a8742	0.0038227593
59	0xb5eaa2b7	-1.7481715e-06
60	0x3dc45940	0.095873356
61	0x3e08485d	0.13308854
62	0xbe339c7d	-0.17540164
63	0xbd9d3204	-0.07675555
64	0x3d2631dc	0.040574893
65	0x3cf8161b	0.030283978
66	0x3b36f07a	0.0027914331
67	0xbd8208fd	-0.06349371
68	0x3dc850be	0.09781025
69	0xbc74e940	-0.014948189
70	0xbc94450e	-0.018099334
71	0x3d326ed4	0.043562725
72	0xbccf929d	-0.025338465
73	0xbd838e8f	-0.06423675
74	0xbd4fcf62	-0.050734885
75	0xbcf4f1d9	-0.029900478
76	0xbe1302aa	-0.14356485
77	0xbe03a805	-0.12857063
78	0x3e31f014	0.17376739
79	0xbd8aa3f9	-0.067695566
80	0x3c6c44a8	0.014420666
81	0xbde7efd5	-0.11325041
82	0xbc7a7d47	-0.0152886575
83	0x3d41d57b	0.04732273
84	0x3c4e2cf8	0.012583964
85	0xbc2f8455	-0.010712703
86	0x3d66d619	0.056356523
87	0xb5e455d2	-1.7012301e-06
88	0x3d2c7973	0.04210801
89	0x3b972dc8	0.004613612
90	0xbe3691b3	-0.17829017
91	0xbdda3081	-0.10653783
92	0xbd787c64	-0.060665503
93	0xbdee5384	-0.11637023
94	0x3e038563	0.12843852
95	0xbd8e4b38	-0.069479406
96	0x3290f1f8	1.6873841e-08
97	0x37488170	1.1951066e-05
98	0xbdaf75d8	-0.08567399
99	0xbc4b11e6	-0.012394404
100	0xbcae6a28	-0.021290854
101	0xbd14c42b	-0.036319893
102	0x3a4811b7	0.0007632034
103	0xbe1c4393	-0.15260153
104	0x3db1d2ab	0.0868276
105	0xbc56bad9	-0.013106071
106	0xbe3ac508	-0.18239224
107	0xbd306bfd	-0.043071736
108	0x3e1158b7	0.14193998
109	0xbd38ae5d	-0.04508816
110	0xbbd2694e	-0.0064212447
111	0xbc0d8713	-0.008638161
112	0x3d1fd88a	0.039024867
113	0x3e016670	0.12636733
114	0xbbc92cf7	-0.0061393934
115	0x3d2cd2bd	0.042193163
116	0x3e176dac	0.1478793
117	0x3bc28c0f	0.0059371064
118	0xb52b10f6	-6.3727146e-07
119	0x3e02032b	0.12696521
120	0xbceb612c	-0.028732859
121	0x3b48f995	0.003066634
122	0xbd5e093c	-0.054208025
123	0xbcb8ac4a	-0.022543091
124	0x3d0021d0	0.031282246
125	0xba9985c1	-0.0011712835
126	0xb5d476ee	-1.5829844e-06
127	0xbdc5573f	-0.096357815
128	0x3b7e0a29	0.003876338
129	0xbdd8d4cf	-0.10587465
130	0x3dd4a3fb	0.10382839
131	0x3ba18117	0.004928719
132	0xbe237145	-0.15961178
133	0xbe3b7626	-0.18306789
134	0x3d8fa985	0.07014755
135	0xbd691f22	-0.056914456
136	0x3e1f32dd	0.15546747
137	0xbd038e53	-0.032118153
138	0xb92a21fa	-0.0001622512
139	0xbe178cb6	-0.1479977
140	0xbd677692	-0.05650956
141	0xbde63768	-0.11241037
142	0x3c8661ca	0.016404051
143	0xbbcbca69	-0.0062191975
144	0xbc756054	-0.01497658
145	0x3abc4b55	0.0014365712
146	0xbe32b335	-0.17451175
147	0xbdd8b71b	-0.105817996
148	0xbe228d8e	-0.15874311
149	0xbbbc9d20	-0.0057560354
150	0x3dce0bd0	0.10060847
151	0xbd4d0d1b	-0.050061326
152	0x3dc582c6	0.09644084
153	0x3e3b2fa1	0.18279888
154	0xbdade5e5	-0.084911145
155	0x3b601a41	0.0034195336
156	0xbb1b9ded	-0.0023745254
157	0x3e270d56	0.16313681
158	0x3d39a668	0.045324713
159	0xbc0f55ef	-0.0087485155
160	0x3dfb4165	0.122683324
161	0x3d8521e5	0.065006055
162	0xbe3a79ab	-0.18210475
163	0xbbe171e2	-0.006880031
164	0xbd43fd29	-0.047848854
165	0xbd5b7beb	-0.053584974
166	0xbd06313a	-0.03276179
167	0x3e03c586	0.12868318
168	0xbd65c6c8	-0.056097776
169	0x3d902280	0.0703783
170	0xbb3f40be	-0.0029182876
171	0xbd3c524f	-0.045976933
172	0xbcfbfb9a	-0.030759621
173	0xbb3df68b	-0.0028986062
174	0x3db18f8e	0.08669959
175	0xbd1fa7ea	-0.038978495
176	0xbc2d52bd	-0.010578808
177	0xbda01186	-0.07815842
178	0x3d1c3f1b	0.03814612
179	0xbd910097	-0.07080191
180	0x3d2e1369	0.04249898
181	0xbd21f8cb	-0.039543908
182	0x3e041d8e	0.12901899
183	0x3b68ef48	0.0035543013
184	0xbe174343	-0.14771752
185	0xbc2e7fd7	-0.010650597
186	0xbd44a9b4	-0.048013404
187	0xbdf9e24b	-0.12201365
188	0x3ad17d00	0.0015982687
189	0x3c3a50f5	0.011371841
190	0xb990f209	-0.0002764615
191	0x396164b4	0.00021495187
192	0x3e39941d	0.18122907
193	0xbd28ea49	-0.041239057
194	0xbcfa09e1	-0.030522289
195	0xbd84e0b3	-0.064881705
196	0xbbc54de0	-0.0060212463
197	0xbe424a3c	-0.1897363
198	0x3c88e906	0.016712677
199	0xbd19df07	-0.03756621
200	0x3d14f8b9	0.036370013
201	0x3d55f53f	0.052235838
202	0x3d5af525	0.053456444
203	0x3de195c4	0.11014894
204	0x3cdc09d0	0.026860148
205	0xbd5db0e9	-0.054123793
206	0xbd6936eb	-0.05693714
207	0xbdc4c4af	-0.09607827
208	0xbc00827d	-0.007843611
209	0x3dc8d2a2	0.098058
210	0xbd706583	-0.05869056
211	0xbc63ae17	-0.013896487
212	0xbd32c57c	-0.043645367
213	0xbd8ffe36	-0.07030909
214	0x3d344172	0.044007726
215	0x3dac578e	0.08415137
216	0x3d9771cb	0.07394751
217	0x3cd60db1	0.026129575
218	0x3d6b5864	0.057457343
219	0x3e701249	0.23444475
220	0x3dd1e391	0.10248483
221	0xbd623543	-0.055226576
222	0xbc1bf3d3	-0.009518581
223	0xbd3f0e3e	-0.04664444
224	0x3d6bface	0.057612233
225	0x3becd684	0.0072277207
226	0xbe2bc1b7	-0.16773115
227	0x3e26c376	0.162855
228	0x3d801544	0.06254056
229	0xbc91a20e	-0.017777469
230	0xbda295f8	-0.079387605
231	0xbda6c301	-0.08142663
232	0x3def7273	0.11691751
233	0x3bee7c27	0.0072779837
234	0x3d29ae57	0.04142603
235	0xbc4ce9ce	-0.012506915
236	0x3c52a23a	0.012856061
237	0x3df77b79	0.120840974
238	0xbded9a9a	-0.116017535
239	0xbd6cef15	-0.057845194
240	0x3d224a28	0.039621502
241	0xbe803595	-0.2504088
242	0xbd372bdb	-0.04471956
243	0x3da2dfb2	0.07952823
244	0x3d79decb	0.061003488
245	0x3dcd4639	0.100231595
246	0xba5f8872	-0.0008527107
247	0x3d2217f0	0.03957361
248	0x3d8b9024	0.06814602
249	0x3d228db9	0.03968594
250	0x3be55d23	0.006999628
251	0x3dab6fc3	0.08370926
252	0xbdb0fbc2	-0.08641769
253	0x3dbe80cd	0.093019105
254	0x3d16d47a	0.036823727
255	0x3c628df0	0.013827786

network.4.bias f4 [128]
0	0xbc47549c	-0.012166169
1	0x3c85d8ae	0.016338672
2	0x3c7de1ed	0.015495759
3	0x3cb978b3	0.022640562
4	0xbb7452a6	-0.0037280708
5	0x3b03e76f	0.002012696
6	0xbb250394	-0.0025179135
7	0xbbd3353f	-0.0064455564
8	0x3bb8a860	0.0056353062
9	0xbb91d912	-0.0044509256
10	0x3d34472f	0.0440132
11	0x3d04ba39	0.03240416
12	0x3cba25f7	0.022723181
13	0x3c2b25e8	0.010446049
14	0x3d151e98	0.03640613
15	0x3c39133b	0.011296089
16	0x3c735a45	0.014853065
17	0x3c99e9c5	0.018788228
18	0xbc4c36fe	-0.012464283
19	0x3cea2e29	0.028586464
20	0xbc0faa31	-0.008768604
21	0x3d408310	0.04699999
22	0xbb2812aa	-0.002564589
23	0x3c3c2fcc	0.011486005
24	0x3c9741f9	0.018464075
25	0xba8b9764	-0.0010649976
26	0x3ccfdaa7	0.025372816
27	0xbc35dd81	-0.011100174
28	0x3cc473fc	0.023981087
29	0x3d145e1b	0.03622256
30	0x3cb9c68d	0.022677684
31	0xbb113655	-0.0022157629
32	0x3c50fe1b	0.012755896
33	0x3ccd20d5	0.02504007
34	0x3ba3bdb6	0.0049969805
35	0x3d0ac530	0.03387946
36	0x3b830717	0.003998648
37	0x3c97428b	0.018464347
38	0x3d2df2e7	0.042467978
39	0xbc6068f8	-0.0136969015
40	0x3c371e32	0.011176633
41	0x3ace47ca	0.0015737948
42	0xbb0cffa4	-0.0021514678
43	0x3cbbca3a	0.022923578
44	0x3c968a81	0.01837659
45	0x3c3432a4	0.010998402
46	0xbba2b268	-0.0049651153
47	0x3c4630a9	0.012096562
48	0xbaaf0b2c	-0.001335477
49	0x3cc9620a	0.024582881
50	0x3c818be8	0.015813783
51	0x3bc575ac	0.0060259905
52	0x3c86dccb	0.016462704
53	0x3cbbf53e	0.022944089
54	0x3cc360dd	0.023849899
55	0xb7a45da0	-1.9593921e-05
56	0x3c0c2bf9	0.008555406
57	0x3ad65e56	0.0016355019
58	0x3a9ef021	0.0012126007
59	0x3c9a942c	0.018869482
60	0x3cca275f	0.024676977
61	0x3cb53fa4	0.022125073
62	0xbbb3e62d	-0.0054900856
63	0x3bafba22	0.005362765
64	0x3bb1be81	0.005424321
65	0x3c521c45	0.012824123
66	0x3c5d25f9	0.013497823
67	0xbbab64d8	-0.0052305274
68	0x3c8b0ed0	0.016974837
69	0x3d16e3d2	0.03683836
70	0x3bed7110	0.007246144
71	0x3c990458	0.01867883
72	0x3b51ac70	0.003199365
73	0x3c21856c	0.00985847
74	0xbb80f571	-0.003935509
75	0xbb8db40d	-0.0043244422
76	0x3c7d7bc2	0.015471401
77	0x3cc0fa8c	0.02355697
78	0x3bfad80e	0.0076551503
79	0x3b9737b7	0.004614796
80	0x3ccb472e	0.024814215
81	0x3b12a81a	0.0022378028
82	0x3cf59308	0.029977337
83	0x3b890619	0.004181635
84	0x3d024706	0.031806014
85	0xbaa0515e	-0.001223128
86	0x3b8f19db	0.004367096
87	0x3d361ca5	0.04446091
88	0x3cae3147	0.021263732
89	0x3c625d8b	0.013816248
90	0x3cca6360	0.024705589
91	0xbad05a8a	-0.0015896123
92	0x3cfe1541	0.031015994
93	0x3d0fe6aa	0.035132088
94	0x3a187220	0.0005815346
95	0xbb463b96	-0.0030247918
96	0x3c00055e	0.00781378
97	0x3cf2d9f8	0.029644951
98	0xba989957	-0.0011642379
99	0x3aa1e6ca	0.0012352106
100	0x3c195360	0.009358257
101	0x3c7e7af9	0.015532249
102	0xbaf8d728	-0.001898502
103	0x3c5bef03	0.013423684
104	0x3bba54c4	0.0056863744
105	0x3bc43b1f	0.005988493
106	0x3c217bc0	0.009856164
107	0x3cf7da34	0.030255415
108	0x3b166f26	0.0022954433
109	0x3ce74645	0.02823175
110	0x3cdf22c6	0.027238261
111	0x3c57ebb5	0.0131787555
112	0x3d04758a	0.032338656
113	0x00000000	0.0
114	0x3c02b77d	0.007978317
115	0xbb96b83e	-0.0045996
116	0xbc113b32	-0.008864211
117	0x3ccb03c5	0.02478207
118	0xbab5e21f	-0.0013876593
119	0x3d1d4c36	0.03840276
120	0x3a1db9cb	0.000601676
121	0x3d14ae59	0.036299083
122	0x3b91ba1d	0.0044472353
123	0x3ce905e2	0.028445188
124	0x3cb3cae7	0.021947337
125	0xbba08530	-0.0048986897
126	0x3d32a310	0.04361254
127	0x3cb8de89	0.02256705

network.6.weight f4 [39, 128]
0	0x3e83c259	0.25734213
1	0xbe3b1130	-0.18268275
2	0xb6828904	-3.8902526e-06
3	0xbd9a379c	-0.07530138
4	0x37072ddc	8.0573045e-06
5	0xb9244064	-0.00015664246
6	0xbd607f09	-0.05480865
7	0x369a0148	4.589707e-06
8	0xbe5c8d4d	-0.21538277
9	0xbdabe830	-0.083938956
10	0xbe00ea0a	-0.12589279
11	0xbc50ea1c	-0.0127511285
12	0xbd6227d0	-0.05521375
13	0x377e3b8f	1.5153447e-05
14	0xbe1460a8	-0.14489996
15	0xbe8f1bd0	-0.27950907
16	0xbabe5ffa	-0.0014524453
17	0x3e843582	0.25822073
18	0xbc960321	-0.018312039
19	0xbafb9128	-0.001919304
20	0xbd5ae6f3	-0.053442907
21	0xbe7e2655	-0.2481931
22	0xbe4adf5f	-0.19811772
23	0x37771fcf	1.4729753e-05
24	0xbe48df8d	-0.19616528
25	0xbac77d8b	-0.001521991
26	0xbda0012e	-0.07812725
27	0x3e6ffbba	0.2343587
28	0x3e26dc75	0.16295035
29	0xbd898182	-0.06714155
30	0xb7030072	-7.808312e-06
31	0xbddd9807	-0.108200125
32	0xb89050f6	-6.881535e-05
33	0xbe65d315	-0.22443803
34	0xbd674dec	-0.056470796
35	0xbe48e57b	-0.1961879
36	0x35d5fba0	1.5942969e-06
37	0x3583adc4	9.810833e-07
38	0xbdcbffc6	-0.09960894
39	0xbd07bdd4	-0.03314002
40	0xb7f145a4	-2.8761868e-05
41	0xbcc3b710	-0.023891002
42	0x3c6e651f	0.014550476
43	0xbab894ef	-0.0014082472
44	0xbe2cb882	-0.16867259
45	0xbe457b5f	-0.19285344
46	0x3e789f81	0.24279596
47	0xbe7df9de	-0.24802348
48	0xbe83ffc8	-0.25781083
49	0xbe334751	-0.17507674
50	0xbda2f613	-0.07957091
51	0xb7161778	-8.946161e-06
52	0xbe4f06b3	-0.202174
53	0x3e83272e	0.2561583
54	0xbda04185	-0.07824997
55	0xbb4d2933	-0.0031305074
56	0xbe50dcf6	-0.2039679
57	0x3e83514f	0.2564797
58	0xbe6a4064	-0.22876126
59	0xbe178b05	-0.14799125
60	0xbe6f2df1	-0.23357369
61	0xbd7a53ac	-0.061114952
62	0xbe74fc8f	-0.23924468
63	0xbdfeb08d	-0.12436018
64	0xb741f498	-1.1560645e-05
65	0xbd7df9d9	-0.06200585
66	0xbdb536e8	-0.08848363
67	0xbe83e54e	-0.25760883
68	0x37dae0b3	2.6092259e-05
69	0xbe73f971	-0.23825623
70	0xbcf8edc1	-0.030386807
71	0xb6db348c	-6.532826e-06
72	0x3e8403af	0.2578406
73	0xbd833c3e	-0.06407975
74	0x3438b790	1.7203115e-07
75	0xbe83c833	-0.25738677
76	0xbe80eb0b	-0.25179324
77	0xbdbc845c	-0.09204933
78	0xbe53c6ce	-0.20681307
79	0x31f3d000	7.0958777e-09
80	0xbeb079df	-0.3446798
81	0x37e4b47a	2.7263759e-05
82	0xbe6415f0	-0.22273993
83	0xbc01e9e4	-0.007929299
84	0xbdd56b62	-0.10420872
85	0xbe35a78a	-0.17739692
86	0xbdf3f147	-0.119112544
87	0xbe04ca98	-0.12967908
88	0xbe80aa11	-0.2512975
89	0xbda8b5c1	-0.08237792
90	0x376c2287	1.4074735e-05
91	0xbd893b82	-0.06700803
92	0xbe8f8cb8	-0.28037047
93	0x3d158404	0.036502853
94	0xbd7243af	-0.05914658
95	0xb72497c7	-9.8105e-06
96	0xbe5da20e	-0.2164385
97	0xbbd7f8b2	-0.006590926
98	0x3e149e40	0.14513493
99	0xb7bd8a28	-2.259489e-05
100	0x3dcab11e	0.09897064
101	0xbe59bc71	-0.21263291
102	0xbe65d4a4	-0.22444397
103	0xbe81f3c5	-0.25381294
104	0x3e2ad914	0.16684371
105	0x37491daa	1.198744e-05
106	0xbe2d90ae	-0.16949722
107	0xbe88ffa9	-0.26757553
108	0xb6480df4	-2.9810444e-06
109	0x3e787ce0	0.24266386
110	0xbeae1705	-0.34001938
111	0xbdfc2317	-0.1231138
112	0xbc94b44f	-0.018152384
113	0xbe838755	-0.25689188
114	0xb7ecefb8	-2.824502e-05
115	0xbdb9d179	-0.09073157
116	0xb77b785c	-1.4988789e-05
117	0xbe70e795	-0.23525842
118	0xbe6ae4f9	-0.22938909
119	0x3c9728cf	0.018452076
120	0x3e22f834	0.15914994
121	0xbe569385	-0.20954712
122	0x3cfbee03	0.030753141
123	0xbe22ba42	-0.15891364
124	0xbe62c9c2	-0.22147277
125	0xbe838904	-0.25690472
126	0xbdb2a28d	-0.0872241
127	0xbe76b1fc	-0.24091333
128	0x3e80754c	0.2508949
129	0x3ce199c7	0.027539147
130	0x3d8d0263	0.06885221
131	0xbd67c1c9	-0.056581292
132	0x3d10423e	0.035219423
133	0x3cbd2440	0.023088574
134	0x3e17fc70	0.14842391
135	0x3d6eb1d0	0.058275044
136	0xbe1e8dfd	-0.15483852
137	0x3e679c1c	0.22618145
138	0x3d0fbc6b	0.0350918
139	0x3e33ad60	0.17546606
140	0xbd481d43	-0.04885603
141	0x3d75f92f	0.060052093
142	0x3d6257e0	0.055259585
143	0x3d5798a1	0.052635793
144	0x3d07e5a6	0.033177994
145	0x3e59a6a1	0.2125497
146	0xbe28edd6	-0.16496977
147	0xbdcaae83	-0.09896567
148	0x3bdd532b	0.006754299
149	0x3aaafa9d	0.0013044659
150	0xbe138303	-0.14405446
151	0xbd8a9db0	-0.06768358
152	0x3db127d8	0.08650178
153	0xbde86e9b	-0.11349221
154	0xbd0c3183	-0.034226906
155	0x3e2c2440	0.16810703
156	0x3ca03565	0.01955671
157	0xbe19715e	-0.14984652
158	0xbd63b429	-0.055591736
159	0xbd787459	-0.060657833
160	0x3dba8c72	0.09108819
161	0x3e5381ff	0.20655058
162	0xbadc17a2	-0.0016791711
163	0x3d00fba1	0.031489972
164	0xbd4ae979	-0.049539063
165	0xbc47cbc5	-0.012194579
166	0x3e309f88	0.17248356
167	0x3e045e36	0.12926564
168	0xbd0b6601	-0.034032825
169	0xbd03466e	-0.03204959
170	0x3d511e57	0.051054325
171	0x3e5044c8	0.20338738
172	0x3d5bb79f	0.05364191
173	0x3c6b0d8c	0.014346492
174	0xbdf559e1	-0.11980034
175	0xbe116a7c	-0.14200777
176	0xbe035827	-0.12826596
177	0x3da1317b	0.07870766
178	0xbe1e5f89	-0.15466131
179	0xbe562cd1	-0.20915534
180	0x3cb33ba0	0.021879017
181	0xbd53715a	-0.051621772
182	0x3e052d0a	0.13005462
183	0x3d695061	0.05696142
184	0xbd2bb89e	-0.04192411
185	0x3c9d8297	0.01922731
186	0x3e06985d	0.1314406
187	0xbc843269	-0.016137319
188	0xbe34102d	-0.17584296
189	0xbd134cb1	-0.03596181
190	0xbdec4a3c	-0.115375966
191	0x3e51fc35	0.20506366
192	0x3e468136	0.19385228
193	0xbe71c25c	-0.23609298
194	0x3e3ae1f9	0.18250264
195	0x3e023f75	0.1271952
196	0xbe004c51	-0.12529112
197	0xbc5845b6	-0.013200214
198	0x3e3fcb80	0.18729973
199	0xbd043348	-0.032275468
200	0x3d64681b	0.055763345
201	0xbe3ac743	-0.18240075
202	0x3e24d1df	0.16095684
203	0xb81741f2	-3.606262e-05
204	0x3866bbec	5.501129e-05
205	0xbda553b7	-0.08072608
206	0x3decd408	0.11563879
207	0xbc56a094	-0.013099808
208	0x3e85c883	0.2612954
209	0xb9e6af2d	-0.00043999535
210	0x3c9d7bef	0.019224135
211	0xbd6f90c7	-0.05848768
212	0x3e2cec47	0.16887008
213	0xbe26c1bc	-0.16284841
214	0x3becb16f	0.0072233
215	0x3d2d5b09	0.042323146
216	0xbe2fac4a	-0.17155567
217	0xbd62ba6b	-0.055353563
218	0xbd831dba	-0.06402154
219	0xbd488a38	-0.04895994
220	0xbe8b4d66	-0.27207488
221	0xbd98c693	-0.0745975
222	0x3dd9766d	0.10618291
223	0x3d3abfac	0.04559295
224	0xbdae96fd	-0.085248925
225	0x3bf691e5	0.007524716
226	0xbe5c81c7	-0.21533881
227	0x3e83ce6a	0.2574342
228	0x3c999b7f	0.018750904
229	0x3e11ed79	0.14250745
230	0xbd6f14f6	-0.0583696
231	0x3de3ec02	0.11128999
232	0x3d9a13e1	0.07523323
233	0xbcaefebc	-0.021361701
234	0xbcc141da	-0.02359097
235	0xbd8179f0	-0.06322086
236	0xbc0c9505	-0.008580451
237	0xbdc3ecd2	-0.09566654
238	0xbcc25ad3	-0.023724949
239	0xbdd2cab0	-0.10292566
240	0xbe87a063	-0.26489553
241	0xbe842376	-0.25808305
242	0x3de7aebb	0.11312624
243	0xbe1eeaca	-0.15519252
244	0xbb9f76bc	-0.004866449
245	0x3dea9daa	0.11455853
246	0xbd012e35	-0.031538207
247	0xbde03e6a	-0.109494045
248	0x3e5dd436	0.21662983
249	0xbde56187	-0.112002425
250	0x3eb0deef	0.34545085
251	0x3e013aca	0.12620082
252	0x3b320689	0.002716454
253	0x37adb994	2.0709624e-05
254	0xbd510980	-0.05103445
255	0xbd153dc7	-0.03643587

network.6.bias f4 [39]
0	0xbd2c2800	-0.042030334
1	0x3b185b33	0.0023247718
2	0x3cd3f332	0.0258728
3	0xbcd7e6cc	-0.02635517
4	0xbc3f2701	-0.011667014
5	0xbcef31b7	-0.02919851
6	0x3cbf1ef5	0.023330191
7	0xbb5a6fd8	-0.0033330824
8	0x3c630f8f	0.01385869
9	0xbc17f02b	-0.009273569
10	0xbd1e4494	-0.03863962
11	0x3a301367	0.00067167584
12	0x3b2d2623	0.0026420436
13	0xbb987afa	-0.004653332
14	0xbbb4af33	-0.0055140494
15	0x3cc36f58	0.023856804
16	0x3c587dcd	0.013213587
17	0xbc91e254	-0.017808117
18	0xbb5297cc	-0.0032133935
19	0x3bcba59b	0.00621481
20	0xbced409a	-0.028961468
21	0x3ca49085	0.020088444
22	0xbc832441	-0.016008498
23	0x3d1ef211	0.03880507
24	0xbd4b9d37	-0.04971048
25	0x3c92b762	0.01790971
26	0xbd1ea7ff	-0.038734432
27	0xbba85fae	-0.005138359
28	0xbc260c02	-0.010134699
29	0x3c75dc0c	0.015006077
30	0x3b6fd7f1	0.0036597217
31	0xbc203d78	-0.00978028
32	0xbc75269e	-0.01496282
33	0xbd11b64a	-0.035574235
34	0xbca25ba0	-0.01981908
35	0xbd30adec	-0.043134615
36	0xbd223e3b	-0.03961013
37	0xbd423eb0	-0.047423065
38	0xbd18aae1	-0.037272338
