Homework/HW2/results/quick_grid/run_02.pt (torch, 583917 bytes, 8 tensors)

network.0.weight f4 [256, 256]
0	0x3d998d21	0.07497621
1	0xbb6d096b	-0.0036168944
2	0xbd7fce8d	-0.06245284
3	0xbdcb0601	-0.099132545
4	0x3d4a2027	0.04934707
5	0x3cf3d6dc	0.029765539
6	0x3ca7f407	0.020502103
7	0x3bccd98f	0.006251521
8	0x3dec3e2a	0.11535294
9	0x3e594bd5	0.21220334
10	0xbd4486ce	-0.047980122
11	0xbd8714e5	-0.06595782
12	0x3b0f29ed	0.0021845058
13	0xbe1f69fd	-0.15567775
14	0x3d4d814b	0.05017213
15	0x3dfe7083	0.12423804
16	0xbd9cd0b3	-0.07656994
17	0x3d9c1b35	0.07622377
18	0xbe1b1196	-0.15143427
19	0x3ce6e6f0	0.028186291
20	0xbddc3b71	-0.10753525
21	0x3d378817	0.04480752
22	0x3dc00d2d	0.09377513
23	0x3d262b72	0.040568776
24	0x3e4fb089	0.20282187
25	0x3bc779d7	0.0060875225
26	0xbe19c6f0	-0.15017295
27	0xbdc5d827	-0.096603684
28	0x3d7a7aa1	0.061152104
29	0x3da143e2	0.07874276
30	0xbdc1d687	-0.09464746
31	0xbe0b7365	-0.13618238
32	0xbe4be83b	-0.19912808
33	0x3e0a8bc1	0.13529874
34	0xbb019338	-0.0019771587
35	0xbe20df42	-0.15710166
36	0xbc958c70	-0.018255442
37	0x3dce1329	0.10062248
38	0x3dacc71a	0.08436413
39	0x3d19fb8e	0.037593417
40	0x3d9229cf	0.071368806
41	0x3e0ef419	0.13960303
42	0xbe0b0110	-0.13574624
43	0xbe1deafb	-0.15421669
44	0x3dfd5470	0.12369621
45	0x3dfd29e4	0.12361506
46	0xbc47dc16	-0.012198469
47	0xbdac2df4	-0.08407202
48	0x3db60af4	0.08888808
49	0x3c41e0b7	0.011833361
50	0x3db83fba	0.0899653
51	0xbd8a21d5	-0.06744734
52	0xbe17cc66	-0.14824066
53	0xbdf46844	-0.119339496
54	0xbd36d933	-0.04464073
55	0xbe217ba1	-0.15769817
56	0x3dd2245d	0.10260842
57	0xbd50e365	-0.05099811
58	0x3d4fc35b	0.050723415
59	0xbd1741a9	-0.036927853
60	0x3db8f813	0.090316914
61	0xbcce9b26	-0.025220465
62	0xbd95faf2	-0.07323255
63	0x3da445f3	0.08021154
64	0xbe0a3162	-0.134954
65	0x3e105da4	0.14098221
66	0x3dd9dabf	0.10637426
67	0xbd0c1902	-0.034203537
68	0x3e31f4ec	0.17378587
69	0xbde0e74d	-0.10981617
70	0x3d1e116e	0.03859084
71	0xbd91bd28	-0.07116157
72	0x3dc1623c	0.09442565
73	0x3de97900	0.11400032
74	0xbe1a67b8	-0.15078628
75	0xbe041d25	-0.12901743
76	0x3e0f5de6	0.14000663
77	0xbd5b50d2	-0.053543873
78	0x3aa4eb40	0.0012582317
79	0x3d429448	0.047504693
80	0xbca6882b	-0.020328602
81	0xbe1def51	-0.15423323
82	0xbca8b529	-0.020594196
83	0xbd7ac9a1	-0.061227445
84	0x3b96bf82	0.004600466
85	0xbd7a3fd5	-0.06109603
86	0x3d24e549	0.040257726
87	0x3e436353	0.19080858
88	0xbc66b44a	-0.01408107
89	0x3a7cd1ef	0.00096443197
90	0x3dd8ce27	0.105861954
91	0x3ceb7e3f	0.028746722
92	0x3d21941b	0.039447885
93	0x3e01b0a3	0.12665038
94	0xbd46b4a6	-0.048512124
95	0xbcfb4a01	-0.030674936
96	0x3d88d1c7	0.06680637
97	0xbe012e13	-0.12615232
98	0xbd99aaa4	-0.0750325
99	0xbab36c55	-0.0013688902
100	0x3deb0426	0.114754006
101	0x3de4db21	0.11174608
102	0x3d0d9a1d	0.034570802
103	0x3e1e3077	0.15448175
104	0x3dd56c4e	0.10421048
105	0xbd3ba030	-0.045807064
106	0x3d853a4d	0.065052606
107	0x3c8eabf6	0.017415982
108	0x3d36b90f	0.04461008
109	0xbc3a6d63	-0.011378619
110	0x3d716f95	0.058944304
111	0x3dc65b5d	0.09685395
112	0x3bb0198b	0.0053741387
113	0xbdea11d0	-0.11429179
114	0x3dc73371	0.097266085
115	0xbdd87d91	-0.10570825
116	0xbcb2bb2d	-0.021817768
117	0xbe413283	-0.18866925
118	0xbc2020a0	-0.009773403
119	0xbe1d62e4	-0.15369755
120	0xbdd605c6	-0.1045032
121	0xbda4aa43	-0.08040287
122	0x3ca9fa82	0.020749334
123	0x3e0b76f4	0.13619596
124	0x3d2f07b9	0.042731974
125	0x3d01fa7d	0.031733025
126	0xbcdb9ea2	-0.02680904
127	0x3d828be8	0.06374341
128	0x37bfd87e	2.2869786e-05
129	0xb878eb2f	-5.934684e-05
130	0xb8b16cbe	-8.4602725e-05
131	0x37d4614e	2.531768e-05
132	0xb7ebd658	-2.8113995e-05
133	0xb81545d9	-3.558942e-05
134	0xb8085984	-3.2508295e-05
135	0xb7fd4b87	-3.019512e-05
136	0x385bf2a3	5.2439642e-05
137	0xb7c1fb26	-2.3124343e-05
138	0x38773e5f	5.8947477e-05
139	0x3e9ee2cf	0.31032416
140	0x3e9ee4de	0.31033987
141	0x384d8cda	4.9006987e-05
142	0x3e9c9200	0.3058014
143	0xb816bdbe	-3.5939498e-05
144	0x3e9ee21f	0.31031892
145	0x37c5ec87	2.3594372e-05
146	0xb84a2b09	-4.8200633e-05
147	0xbe5dd732	-0.21664122
148	0x3e9ee69a	0.3103531
149	0x3606f810	2.0111947e-06
150	0xbe9ed406	-0.31021136
151	0x3e9edb68	0.3102677
152	0xbe9eddaf	-0.31028506
153	0x37cba171	2.4274663e-05
154	0x37ea0d00	2.7901027e-05
155	0x38c31224	9.3017035e-05
156	0x38855652	6.3580126e-05
157	0xbe9ee0a0	-0.3103075
158	0xb8ca36e6	-9.642336e-05
159	0xbe9ed360	-0.3102064
160	0xb9113a06	-0.00013849893
161	0x3e9ed929	0.31025055
162	0xbe9ee318	-0.31032634
163	0xb6a72d68	-4.982274e-06
164	0x3e9edd74	0.3102833
165	0x3866073a	5.4843003e-05
166	0xbe9edaf9	-0.31026438
167	0x37f1267e	2.8747363e-05
168	0xb839af62	-4.4270775e-05
169	0x389e148c	7.537854e-05
170	0xbe9edd60	-0.3102827
171	0xb609add0	-2.0515763e-06
172	0xbe9ed0b4	-0.31018603
173	0xb8fa4b83	-0.00011934994
174	0x3e86ade4	0.26304543
175	0x384ba42b	4.8551865e-05
176	0x380a8430	3.3024873e-05
177	0x377b69c0	1.4985388e-05
178	0xb821db9a	-3.858991e-05
179	0x3e9ee98a	0.3103755
180	0xbe9ecfee	-0.31018013
181	0xb807e11c	-3.2396158e-05
182	0xbe9edbbe	-0.31027025
183	0x36890fc8	4.0847553e-06
184	0x3e9edb31	0.31026605
185	0xbe9ede47	-0.3102896
186	0x3e9aebd6	0.30258054
187	0x3e9ee4f1	0.31034043
188	0xbe0fa23d	-0.14026733
189	0xb8ccfd1e	-9.774625e-05
190	0x3e9ee165	0.31031337
191	0x376f2a80	1.4255405e-05
192	0x376d03a0	1.4127145e-05
193	0xb7311498	-1.0554817e-05
194	0xb878b511	-5.929644e-05
195	0x3e9edd1a	0.31028062
196	0x386f5904	5.7064943e-05
197	0x3ea217bd	0.31658736
198	0x390fb238	0.00013703934
199	0x36ee6658	7.104867e-06
200	0xbe9ed32a	-0.3102048
201	0x36a91618	5.0391645e-06
202	0x3e9ee089	0.31030682
203	0xb791a81b	-1.7363627e-05
204	0xb8d43f76	-0.00010120768
205	0xbe9ed08f	-0.31018493
206	0xbe803c1f	-0.2504587
207	0x381da70f	3.7587302e-05
208	0x3e9ee4b3	0.3103386
209	0x35d4d2d4	1.585659e-06
210	0x3e9edb77	0.31026813
211	0x38317304	4.2307205e-05
212	0xbe9edd3c	-0.31028163
213	0xb70ec3ba	-8.509431e-06
214	0x3e9edf52	0.31029755
215	0xb868b596	-5.5482225e-05
216	0xb926a89c	-0.00015893806
217	0x37f7159e	2.945476e-05
218	0xbea1270a	-0.31475097
219	0x3e9eddf4	0.31028712
220	0x3e7c9c6f	0.2466905
221	0x364fdf40	3.0975352e-06
222	0xb868d254	-5.5508994e-05
223	0xb6dda5a0	-6.6055945e-06
224	0x381ac346	3.6898324e-05
225	0x382ef496	4.171262e-05
226	0xbe9ee15e	-0.31031317
227	0x3e9edb98	0.31026912
228	0xb75f773c	-1.3319597e-05
229	0x3750df04	1.2449691e-05
230	0xb721ddc0	-9.647978e-06
231	0xb8874562	-6.450225e-05
232	0xb774dda8	-1.4595142e-05
233	0x3e111c88	0.1417104
234	0x38c2391b	9.2612776e-05
235	0xb8d6dc4a	-0.00010245347
236	0x3e9ede95	0.31029192
237	0x3902a08d	0.00012457576
238	0x37402156	1.1451853e-05
239	0x379dd0e1	1.8813125e-05
240	0x3e428b07	0.18998347
241	0x37dd58ba	2.638657e-05
242	0xb92ba8c6	-0.00016370704
243	0x3883e18c	6.288578e-05
244	0xbe9ee442	-0.31033522
245	0x3e9eddcf	0.31028602
246	0x3e9ede5f	0.3102903
247	0x36366f14	2.718477e-06
248	0xb7cc3aaf	-2.4346022e-05
249	0x388963de	6.551271e-05
250	0x38d5688f	0.00010176107
251	0x38512ed7	4.9873106e-05
252	0xb816c186	-3.594302e-05
253	0x3e9edbb3	0.31026992
254	0xbe97e616	-0.2966773
255	0xb82ff1b4	-4.1948355e-05

network.0.bias f4 [256]
0	0x3e0f1894	0.1397422
1	0x3d6a85ea	0.057256617
2	0x3d5662bc	0.052340254
3	0x3becf018	0.00723077
4	0x3c8aa621	0.01692492
5	0x3d64da93	0.05587251
6	0x3c989ea6	0.018630337
7	0x3cefbc49	0.029264586
8	0x3d34c4ba	0.044132926
9	0x3bfc9920	0.0077086836
10	0x3d94b497	0.07261007
11	0x3d083012	0.03324897
12	0x3c213028	0.0098381415
13	0x3d6d2217	0.05789384
14	0x3c4f571d	0.012655047
15	0x3c905be7	0.017621947
16	0x3d88b192	0.06674494
17	0x3d50250f	0.05081659
18	0xbb1c379e	-0.0023836861
19	0x3d2fc2e8	0.042910486
20	0x3d18ccff	0.037304875
21	0x3dc5153e	0.09623192
22	0x3d8b35ab	0.06797346
23	0x3d450694	0.048101977
24	0x3ba3fbe8	0.005004395
25	0x3d144e66	0.03620758
26	0x3da17746	0.07884078
27	0x3cbde2cb	0.023179432
28	0x3ba13c52	0.004920521
29	0x3d3d5204	0.046220794
30	0x3d33a37a	0.043857075
31	0xbc355d2a	-0.011069575
32	0x3dd198e4	0.1023424
33	0x3b1299f7	0.0022369602
34	0x3d5f4d37	0.054516997
35	0x3d552497	0.052036848
36	0xb90440f6	-0.00012612701
37	0x3a871dbd	0.0010308545
38	0x3ccda941	0.02510512
39	0xbae8dd19	-0.0017766088
40	0x3cc9def5	0.024642447
41	0x3c9caa61	0.019124212
42	0x3b0c2b0b	0.002138796
43	0xbb88fc7e	-0.00418049
44	0x3d4b8260	0.049684882
45	0x3d20dc66	0.03927269
46	0x3d17c112	0.03704936
47	0xbb1ba6f5	-0.0023750637
48	0xbd0b61b0	-0.03402871
49	0x3ce4103e	0.027839776
50	0x3d2e38c2	0.042534597
51	0x3c4aae91	0.012370721
52	0x3d85dc97	0.06536215
53	0x3d6721f1	0.056428853
54	0x3d708c20	0.058727384
55	0xbb7cdb83	-0.0038582988
56	0xb8277430	-3.992411e-05
57	0x3cf9649f	0.030443488
58	0xb9c534c6	-0.00037614087
59	0x3d959f37	0.073057584
60	0x3c69be4b	0.014266561
61	0x3daf2270	0.0855149
62	0x3d1fb4ef	0.03899091
63	0x3b044edf	0.0020188612
64	0x3da58ddf	0.080837004
65	0x3dde9a41	0.10869265
66	0xba5af1e8	-0.0008352087
67	0x3c1fe0af	0.009758159
68	0x3c079ba9	0.008276858
69	0x3ca0087c	0.019535296
70	0x3d2ffcfc	0.042965874
71	0x3da07987	0.078356795
72	0x3cb9f11b	0.022697976
73	0x3d8bb417	0.06821459
74	0x3d5eec0b	0.054424327
75	0x39c73ee8	0.00038003107
76	0x3d16aca2	0.03678573
77	0xbb13519a	-0.0022479058
78	0xbbd61f33	-0.006534481
79	0x3ce890e9	0.028389411
80	0x3cd2010d	0.025635267
81	0x3ca5e60f	0.020251302
82	0x3c22ada5	0.009929095
83	0xba8a924a	-0.0010572162
84	0x3d010095	0.031494696
85	0x3be7253c	0.007053999
86	0x3cd1319b	0.025536349
87	0x3d04e40c	0.032444045
88	0xbbfe8fae	-0.007768593
89	0x3d407747	0.04698875
90	0x3cf2d4ca	0.029642481
91	0x3ce50f65	0.027961442
92	0x3ca01894	0.01954297
93	0x3d776265	0.06039657
94	0x3c0c2881	0.008554579
95	0x3c80c448	0.015718594
96	0xbb5b3396	-0.0033447496
97	0x3cd1fc9d	0.02563315
98	0x3d9a0760	0.07520938
99	0x3d3b7ba4	0.04577221
100	0x3cff3635	0.031153778
101	0x3db30840	0.08741808
102	0x3c7f03de	0.015564887
103	0x3d96dca2	0.07366301
104	0xbac66cdd	-0.0015138645
105	0x3923d27c	0.00015623303
106	0x3d48948a	0.048969783
107	0x3ccc6deb	0.024954757
108	0x3e01792d	0.12643881
109	0x3ca4204f	0.020034937
110	0xbaa63b08	-0.0012682388
111	0x3d89b6d7	0.06724327
112	0x3c2350bc	0.009967979
113	0x3c82506d	0.01590749
114	0x3d329448	0.043598443
115	0x3d29bd52	0.041440316
116	0x3d13310b	0.035935443
117	0x3c21befb	0.009872193
118	0xbc688cba	-0.014193708
119	0x3ccb7e20	0.024840415
120	0x3dba511f	0.09097504
121	0x3b9e394a	0.0048286067
122	0x3dc2265f	0.09479975
123	0xbabd3c1b	-0.0014437468
124	0x3ce02a69	0.027363973
125	0x3b9e5be4	0.0048327316
126	0x3d1775a7	0.036977436
127	0x3cf18896	0.029484075
128	0x3d877564	0.06614187
129	0xb9470a4c	-0.00018981955
130	0x3c4ba0a6	0.012428438
131	0x3cc01800	0.023448944
132	0x3a081a93	0.0005191948
133	0x3d50b011	0.05094916
134	0xb885b36e	-6.3753556e-05
135	0x3d6cb3d3	0.05778868
136	0x3bc60242	0.0060427496
137	0x3d62c009	0.05535892
138	0x3d48dc65	0.04903831
139	0x3c98d017	0.018653912
140	0x3c349850	0.011022642
141	0x3c80cb02	0.015721802
142	0x3da55d43	0.08074429
143	0x3cb92920	0.022602618
144	0xbaeeaaf8	-0.0018208912
145	0x3cf99909	0.03046848
146	0x3cc05266	0.02347679
147	0x3ba262dc	0.0049556326
148	0xb7c203a0	-2.312829e-05
149	0x3ba805c0	0.0051276386
150	0x3c0473cf	0.008084252
151	0x3d5368a3	0.05161346
152	0x3b1989d2	0.0023428095
153	0x3cdb1003	0.026741033
154	0xb929551b	-0.000161488
155	0x3c8c3593	0.01711539
156	0x3d003206	0.031297706
157	0xba92e566	-0.0011207282
158	0xbb057c69	-0.0020368344
159	0xbac5e394	-0.0015097731
160	0x3e0342b8	0.1281842
161	0x3c703f63	0.01466355
162	0xba22d65e	-0.0006211753
163	0x3b453ade	0.0030094902
164	0x3d97887c	0.07399079
165	0x3ac6eaf6	0.0015176225
166	0x3d47c51a	0.048771955
167	0x3b7a9040	0.0038232952
168	0x3d809c08	0.062797606
169	0x3d242dc0	0.040082693
170	0x3c4b7b75	0.012419571
171	0x3d469bf0	0.048488557
172	0x3c8e705f	0.017387567
173	0x3daba805	0.083816566
174	0xb960c940	-0.00021437276
175	0x3d278ced	0.04090588
176	0xba1ead8e	-0.00060530833
177	0x3d05011f	0.032471772
178	0x3d8a2a8a	0.06746395
179	0x3ca971ec	0.020684205
180	0x3c888926	0.01666696
181	0x3d183ec7	0.037169244
182	0x3c84a6cb	0.016192814
183	0x3c4b73b0	0.012417719
184	0x3d120bdb	0.035655838
185	0x3be9a03b	0.0071296967
186	0x3d63dfde	0.05563342
187	0x3d1e5700	0.03865719
188	0x3c825731	0.015910717
189	0x3d082837	0.033241477
190	0x3ded2408	0.11579138
191	0x3d5b02c0	0.05346942
192	0x3cf6864c	0.030093335
193	0x3d8c2168	0.06842309
194	0x3cc3734d	0.02385869
195	0x3d65258c	0.05594401
196	0x3cf1724a	0.029473443
197	0x3d105d7f	0.035245415
198	0x3d934499	0.07190818
199	0xbb4cf935	-0.0031276469
200	0x3d93545b	0.07193824
201	0x3c2c4180	0.010513663
202	0xba463cb9	-0.0007562149
203	0x3d80dfff	0.06292724
204	0x3bd83622	0.00659825
205	0x3c7a5cc1	0.015280903
206	0xbb52efc0	-0.003218636
207	0x3d30c1ac	0.04315345
208	0xbd373335	-0.04472657
209	0x3d1c2f9e	0.03813135
210	0x3c8094e1	0.015695991
211	0x3ccfb753	0.02535597
212	0x3bde848b	0.0067907027
213	0x3dcf9f31	0.10137785
214	0x3d7171fa	0.058946587
215	0x3c99e034	0.018783666
216	0x3d54554d	0.05183916
217	0xbaa48d55	-0.0012554327
218	0x3c925d1b	0.017866662
219	0x3da6808f	0.08129989
220	0x3ce26b22	0.027638976
221	0x3c4260f6	0.011863938
222	0x3dd2c322	0.10291125
223	0x3beb38be	0.007178395
224	0x3d2135dc	0.039358005
225	0x3d528ced	0.05140393
226	0x3d29f8ac	0.041496918
227	0x3cef692d	0.029224956
228	0x3ce65447	0.028116358
229	0x3d04caae	0.032419853
230	0x3cea39c1	0.028591992
231	0x3db449d0	0.08803141
232	0x3d279612	0.040914603
233	0x3c07fdcf	0.008300259
234	0x3c6b5740	0.014364064
235	0x3dd2f742	0.10301067
236	0xbc8131d7	-0.015770836
237	0x3d694a60	0.056955695
238	0x3ccc7b82	0.024961237
239	0x3c83866e	0.016055312
240	0x3cbf465d	0.023348982
241	0x3e0a62d5	0.13514264
242	0x3da3a9cf	0.07991373
243	0x3daf6125	0.08563451
244	0xbbb9ac4b	-0.005666291
245	0x3ac635dd	0.0015122254
246	0x3d5ac87c	0.053413853
247	0x3d1dbfbe	0.038512938
248	0xbb156e73	-0.0022801429
249	0x3bee584b	0.007273709
250	0x3c8ddc14	0.017316855
251	0x3c662252	0.014046269
252	0x3db20677	0.08692639
253	0x3d1e416d	0.038636614
254	0x3d71ef52	0.059066124
255	0x3d523bd7	0.0513266

network.2.weight f4 [192, 256]
0	0x3da7b58b	0.081889234
1	0xbddc454e	-0.10755406
2	0x3de88b84	0.113547355
3	0xbd1efeb9	-0.03881714
4	0x3e4e50a2	0.20147946
5	0xbcaa5f5d	-0.020797426
6	0x3cd64916	0.026157897
7	0xbdd40434	-0.10352364
8	0xbba9fb54	-0.0051874314
9	0x3e260b70	0.162153
10	0x3c80ed97	0.015738292
11	0x3dd71f47	0.105040126
12	0x3da9b885	0.082871474
13	0x3d8a3176	0.06747715
14	0xbd5aa9ba	-0.05338452
15	0xbd6aa294	-0.057283953
16	0x3cb18366	0.021669101
17	0xbdaa690d	-0.08320818
18	0xbd0c7372	-0.034289785
19	0xbd94fc72	-0.072747126
20	0x3da974e7	0.082742505
21	0x3df3550e	0.11881457
22	0x3e0e40ec	0.13891953
23	0xbe10626d	-0.14100046
24	0xbcc75b6c	-0.024335586
25	0x3da9f703	0.08299067
26	0x3d83f85f	0.064438574
27	0xbdb4cea2	-0.088284746
28	0x3c7bd963	0.015371653
29	0x3de7b83f	0.11314439
30	0xbb93949c	-0.0045037996
31	0xbd68fe07	-0.056882884
32	0x3bf5850d	0.0074926675
33	0x3dccf03d	0.10006759
34	0x3c381573	0.011235583
35	0xbe126b9a	-0.14298859
36	0x3d7f03af	0.062259372
37	0xbd913b13	-0.07091346
38	0xbc53e2ba	-0.012932474
39	0xbc1c7595	-0.009549518
40	0x3d5a9303	0.053362858
41	0xbd9c4425	-0.07630185
42	0x3dba81e0	0.09106803
43	0xbe0a8772	-0.13528231
44	0x3bf55375	0.0074867555
45	0xbd1bc311	-0.038027827
46	0xbe30029c	-0.17188495
47	0xbd375cfc	-0.04476641
48	0xbd325239	-0.043535445
49	0x3db6b2b2	0.08920802
50	0xbda54800	-0.080703735
51	0xbd0d01dc	-0.0344256
52	0xbdb58892	-0.08863939
53	0xbe2c5306	-0.16828546
54	0x3db016fe	0.085981354
55	0xbe31b7aa	-0.17355219
56	0x3d253208	0.040330917
57	0xb988e96d	-0.00026113857
58	0x3e0c0d3d	0.13676925
59	0x3c0500e1	0.008117885
60	0x3d82611b	0.06366178
61	0x3da207d7	0.079116516
62	0xbdcb75c2	-0.0993457
63	0x3e50e344	0.20399195
64	0xbd427eb0	-0.0474841
65	0x3dec0236	0.11523859
66	0xbc279aa7	-0.010229743
67	0x3e006448	0.12538254
68	0x3d2a47bd	0.04157232
69	0xbda7805d	-0.0817878
70	0xbd9ae5ed	-0.07563386
71	0x3da17664	0.07883909
72	0x3d8f3cd8	0.06994027
73	0x3dfcc705	0.123426475
74	0xbdaa5235	-0.08316461
75	0x3dbe05b9	0.09278435
76	0xbd059bfb	-0.032619458
77	0xb8d101ec	-9.9662546e-05
78	0xbd7eb7d3	-0.062187027
79	0xbd8317fc	-0.06401059
80	0xbe1556e7	-0.14583932
81	0xbe28904c	-0.16461295
82	0xbdbbcb73	-0.09169664
83	0x3da0fc24	0.07860592
84	0x3d534c33	0.05158634
85	0x3d65da79	0.056116555
86	0x3c9609f9	0.018315302
87	0x3d8daa97	0.06917303
88	0xbd4a17d3	-0.049339127
89	0x3c9bf6ae	0.019038524
90	0xbdf4c9f9	-0.11952586
91	0x3d1b2d29	0.037884865
92	0x3cdac972	0.026707385
93	0xbbd3714b	-0.0064527146
94	0x3d15fd21	0.036618356
95	0xbd321132	-0.04347343
96	0xbdb1dcf6	-0.08684723
97	0xbda9646c	-0.08271107
98	0xbe0b7ef5	-0.13622649
99	0xbdc286f8	-0.094983995
100	0x3de651fb	0.11246105
101	0xbd15b419	-0.036548708
102	0xbd00beb6	-0.031431876
103	0x3c977ba7	0.01849158
104	0xbd0c8c90	-0.03431374
105	0xbd2d6d60	-0.042340636
106	0xbd3d691b	-0.046242815
107	0x3deb0a51	0.11476577
108	0x3dd203ac	0.102546066
109	0xbc54a53e	-0.01297885
110	0xbd1583f4	-0.036502793
111	0xbd6903d0	-0.0568884
112	0x3daf47ef	0.08558642
113	0x3e42a26f	0.19007276
114	0x3c9042aa	0.017609913
115	0xbd8b1432	-0.06790961
116	0xbd4d2c9e	-0.05009138
117	0xbe2356e4	-0.15951115
118	0x3d6121ed	0.054963995
119	0x3c4f6579	0.01265847
120	0xbd781d60	-0.06057489
121	0x3d93f60a	0.072246626
122	0xbb3498c8	-0.0027556885
123	0x3c35e696	0.011102339
124	0xbd57e599	-0.052709196
125	0x3dd037ab	0.10166868
126	0x3d88de51	0.066830285
127	0xbc9bbf98	-0.019012257
128	0xbdb0aeee	-0.08627115
129	0x3d9a32b1	0.075292
130	0x3db75f73	0.08953752
131	0xbd94751a	-0.07248898
132	0x3da8cc4a	0.0824209
133	0xbd4c4bdb	-0.04987703
134	0xbe24b262	-0.16083673
135	0xbb5a5ca5	-0.003331938
136	0x3e12dddb	0.14342444
137	0x3daac9e2	0.08339287
138	0x3b8c3cb5	0.004279698
139	0x3d66c9c9	0.05634478
140	0x3c562fd1	0.013072924
141	0xbdfe3a45	-0.12413458
142	0x3e3cdc3a	0.18443385
143	0xbd71e0c9	-0.059052262
144	0x3d23c75b	0.039985042
145	0xbdc28d9c	-0.09499666
146	0xbc51d3c6	-0.012806838
147	0xbd467609	-0.04845241
148	0xbe1d873a	-0.15383616
149	0x3da97117	0.08273523
150	0x3d8a8487	0.06763559
151	0xbd57930d	-0.052630473
152	0x3cf88397	0.030336184
153	0xbdad292a	-0.08455117
154	0x3c18aaf1	0.009318099
155	0xbd8e6087	-0.06952005
156	0xbe33aca3	-0.17546324
157	0x3dabb80e	0.08384715
158	0x3ca41180	0.020027876
159	0xbd6be808	-0.05759433
160	0x3d25667f	0.04038095
161	0xbc868786	-0.016422044
162	0x3c852f64	0.01625795
163	0xbabaa2ea	-0.0014239226
164	0xbdbfddda	-0.09368487
165	0xbda24ec8	-0.079251826
166	0xbd2fb65e	-0.04289853
167	0x3ce40ada	0.027837206
168	0xbd833b2b	-0.0640777
169	0xbd425e4b	-0.047453206
170	0x3d079fea	0.03311149
171	0xbd3c806f	-0.04602092
172	0xbdaa61d0	-0.083194375
173	0x3dd19eda	0.10235377
174	0x3c093ea2	0.008376749
175	0xbdfa7c88	-0.12230784
176	0xbcb81c51	-0.02247444
177	0x3c45078f	0.012025728
178	0x3de664af	0.112496726
179	0xbcfa2bb2	-0.030538414
180	0x3d9e3f9e	0.07726978
181	0xbe238c72	-0.15971544
182	0xbda2a4f3	-0.07941618
183	0xbe606fac	-0.219176
184	0x3e3538b4	0.17697412
185	0xbcdd95ba	-0.027048934
186	0xbdaf5164	-0.08560446
187	0xbcb47c13	-0.02203182
188	0x3d8467f2	0.064651385
189	0xbb2dcf81	-0.0026521387
190	0xbd56a78b	-0.052405875
191	0xbd22e737	-0.039771285
192	0xbcade4e0	-0.0212273
193	0x3c9dde87	0.019271148
194	0xbdf727b3	-0.12068119
195	0xbcc6c8cf	-0.024265675
196	0x3df93971	0.12169159
197	0xbc13da82	-0.009024264
198	0xbd85620a	-0.0651284
199	0xbe170326	-0.14747295
200	0x3dc84900	0.09779549
201	0x3da67e7a	0.08129592
202	0xbd7660e4	-0.060150996
203	0xbe041341	-0.1289797
204	0xbe27a10c	-0.16370028
205	0x3e3acd83	0.18242459
206	0xbdd3cdfa	-0.10342021
207	0x3e325659	0.17415752
208	0xbde7074c	-0.11280689
209	0xbe5c6f1f	-0.21526764
210	0xbd4d6677	-0.050146546
211	0x3cb23b4b	0.021756789
212	0x3dcbb9c0	0.099475384
213	0x3c5cbe56	0.013473114
214	0x3d7faac0	0.0624187
215	0xbe087eaf	-0.13329576
216	0x3c9f12ef	0.019418208
217	0xbd43aa75	-0.047769982
218	0x3d8e7627	0.069561295
219	0xbd9b1d2d	-0.07573924
220	0x3dbf429c	0.093388766
221	0xbe1ed628	-0.15511382
222	0x3cb7aed1	0.022422226
223	0x3d376d36	0.044781886
224	0xbc42b8f4	-0.011884917
225	0xbe63ea0f	-0.22257255
226	0xbd8f9f01	-0.070127495
227	0x3dd8a036	0.10577433
228	0xbe1257bd	-0.14291282
229	0x3e188257	0.1489347
230	0x3d344070	0.044006765
231	0xbb2238a9	-0.002475301
232	0x3d3007b5	0.0429761
233	0xbda73f74	-0.081663996
234	0x3e17ba70	0.14817214
235	0x3c8e9502	0.017405037
236	0x3d790ffb	0.060806256
237	0xbdc684d3	-0.09693303
238	0x3b4975d6	0.0030740402
239	0x3e364d33	0.17802887
240	0xbda8c8ba	-0.082414106
241	0x3d62a2c6	0.055331014
242	0xbe02e85c	-0.1278395
243	0x3e1e2e39	0.1544732
244	0xbdfdf878	-0.12400907
245	0xbcfe547b	-0.031046143
246	0xbd842ebb	-0.06454226
247	0xbceb43d7	-0.028718872
248	0x3deffac6	0.11717753
249	0xbd480663	-0.048834216
250	0xbc8e400e	-0.017364528
251	0xbcfaa2b6	-0.030595165
252	0x3d9fd685	0.07804588
253	0xba7e35f7	-0.00096973724
254	0x3c1f4aa3	0.009722385
255	0x3b323197	0.0027190202

network.2.bias f4 [192]
0	0x3c1bdef9	0.00951361
1	0xbc9a3b78	-0.018827185
2	0x3d1686dd	0.03674971
3	0xbc706dbb	-0.014674599
4	0x3b591cbb	0.0033128697
5	0x3d06a90b	0.032876056
6	0x39030bc3	0.00012497515
7	0x3d3284bc	0.043583617
8	0x3ccba671	0.024859639
9	0x3c6b7478	0.01437103
10	0x3d677d18	0.056515783
11	0x3bdaecd4	0.006681064
12	0x3c6d36d1	0.014478401
13	0x3c6656c7	0.014058775
14	0x3d4d3e35	0.050108153
15	0x3c2ab481	0.010419012
16	0x3d1eba15	0.03875168
17	0x3cdd6762	0.027026836
18	0x3cfe5bfe	0.031049725
19	0x3cd6cf53	0.026221907
20	0x3cd0f0a9	0.02550538
21	0x3d12df35	0.035857398
22	0x3d083b00	0.03325939
23	0x3d22be8e	0.03973251
24	0x3c935649	0.01798548
25	0x3c1e121c	0.009647872
26	0x3cd026bb	0.025409093
27	0x3b6c5523	0.0036061488
28	0xbc6d7afb	-0.014494653
29	0x3c6ac27e	0.014328597
30	0xbc455402	-0.012043955
31	0x3d62d625	0.055380005
32	0xba779172	-0.0009443975
33	0x3ce257bd	0.027629727
34	0xbc7a5a1a	-0.015280271
35	0x3cf08346	0.029359471
36	0x3d08db74	0.03341241
37	0x3d37bd5b	0.044858318
38	0x3cde4d96	0.027136605
39	0x3d48b7bc	0.049003348
40	0x3ce02811	0.027362855
41	0x3d7af41e	0.061267965
42	0x3c78adf3	0.0151781915
43	0x3d151899	0.03640041
44	0x3cc25dd7	0.023726387
45	0x3d3ca993	0.046060156
46	0x3b1f9712	0.002435152
47	0x3a9e797e	0.0012090651
48	0x3bc1c9d0	0.0059139505
49	0x3c6cd011	0.014453904
50	0x3ca17229	0.019707756
51	0x3ca1ee7a	0.019767035
52	0x3caef29a	0.021355916
53	0x3d298cf1	0.041394178
54	0x3cef18f9	0.029186713
55	0xbb363117	-0.0027800256
56	0x3d08853a	0.03333018
57	0x3c811cf2	0.015760873
58	0x3d3556e0	0.044272304
59	0x3c79ffcd	0.015258742
60	0x3cb96965	0.022633264
61	0x3d6da411	0.058017794
62	0x3cd57499	0.026056575
63	0x3be7d51c	0.007074965
64	0x3c4a8581	0.012360931
65	0x3ccb04c6	0.02478255
66	0x3c681eec	0.014167529
67	0x3ccfd996	0.025372308
68	0xbc54b8ee	-0.012983544
69	0x3d0149aa	0.031564392
70	0x3d098bb4	0.033580497
71	0xbbef7444	-0.007307561
72	0x3d2a505b	0.04158054
73	0x3ceca118	0.02888541
74	0xbc9e5fcc	-0.019332789
75	0x3c79015b	0.015198077
76	0x3bcd9036	0.006273295
77	0x3c865e3a	0.016402353
78	0x3c77c67c	0.015123006
79	0x3d1e9e5e	0.03872525
80	0x3b0117d2	0.0019698036
81	0x3d253276	0.040331326
82	0x3c817606	0.015803348
83	0x3b4bb8dc	0.0031085527
84	0x3c24c3bb	0.010056431
85	0x3d5f1a96	0.054468714
86	0x39b7460a	0.00034956663
87	0x3d21ff4a	0.039550103
88	0x3c40ecef	0.011775239
89	0xbb9e375d	-0.004828377
90	0x3bbc6bba	0.0057501467
91	0x3cdfce7d	0.027320141
92	0x3cc4db38	0.024030313
93	0x3cd415dd	0.025889331
94	0x3cb91bca	0.022596259
95	0x3cf12deb	0.02944084
96	0x3d322334	0.043490604
97	0x3cbde416	0.023180049
98	0x3c483f82	0.012222173
99	0xb9c91bce	-0.00038358424
100	0x3c003601	0.007825376
101	0xbc03278a	-0.008005032
102	0x3d1d958b	0.038472693
103	0x3d4112de	0.047137134
104	0x3cea1bfe	0.0285778
105	0x3bc34868	0.005959559
106	0x3d107472	0.0352673
107	0x3d724489	0.05914739
108	0x3af452be	0.0018640382
109	0x3cd0d7a4	0.02549345
110	0x3cb3b8a9	0.021938639
111	0x3c14358a	0.009045968
112	0x3cc5b693	0.02413491
113	0x3d44ca75	0.04804464
114	0x3b9defb6	0.0048198355
115	0x3d2872a2	0.041124947
116	0x3c241d71	0.010016785
117	0x3d64f8b9	0.055901263
118	0x3c997707	0.018733514
119	0xbaef0b39	-0.0018237598
120	0x3c6a3ccb	0.014296721
121	0x3c90de24	0.01768405
122	0x3c4fec8c	0.0126906745
123	0x3d324839	0.04352591
124	0x3c94d2ed	0.018166984
125	0x3d10c37a	0.03534267
126	0x3d10e8dd	0.035378326
127	0x3ccc4d17	0.024939103
128	0x3c84418f	0.016144542
129	0x3b0496fc	0.0020231595
130	0xb9a2cdf8	-0.00031052507
131	0x3d2bf06e	0.04197734
132	0x3d359bc4	0.044338003
133	0x3d23dc74	0.040005162
134	0x3d2c56cb	0.04207496
135	0x3d0feb27	0.035136368
136	0x3cef4a34	0.029210187
137	0x3c730ffe	0.014835356
138	0xbc9a68f0	-0.018848866
139	0x3c6f99d2	0.014624076
140	0x3ab7e7d3	0.0014030881
141	0x3bc4458d	0.0059897364
142	0x3c59bc19	0.013289475
143	0xba36ac78	-0.0006968449
144	0x3d56eb7d	0.052470673
145	0x3d0d9d52	0.03457386
146	0x3cc56c1b	0.0240994
147	0x3d3d70c8	0.046250135
148	0x3981f98d	0.00024790727
149	0x3d702468	0.05862847
150	0x3cbc7bbc	0.02300822
151	0x3d06de9c	0.03292714
152	0x3d50476f	0.050849374
153	0x3cf99ab4	0.030469276
154	0x3d0c263d	0.034216154
155	0x3c3ebfdb	0.011642422
156	0xbb1bf5c7	-0.0023797618
157	0x3c7333d6	0.014843902
158	0x3c814135	0.015778163
159	0xbc99c3bc	-0.018770091
160	0x3cc15c25	0.023603508
161	0x3d006062	0.031341918
162	0xb8c09c34	-9.1843685e-05
163	0x3cc4f8df	0.024044452
164	0xbc0c6232	-0.008568333
165	0x3c790919	0.015199923
166	0xbc84fad5	-0.016232887
167	0xbc21a853	-0.009866792
168	0xbca879b5	-0.020565847
169	0x3d397850	0.045280755
170	0x3d04c999	0.03241882
171	0x3cfbb00c	0.030723594
172	0x3b88a85c	0.0041704606
173	0x3be965ec	0.0071227457
174	0x3d19de91	0.03756577
175	0x3d1d88aa	0.03846041
176	0xbc056b20	-0.008143216
177	0x3c9a6478	0.018846735
178	0x3d5a1fcd	0.053252984
179	0x3cd9f320	0.026605189
180	0x3c92d962	0.017925922
181	0x3ca06aaf	0.01958212
182	0x3bc3b060	0.0059719533
183	0xbce8b4bc	-0.028406493
184	0x3d01213f	0.031525847
185	0xbab8fef8	-0.0014114073
186	0x3cc4309f	0.023948966
187	0x3d1fa53d	0.038975943
188	0x3d00ced8	0.03144726
189	0x3d21d7b5	0.039512355
190	0x3ce5e7da	0.028064657
191	0x3b4cef38	0.0031270515

network.4.weight f4 [128, 192]
0	0xbc623bb9	-0.013808184
1	0x3d01c8fb	0.03168581
2	0x3db7ce88	0.089749396
3	0xb9f23568	-0.00046197628
4	0x3d1bff08	0.038085014
5	0x3c89f48f	0.016840247
6	0x3d348eec	0.044081613
7	0x3ddcd8c1	0.1078353
8	0xba82650e	-0.000994833
9	0xbe29b3bd	-0.16572471
10	0x3e19b978	0.15012157
11	0xbdf0c1a3	-0.11755683
12	0xbd0ccd77	-0.034375634
13	0xbd86f8be	-0.065904126
14	0x3d3e0711	0.046393458
15	0xbbae90da	-0.0053273262
16	0xbc4c924d	-0.012486053
17	0x3ccb720d	0.024834657
18	0x3d609db8	0.054837912
19	0x3c92ac0d	0.017904306
20	0x3e1015a6	0.14070758
21	0xbc91ab23	-0.0177818
22	0xbd3de2cd	-0.046358872
23	0x3d06a842	0.032875307
24	0x3d15bf97	0.036559667
25	0xbcf5b782	-0.02999473
26	0xbd5dc703	-0.05414487
27	0xbdd281d5	-0.1027867
28	0x3ca910d3	0.020637905
29	0xbd8ae8ca	-0.06782682
30	0x3d0b0463	0.03393973
31	0xbd2ec92c	-0.04267232
32	0x3db666a0	0.08906293
33	0xbd4682c0	-0.048464537
34	0x3d1dfc9b	0.03857098
35	0xbcaa9aac	-0.020825706
36	0xbb8e4c08	-0.0043425597
37	0xbe0ec680	-0.13942909
38	0xbd2dd3ac	-0.042438194
39	0x3d116470	0.035496175
40	0xbca67a91	-0.020322116
41	0x3c87df28	0.016585901
42	0x3d23e00b	0.040008586
43	0xbdcc3227	-0.09970503
44	0x382c58a9	4.1090567e-05
45	0x3bbf3836	0.0058355583
46	0xbd48b25d	-0.048998225
47	0x3cf0397c	0.029324286
48	0x3b645e93	0.003484641
49	0x3c1d779a	0.009611035
50	0x3c99fa48	0.018796101
51	0xbcfdfddc	-0.031004839
52	0x3de48a4d	0.11159191
53	0x3c3a592d	0.0113738
54	0x3b16a519	0.002298659
55	0xbd3db7ef	-0.04631799
56	0x3d9206bd	0.071301915
57	0xbe436b0f	-0.19083808
58	0x3e05620f	0.13025688
59	0x3ddf1161	0.10891987
60	0x3b240fdc	0.0025033867
61	0xbe1503cb	-0.14552228
62	0x3c796781	0.015222431
63	0x3dfa0e17	0.12209719
64	0xbd0902bc	-0.033449873
65	0xbe65a2f2	-0.2242544
66	0xbc8d0b42	-0.017217282
67	0x3d094e1b	0.033521753
68	0x3e4024f6	0.187641
69	0xbd0e4978	-0.034738034
70	0xbddb7b5c	-0.10716888
71	0x3d3ec97e	0.046578877
72	0x3df85b68	0.12126809
73	0x3e08582d	0.13314886
74	0xbe37c111	-0.17944743
75	0xbe02d54d	-0.1277668
76	0x3d6c071b	0.057623964
77	0xbdcb5a64	-0.0992935
78	0x3d132c4f	0.035930928
79	0x3cf4237f	0.029802082
80	0xbd35cf10	-0.044386923
81	0xbc626978	-0.013819091
82	0xbd26996e	-0.040673666
83	0x3b7d3424	0.0038635815
84	0xbcc8cad1	-0.024510773
85	0xbd008848	-0.031379968
86	0x36ce4818	6.1476712e-06
87	0x3e128872	0.14309862
88	0x3c89963a	0.016795266
89	0x3b686a1e	0.0035463641
90	0x3e47f45a	0.19526806
91	0xbcda597c	-0.026653998
92	0xbe987b1d	-0.29781428
93	0x3b646b9e	0.0034854184
94	0xbb82ddef	-0.0039937417
95	0x3b2aabad	0.0026042268
96	0x3d9fbdfe	0.0779991
97	0xbdb361cb	-0.08758887
98	0x3db9cb27	0.09071951
99	0x3bb86e28	0.005628366
100	0xbe175bf6	-0.14781174
101	0x3c9c7d07	0.019102586
102	0xbcbf1ab0	-0.023328155
103	0xbc1336df	-0.00898525
104	0x3cae5515	0.021280805
105	0xbc9d9156	-0.01923434
106	0xbe0c4aff	-0.13700484
107	0x3d298019	0.04138193
108	0x3cfdc7d5	0.030979076
109	0xbd55be2d	-0.05218332
110	0xbc95fc86	-0.01830889
111	0xbc5ffd6d	-0.013671261
112	0xbd4d2742	-0.050086267
113	0x38f22e10	0.00011548039
114	0xbe115ecd	-0.1419632
115	0xbc310964	-0.010805462
116	0x3cf5ecfa	0.030020226
117	0xbdf5f8dc	-0.12010357
118	0x3d3dacca	0.046307363
119	0xbe47189f	-0.19442986
120	0x397e6ba7	0.00024263431
121	0x3d5692dd	0.052386153
122	0xbd05f334	-0.03270264
123	0xbde3d322	-0.11124255
124	0x3d9240a0	0.071412325
125	0xbd806c30	-0.06270635
126	0x3d006519	0.031346414
127	0xbd5db273	-0.05412526
128	0xbc4774bc	-0.012173828
129	0x3da16c93	0.07882037
130	0xbcf2d9fc	-0.029644959
131	0xbda8474f	-0.08216726
132	0xbcc6aaba	-0.02425133
133	0x3d481111	0.0488444
134	0x3b44f93d	0.0030055784
135	0xbe01ed1f	-0.12688111
136	0x3e491b81	0.19639398
137	0xbc89fe46	-0.01684488
138	0x375afa7e	1.3052135e-05
139	0x3e03bb90	0.12864518
140	0x3d653e53	0.05596764
141	0xbe42cf80	-0.19024467
142	0x3ad1ae4a	0.0015997377
143	0x3d17403f	0.036926504
144	0xbb6b64ce	-0.0035918239
145	0x3c19ba4f	0.009382798
146	0x3cd4a894	0.02595929
147	0xbd02386b	-0.031792086
148	0x3d28c932	0.0412075
149	0x3d920e97	0.07131689
150	0xbcda8e61	-0.02667922
151	0x3e177318	0.14789999
152	0xbe2d25b6	-0.16908917
153	0xbd3285f9	-0.043584798
154	0xbba793db	-0.0051140613
155	0xbe023a90	-0.12717652
156	0x3cc808df	0.024418293
157	0x3da3fa45	0.080067195
158	0x3d1abac2	0.037775762
159	0xbd43650c	-0.047703788
160	0x3c26cc8c	0.010180604
161	0x3e0af7d8	0.13571107
162	0x3864b86e	5.45312e-05
163	0xbaf99f75	-0.0019044714
164	0xbd5ffb97	-0.054683294
165	0xbdd37b6e	-0.10326277
166	0xbd41d3c7	-0.047321107
167	0x37c240f7	2.3156854e-05
168	0xbde2a12f	-0.110658996
169	0xbd1c06cb	-0.038092416
170	0xbdd32737	-0.10310214
171	0x3bdcecca	0.0067420946
172	0xb695d2e0	-4.465095e-06
173	0xbd78ab51	-0.060710255
174	0x3aab37c7	0.0013062888
175	0xbb93aac8	-0.0045064427
176	0xbba6960a	-0.005083804
177	0xbde26d36	-0.110559866
178	0x3b46c58d	0.0030330152
179	0xbd386c30	-0.04502505
180	0xbc830448	-0.015993252
181	0xbc32b965	-0.010908459
182	0x3cead868	0.028667644
183	0x3e2d401b	0.16918986
184	0xbd17ed46	-0.037091516
185	0x3d91b1af	0.071139686
186	0xbe122a40	-0.1427393
187	0xbe3fc934	-0.18729097
188	0x3ba0268d	0.004887408
189	0x3d43437b	0.047671776
190	0xbe0434a9	-0.12910713
191	0x3d89dac7	0.067311816
192	0xbe28eafe	-0.16495892
193	0x3d2ac45e	0.041691177
194	0x3c4fb49b	0.012677337
195	0x3d9c5dcb	0.07635077
196	0xbc68a6a0	-0.014199883
197	0x3daf3b7c	0.085562676
198	0x3ce5ea2f	0.028065769
199	0xbde08d8e	-0.109644994
200	0x3c76e1f9	0.0150685245
201	0x3cc1c082	0.023651365
202	0xbd4650e8	-0.048417002
203	0x3e25e84b	0.16201894
204	0xbc8698dc	-0.01643031
205	0xbe5e555c	-0.2171225
206	0x3d74d2e1	0.059771422
207	0x3d88d390	0.06680977
208	0xbd22df05	-0.03976347
209	0xbdf6ea34	-0.120563895
210	0xbe4735e3	-0.1945415
211	0x3c78d37d	0.0151871415
212	0xbdc11aab	-0.09428915
213	0xbe6a10be	-0.22857949
214	0x3cfa83f3	0.030580496
215	0xbdc85251	-0.097813256
216	0xbd366bae	-0.044536285
217	0x3d8261fd	0.06366346
218	0x3e316ab1	0.17325856
219	0xbcbfb260	-0.023400486
220	0xbe6ac0c5	-0.22925098
221	0x3de230b9	0.11044449
222	0xbd8b8310	-0.068121076
223	0x3dbce824	0.09223965
224	0x3d854557	0.06507366
225	0x3d9b7644	0.07590917
226	0xbd3b62b0	-0.045748413
227	0x3d3075ef	0.04308122
228	0x3cfccc99	0.030859279
229	0x3cbca1d8	0.023026392
230	0x3de29ca0	0.1106503
231	0x3da26007	0.07928472
232	0x3d5a3a50	0.053278267
233	0xbc4bea1f	-0.012445956
234	0xbdc9b2a4	-0.09848526
235	0x3d2374b3	0.039906215
236	0x3d5ae07b	0.053436738
237	0x3e845471	0.25845674
238	0x3d9d2ceb	0.07674583
239	0xbdd9a055	-0.10626284
240	0x3d99869a	0.07496376
241	0x3d2eaabd	0.042643297
242	0x3e214414	0.15748626
243	0xbd08d3ae	-0.033405
244	0x3e1e8c4c	0.15483207
245	0x3da7c3f2	0.081916705
246	0xbd515770	-0.051108778
247	0x3d3cb778	0.046073407
248	0x3cb9f0a2	0.02269775
249	0x3dd34630	0.103161216
250	0x3df062d3	0.11737599
251	0xbd3e3260	-0.04643476
252	0xbd1e9ad5	-0.038721878
253	0xbc0a5f43	-0.008445564
254	0x3e1b89c5	0.15189274
255	0x3c9e5ef5	0.019332388

network.4.bias f4 [128]
0	0x39a83c41	0.0003208835
1	0x3cd33311	0.025781186
2	0x3af7ab2d	0.0018895619
3	0x3c6a76c2	0.014310541
4	0x3c3fc5e8	0.011704899
5	0x3c29415a	0.010330522
6	0xbb0d4f9b	-0.002156234
7	0x3b549dca	0.0032442682
8	0xbb3cab69	-0.0028788692
9	0xbb5f2543	-0.003404931
10	0x3cc9dda3	0.024641817
11	0x3c90ecec	0.017691098
12	0xbc256bbb	-0.010096486
13	0x3cc58636	0.024111848
14	0x3d04f095	0.032456
15	0x3b8421fd	0.004032372
16	0x3b00d138	0.0019655954
17	0x3bd9f210	0.0066511706
18	0x3d26e5bc	0.040746436
19	0x3cc01b41	0.023450496
20	0x3b5c72fc	0.0033637872
21	0x3c67484b	0.014116357
22	0x3cfcc2bf	0.03085458
23	0x3ce67757	0.028133078
24	0x3c5bf956	0.013426146
25	0x3c2df386	0.010617143
26	0x3b768735	0.003761721
27	0x3c2cda3f	0.010550081
28	0xbc62ef0b	-0.013850938
29	0x3b932684	0.0044906754
30	0x3d01d7bf	0.031699892
31	0xbb8b43da	-0.004250032
32	0x3c3469e3	0.0110115735
33	0x3cfdb022	0.030967776
34	0xbbb02e67	-0.0053766253
35	0x3cd54f36	0.026038747
36	0x3c726c0a	0.014796266
37	0x3d05c922	0.03266252
38	0x3d15b52a	0.036549725
39	0x3a5af6e5	0.000835283
40	0x3c88cc20	0.016698897
41	0x3c9fb9a9	0.01949771
42	0x3c8c7d03	0.017149454
43	0x3b59890c	0.0033193259
44	0x3b46a015	0.0030307819
45	0xbcd5a914	-0.0260816
46	0x3d0a933c	0.03383182
47	0x3d24d5eb	0.04024307
48	0x3c2412bd	0.010014233
49	0x3b15286a	0.0022759684
50	0x3ca134b3	0.01967845
51	0x3c826aa0	0.015919983
52	0x3d0f9328	0.03505245
53	0x3cbdacdf	0.02315372
54	0x3cb7b3ee	0.022424664
55	0x3c9e8cb8	0.01935421
56	0x3cfdadf5	0.030966738
57	0x3c808866	0.01569004
58	0x3cfd2d8e	0.030905511
59	0x3cbe01b1	0.023194166
60	0x3ca24ad0	0.019811064
61	0xbaa77474	-0.0012775795
62	0xbca7736e	-0.020440783
63	0x3b2721ae	0.0025502252
64	0x3cf510f0	0.029915303
65	0x3bc0803c	0.0058746617
66	0x3cde903f	0.027168391
67	0x3c9a206a	0.018814284
68	0x3c5f25db	0.013619865
69	0x3c881bc9	0.016614811
70	0x3d29a7ea	0.0414199
71	0x3c1b19f7	0.00946664
72	0x3d176156	0.03695806
73	0x3c6cf61a	0.014462972
74	0x3b90b8fa	0.004416582
75	0x3d0a1928	0.033715397
76	0xbc5e123d	-0.013554153
77	0x3c86f0f7	0.016472323
78	0x3ce41d42	0.027845982
79	0x3c97bf4c	0.018523835
80	0x3d205514	0.039143637
81	0xbc16c019	-0.009201073
82	0x3d11eac9	0.0356243
83	0x3c8b4e66	0.017005157
84	0x3d41775e	0.047232978
85	0x3b9e8235	0.004837299
86	0x3ce59e9f	0.028029738
87	0xbb9ee310	-0.0048488453
88	0x3bc4770c	0.005995637
89	0x3cc5eacb	0.02415981
90	0x3cb93351	0.022607477
91	0x3c833f1a	0.0160213
92	0x3c72225f	0.0147787025
93	0x3c774378	0.015091769
94	0xbbb3e5b4	-0.005490029
95	0x3c2ee0ef	0.010673746
96	0x3c1e7100	0.009670496
97	0x3d1b3b4d	0.03789835
98	0x3cdec1f8	0.0271921
99	0xbc68d88e	-0.014211787
100	0x3ccfda7f	0.025372742
101	0x3c08fd95	0.00836124
102	0xbb1cfdb1	-0.0023954923
103	0x3b470c5b	0.0030372355
104	0x3b375a5c	0.0027977442
105	0x3cca5a2a	0.024701197
106	0x3c9bb9b6	0.019009452
107	0x3cc341f0	0.023835152
108	0xbcb8ac96	-0.022543233
109	0x3cd4accc	0.025961302
110	0x3cb772c3	0.02239359
111	0x3cbbd354	0.022927918
112	0x3bd1e925	0.006405967
113	0xbc25f0b8	-0.010128193
114	0x3cd72aeb	0.026265582
115	0xbd164c81	-0.036694054
116	0x3b1d6da7	0.0024021657
117	0x3ceaf7b4	0.028682567
118	0x3c57a635	0.013162185
119	0x3cd11833	0.025524234
120	0x3d11aa07	0.03556254
121	0x3cc88f13	0.024482286
122	0x3ce73478	0.028223261
123	0xbc2451b7	-0.010029248
124	0xbc1d8ac3	-0.009615603
125	0xbc880a84	-0.016606577
126	0x3cfc77d5	0.03081886
127	0x3d0ead6b	0.034833353

network.6.weight f4 [39, 128]
0	0xbe8b7d7e	-0.2724418
1	0xbe6ded53	-0.23235063
2	0xbb002348	-0.001955228
3	0x3dc14eed	0.09438882
4	0xbe3227ff	-0.1739807
5	0xb7953ae3	-1.7789605e-05
6	0x39970e0e	0.00028811436
7	0xb9b29fe0	-0.00034069922
8	0xbe8b6b5b	-0.27230343
9	0xbe3c5fb2	-0.1839588
10	0xbe8bfa99	-0.27339628
11	0xbd011a15	-0.031519014
12	0x3e8cfeb4	0.27538073
13	0xbf0d1412	-0.5510875
14	0xbc6d1e6e	-0.014472587
15	0xbda8c3fa	-0.082405046
16	0xbdd51c87	-0.10405832
17	0x3dd9920f	0.106235616
18	0xbe941597	-0.28922722
19	0xbe2bf4e7	-0.16792642
20	0xbe6c4f99	-0.23077239
21	0xbdcf2675	-0.10114757
22	0xbdf5dbaa	-0.12004788
23	0xbe6aef8e	-0.22942945
24	0x3d10c56f	0.035344537
25	0xbc4b262c	-0.012399238
26	0xbe7e3139	-0.24823464
27	0xbd8503ad	-0.06494842
28	0xbea3acd5	-0.31967798
29	0xbcb26e86	-0.021781217
30	0xbd04b9f7	-0.032403912
31	0x3e351543	0.17683892
32	0xb7b5d39d	-2.1675422e-05
33	0xbe777d6a	-0.24168935
34	0x3d9bf765	0.07615546
35	0x3dab511f	0.08365082
36	0xbe889849	-0.26678684
37	0xbeaabc55	-0.3334681
38	0xbe35724e	-0.17719385
39	0xbda852d5	-0.08218924
40	0xb8067730	-3.205909e-05
41	0x38114071	3.463071e-05
42	0xbdf98335	-0.12183229
43	0xbe819ddc	-0.2531575
44	0xba08bf35	-0.00052164803
45	0x3642aa7b	2.9007485e-06
46	0xb95785d8	-0.00020553858
47	0xbe89e907	-0.26935598
48	0xbe8a456a	-0.27006084
49	0xbe0309b2	-0.12796667
50	0x3e234ab1	0.15946461
51	0x3c94916d	0.01813575
52	0xbcaef1e6	-0.02135558
53	0xb64e1ffc	-3.071501e-06
54	0xbdea679b	-0.114455424
55	0xbb389b78	-0.0028168838
56	0xbe9313d1	-0.28726056
57	0xbe8fbdca	-0.28074485
58	0xbc1a8da6	-0.009433186
59	0xbcb8cc17	-0.022558255
60	0xbe919338	-0.28432631
61	0xbe5b372e	-0.21407768
62	0x35310750	6.594828e-07
63	0xbe8cd618	-0.2750709
64	0xbe7dba25	-0.2477804
65	0x3c7d38eb	0.015455465
66	0x3e84e3bd	0.25955
67	0x3d5b53c1	0.05354667
68	0xbcee18a1	-0.029064478
69	0x3e2be1dd	0.16785379
70	0x379d1769	1.872676e-05
71	0xbdc0da20	-0.09416604
72	0xbe71569b	-0.23568194
73	0x3d05e40b	0.03268818
74	0xbdfc3c41	-0.1231618
75	0xbd97c63e	-0.074108586
76	0x35c7f3ec	1.4897646e-06
77	0x3ba29c90	0.0049625114
78	0xbdd476b9	-0.10374207
79	0xbd3f305f	-0.04667699
80	0xbc9b2fa5	-0.018943617
81	0xbdea80e9	-0.11450369
82	0x3588d1c8	1.0193844e-06
83	0xbda01f67	-0.078184895
84	0xbdf0ad49	-0.117518015
85	0xbe6cc732	-0.23122862
86	0xbe8ec7a8	-0.278867
87	0x3dd4d449	0.10392053
88	0x3e313c78	0.17308223
89	0xbc345a52	-0.011007862
90	0xbd7c255c	-0.061559066
91	0xbe522ccf	-0.20524906
92	0xbe8c3774	-0.27386057
93	0xbb3d0631	-0.0028842802
94	0xb7d74f72	-2.5666992e-05
95	0xbe8b0f7a	-0.27160245
96	0xbe518867	-0.2046219
97	0xb87ce6f6	-6.029658e-05
98	0xbd3e903a	-0.046524264
99	0x37a8c078	2.0116786e-05
100	0xbe8bd40d	-0.2731022
101	0xbe7cab15	-0.24674638
102	0x3756cd51	1.2803198e-05
103	0xb82a7763	-4.0642346e-05
104	0xbe163b3f	-0.14671038
105	0xbc74030e	-0.014893306
106	0xbe57dd28	-0.21080458
107	0x3e8bf975	0.27338758
108	0xbdbf5532	-0.093424216
109	0x3dd6397d	0.10460184
110	0xbc27ea89	-0.010248789
111	0xbe8c6a13	-0.27424678
112	0x380365d7	3.132768e-05
113	0xbea15a0d	-0.31514016
114	0xbe7b8b49	-0.24564852
115	0x3d6184e4	0.055058375
116	0xbc0568d4	-0.008142669
117	0xbe89e200	-0.26930237
118	0xbc83e388	-0.016099706
119	0xbe8bef7f	-0.2733116
120	0xbe7ca41a	-0.24671975
121	0xbe09a28e	-0.13440916
122	0xbe1669d9	-0.14688815
123	0x389c9d9e	7.468018e-05
124	0xbd2fdc75	-0.042934854
125	0xb8868ca3	-6.4158136e-05
126	0xbe8c5f93	-0.27416667
127	0xbe14311d	-0.1447186
128	0xb7dc6e15	-2.6277305e-05
129	0x3df0a547	0.11750274
130	0x3dd9f3c2	0.10642196
131	0xbd911262	-0.07083584
132	0x3e0cae6b	0.1373841
133	0x3d1eedf3	0.038801145
134	0x3d8a0bd3	0.067405365
135	0x3dc67ee4	0.09692171
136	0x3dfe3269	0.12411959
137	0xbe09e75f	-0.13467167
138	0xbe29de11	-0.16588618
139	0x3e1b69e5	0.15177114
140	0xbe0a9510	-0.13533425
141	0xbd7dbec8	-0.06194952
142	0xbccfcec3	-0.025367146
143	0x3e4da725	0.20083292
144	0xbb85e66a	-0.0040863054
145	0x3c8be1d9	0.017075466
146	0xbe2223b5	-0.15833934
147	0x3db55171	0.08853424
148	0xbd99f29e	-0.07516979
149	0xbe02d4c7	-0.1277648
150	0x3cdf3fd7	0.02725212
151	0xbb390fa5	-0.0028238085
152	0xbdeb85dc	-0.11500141
153	0x3d70b034	0.05876179
154	0x3d7fbe72	0.062437482
155	0xbe5edb82	-0.21763423
156	0xbe1ddc3c	-0.15416044
157	0xbe2e3801	-0.17013551
158	0x3ba5f1b0	0.005064212
159	0x3d10a815	0.035316546
160	0x3de64196	0.11242978
161	0xbca52a7f	-0.020161865
162	0x3e27d679	0.16390409
163	0xbe5a6187	-0.21326266
164	0x3e3b7644	0.18306834
165	0xbe2a8971	-0.16653992
166	0xbdeef9c6	-0.11668734
167	0xbe18ae78	-0.14910305
168	0xbe4e103a	-0.20123377
169	0x3bf988af	0.007615171
170	0x3dad77cb	0.08470114
171	0xbd5317d7	-0.051536407
172	0xbde6a1e3	-0.11261346
173	0xb56f7e9a	-8.921867e-07
174	0x3e0888f1	0.13333489
175	0x3da410d6	0.08011024
176	0xbdbe167b	-0.092816316
177	0xbe8715c4	-0.26383793
178	0x3dcbbe33	0.09948387
179	0x3c8a4df2	0.01688287
180	0x3d48f669	0.04906312
181	0x3dff2f38	0.12460178
182	0xbdb7c3a9	-0.08972866
183	0xbd70cd64	-0.058789626
184	0xbd2a2c4b	-0.041546147
185	0x3d6a2ad0	0.057169735
186	0x3dcf8103	0.10132029
187	0x3e067282	0.13129619
188	0xbc21e23b	-0.009880598
189	0x3e6829b7	0.22672163
190	0x3c502e71	0.012706385
191	0x38e3f9a6	0.00010870704
192	0x3e75e075	0.24011405
193	0xbd2b1fdb	-0.041778427
194	0xbe820429	-0.253938
195	0x3e3a1c67	0.18174897
196	0xbdb9fb23	-0.09081104
197	0xbdcf3014	-0.10116592
198	0xbd9c70aa	-0.076386765
199	0x3e88f0eb	0.26746306
200	0x3e17a379	0.14808454
201	0xbd9988de	-0.074968085
202	0x3dc5dc91	0.0966121
203	0x3dac7968	0.08421594
204	0xbdeee8f5	-0.11665527
205	0x3ec065e6	0.37577742
206	0xbe9e869c	-0.30962074
207	0xbe00fa91	-0.12595583
208	0xbdbd906e	-0.092560634
209	0xbe3f7dbd	-0.18700309
210	0x3dc08cb5	0.09401838
211	0x3da6c713	0.08143439
212	0x3dea1d6b	0.11431392
213	0xbd1a9957	-0.037743893
214	0x3cda3662	0.02663726
215	0x3cf64cb5	0.030065874
216	0xbcb63d95	-0.022246161
217	0xbea95f30	-0.33080435
218	0xbe65d9fd	-0.22446437
219	0x3e65f100	0.22455215
220	0x3ce5f829	0.028072434
221	0xbca31f3f	-0.01991236
222	0x3e4b3abc	0.19846624
223	0x3be2a622	0.006916777
224	0x3e613c3f	0.21995638
225	0xbde719d8	-0.11284226
226	0x3e2bd240	0.16779423
227	0xb7e6763a	-2.747319e-05
228	0x3c078a9c	0.008272793
229	0xbd0fb746	-0.035086893
230	0xbd3031f7	-0.0430164
231	0xbcaa5095	-0.020790378
232	0x3dd4c1a0	0.103884935
233	0x3d01e839	0.031715605
234	0x3d16a8f4	0.03678222
235	0xbe8bc480	-0.27298355
236	0xbb67d406	-0.0035374179
237	0x3d82af38	0.063810766
238	0xbd6fbd81	-0.058530334
239	0xbe42b404	-0.19013983
240	0xbe6549b9	-0.22391404
241	0xbc5e4078	-0.013565175
242	0xbbc95372	-0.0061439807
243	0xbd8a8231	-0.06763113
244	0xbc92fcd7	-0.017942829
245	0x3c01e711	0.007928626
246	0xbdf374d0	-0.118875146
247	0x3e21b4f9	0.15791692
248	0x3dde79f9	0.10863108
249	0x3d4f45dd	0.050603736
250	0x3e87c659	0.26518515
251	0xbe8b336f	-0.27187678
252	0x3d4e7e5a	0.050413467
253	0x3e6e4ba7	0.23271047
254	0xbd89e4a0	-0.0673306
255	0xbe224685	-0.15847214

network.6.bias f4 [39]
0	0xbd139afb	-0.036036473
1	0x3c7b9d8d	0.015357387
2	0x3c5707d4	0.013124425
3	0x3bdef89b	0.0068045384
4	0x3c176b5c	0.009241905
5	0xbd48813d	-0.048951376
6	0x3cb7096f	0.022343365
7	0xbb1c8d12	-0.0023887795
8	0x3ccdab9f	0.02510625
9	0xbc1bdcc0	-0.00951308
10	0xbd370bc6	-0.044688962
11	0x3a573186	0.00082089787
12	0x38fe91ce	0.00012138822
13	0x3ae01c67	0.0017098308
14	0x3c5b5a78	0.013388269
15	0x3c8b7676	0.01702426
16	0x3c195514	0.009358663
17	0xbcb3c7e0	-0.021945894
18	0x3c951baa	0.018201668
19	0x3d12254a	0.035680093
20	0x3b7d701c	0.0038671559
21	0x3a29db29	0.0006479496
22	0x3acb2c70	0.0015500914
23	0x3c48f1a8	0.012264647
24	0xbd43009d	-0.047608007
25	0xbb5e3f96	-0.0033912412
26	0xbd42346d	-0.04741328
27	0xbc0e45ad	-0.008683604
28	0x3c6f5e59	0.014609897
29	0x3c1ce660	0.00957641
30	0x3b27836e	0.0025560516
31	0xb9a56dcd	-0.0003155306
32	0xbbb2d638	-0.005457666
33	0xbc00ccb2	-0.007861303
34	0xbc7f94b4	-0.015599418
35	0xbd4fb7c7	-0.050712373
36	0xbd6b8211	-0.057497088
37	0xbd404815	-0.046943743
38	0xbd059427	-0.032611992
