Homework/HW2/results/quick_grid/run_09.pt (torch, 583917 bytes, 8 tensors)

network.0.weight f4 [256, 256]
0.0009813432 -0.068842545 -0.012724088 0.041316308 -0.043907 0.062137697 0.11231701 -0.0032435844
0.07995461 -0.18972625 0.12819062 -0.029873636 -0.031670734 -0.09538357 -0.06310114 -0.010556998
-0.09357988 -0.02940689 -0.042926855 -0.035178147 -0.03333037 0.017770737 -0.0771767 -0.087452345
-0.08765286 0.038146134 -0.06220275 -0.06019791 0.14715287 -0.0792784 -0.031042118 -0.0034900818
-0.16728467 0.05710579 -0.13634066 0.22766127 0.12859972 -0.06423465 0.11054758 -0.07315651
0.018685784 -0.023037167 -0.026724415 -0.11341651 0.014454873 -0.05343505 0.24471913 0.08001631
0.040849537 -0.028039755 -0.022213826 0.043745723 0.024193 0.0094121415 -0.028256373 -0.072994836
-0.004540363 0.110317275 0.10970456 -0.010014853 0.112311535 -0.07988437 0.04814958 -0.07298828
0.029546518 -0.011124963 0.11075645 0.04269752 0.05689072 0.14600797 0.022339394 0.091644555
0.0026472465 -0.0027831157 -0.05442507 0.11644977 -0.020054733 0.094456874 0.11613871 0.020684445
0.034794077 -0.0036903254 0.056689326 -0.06865304 -0.005153877 -0.098316096 -0.04897792 0.044737045
0.08812333 -0.1205167 0.025296936 0.10937824 -0.117380604 0.07734275 0.1787031 -0.031149361
-0.0061214594 -0.10373101 0.058528036 -0.02143378 -0.12029879 0.13647182 -0.11079488 0.010378638
-0.0834107 0.08165426 0.052045625 0.075106986 0.03941878 0.06591014 0.060036086 -0.19923091
-0.012230967 -0.06431776 -0.030650271 0.12925966 0.10121376 -0.05419764 0.01327673 -0.003521601
0.115339436 0.06878258 -0.03885455 0.007364327 -0.041054014 0.041747753 0.11692673 0.013315241
-1.8025448e-05 3.4439006e-05 4.2601725e-05 1.8673989e-05 6.1243125e-05 1.5270969e-05 1.2578692e-05 2.2874656e-05
2.3974566e-05 -0.22222199 0.22227284 -7.7931516e-05 -0.2222064 -2.3705928e-05 9.528809e-06 0.21182835
-0.21705197 4.4137464e-06 -0.22220321 4.6173274e-05 3.3317876e-05 -0.15957253 2.5759642e-05 -1.4939391e-05
-0.22227064 2.3952765e-05 7.1929117e-06 -0.22223991 -0.13055617 -7.7358834e-07 4.6405148e-05 -2.9330315e-05
2.2258097e-05 1.1424721e-05 -4.6924844e-05 0.22225066 1.4840431e-05 1.4308147e-05 -0.16777499 -6.80867e-06
5.0232462e-05 -9.2130176e-07 -0.1410313 -0.22227225 -2.9035655e-05 -2.9748267e-05 -0.22220352 3.950548e-05
-1.0816545e-05 6.114853e-06 -6.689503e-06 0.13003546 4.610003e-06 -0.22217514 5.6402077e-06 1.6503322e-05
0.15224816 -1.0576648e-06 -2.449972e-05 2.3813118e-05 -2.0652351e-05 6.4721215e-05 -5.0144026e-05 -5.2110838e-05
1.4450706e-05 8.420233e-05 -2.6954775e-05 -3.89407e-05 -2.7422535e-05 0.21647355 -1.8887762e-05 1.6104259e-05
3.36166e-05 -8.956464e-06 -9.561065e-06 -3.562146e-06 1.648011e-05 1.3404635e-05 -3.2953005e-05 -0.208896
-0.16095796 0.22227356 0.21663351 -0.22223084 -6.887987e-06 1.4185558e-05 0.20871352 5.3109085e-05
-2.2759246e-05 0.22222355 -1.7814871e-05 -1.8923476e-05 4.4246026e-06 0.20908782 -2.8384049e-05 6.7211906e-05
-8.736446e-07 -0.19503391 -1.747969e-05 1.390315e-05 1.3151222e-05 -0.21995309 2.5829831e-05 0.18425485
-2.6047746e-07 -1.3440636e-05 2.2242795e-05 0.22224864 1.0087819e-05 -0.22227468 4.8178004e-05 -0.21532957
-0.22224374 1.7981993e-05 -0.2222606 -0.22224818 4.863325e-05 -2.7743587e-05 1.7424518e-05 4.787155e-05
-0.219027 -0.21836542 -4.5415172e-06 -5.1669977e-06 -0.21588227 4.183965e-06 0.22224867 1.2801061e-05
00000000: 6aa0 803a 52fd 8cbd b178 50bc 4a3b 293d
00000010: d4d7 33bd 1984 7e3d 7606 e63d 5192 54bb
00000020: 3ebf a33d 9947 42be 6744 033e 8eb9 f4bc
00000030: 2cb9 01bd 7658 c3bd 2c3b 81bd 42f7 2cbc
00000040: cfa6 bfbd b8e6 f0bc 12d4 2fbd f616 10bd
00000050: 6d85 08bd f093 913c d10e 9ebd 371a b3bd
00000060: 5883 b3bd 1f3f 1c3d 50c8 7ebd 1592 76bd
00000070: 3eaf 163e b75c a2bd 0a4c febc dbb9 64bb
00000080: ac4c 2bbe c3e7 693d e39c 0bbe 0920 693e
00000090: a5af 033e 758d 83bd c566 e23d 15d3 95bd
000000a0: ee12 993c 71b8 bcbc 29ed dabc ea46 e8bd
000000b0: 22d4 6c3c b6de 5abd a797 7a3e 97df a33d
000000c0: d851 273d a1b3 e5bc c5f9 b5bc b72e 333d
000000d0: 6630 c63c 6235 1a3c e979 e7bc 517e 95bd
000000e0: 53c7 94bb 06ee e13d c9ac e03d 5715 24bc
000000f0: 9703 e63d 6b9a a3bd 7e38 453d e17a 95bd
00000100: 8a0b f23c 7a45 36bc 47d4 e23d 98e3 2e3d
00000110: 3e06 693d 1d83 153e 1b01 b73c 24b0 bb3d
00000120: 6d7d 2d3b ef64 36bb d2ec 5ebd 387d ee3d
00000130: d349 a4bc 9b72 c13d 22da ed3d 6d72 a93c
00000140: 3c84 0e3d 63d9 71bb 1133 683d f799 8cbd
00000150: dbe1 a8bb f359 c9bd 129d 48bd 313e 373d
00000160: 017a b43d 76d1 f6bd 853b cf3c b301 e03d
00000170: 3e65 f0bd e065 9e3d f2fd 363e f22c ffbc
00000180: 8696 c8bb ec70 d4bd 18bb 6f3d e595 afbc
00000190: 365f f6bd 45bf 0b3e 6de8 e2bd 2a0b 2a3c
000001a0: 3bd3 aabd 593a a73d cb2d 553d b1d1 993d
000001b0: 9675 213d e5fb 863d 66e8 753d 3003 4cbe
000001c0: 6564 48bc 08b9 83bd 4716 fbbc a55c 043e
000001d0: 2949 cf3d 58fe 5dbd a486 593c a9ca 66bb
000001e0: 1537 ec3d e2dd 8c3d f325 1fbd 7450 f13b
000001f0: 4128 28bd b1ff 2a3d 4877 ef3d 2b28 5a3c
00000200: 5b35 97b7 9a72 1038 41af 3238 16a6 9c37
00000210: a76f 8038 281a 8037 1209 5337 f3e2 bf37
00000220: fd1c c937 298e 63be 7e9b 633e 2a6f a3b8
00000230: 138a 63be 18dc c6b7 ecdd 1f37 88e9 583e
00000240: df42 5ebe cb19 9436 3d89 63be 2daa 4138
00000250: ccbe 0b38 fb66 23be 6916 d837 32a4 7ab7
00000260: ea9a 63be 2cee c837 a45a f136 dc92 63be
00000270: 84b0 05be 96a8 4fb5 26a3 4238 5f0a f6b7
00000280: e6b6 ba37 ceac 3f37 2bd1 44b8 ad95 633e
00000290: 2afb 7837 060d 7037 35cd 2bbe 0876 e4b6
000002a0: b2b0 5238 604f 77b5 826a 10be 569b 63be
000002b0: 9891 f3b7 eb8b f9b7 5289 63be b0b2 2538
000002c0: b578 35b7 302e cd36 6576 e0b6 0428 053e
000002d0: a0af 9a36 e181 63be 0441 bd36 9d70 8a37
000002e0: f1e6 1b3e 16f5 8db5 c084 cdb7 48c2 c737
000002f0: 963e adb7 f0ba 8738 bd51 52b8 9691 5ab8
00000300: 4f71 7237 c895 b038 f01c e2b7 4254 23b8
00000310: 7209 e6b7 3eab 5d3e 2971 9eb7 a217 8737
00000320: 8dff 0c38 b843 16b7 7668 20b7 340d 6fb6
00000330: c43e 8a37 78e4 6037 0537 0ab8 d5e8 55be
00000340: 2ad2 24be ae9b 633e 2dd5 5d3e 7b90 63be
00000350: 5c1f e7b6 82fe 6d37 ffb8 553e 72c1 5e38
00000360: 1ceb beb7 928e 633e 2571 95b7 dbbd 9eb7
00000370: 0c77 9436 1e1b 563e 481a eeb7 1ef4 8c38
00000380: 6684 6ab5 f8b6 47be 59a1 92b7 9341 6937
00000390: 12a4 5c37 623b 61be 24ad d837 4ead 3c3e
000003a0: c0d7 8bb4 187f 61b7 0a96 ba37 2695 633e
000003b0: da3e 2937 f99b 63be bd12 4a38 5b7f 5cbe
000003c0: dd93 63be 09d8 9637 4898 63be 0795 63be
000003d0: 8efb 4b38 e6ba e8b7 de2a 9237 afc9 4838
000003e0: 9d48 60be 2f9b 5fbe 5663 98b6 2c60 adb6
000003f0: 3e10 5dbe fc63 8c36 2895 633e 23c4 5637

network.0.bias f4 [256]
0.02413182 -0.00029018623 0.05684412 0.08335882 0.0005633844 -0.00027049432 0.03886455 0.063864455
0.07458214 0.071068704 0.007227029 0.018849703 0.04379481 0.044628568 0.07005912 0.03962662
0.052731656 0.06088939 0.024151057 -0.0009795609 0.024516199 0.09252581 0.023617247 0.007568758
-0.001354822 0.06560974 0.05541628 0.027351126 0.052528717 0.1046153 0.031878 0.039759953
0.018129522 0.060221955 0.0101833735 -0.0003064231 0.036882203 0.017694995 0.02862739 0.04169058
0.08572052 0.051617075 0.038898986 0.021265194 0.045556538 0.05649034 0.0006718751 -0.00042722927
0.004382621 0.041348234 0.010980419 0.029205713 0.0361631 0.063761055 0.041785907 0.044656266
0.07220542 0.03532157 0.016454885 0.009363489 -0.0004301949 0.039543997 0.0072786217 -0.0010160235
0.035895154 0.041362416 0.016921273 0.014171083 0.04209544 0.0114587825 0.023913959 0.013606869
0.00024158994 0.034174263 0.019998204 0.07970178 0.01816066 0.001352855 -0.0006180187 0.046736594
0.044919644 0.05562376 0.029864332 -0.0006607242 0.08528148 0.044632006 0.07874784 0.0011287357
0.049546964 0.026669227 0.011524397 0.014397848 0.059010535 0.0209522 0.047120046 0.038979683
0.043246374 0.08799982 0.039031535 0.08367473 0.0717303 0.05629379 0.02118197 0.06563541
0.0324896 0.0384053 0.0042396258 -0.00030859897 0.052499924 0.00055863045 0.013620541 0.03718184
0.0143209025 0.06327803 0.08344871 0.01703334 0.033513278 0.04625694 0.039253652 0.059311822
0.056539875 0.039484445 0.04650693 0.03509528 0.04677535 0.06768494 0.036404476 0.030227365
0.0010122285 0.0032902653 -0.0003690424 0.034427956 0.03251857 0.050799344 0.063880846 0.003462887
0.011110984 0.0024083813 0.012155532 0.04574987 0.060508776 0.04229606 0.031645227 0.052726604
0.066439025 0.04707001 -0.0039237062 -0.0018366679 -0.001975061 0.055137366 0.044903386 0.038208313
0.014185464 0.03600652 0.007641122 -0.023858516 0.07322501 0.009689739 0.0001935318 -0.00012532703
0.062061913 0.064861625 -0.000349793 0.023025228 0.034719605 0.0031734114 0.019517526 0.06062519
0.07939571 0.01455694 0.0407074 0.041502055 0.062382214 0.008060054 0.027164793 0.047436602
0.00014998783 0.06472998 0.05133181 0.013565268 0.044761993 0.032537065 0.08034689 0.030991193
-1.4759208e-05 0.00015847074 0.08131396 0.014295342 0.02664104 0.08232636 0.0011156269 0.011486501
0.007223389 0.063855775 0.057716053 0.053236876 0.009135545 0.09355207 -0.00014210513 -0.007930542
0.041268963 0.0551378 0.013256293 0.059555624 0.03820571 0.011194748 0.047861278 0.045946147
0.04231767 0.0004884928 0.077083364 0.021815887 0.04298837 0.024730261 -4.1258667e-05 0.032227084
0.06566832 0.037212312 0.045908086 0.04669495 0.047221895 0.052025422 0.0438387 0.063165456
0.12131965 0.024676723 0.08424894 -0.0009347118 0.012356565 -0.0089880815 -0.0014084319 0.06888583
-0.021486297 0.031650897 0.07879146 0.09552308 0.06541069 0.02809553 -0.0018144982 0.00973494
0.0002910546 0.055802446 0.01065226 0.038295012 0.09580888 0.057744276 0.022671806 0.071976624
0.01708752 0.057582315 0.08169215 0.035173323 0.04241919 0.082837135 0.076586686 0.031735327
00000000: 18b0 c53c 2324 98b9 61d5 683d 07b8 aa3d
00000010: 16b0 133a 22d1 8db9 6f30 1f3d 5ecb 823d
00000020: 85be 983d 788c 913d b7d0 ec3b b16a 9a3c
00000030: 3062 333d 72cc 363d 287b 8f3d 864f 223d
00000040: 26fd 573d 2767 793d 70d8 c53c 9c64 80ba
00000050: 32d6 c83c 2c7e bd3d f578 c13c 5803 f83b
00000060: 4894 b1ba 665e 863d 2efc 623d 780f e03c
00000070: 5a28 573d 8c40 d63d 8192 023d 55db 223d
00000080: 5d84 943c 4cab 763d 2ad8 263c 6aa7 a0b9
00000090: cb11 173d 18f5 903c fd83 ea3c bec3 2a3d
000000a0: 3d8e af3d 6d6c 533d 8b54 1f3d 5834 ae3c
000000b0: 7e99 3a3d 6a62 673d c620 303a befd dfb9
000000c0: 179c 8f3b c45c 293d 37e7 333c d240 ef3c
000000d0: c21f 143d 2895 823d b327 2b3d 7de9 363d
000000e0: 6fe0 933d 5aad 103d 65cc 863c 5269 193c
000000f0: c88b e1b9 e3f8 213d 8181 ee3b 172c 85ba
00000100: cc06 133d a36b 293d 7b9e 8a3c d52d 683c
00000110: 456c 2c3d 9ebd 3b3c 35e7 c33c 58ef 5e3c
00000120: 4e53 7d39 50fa 0b3d 46d3 a33c b03a a33d
00000130: aac5 943c 4852 b13a 8802 22ba df6e 3f3d
00000140: a9fd 373d bdd5 633d 0ba6 f43c 7334 2dba
00000150: 0ea8 ae3d 0dd0 363d 8c46 a13d 16f2 933a
00000160: c2f1 4a3d 6c79 da3c d3d0 3c3c f4e4 6b3c
00000170: 08b5 713d f3a3 ab3c f300 413d 29a9 1f3d
00000180: 1c23 313d 4039 b43d 88df 1f3d a85d ab3d
00000190: 56e7 923d 5194 663d d085 ad3c dc6b 863d
000001a0: d113 053d e04e 1d3d 8fec 8a3b 74cb a1b9
000001b0: 290a 573d 0e71 123a b128 5f3c fc4b 183d
000001c0: 38a2 6a3c e997 813d 28e7 aa3d 8189 8b3c
000001d0: 3845 093d eb77 3d3d 70c8 203d f4f0 723d
000001e0: 5b96 673d 71ba 213d 0d7e 3e3d 11c0 0f3d
000001f0: 8297 3f3d 679e 8a3d dc1c 153d 619f f73c
00000200: c1ac 843a 7ea1 573b 087c c1b9 5404 0d3d
00000210: 3132 053d f912 503d f6d3 823d 9af1 623b
00000220: d80a 363c efd5 1d3b ff27 473c 3764 3b3d
00000230: 0dd8 773d a23e 2d3d 6d9e 013d daf7 573d
00000240: 2f11 883d 7ccc 403d 6f92 80bb 59bc f0ba
00000250: 0670 01bb b8d7 613d 9dec 373d 5280 1c3d
00000260: 266a 683c 937b 133d 6162 fa3b ef72 c3bc
00000270: fef6 953d b6c1 1e3c ccee 4a39 386a 03b9
00000280: a234 7e3d 2cd6 843d 6c64 b7b9 679f bc3c
00000290: 2536 0e3d 02f9 4f3b 38e3 9f3c 1f52 783d
000002a0: 389a a23d 3b80 6e3c cdbc 263d 0ffe 293d
000002b0: 7e84 7f3d 510e 043c b388 de3c e24c 423d
000002c0: 0d46 1d39 2791 843d 4e41 523d dc40 5e3c
000002d0: 5a58 373d 9645 053d e98c a43d 3ee1 fd3c
000002e0: 519e 77b7 2a2b 2639 ef87 a63d 0337 6a3c
000002f0: 4f3e da3c b99a a83d 3a3a 923a e131 3c3c
00000300: 2eb2 ec3b d1c6 823d ab67 6c3d e90e 5a3d
00000310: 41ad 153c 3a98 bf3d 0e02 15b9 1bef 01bc
00000320: a509 293d 2cd8 613d ec30 593c 99f0 733d
00000330: 977d 1c3d 2d6a 373c 300a 443d 0732 3c3d
00000340: 4b55 2d3d 320e 003a e2dd 9d3d 3bb7 b23c
00000350: 9314 303d 1e97 ca3c 280d 2db8 8c00 043d
00000360: 1d7d 863d f06b 183d 1e0a 3c3d 3443 3f3d
00000370: bf6b 413d 9c18 553d 3590 333d e45c 813d
00000380: 7076 f83d d726 ca3c b58a ac3d 7207 75ba
00000390: 3173 4a3c bf42 13bc 229b b8ba 0414 8d3d
000003a0: 0804 b0bc 5fa4 013d 6b5d a13d 9ba1 c33d
000003b0: 0af6 853d 9928 e63c 75d4 edba 4c7f 1f3c
000003c0: b098 9839 1b91 643d d186 2e3c 3bdb 1c3d
000003d0: 7237 c43d 4385 6c3d 39ba b93c 7b68 933d
000003e0: 20fb 8b3c 6fdb 6b3d 374e a73d e711 103d
000003f0: bfbf 2d3d 84a6 a93d 7bd9 9c3d e7fc 013d

network.2.weight f4 [192, 256]
0.030779427 -0.030609928 -0.058168244 0.20460804 0.103932016 0.009796929 -0.013950966 0.053452674
-0.035595078 -0.13815856 0.07558385 0.045349732 0.004809941 -0.021442048 0.077691 0.02891273
-0.061357588 -0.011323988 -0.08203092 0.07469785 0.115347184 -0.1647825 -0.018077914 -0.008032253
-0.1533084 0.19396582 -0.0007824623 0.14778444 0.073325925 -0.020146579 0.09148282 0.06439746
0.022094015 -0.13872805 0.03544717 0.009349335 0.08278986 -0.04998465 -0.09635648 0.050858866
0.052346412 -0.041248105 -0.05200538 0.03561059 0.19754647 -0.080255985 0.003522411 0.036081176
0.08015785 -0.1282806 -0.06489636 -0.03098152 0.014003745 -0.027872246 0.029092425 0.03856875
-0.082627825 0.07296115 0.100089006 0.10871971 0.111760765 -0.049730018 -0.092265 0.008918313
-0.006492659 0.08163217 0.028156864 0.0681665 0.03523904 -0.029967863 0.03077136 -0.0052254214
0.14871569 -0.07760506 0.09098971 -0.098088436 0.15280384 0.1894415 -0.04186882 -0.07742923
0.0015878591 0.09541803 0.03526365 -0.00024920824 -0.117902316 0.0018845575 -0.016075784 0.09396721
0.040246822 0.0047073513 -0.17737408 0.044775434 -0.04744736 0.073117085 0.06636233 0.024758434
0.16107424 0.05964351 -0.05155569 -0.117337145 0.010038271 -0.04031385 -0.16840951 -0.062428504
-0.0151419975 0.004314794 0.046430696 -0.07390945 0.07450186 0.09424143 0.06184086 0.0064334264
-0.04633197 -0.025038492 -0.02552174 -0.04486353 0.079836816 0.03491949 0.061242577 -0.054733437
-0.109226026 0.11745598 -0.042540595 -0.021768617 0.021059312 -0.11386135 0.013107582 -0.022133159
-0.14827795 0.11910167 0.055481233 -0.023082778 -0.065212786 0.02774392 0.13097991 -0.07672324
-0.03136942 0.049974404 -0.04238375 0.21040006 -0.054301582 -0.03379327 -0.012609488 -0.043621395
-0.10274533 0.08213638 0.11804194 0.12435753 0.047882184 -0.07662244 -0.054964717 -0.058300104
0.07031549 0.06488224 0.07448855 0.038133677 -0.007072769 -0.060424186 -0.18615052 0.017660985
0.023155354 0.028412422 -0.037600916 -0.0060553476 -0.11350116 0.0912509 -0.022781922 -0.021582825
-0.011385355 0.015351382 0.07020394 -0.037470803 0.032765698 -0.061645117 0.0482726 -0.016788073
0.08593133 0.07621244 0.036073573 -0.10794138 -0.12842286 0.108154066 0.050456923 0.1322424
-0.08970644 0.056555558 0.06618671 -0.060119983 0.08048739 -0.0036260285 -0.009737791 -0.15706614
-0.057335634 -0.16839193 0.016305037 0.08355765 -0.10645919 0.029889623 -0.0067719053 -0.01089322
-0.009248764 0.088284366 -0.024192533 -0.050252065 -0.04427619 0.08781053 -0.0068452605 -0.030938203
0.1253201 0.052971177 -0.005849987 -0.0012582762 0.00021141295 -0.018813139 0.11500682 0.0051401346
-0.019745532 -0.06787507 0.14062689 -0.097382285 -0.13012944 1.04227365e-05 -0.037170462 0.12463069
-0.13435428 0.054848496 0.01739844 -0.05337529 0.009781988 -0.09924813 -0.10314854 0.0813666
-0.044152435 -0.1231552 -0.056760173 -0.06229272 -0.078019455 -0.007986173 0.03262102 -0.1522402
0.12681708 -0.061945256 -0.03424759 -0.040232893 -0.16089386 0.16846275 0.15809086 -0.12390661
0.06468354 -0.042582486 -0.004047428 0.103448935 0.0011499799 -0.10381191 -0.11912623 0.0711742
00000000: 2325 fc3c acc1 fabc d341 6ebd c584 513e
00000010: 4fda d43d 4c83 203c 9892 64bc 31f1 5a3d
00000020: 25cc 11bd 7079 0dbe b5cb 9a3d a4c0 393d
00000030: b69c 9d3b 3ca7 afbc 761c 9f3d 64da ec3c
00000040: 1852 7bbd 4088 39bc d4ff a7bd 30fb 983d
00000050: 253b ec3d bebc 28be 2218 94bc b699 03bc
00000060: e1fc 1cbe fa9e 463e 281e 4dba ce54 173e
00000070: e72b 963d 700a a5bc 585b bb3d d1e2 833d
00000080: 82fe b43c ba0e 0ebe 0d31 113d f42d 193c
00000090: bb8d a93d b4bc 4cbd 8c56 c5bd 6351 503d
000000a0: 3169 563d c6f3 28bd 9803 55bd 69dc 113d
000000b0: 9f49 4a3e 405d a4bd 40d8 663b dbc9 133d
000000c0: cd29 a43d fd5b 03be 62e8 84bd f5cc fdbc
000000d0: f76f 653c 5654 e4bc 3d53 ee3c 44fa 1d3d
000000e0: c738 a9bd a86c 953d 77fb cc3d 70a8 de3d
000000f0: d4e2 e43d b4b1 4bbd 6ff5 bcbd 1e1e 123c
00000100: 5fc0 d4bb c42e a73d 39a9 e63c e19a 8b3d
00000110: d056 103d 2a7f f5bc 3814 fc3c 033a abbb
00000120: ed48 183e 67ef 9ebd d058 ba3d 97e2 c8bd
00000130: 9c78 1c3e f4fc 413e a47e 2bbd 3793 9ebd
00000140: b61f d03a 876a c33d 9e70 103d 2aa8 82b9
00000150: c576 f1bd 4203 f73a 5db1 83bc e171 c03d
00000160: dad9 243d 2040 9a3b 8da1 35be 7266 373d
00000170: 2a58 42bd 69be 953d f9e8 873d 33d2 ca3c
00000180: a5f0 243e c14c 743d 0f2c 53bd 754e f0bd
00000190: 8f77 243c 2320 25bd 8b73 2cbe 08b5 7fbd
000001a0: 2416 78bc 1e63 8d3b 1d2e 3e3d d65d 97bd
000001b0: 6e94 983d a701 c13d d74c 7d3d 7ecf d23b
000001c0: 97c6 3dbd 861d cdbc f812 d1bc d2c2 37bd
000001d0: 7c81 a33d bd07 0f3d 7fd9 7a3d 2b30 60bd
000001e0: e5b1 dfbd c38c f03d 0c3f 2ebd 1954 b2bc
000001f0: 9484 ac3c 2430 e9bd 2fc1 563c 9950 b5bc
00000200: 2dd6 17be 94eb f33d 4a40 633d 1818 bdbc
00000210: 488e 85bd 3847 e33c 991f 063e 1321 9dbd
00000220: 397d 00bd f6b1 4c3d 959a 2dbd 1d73 573e
00000230: 566b 5ebd d06a 0abd 0798 4ebc 59ac 32bd
00000240: 256c d2bd 1e37 a83d f9bf f13d 29af fe3d
00000250: 1c20 443d 3aec 9cbd af22 61bd 17cc 6ebd
00000260: 9101 903d fbe0 843d 748d 983d 0f32 1c3d
00000270: b0c2 e7bb 5a7f 77bd 3e9e 3ebe c5ad 903c
00000280: 4cb0 bd3c 2bc1 e83c 6b03 1abd f06b c6bb
00000290: 4c73 e8bd c0e1 ba3d 27a1 babc 77ce b0bc
000002a0: a489 3abc 5d84 7b3c 15c7 8f3d fc7a 19bd
000002b0: 5335 063d 977f 7cbd 7db9 453d 2487 89bc
000002c0: c4fc af3d 4515 9c3d e2c1 133d 5f10 ddbd
000002d0: 4881 03be e17f dd3d ebab 4e3d 8d6a 073e
000002e0: 03b8 b7bd cda6 673d e68c 873d 5f40 76bd
000002f0: 93d6 a43d aaa2 6dbb 418b 1fbc f2d5 20be
00000300: c5d8 6abd ef6e 2cbe 2492 853c 4620 ab3d
00000310: 4707 dabd 15db f43c dce6 ddbb 7a79 32bc
00000320: 2188 17bc 6fce b43d 6b2f c6bc 1cd5 4dbd
00000330: f35a 35bd 02d6 b33d 354e e0bb 1d72 fdbc
00000340: ea53 003e 4ef8 583d 3fb1 bfbb beec a4ba
00000350: bbae 5d39 031e 9abc b288 eb3d 936e a83b
00000360: 62c1 a1bc 1602 8bbd 7f00 103e 5d70 c7bd
00000370: a740 05be 50dd 2e37 0e40 18bd 603e ff3d
00000380: 2b94 09be d1a8 603d 2c87 8e3c 0ca0 5abd
00000390: a244 203c 9b42 cbbd 8b3f d3bd 88a3 a63d
000003a0: 2fd9 34bd cb38 fcbd 5b7d 68bd a726 7fbd
000003b0: aac8 9fbd 70d8 02bc 9e9d 053d dbe4 1bbe
000003c0: 56dc 013e 4fba 7dbd 3347 0cbd 3fcb 24bd
000003d0: 5cc1 24be 8081 2c3e 92e2 213e c0c2 fdbd
000003e0: ce78 843d f96a 2ebd 49a0 84bb 09dd d33d
000003f0: ecba 963a 579b d4bd 74f8 f3bd c7c3 913d

network.2.bias f4 [192]
-0.016641801 0.02916883 0.041596785 0.019545997 0.028572066 0.031126127 0.02958112 0.05096137
0.020244945 0.009435972 0.008389988 -0.019875895 0.011534938 0.03500178 0.024559358 0.017239159
0.031568494 0.012464831 0.018244578 0.030595573 0.019631136 0.046361417 0.022302374 0.032214083
0.008781837 0.02074472 0.004956686 0.008066101 0.044269327 0.019793678 0.0042589027 -0.006761993
0.013605552 0.030365055 -0.0017750083 0.017044617 0.0044581266 0.00087193237 0.008911043 0.042991586
0.049570385 0.010467799 0.016880408 0.041053757 0.042533863 0.021113476 0.020215886 0.013226124
0.051791977 -0.017622396 0.018377494 0.052115697 0.022515425 0.029714836 0.019042859 0.039075375
-0.0011109516 0.031426188 0.009790703 0.022734342 0.021710651 0.017601758 0.028183049 0.03636716
0.05194245 0.029523775 0.036870636 0.002689257 0.035692908 0.0030356823 0.04583499 -0.009188853
0.022327993 -0.0020487744 0.031256974 0.016565125 0.022216426 0.022534177 0.018639248 0.01987239
-0.0011405823 0.013164372 0.006773454 0.03937007 0.01450729 0.03767028 0.039846566 0.031191677
0.031474225 0.01675599 0.055213995 0.028201574 0.012869394 0.009389595 0.031425864 0.026657134
0.00056319544 0.034543805 0.008990054 0.027053941 0.04075859 0.018887114 0.028198883 -0.008497319
0.030578213 0.020031294 0.02445571 0.0056169713 0.039252713 0.022830348 0.0142184375 0.028902976
-0.01747752 0.030247902 0.02675962 0.019723041 -0.008417788 0.033173967 0.02768231 0.004224978
0.011687311 0.030663488 0.0498779 0.017596895 0.021780051 -0.012945878 0.052243333 -0.0028710887
0.024145221 0.0028344325 0.0205952 0.0047143796 0.030352106 0.035240892 0.022066547 0.0038176829
0.012137317 0.015004359 0.028850188 0.010211491 0.02727326 0.010213358 0.01802875 0.0062377825
0.0063998015 -0.0011397167 0.044985805 0.00071711704 0.006224374 0.0282987 0.006685077 0.017058149
0.015359502 0.0042413715 0.02970645 0.014127424 0.0019775028 -0.012228058 0.027540702 0.026394568
0.0156047745 0.0511122 0.017754056 0.007921628 0.020864952 0.012474266 0.012490002 0.023502283
0.009852198 0.028345365 0.0043158857 0.036276344 -0.0017784069 0.001583296 0.0028466473 -0.008108889
0.00849459 0.023296328 0.0131061515 0.03152707 0.044417985 0.010782975 0.017110541 0.041716892
-0.005541924 0.035398986 0.01085453 0.0058551277 0.032436207 0.024951592 0.00042391458 0.03362765
00000000: 6354 88bc 78f3 ee3c 6461 2a3d ed1e a03c
00000010: f70f ea3c 38fc fe3c 1b54 f23c dfbc 503d
00000020: bad8 a53c 5699 1a3c 2976 093c c6d2 a2bc
00000030: 09fd 3c3c 075e 0f3d b530 c93c 2339 8d3c
00000040: f74d 013d 4a39 4c3c a775 953c 91a3 fa3c
00000050: 7ad1 a03c 78e5 3d3d 78b3 b63c eaf2 033d
00000060: b2e1 0f3c d5f0 a93c b26b a23b ae27 043c
00000070: c153 353d 5a26 a23c 448e 8b3b b593 ddbb
00000080: d2e9 5e3c 23c0 f83c 65a7 e8ba 27a1 8b3c
00000090: 7a15 923b 6492 643a a0ff 113c f217 303d
000000a0: 510a 4b3d 2281 2b3c c848 8a3c fc27 283d
000000b0: fd37 2e3d 2bf6 ac3c c99b a53c 63b2 583c
000000c0: d323 543d d85c 90bc 668c 963c 4577 553d
000000d0: 4572 b83c 876c f33c c5ff 9b3c 800d 203d
000000e0: 5a9d 91ba bfb8 003d 2f69 203c 5f3d ba3c
000000f0: 89da b13c 9031 903c 23e0 e63c bbf5 143d
00000100: 9bc1 543d d8db f13c aa05 173d 3f3e 303b
00000110: ba32 123d 4cf2 463b 78bd 3b3d d88c 16bc
00000120: 32e9 b63c bb44 06bb 5007 003d 96b3 873c
00000130: 39ff b53c 9899 b83c 56b1 983c 6ccb a23c
00000140: 977f 95ba 61af 573c daf3 dd3b 8342 213d
00000150: fcaf 6d3c 274c 1a3d 2736 233d b085 ff3c
00000160: 1eeb 003d dc43 893c 1228 623d fd06 e73c
00000170: 27da 523c d1d6 193c 68b8 003d 1060 da3c
00000180: 68a3 133a ce7d 0d3d 054b 133c 3aa0 dd3c
00000190: 7bf2 263d 26b9 9a3c 5801 e73c 5738 0bbc
000001a0: 297f fa3c ab18 a43c 5757 c83c 920e b83b
000001b0: 74c7 203d b606 bb3c 73f4 683c efc5 ec3c
000001c0: 042d 8fbc 73ca f73c fe36 db3c 3792 a13c
000001d0: c3ea 09bc 6de1 073d 03c6 e23c af71 8a3b
000001e0: 237c 3f3c ff31 fb3c c54c 4c3d 5d27 903c
000001f0: 146c b23c f31a 54bc 1bfd 553d e028 3cbb
00000200: 33cc c53c e3c1 393b 44b7 a83c 157b 9a3b
00000210: fba4 f83c c158 103d e7c4 b43c 1732 7a3b
00000220: 99db 463c d8d4 753c 3b57 ec3c 194e 273c
00000230: 2c6c df3c ee55 273c 07b1 933c 5066 cc3b
00000240: 6db5 d13b 8c62 95ba 0943 383d e9fc 3b3a
00000250: d5f5 cb3b add2 e73c 7e0e db3b 88bd 8b3c
00000260: 6ca6 7b3c 34fb 8a3b f15a f33c b676 673c
00000270: fe98 013b 3158 48bc 0a9d e13c 6c39 d83c
00000280: 2bab 7f3c 075b 513d f470 913c b7c9 013c
00000290: faec aa3c dd60 4c3c dea2 4c3c dc87 c03c
000002a0: 1d6b 213c 8a34 e83c 466c 8d3b 8196 143d
000002b0: 6f19 e9ba 9986 cf3a d18e 3a3b 25db 04bc
000002c0: e52c 0b3c f1d7 be3c 2fbb 563c 8722 013d
000002d0: a2ef 353d 13ab 303c 682b 8c3c 55df 2a3d
000002e0: 0799 b5bb 87fe 103d 33d7 313c 5fdc bf3b
000002f0: d4db 043d 4867 cc3c da40 de39 26bd 093d

network.4.weight f4 [128, 192]
0.022190096 0.17879799 -0.20487744 0.027484419 -0.04585108 0.13481021 -0.054395936 -0.18066986
0.10827079 -0.0973033 0.18130432 0.06398225 0.016985988 -0.06514669 -0.03381928 -0.1338896
-0.017468717 -0.12583569 0.054651592 -0.24677226 -0.09359185 -0.062341295 -0.0544807 0.011797648
0.016936606 0.02404653 0.10751742 0.071782164 -0.07120237 0.1699275 0.057638697 0.07636212
-0.0013150469 -0.019102981 0.09737758 0.005580335 -0.031272016 -0.02479318 -0.022696307 0.09418606
0.101178765 0.07332766 -0.12635408 -0.01889801 -0.113124095 0.08516935 0.028681401 0.039551634
-0.042850588 -0.015575137 -0.020884704 -0.17420036 0.14756675 -0.05847247 0.043112617 -0.01072597
-0.087445654 0.02076603 0.08358778 0.006761571 -0.1461436 0.025891164 0.081537746 -0.0203219
-0.105663106 0.014848066 0.10108399 -0.17641456 -0.005826242 -0.03654607 0.021665392 0.18334174
0.31802836 0.035471715 -0.017902104 0.028339036 0.06494245 0.03301517 0.05378218 -0.10757223
0.130316 -0.05873474 0.060034547 -0.007926885 -0.0134757245 0.09143183 0.04062194 -0.03870844
0.12968221 0.023297112 0.06032626 0.14787576 -0.0785412 0.022733184 -0.114829816 -0.09650625
0.019175608 0.029316438 0.1489122 -0.0836263 -0.00820713 -0.06877575 -0.004016124 0.10057617
0.002071309 0.10364481 -0.042505756 -0.12893191 -0.1360084 0.16198085 0.115515865 -0.24756175
2.1485857e-07 0.16817294 0.042616762 -0.029645579 -0.08303456 -0.03432972 0.08438957 -0.020218102
0.012358003 -0.018417487 0.028266722 0.08064885 0.1963129 -0.006721848 0.059138242 -0.14183056
-0.12468118 -0.12636724 0.11505423 -0.04789606 0.058869384 0.14393595 0.015403044 0.11166892
-0.06920556 0.06204624 0.148858 -0.0425199 -0.1997219 0.009207428 0.016764512 -0.115749344
0.011278943 0.12059926 -0.02263391 -0.0006253887 0.035768263 0.17267598 0.083570935 0.1924423
-0.012388672 0.09116442 -0.17573443 -0.0021601382 0.003133935 0.02641445 -0.038959134 -0.07594217
0.2123889 0.054141346 -0.072815694 -0.071231686 -0.15070948 0.09524974 -0.09333398 -0.07112773
-0.13048232 0.1620216 -0.18993159 -0.017428342 -0.0072332635 0.20455104 0.1383853 -0.05398234
-0.17531541 0.001871156 0.09107952 0.04124692 0.16534506 0.1742413 0.025407195 -0.06897838
0.06613325 0.1607721 0.028830629 0.08728851 0.032900672 0.047747396 -0.1264594 -0.06406538
-0.17214581 0.18305553 0.019770402 -0.0017659914 -0.097030945 0.11114631 0.045555968 0.0480502
0.17749189 -0.017628118 -0.043226514 -0.15711495 0.0328469 0.044124555 0.04872937 -0.017323414
-0.13112493 0.17752148 -0.09127373 0.10676484 -0.14141023 0.13249686 -0.21154131 -0.09475231
-0.07467913 0.0287445 0.14089553 0.11296578 0.10315827 -0.05666483 -0.058833662 0.14138733
0.060470928 0.00047360503 -0.018106336 -0.21390413 0.010459786 -0.02544377 0.018327875 -0.06976974
-0.09826241 0.12117257 -0.050817627 0.10817 -0.07274344 0.020357622 0.00073165697 -0.035412073
-0.13608158 -0.06353488 0.01678661 0.11299736 -0.04246574 0.051484186 0.0044911043 0.07133147
-0.07352986 -0.07332709 0.028991248 -0.09086951 0.065482825 -0.02354342 -0.15489462 -0.10384353
00000000: 01c8 b53c d216 373e 64cb 51be 0127 e13c
00000010: 58ce 3bbd b00b 0a3e 46ce 5ebd 8501 39be
00000020: 13bd dd3d f446 c7bd d7a7 393e 2009 833d
00000030: 3326 8b3c a16b 85bd 1686 0abd 5b1a 09be
00000040: 8e1a 8fbc 12db 00be 59da 5f3d deb1 7cbe
00000050: 15ad bfbd 9659 7fbd 2827 5fbd ec4a 413c
00000060: a3be 8a3c 3afd c43c 1832 dc3d 8702 933d
00000070: 8cd2 91bd 7901 2e3e 8e16 6c3d be63 9c3d
00000080: a75d acba db7d 9cbc e66d c73d 3edb b63b
00000090: 1617 00bd 111b cbbc 9bed b9bc 9fe4 c03d
000000a0: d036 cf3d d02c 963d f762 01be 00d0 9abc
000000b0: 9bad e7bd 456d ae3d 42f5 ea3c e500 223d
000000c0: 1984 2fbd dc2e 7fbc 6616 abbc 9461 32be
000000d0: bd1b 173e d480 6fbd db96 303d fbbb 2fbc
000000e0: b516 b3bd 851d aa3c 1230 ab3d 2b90 dd3b
000000f0: aba6 15be b519 d43c 43fd a63d 1d7a a6bc
00000100: e665 d8bd 4d45 733c 1f05 cf3d 05a6 34be
00000110: 0fea bebb 55b1 15bd 9f7b b13c f0bd 3b3e
00000120: 9dd4 a23e ca4a 113d 6fa7 92bc 4427 e83c
00000130: 8c00 853d ea3a 073d b44a 5c3d d44e dcbd
00000140: 8f71 053e d793 70bd c9e6 753d c4df 01bc
00000150: 49c9 5cbc 9c40 bb3d 3163 263d be8c 1ebd
00000160: 6acb 043e 96d9 be3c ab18 773d be6c 173e
00000170: 35da a0bd f13a ba3c e52b ebbd 12a5 c5bd
00000180: 2a16 9d3c 0729 f03c 717c 183e 4444 abbd
00000190: 3377 06bc 4dda 8cbd b199 83bb e1fa cd3d
000001a0: ccbe 073b bb43 d43d 841a 2ebd ba06 04be
000001b0: c945 0bbe 4fde 253e 9593 ec3d d480 7dbe
000001c0: e0b3 6634 8735 2c3e ea8e 2e3d 49db f2bc
000001d0: 060e aabd 529d 0cbd 70d4 ac3d 6fa0 a5bc
000001e0: 3979 4a3c 45e0 96bc 9d8f e73c 392b a53d
000001f0: 4006 493e f342 dcbb f13a 723d 083c 11be
00000200: d958 ffbd 6a66 01be 8da1 eb3d a92e 44bd
00000210: 0621 713d f263 133e 0d5d 7c3c adb2 e43d
00000220: a5bb 8dbd 3324 7e3d 3b6e 183e 5929 2ebd
00000230: e683 4cbe c1da 163c bb55 893c fe0d edbd
00000240: 51cb 383c bffc f63d c06a b9bc 20f1 23ba
00000250: be81 123d f9d1 303e 3d27 ab3d 980f 453e
00000260: dbf9 4abc 69b4 ba3d baf3 33be 1b91 0dbb
00000270: b462 4d3b 1e63 d83c 9d93 1fbd 9287 9bbd
00000280: 7a7c 593e 51c3 5d3d 6520 95bd ebe1 91bd
00000290: 9653 1abe 4c12 c33d e325 bfbd 6aab 91bd
000002a0: 289d 05be fee8 253e 6d7d 42be e2c5 8ebc
000002b0: 0305 edbb d475 513e e0b4 0d3e 961c 5dbd
000002c0: e285 33be 9441 f53a e687 ba3d 88f2 283d
000002d0: 3750 293e 506c 323e c022 d03c 8944 8dbd
000002e0: df70 873d 71a1 243e 362e ec3c 51c4 b23d
000002f0: dbc2 063d c692 433d 937e 01be b634 83bd
00000300: fe46 30be e972 3b3e 8af5 a13c d778 e7ba
00000310: 29b8 c6bd ada0 e33d e598 3a3d 49d0 443d
00000320: 6fc0 353e d868 90bc 490e 31bd bee2 20be
00000330: 798a 063d f3bb 343d 7398 473d d5e9 8dbc
00000340: 9d45 06be 31c8 353e b9ed babd 86a7 da3d
00000350: d8cd 10be 42ad 073e 499e 58be 800d c2bd
00000360: 5ff1 98bd 9679 eb3c eb46 103e 9a5a e73d
00000370: a544 d33d 6119 68bd 91fb 70bd d7c7 103e
00000380: 5db0 773d 314e f839 bd53 94bc af09 5bbe
00000390: 865f 2b3c 746f d0bc 5724 963c 70e3 8ebd
000003a0: cd3d c9bd 5329 f83d 2526 50bd 3c88 dd3d
000003b0: 83fa 94bd 07c5 a63c abcc 3f3a 400c 11bd
000003c0: f858 0bbe 931e 82bd 1384 893c 296b e73d
000003d0: 8ef0 2dbd 15e1 523d 1d2a 933b 3c16 923d
000003e0: d396 96bd 832c 96bd 0e7f ed3c cb19 babd
000003f0: dc1b 863d 21de c0bc b29c 1ebe ebab d4bd

network.4.bias f4 [128]
0.011339965 0.038904145 -0.0123968115 -0.009048274 0.021091726 0.041720726 -0.012442451 0.033299167
0.0071894866 0.015128205 0.0042789923 -0.0028294038 0.023850264 0.0088850735 -0.0061786035 0.020014046
0.022535907 0.038663384 -0.0013755887 0.0058397683 -0.01752128 0.024205243 -0.0010508732 0.044185005
0.023849007 -0.009371269 0.020345254 0.015958453 0.028699491 -0.0089883255 -0.0017123942 0.035275247
0.012780165 0.0035423208 0.010181129 0.01739298 0.015474671 0.0142791495 0.005088185 0.029494492
0.020809038 -0.017035758 0.0378057 0.012140435 0.020654518 -0.0038750183 -0.00081278285 0.016387975
-0.0018916522 0.00012521372 -0.012241507 0.03609331 -0.00893645 0.005877987 0.012120039 -0.0027139036
0.022161534 0.008358011 0.024694812 -0.002306574 0.014929118 0.004303871 -0.013706727 0.023542928
-0.0043253065 0.025280194 0.026922988 0.0068503222 0.048648894 0.035908267 -0.013668226 0.03847433
0.015165271 -0.008594149 0.025200756 -0.0031433895 0.01828124 0.030025367 0.016739832 0.029957734
-0.0022510984 0.04365821 0.029846901 0.019728297 0.0077421437 0.022223406 0.00051012565 0.042929173
0.010441793 0.0064358828 0.016284937 0.00876683 -0.005461596 0.004996614 -0.008011977 -0.007676225
0.03542593 0.009032962 0.03523378 0.021049986 0.028507305 0.018463494 -0.017267544 -0.015180261
0.003992174 -0.021779422 0.023703314 0.019260418 0.0037200323 0.023440735 0.009569848 -0.011656648
0.043757252 -0.0118625015 -0.008974068 -0.017612059 0.012422921 -0.0063023525 0.021268986 0.018943928
0.01255365 0.008342222 -0.005663215 0.03616303 0.0100836465 0.023193419 0.03325712 -0.009010247
00000000: 43cb 393c f459 1f3d ff1b 4bbc 363f 14bc
00000010: 8ec8 ac3c 5ae3 2a3d 6cdb 4bbc b564 083d
00000020: c995 eb3b 4adc 773c ca36 8c3b 856d 39bb
00000030: a161 c33c b392 113c e275 cabb 7ff4 a33c
00000040: 399d b83c 7f5d 1e3d 194d b4ba 875b bf3b
00000050: ca88 8fbc 134a c63c 74bd 89ba 56fb 343d
00000060: fe5e c33c f389 19bc 17ab a63c 4dbb 823c
00000070: 321b eb3c c543 13bc 6a72 e0ba c77c 103d
00000080: e663 513c 4826 683b c0ce 263c b97b 8e3c
00000090: 7989 7d3c 18f3 693c caba a63b 6f9e f13c
000000a0: b777 aa3c 938e 8bbc 26da 1a3d ade8 463c
000000b0: aa33 a93c 05f4 7dbb ef10 55ba 1340 863c
000000c0: 51f1 f7ba cd4b 0339 9a90 48bc 94d6 133d
000000d0: 306a 12bc 219c c03b 2193 463c bfdb 31bb
000000e0: 1b8c b53c 0af0 083c c64c ca3c e429 17bb
000000f0: 4299 743c 7d07 8d3b 2e92 60bc 19dd c03c
00000100: 4dbb 8dbb 6918 cf3c 998d dc3c ab78 e03b
00000110: 1044 473d 8c14 133d b2f0 5fbc 4297 1d3d
00000120: c277 783c 79ce 0cbc d171 ce3c 5301 4ebb
00000130: 8ac2 953c c2f7 f53c f921 893c ec69 f53c
00000140: 2a87 13bb f4d2 323d 7d81 f43c 3d9d a13c
00000150: cfb1 fd3b dc0d b63c f4b9 053a 80d6 2f3d
00000160: 0e14 2b3c 19e4 d23b fd67 853c c0a2 0f3c
00000170: 30f7 b2bb a3ba a33b ab44 03bc d888 fbbb
00000180: c81a 113d fdfe 133c 4c51 103d 0571 ac3c
00000190: 2788 e93c c140 973c aa74 8dbc a1b6 78bc
000001a0: c8d0 823b c26a b2bc 742d c23c 06c8 9d3c
000001b0: c9cb 733b c906 c03c daca 1c3c 86fb 3ebc
000001c0: ce3a 333d f05a 42bc f807 13bc 2a47 90bc
000001d0: 8289 4b3c f783 cebb 4c3c ae3c 4c30 9b3c
000001e0: d3ad 4d3c d1ad 083c 7e92 b9bb af1f 143d
000001f0: e135 253c 2000 be3c 9e38 083d b79f 13bc

network.6.weight f4 [39, 128]
-0.14287062 -9.574474e-06 -0.014483566 -0.2547846 -0.40480435 0.0015284659 -0.002266391 -0.10258486
-0.10393707 -0.075519636 -0.105181254 -0.14374387 -0.21633369 -0.058398824 -1.7230319e-05 -0.13068713
-0.25626373 -0.24195257 0.029359488 -0.2555076 -0.07094503 -0.21033618 -0.21780331 0.09058288
-0.09277048 0.23071879 -0.3212489 -0.106165215 0.25585437 6.169337e-06 -0.17581521 0.0325538
-0.4845106 0.02064848 -0.08515704 -0.29156768 -0.2547922 0.07558564 -0.25511208 4.1888688e-07
0.024968589 9.189298e-07 -0.05511213 -0.14027981 0.22925355 2.6436277e-05 -1.2732591e-05 -0.048513994
-0.20926517 0.004277397 -4.3155e-06 0.027920825 -0.14207901 0.25299382 -0.22652817 5.049388e-05
0.27986002 -0.07540337 0.04321959 -1.7242515e-05 -0.25467035 -0.23783864 -0.20570765 -0.16708007
-0.0752462 3.340381e-05 -0.25686762 -0.00027613135 0.16403902 -0.058194004 -2.7998663e-05 0.25352
-0.18385503 -0.14581738 -2.8096842e-06 -0.3927403 -0.10957069 -0.077713735 -0.20349331 -0.084614165
-3.2058946e-05 -0.11824721 -0.105197944 4.5081106e-07 0.117679924 -0.004823644 1.7525642e-06 -0.28439918
-0.1803537 -0.18955792 -0.16978952 0.004656429 0.25638548 0.016851999 -0.10518033 1.3907407e-05
0.178301 0.25639966 -0.2563203 -0.25059184 -0.085456245 -0.01579986 0.034068838 -0.06045277
-0.1583906 6.259488e-07 -0.24035387 -0.0663744 0.01380114 -1.300321e-05 -0.08126341 2.600228e-05
-0.25716683 -0.006061199 -5.7617053e-06 -0.09984522 0.04730026 6.941904e-06 0.071960166 -0.0869753
0.048070487 -0.2565063 -0.18763913 -0.031503685 0.16260041 -2.1198099e-07 -0.109809466 0.20357212
-0.107028864 -0.026667865 -0.12044867 -0.25618866 -0.15724595 -0.0040460858 -0.048534967 -0.21734723
0.0580168 0.055669636 -0.08090776 0.13036895 0.19780654 -0.08193796 -0.18208373 -0.027271392
-0.13133915 0.08105439 -0.22445047 0.24344814 -0.19099991 0.045788098 0.13173375 -0.20929642
-0.03485057 -0.03937647 -0.19252777 0.1385375 0.037507325 -4.2289194e-05 0.1906848 -0.074990705
0.13066216 0.1716159 0.010495858 0.034867134 0.115042 -0.08612872 -0.035265364 0.00654801
-0.20922036 1.8375042e-05 0.057640404 -0.0801046 0.21329044 0.25704637 0.16064695 -0.08631899
0.10274147 -0.018824264 -0.06250791 0.114608765 -0.0214834 0.11663349 -0.070561536 -0.25651905
0.037844293 0.27749753 -0.04698971 0.16036046 0.05914787 0.09047394 0.1525513 -0.020158602
0.0030896177 -0.025012795 -0.06318841 0.20814838 0.02296846 0.08861148 -5.3219297e-05 -0.0501222
0.148534 -0.01098725 -0.06508209 -0.014692504 0.025428798 0.08755891 0.04340613 -0.08397578
-3.5770823e-05 -0.011473271 -0.24121228 -0.09148033 0.08509864 -0.029079005 -0.33970898 -0.036604103
0.14158005 0.09309165 0.090211265 0.11395005 -0.045883313 0.12952188 -0.16458668 1.6561764e-05
0.0027671107 -0.12053452 0.066194475 -0.27875292 -0.042785726 -0.06917955 0.030140772 -0.05623374
0.007958241 0.0021504585 -0.046694677 0.16280724 0.031268623 0.13516597 0.1281105 0.13583201
-0.013276324 -0.030829566 0.026580714 -0.00044983724 0.16323668 -1.151675e-06 0.08955942 0.04134686
0.11538728 -0.02033239 -0.0137561755 0.038500916 -0.2544303 0.10440781 0.12857936 -0.029109273
00000000: ad4c 12be 0da2 20b7 7b4c 6dbc 2173 82be
00000010: 8442 cfbe ce56 c83a bb87 14bb 0318 d2bd
00000020: f5dc d4bd 0aaa 9abd 4569 d7bd 9831 13be
00000030: 9486 5dbe 9b33 6fbd d489 90b7 d9d2 05be
00000040: 0035 83be 6ac2 77be 4f83 f03c e4d1 82be
00000050: a14b 91bd 5e62 57be d507 5fbe 8483 b93d
00000060: 73fe bdbd 8c41 6c3e bc7a a4be 266d d9bd
00000070: 58ff 823e 3402 cf36 e708 34be 2257 053d
00000080: c611 f8be 0027 a93c d066 aebd 5c48 95be
00000090: 2074 82be a5cc 9a3d 0d9e 82be 60e3 e034
000000a0: ed8a cc3c 60ac 7635 42bd 61bd 83a5 0fbe
000000b0: 71c1 6a3e 79c3 dd37 109e 55b7 9cb6 46bd
000000c0: 9c49 56be 6829 8c3b ddcd 90b6 37ba e43c
000000d0: 297d 11be 6888 813e 00f7 67be 64c9 5338
000000e0: d049 8f3e 156d 9abd 0607 313d 05a4 90b7
000000f0: 2764 82be f98b 73be 07a5 52be 0a17 2bbe
00000100: ae1a 9abd 111b 0c38 2784 83be b9c5 90b9
00000110: d8f9 273e d65c 6ebd acde eab7 60cd 813e
00000120: 7e44 3cbe 2751 15be 028e 3cb6 4215 c9be
00000130: 9966 e0bd 6128 9fbd 8d60 50be 314a adbd
00000140: 0877 06b8 982b f2bd 0572 d7bd 0007 f234
00000150: 2c02 f13d a90f 9ebb a639 eb35 c59c 91be
00000160: a4ae 38be 791b 42be 4edd 2dbe f594 983b
00000170: f544 833e 340d 8a3c c968 d7bd dc53 6937
00000180: 8a94 363e d146 833e 6a3c 83be 934d 80be
00000190: af03 afbd b56e 81bc c48b 0b3d 539d 77bd
000001a0: 2531 22be e006 2835 531f 76be 4def 87bd
000001b0: 2d1e 623c 5d28 5ab7 6e6d a6bd 791f da37
000001c0: 5fab 83be 069d c6bb ac54 c1b6 a77b ccbd
000001d0: ebbd 413d 80ee e836 da5f 933d 1b20 b2bd
000001e0: 8fe5 443d cb54 83be 7924 40be 020a 01bd
000001f0: b980 263e e49c 63b4 c9e3 e0bd 3675 503e
00000200: f331 dbbd 9176 dabc cbad f6bd 292b 83be
00000210: 1505 21be 0795 84bb 9acc 46bd 4690 5ebe
00000220: 06a3 6d3d d805 643d f8b2 a5bd 707f 053e
00000230: cc8d 4a3e 17cf a7bd 2874 3abe 4168 dfbc
00000240: c57d 06be d8ff a53d 58d6 65be 784a 793e
00000250: 7b95 43be 4d8c 3b3d 36e5 063e cd51 56be
00000260: 79bf 0ebd 3949 21bd 0026 45be c6dc 0d3e
00000270: 48a1 193d ad5f 31b8 e042 433e ba94 99bd
00000280: 4dcc 053e 14bc 2f3e d2f6 2b3c d7d0 0e3d
00000290: 249b eb3d 4164 b0bd 6a72 10bd b090 d63b
000002a0: dd3d 56be 1a24 9a37 5818 6c3d e10d a4bd
000002b0: cf68 5a3e 959b 833e a280 243e 03c8 b0bd
000002c0: 1f6a d23d 5835 9abc 2604 80bd 00b8 ea3d
000002d0: f5fd afbc 8add ee3d 9182 90bd 7756 83be
000002e0: 9e02 1b3d 2814 8e3e 4878 40bd 8835 243e
000002f0: 0945 723d 674a b93d 6836 1c3e a723 a5bc
00000300: 2f7b 4a3b a2e7 ccbc ed68 81bd d924 553e
00000310: 5a28 bc3c f079 b53d c937 5fb8 f04c 4dbd
00000320: 4c19 183e de03 34bc c249 85bd d4b8 70bc
00000330: 0e50 d03c 1652 b33d a0ca 313d 7efb abbd
00000340: a108 16b8 63fa 3bbc 5a00 77be 0a5a bbbd
00000350: 3248 ae3d 1837 eebc 56ee adbe 2fee 15bd
00000360: 5cfa 103e d6a6 be3d afc0 b83d a55e e93d
00000370: 24f0 3bbd 62a1 043e 6989 28be 1eee 8a37
00000380: 6a58 353b cdda f6bd f890 873d b4b8 8ebe
00000390: 1640 2fbd 02ae 8dbd c8e9 f63c 5a55 66bd
000003a0: 4863 023c b5ee 0c3b eb42 3fbd f1b6 263e
000003b0: 8713 003d f368 0a3e 662f 033e 8c17 0b3e
000003c0: f084 59bc 498e fcbc ccbf d93c 22d8 ebb9
000003d0: 8427 273e 4093 9ab5 ee6a b73d 535b 293d
000003e0: 2b50 ec3d 1d90 a6bc 9561 61bc 23b3 1d3d
000003f0: b044 82be c3d3 d53d 4faa 033e 9276 eebc

network.6.bias f4 [39]
-0.036244243 0.0038618925 0.020899203 -0.005702122 -0.0031575088 -0.03855482 0.032125868 0.0008612481
0.0073605175 0.0012419514 -0.0400802 -0.0067305495 0.0025192671 -0.031752292 0.009750194 0.016627025
0.020943772 -0.0117678065 -0.0006448257 0.008973637 -0.02863595 -0.0021042107 -0.0012378466 0.0409664
-0.03609312 0.025500866 -0.041543916 -0.0008699776 -0.00080193573 0.024847984 0.00905692 0.0027745762
-0.011761825 -0.009761729 -0.0071212347 -0.041346643 -0.039592613 -0.032308783 -0.025357427
00000000: d874 14bd ce17 7d3b ce34 ab3c ded8 babb
00000010: 35ee 4ebb a9eb 1dbd 6a96 033d 62c5 613a
00000020: 7f30 f13b f9c8 a23a 232b 24bd f18b dcbb
00000030: 4a1a 253b b10e 02bd 47bf 1f3c 6635 883c
00000040: 4692 ab3c c2cd 40bc 8509 29ba 2906 133c
00000050: f195 eabc cce6 09bb 3d3f a2ba 62cc 273d
00000060: 61d6 13bd 31e7 d03c f429 2abd 350f 64ba
00000070: ff38 52ba 008e cb3c 7a63 143c aad5 353b
00000080: abb4 40bc a9ef 1fbc 3f59 e9bb 195b 29bd
00000090: dd2b 22bd 3756 04bd 61ba cfbc
