Homework/HW2/results/baseline_real.pt (torch, 584555 bytes, 8 tensors)

network.0.weight f4 [256, 256]
0.04272324 -0.04271626 -0.0010155881 -0.06210672 -0.0716351 -0.05515936 0.0042358567 0.07091508
0.0010568616 0.058068506 0.089402355 0.05063855 -0.034568224 -0.025001893 0.016941354 -0.020275606
-0.040525418 -0.020574749 -0.044729233 0.106183134 0.088906474 0.1326144 -0.076207735 -0.017111735
-0.021577 -0.06345051 0.047960438 -0.037142683 0.026398892 0.035533696 -0.036922697 0.087201245
-0.04276106 -0.001663335 -0.06469818 -0.02571252 0.16665944 0.011509104 0.17004165 0.025033627
-0.11158312 -0.029361797 -0.08238303 0.062067736 0.021654302 -0.02379209 -0.12724724 0.0028228643
0.02713972 -0.028823521 -0.17843193 0.0016569567 -0.1556314 0.06205644 0.0669216 -0.011673809
-0.09614607 -0.014356439 0.07458464 -0.034087732 -0.058509976 -0.02199284 -0.07867467 0.034628406
-0.0018867983 -0.044674218 0.047782294 0.093108036 -0.091188036 -0.031247133 0.091778934 -0.06741297
-0.07483666 0.01688857 -0.0022317946 -0.03920966 0.13869253 0.006155904 0.06087291 -0.05017111
-0.014599573 -0.033329606 0.049191758 -0.029559718 -0.14845756 -0.0078466125 0.13788897 0.013258053
-0.019355405 -0.010018314 0.0031519227 -0.13448186 -0.13664751 0.05829516 -0.092002586 0.08287332
-0.11504751 0.081174806 -0.03701978 0.08248165 -0.013262675 -0.12615499 0.054791577 -0.04451222
0.11234568 0.20887633 -0.057487275 -0.11531125 -0.124875925 -0.05891519 -0.07541684 -0.10247012
-0.05746906 -0.03606883 -0.12815768 0.096134685 0.11632218 -0.0007690521 -0.06888427 -0.09054524
0.064282335 -0.08572429 -0.1349344 0.005991542 0.057839453 0.008157071 -0.061234552 0.06521038
9.7033466e-05 8.666981e-05 -4.554393e-05 -0.00026598302 -0.2602126 4.6323265e-05 0.00013691952 0.000112012545
8.651001e-06 -0.00012505997 -0.00018882561 0.26011854 4.4390785e-05 0.26028982 0.26032147 -8.38409e-05
5.511126e-05 -8.000001e-05 -0.26001936 2.5487323e-05 -0.26006797 -0.18956517 5.7193538e-05 7.932067e-05
0.19053079 -0.00012600991 0.00015060595 -0.00017521348 5.273999e-05 -9.1508344e-05 -0.26030058 -0.260218
-0.2600338 0.00010915032 0.26030448 -5.790306e-06 -6.5095664e-06 3.1233027e-05 0.00012884426 -0.2601865
-5.991493e-05 -0.0001479827 -0.00014837353 -0.00014542656 5.4136577e-05 0.25978243 -4.2365704e-05 -0.00028234013
4.4805478e-05 4.100558e-05 0.26015535 -0.26026067 0.00012010972 0.00011565762 -5.060617e-05 7.792833e-05
-1.3370254e-05 0.26015493 0.26018736 0.2601861 0.26022407 -0.26017568 -4.48918e-05 -3.0054844e-05
-0.2597253 -9.6088974e-05 -0.00013979725 0.00021196717 3.305493e-06 -0.00020545472 5.534001e-05 -0.00023333044
0.26031134 -8.772039e-05 -1.6276143e-05 2.3125867e-06 -0.26029214 -2.7573344e-05 0.26007733 -2.735535e-05
-5.4026386e-06 -6.346867e-05 -5.3718628e-05 0.2603051 -0.16130686 7.6499724e-05 -0.26017433 7.316223e-05
6.0840903e-06 -0.00022703796 -0.00012503122 -7.769117e-05 0.00017132543 4.7736976e-06 -0.0001880457 -3.8490343e-06
1.7148624e-05 -8.3165985e-05 0.26023725 -0.00011083827 2.5576155e-06 0.2600759 -0.00029782264 -0.000114696726
-0.00010053967 0.26016957 3.399213e-05 5.0790728e-05 -6.5451823e-06 6.613687e-05 2.747433e-05 -5.9846425e-06
0.000155824 4.6906363e-05 -0.2600063 -0.00012419686 4.314797e-05 -0.25997177 2.2685126e-05 0.2602088
4.6036257e-06 9.116408e-05 -9.879561e-06 0.2603499 2.3597067e-07 0.00035452403 2.1018504e-05 0.00011609346
00000000: 90fe 2e3d 3ff7 2ebd 7b1d 85ba 9e63 7ebd
00000010: 6cb5 92bd c8ee 61bd f1cc 8a3b ed3b 913d
00000020: 6486 8a3a 3ed9 6d3d 9518 b73d 5e6a 4f3d
00000030: 6997 0dbd c5d0 ccbc 98c8 8a3c 0719 a6bc
00000040: fbfd 25bd 608c a8bc 0036 37bd 8b76 d93d
00000050: 9914 b63d 12cc 073e cd12 9cbd e92d 8cbc
00000060: 40c2 b0bc 57f2 81bd 2a72 443d ed22 18bd
00000070: 7d42 d83c c88b 113d 413c 17bd 9196 b23d
00000080: 3926 2fbd 4304 daba 7b80 84bd 10a3 d2bc
00000090: c6a8 2a3e ae90 3c3c 661f 2e3e 5213 cd3c
000000a0: b185 e4bd 2788 f0bc 6fb8 a8bd bd3a 7e3d
000000b0: 5d64 b13c a1e7 c2bc 1a4d 02be ceff 383b
000000c0: 1e54 de3c 4e1f ecbc dcb6 36be 3e2e d93a
000000d0: d65d 1fbe e52e 7e3d 310e 893d 8143 3fbc
000000e0: 3be8 c4bd 4537 6bbc d5bf 983d 949f 0bbd
000000f0: 28a8 6fbd 542a b4bc 2f20 a1bd 84d6 0d3d
00000100: 724e f7ba 50fc 36bd 5eb7 433d 6daf be3d
00000110: cbc0 babd fdf9 ffbc 98f6 bb3d d00f 8abd
00000120: f643 99bd e659 8a3c 4d43 12bb 4f9a 20bd
00000130: 6a05 0e3e 77b7 c93b df55 793d 3980 4dbd
00000140: 0c33 6fbc a084 08bd 4c7d 493d 3927 f2bc
00000150: 4205 18be 148f 00bc c432 0d3e 4e38 593c
00000160: 3a8f 9ebc db23 24bc 7d90 4e3b 9db5 09be
00000170: 53ed 0bbe e8c6 6e3d da6b bcbd 7db9 a93d
00000180: 079e ebbd fa3e a63d 0ea2 17bd 24ec a83d
00000190: b14b 59bc c62e 01be 226d 603d 7252 36bd
000001a0: 7e15 e63d ade3 553e c777 6bbd 4e28 ecbd
000001b0: f3be ffbd 0e51 71bd 2574 9abd dbdb d1bd
000001c0: ad64 6bbd e9bc 13bd c43b 03be 43e2 c43d
000001d0: 533a ee3d 369a 49ba 3213 8dbd c86f b9bd
000001e0: 75a6 833d 3790 afbd 3e2c 0abe b254 c43b
000001f0: 10e9 6c3d 3ca5 053c 15d1 7abd 058d 853d
00000200: 727e cb38 80c2 b538 6c06 3fb8 a373 8bb9
00000210: 963a 85be 3a4b 4238 0e92 0f39 47e8 ea38
00000220: c423 1137 8822 03b9 7dff 45b9 422e 853e
00000230: 3e30 3a38 b544 853e db48 853e bed3 afb8
00000240: 4427 6738 aec5 a7b8 4221 85be 9ccd d537
00000250: a127 85be 5f1d 42be 18e3 6f38 f658 a638
00000260: 811a 433e 8721 04b9 faeb 1d39 83b9 37b9
00000270: 2235 5d38 2be8 bfb8 1e46 85be 4b3b 85be
00000280: 2623 85be a2e7 e438 a146 853e 5a4a c2b6
00000290: c06c dab6 3500 0338 5e1a 0739 2a37 85be
000002a0: 2b4d 7bb8 ce2b 1bb9 b794 1bb9 a57d 18b9
000002b0: b510 6338 3402 853e d4b1 31b8 0d07 94b9
000002c0: 84ed 3b38 68fd 2b38 1533 853e e340 85be
000002d0: 6ae3 fb38 368d f238 f641 54b8 746d a338
000002e0: ce50 60b7 0733 853e 4737 853e 1d37 853e
000002f0: 173c 853e bf35 85be 344a 3cb8 491e fcb7
00000300: b7fa 84be 6083 c9b8 8a96 12b9 8143 5e39
00000310: f0d3 5d36 556f 57b9 e21c 6838 2aaa 74b9
00000320: 8747 853e 87f6 b7b8 c088 88b7 f031 1b36
00000330: 0345 85be 4e4d e7b7 db28 853e 2b79 e5b7
00000340: 5048 b5b6 7c1a 85b8 f04f 61b8 b646 853e
00000350: a02d 25be 7a6e a038 9235 85be ac6e 9938
00000360: f025 cc36 0a11 6eb9 d01a 03b9 21ee a2b8
00000370: d2a5 3339 c02d a036 222e 45b9 f426 81b6
00000380: 64da 8f37 6669 aeb8 d13d 853e d871 e8b8
00000390: 80a3 2b36 ab28 853e 1425 9cb9 5689 f0b8
000003a0: d3d8 d2b8 f234 853e c692 0e38 2108 5538
000003b0: b09e dbb6 f6b2 8a38 ad78 e637 b0cf c8b6
000003c0: b064 2339 53bd 4438 8c1f 85be d73a 02b9
000003d0: c8f9 3438 051b 85be f04b be37 163a 853e
000003e0: d878 9a36 582f bf38 64c0 25b7 954c 853e
000003f0: 205f 7d34 69df b939 e550 b037 3477 f338

network.0.bias f4 [256]
0.030621016 0.032489795 0.024910182 -0.002025286 -0.014254915 -0.010496051 0.019423867 0.035904255
0.043000504 -0.0038835395 0.034274463 0.041425437 0.029915709 0.02997645 0.05574919 0.0016795311
0.0021595717 0.0110076 0.033411942 -0.0075070066 0.046208512 -0.02340205 0.013417767 0.0012992298
-0.027071532 -0.02030073 0.05069169 0.038508605 0.002110624 0.0021937438 0.040572032 0.032375015
0.01227143 0.037441153 0.01408644 0.058653418 0.015032673 0.008824079 0.020247709 0.011928544
0.014938054 0.028864427 -0.012337538 0.043807372 -0.030741548 0.035242826 0.010946318 0.07998497
0.052563995 0.016936801 0.040275447 0.013846558 0.04162759 0.021865234 0.015394085 0.027972689
0.030929402 0.04721709 0.05226561 0.008634401 -0.015469451 0.044066582 -0.0056361095 -0.0039592283
0.010685542 0.019703668 0.024337817 0.031968653 0.090553015 -0.0025982964 0.029550783 0.014845902
0.0035699643 0.007964282 0.04072799 0.012525853 0.017198324 0.06734105 0.00602694 0.038015977
0.056523968 -0.026340906 0.03048692 0.030974906 0.010636643 0.0018291969 0.021783689 0.05492616
0.0026912428 0.052159477 0.036731753 0.055485193 0.057369903 0.03649323 0.00652858 0.12130065
0.005882355 0.0441426 0.0049139843 0.054866042 -0.009617467 0.014043429 0.059562992 0.026678901
0.042997193 0.02159629 0.058302265 0.026063373 0.023770258 0.04141045 0.023167506 0.006483399
-0.012087728 0.0032255538 0.008802822 0.02637692 0.033862293 0.012967702 0.031764388 0.017493691
0.051599797 0.06504853 0.0083767455 0.027091436 0.04853678 0.036790475 0.009978626 0.03302363
-0.023149785 0.019238098 0.022940382 0.010002711 -0.015393795 0.045916244 -0.0090308925 0.0044704336
0.03316899 0.029005207 0.022718742 0.07072495 -0.0028407176 0.070252374 0.03987879 0.056157134
0.03262149 0.047782894 0.028218817 0.05794778 0.06261386 0.0036958093 0.05154948 0.014521419
0.016646273 0.018542519 0.04969205 0.019002981 0.03849798 0.08659472 -0.012168264 0.0456981
0.022816796 0.007557641 0.026165517 0.028491197 -0.036608536 0.011519298 0.04510424 0.056299567
0.062416688 -0.0020165013 0.035047896 0.007918368 0.027754197 0.023236813 0.06746026 0.025109552
0.026415277 0.004102135 -0.001819029 0.007889627 0.03666482 0.016548915 0.07236799 0.048349556
0.07579 0.010709929 0.08682399 0.02085028 0.061278857 0.024073552 0.05801949 0.03362647
0.023610711 0.0043404517 -0.023574015 -0.019987019 0.024767714 0.0022673784 0.014127844 0.0110818725
0.032492083 0.029761612 0.011498044 0.0022408257 0.05284307 0.075191654 0.053634644 0.08135507
0.020947639 0.044430546 0.008335983 -0.01161948 -0.0029833312 0.03180085 0.07104034 0.04486547
0.011591887 0.008787617 0.04727852 -0.0007969728 0.00295364 0.015505245 0.011171946 0.0056620617
0.065703005 0.03483306 0.022576895 -0.0067264275 0.0116177695 0.02264777 0.03251589 -0.015763395
0.020854022 0.032254457 0.03187233 0.0062976 0.06665568 0.03328608 0.032579485 0.019038795
0.010768384 0.037295416 0.010792813 -0.026887132 0.04192696 0.036972426 -0.0007025844 -0.012620657
0.042291444 0.023040783 0.020542841 0.006951622 0.02532209 0.03456255 0.051710103 0.05095009
00000000: edd8 fa3c 0514 053d 7010 cc3c a9ba 04bb
00000010: 728d 69bc a1f7 2bbc cd1e 9f3c 5710 133d
00000020: 4c21 303d fb82 7ebb 6163 0c3d b8ad 293d
00000030: ca11 f53c 2c91 f53c 4359 643d b623 dc3a
00000040: 9a87 0d3b 3959 343c f6da 083d 56fd f5bb
00000050: 2345 3d3d a8b5 bfbc 32d6 5b3c eb4a aa3a
00000060: 1ec5 ddbc b74d a6bc 17a2 4f3d 33bb 1d3d
00000070: 6552 0a3b eac4 0f3b dc2e 263d aa9b 043d
00000080: 1c0e 493c e55b 193d d0ca 663c 913e 703d
00000090: 9a4b 763c df92 103c 86de a53c f16f 433c
000000a0: bdbe 743c 1775 ec3c 6323 4abc 5c6f 333d
000000b0: b3d5 fbbc c85a 103d 2f58 333c 29cf a33d
000000c0: 584d 573d 0cbf 8a3c def7 243d acdc 623c
000000d0: b181 2a3d b81e b33c 7937 7c3c fb26 e53c
000000e0: a85f fd3c b566 413d 7714 563d 4d77 0d3c
000000f0: 9573 7dbc 297f 343d 1daf b8bb 6abc 81bb
00000100: 6912 2f3c 9669 a13c 1a60 c73c 90f1 023d
00000110: dc73 b93d 2e48 2abb 7c14 f23c 3a3c 733c
00000120: 10f6 693b 9f7c 023c 65d2 263d 3c39 4d3c
00000130: 80e3 8c3c 1bea 893d a37d c53b a4b6 1b3d
00000140: ad85 673d e2c8 d7bc b5bf f93c 16bf fd3c
00000150: 5045 2e3c aac1 ef3a b573 b23c 41fa 603d
00000160: 905f 303b 2da5 553d 0974 163d 7144 633d
00000170: b4fc 6a3d ed79 153d b3ed d53b 7a6c f83d
00000180: c5c0 c03b dfce 343d 7d05 a13b 37bb 603d
00000190: 9592 1dbc 6916 663c 53f8 733d b68d da3c
000001a0: d31d 303d b4ea b03c 5bce 6e3d db82 d53c
000001b0: d8b9 c23c 019e 293d c8c9 bd3c b172 d43b
000001c0: 9b0b 46bc d063 533b b639 103c 6914 d83c
000001d0: 30b3 0a3d 7c76 543c 601b 023d ee4e 8f3c
000001e0: 4f5a 533d 2a38 853d 9e3e 093c dcee dd3c
000001f0: 81ce 463d 9cb1 163d 647d 233c c943 073d
00000200: 9ea4 bdbc 3799 9d3c 78ed bb3c 69e2 233c
00000210: 4236 7cbc ac12 3c3d 4ff6 13bc b77c 923b
00000220: 35dc 073d 549c ed3c a81c ba3c 3ed8 903d
00000230: 552b 3abb 7ae0 8f3d f157 233d 0605 663d
00000240: 1d9e 053d ffb7 433d 262b e73c a75a 6d3d
00000250: b23b 803d 6435 723b 8c25 533d 3feb 6d3c
00000260: c45d 883c 7be6 973c e489 4b3d 24ac 9b3c
00000270: 0fb0 1d3d 9358 b13d 665d 47bc ee2d 3b3d
00000280: 4aea ba3c 16a6 f73b 1159 d63c 5f66 e93c
00000290: d5f2 15bd 70bb 3c3c 39bf 383d 609a 663d
000002a0: a4a8 7f3d 4727 04bb 628e 0f3d 0bbc 013c
000002b0: c55c e33c 215b be3c 9b28 8a3d 8cb2 cd3c
000002c0: da64 d83c 346b 863b 7c6c eeba 7e43 013c
000002d0: da2d 163d 9791 873c ab35 943d 2f0a 463d
000002e0: ca37 9b3d b378 2f3c c7d0 b13d 35ce aa3c
000002f0: 8aff 7a3d e635 c53c d8a5 6d3d e9bb 093d
00000300: 406b c13c 593a 8e3b 4b1e c1bc d1bb a3bc
00000310: a9e5 ca3c 4c98 143b 7978 673c be90 353c
00000320: 6b16 053d a0ce f33c 4b62 3c3c d1da 123b
00000330: fa71 583d 15fe 993d 00b0 5b3d 7d9d a63d
00000340: 629a ab3c cefc 353d a693 083c a25f 3ebc
00000350: fe83 43bb 9c41 023d 997d 913d dbc4 373d
00000360: e6eb 3d3c f0f9 0f3c 1fa7 413d f0eb 50ba
00000370: db91 413b b609 7e3c 8a0a 373c d188 b93b
00000380: 4c8f 863d 1cad 0e3d 2ef3 b83c 5d69 dcbb
00000390: 7558 3e3c d187 b93c 622f 053d 3c22 81bc
000003a0: 0ed6 aa3c 401d 043d 8f8c 023d 195c ce3b
000003b0: c682 883d fc56 083d 1172 053d 3ff7 9b3c
000003c0: e06d 303c 14c3 183d 57d4 303c 6742 dcbc
000003d0: 9bbb 2b3d 6670 173d a42d 38ba dfc6 4ebc
000003e0: cb39 2d3d 06c0 bc3c 7649 a83c 6fca e33b
000003f0: 4670 cf3c 7691 0d3d f9cd 533d 0bb1 503d

network.2.weight f4 [192, 256]
0.0775485 0.06253259 -0.008230858 -0.028912159 0.0455297 0.0258928 -0.08544851 0.20711844
-0.018187765 -0.067436405 0.023530152 0.09581121 0.072332926 0.058806274 0.037784796 -0.11949321
-0.07886891 0.09697751 0.045045666 0.07684315 -0.123892136 -0.023503833 0.024544848 0.06825184
0.06835164 0.09447851 0.0012192496 -0.0014403232 -0.079654895 0.019266726 -0.15124124 -0.08564353
-0.014869849 -0.086993314 -0.034778215 0.011335533 -0.043172106 -0.025417114 0.07730595 -0.11081701
-0.14842331 -0.09214628 0.06778937 -0.067543544 -0.05172923 -0.008949873 -0.08372708 0.040281806
0.010656597 -0.023465762 -0.12589473 0.026586419 0.051748127 0.043749366 -0.10594216 -0.026241938
-0.030306444 -0.07436303 0.0053867227 0.08991446 0.031686336 0.08016425 0.034186028 -0.049232934
0.16882388 0.019967224 -0.039288823 0.013533786 -0.004167204 0.10673558 -0.0072368933 0.06546818
-0.055223983 0.036033187 0.036966905 0.049280766 0.016912 -0.059201255 -0.12124062 0.1404551
-0.06672856 -0.11857128 -0.061409008 0.07674835 -0.12720743 0.0076417197 -0.058370665 -0.0394016
-0.09253962 0.0684882 -0.04447129 -0.046071768 0.003732948 0.05282893 -0.13004583 -0.07310793
-0.031018818 0.072020255 -0.08390414 -0.01971303 -0.13636753 0.141043 -0.0072539616 0.1262247
0.106161065 -0.0015345453 0.012480968 0.042000256 0.047764234 -0.03600912 0.04288733 0.0859983
0.097884305 0.03612585 -0.03113946 0.09209648 0.06654629 0.021903122 -0.07214013 -0.044302538
-0.032485835 -0.07460064 0.037105452 0.08910161 0.04386838 0.0028660817 -0.029118702 0.0123716295
0.120397836 -0.042491138 -0.075320505 0.044073693 -0.05029145 -0.04529064 -0.02596293 -0.016938642
0.08526544 0.24722448 0.09617028 0.052122332 0.09571355 0.119058445 -0.10548984 -0.041472394
-0.083954506 -0.085858844 0.09775357 -0.005339249 -0.0077755055 0.18111835 -0.06881369 -0.10168754
-0.09271518 0.081174694 -0.041828014 0.009566062 -0.06785888 0.073697954 0.07696773 0.02212147
0.03717315 0.01848644 -0.0458141 -0.013287126 -0.096955225 0.007433336 0.044347778 -0.021370493
0.059720613 0.17337498 0.13783213 0.040713146 0.11022213 0.14889279 -0.062361218 0.12503201
-0.004830068 -0.014719017 -0.016444815 0.06035306 0.025468094 0.12646274 0.019599995 -0.097574264
-0.051069364 0.008674833 -0.10136898 -0.07248711 -0.10226237 0.1185457 -0.077039346 0.03624003
0.077589825 0.06379661 -0.058599897 -0.0844096 -0.0032932316 -0.12497526 0.031133598 0.045076612
-0.0032399383 -0.019188873 0.15744801 0.079148464 -0.07868848 -0.08288325 0.010199525 -0.0090894215
-0.00019936966 -0.08106471 -0.044273447 -0.017984523 0.030113224 -0.09237058 0.059502166 0.008352441
0.08599327 0.007426023 -0.06526173 -0.09840655 0.007087474 -0.06278701 0.013114124 -0.081225045
0.040818706 0.1324115 -0.11057286 0.10051101 -0.1348101 -0.082138166 -0.036859397 -0.17989518
0.079963095 0.015036218 -0.029309137 0.008190991 -0.05296733 -0.04566999 0.16119082 0.1790557
0.035817802 0.028270483 -0.05611021 0.052453805 -0.036483105 -0.054431815 -0.102672875 0.042344667
-0.07890438 0.07741874 -0.12621067 0.19770955 -0.0019329474 -0.02343023 -0.06102609 0.14529502
00000000: bfd1 9e3d 1611 803d b8da 06bc 31d9 ecbc
00000010: 5a7d 3a3d 231d d43c a1ff aebd db16 543e
00000020: 82fe 94bc 191c 8abd 4ec2 c03c ab38 c43d
00000030: 4923 943d d9de 703d 3bc4 1a3d dbb8 f4bd
00000040: 0686 a1bd 259c c63d ce81 383d f15f 9d3d
00000050: 29bb fdbd 1c8b c0bc 4712 c93c 9fc7 8b3d
00000060: f2fb 8b3d f37d c13d 3acf 9f3a 3ac9 bcba
00000070: 1b22 a3bd 41d5 9d3c fcde 1abe e065 afbd
00000080: aba0 73bc 8d29 b2bd 9a73 0ebd acb8 393c
00000090: 3cd5 30bd 8d37 d0bc 9552 9e3d 07f4 e2bd
000000a0: 48fc 17be 30b7 bcbd 27d5 8a3d 4554 8abd
000000b0: 07e2 53bd 7da2 12bc 1a79 abbd 89fe 243d
000000c0: 0299 2e3c 453b c0bc 8cea 00be c3cb d93c
000000d0: d8f5 533d 8932 333d 34f8 d8bd 55f9 d6bc
000000e0: 3845 f8bc a54b 98bd 1b83 b03b 1325 b83d
000000f0: 88c9 013d 282d a43d a606 0c3d 79a8 49bd
00000100: 2be0 2c3e 4e92 a33c 51ed 20bd d0bc 5d3c
00000110: 0a8d 88bb 2f98 da3d 7623 edbb 2e14 863d
00000120: 8b32 62bd 8997 133d 9c6a 173d a1da 493d
00000130: 098b 8a3c 047d 72bd 014d f8bd 76d3 0f3e
00000140: fca8 88bd 80d5 f2bd 0388 7bbd 3d2e 9d3d
00000150: aa42 02be 6467 fa3b 1416 6fbd 9263 21bd
00000160: 6a85 bdbd 8b43 8c3d 8727 36bd c0b5 3cbd
00000170: 7aa4 743b 2663 583d bc2a 05be 9cb9 95bd
00000180: 2d1b febc 5b7f 933d efd5 abbd 387d a1bc
00000190: eea3 0bbe 946d 103e a4b2 edbb 0c41 013e
000001a0: f96a d93d cc22 c9ba f97c 4c3c 7608 2c3d
000001b0: 6ea4 433d 4d7e 13bd a0aa 2f3d e01f b03d
000001c0: 9177 c83d b3f8 133d 2e18 ffbc 149d bc3d
000001d0: 6c49 883d 2d6e b33c 34be 93bd 9476 35bd
000001e0: de0f 05bd 38c8 98bd e3fb 173d e87a b63d
000001f0: 55af 333d dfd4 3b3b 588a eebc 60b2 4a3c
00000200: 2493 f63d 300b 2ebd a341 9abd 9e86 343d
00000210: 68fe 4dbd ae82 39bd 36b0 d4bc e8c2 8abc
00000220: a69f ae3d 6a28 7d3e ecf4 c43d 3a7e 553d
00000230: 7705 c43d ead4 f33d 0f0b d8bd f5de 29bd
00000240: 57f0 abbd c3d6 afbd 0633 c83d def4 aebb
00000250: abc9 febb 1777 393e 31ee 8cbd 8f41 d0bd
00000260: 75e1 bdbd eb3e a63d da53 2bbd f9ba 1c3c
00000270: 99f9 8abd f4ee 963d 42a1 9d3d 1638 b53c
00000280: df42 183d e070 973c 91a7 3bbd 3fb2 59bc
00000290: 7690 c6bd 5893 f33b 04a6 353d 2c11 afbc
000002a0: 9a9d 743d 3689 313e de23 0d3e d4c2 263d
000002b0: 24bc e13d 5a77 183e 7a6e 7fbd 6408 003e
000002c0: 8c45 9ebb 0828 71bc 47b7 86bc c534 773d
000002d0: 77a2 d03c 737f 013e 2b90 a03c 04d5 c7bd
000002e0: 1c2e 51bd e320 0e3c 8a9a cfbd 1f74 94bd
000002f0: ef6e d1bd 17c8 f23d cec6 9dbd 6d70 143d
00000300: 6ae7 9e3d cca7 823d 7206 70bd f1de acbd
00000310: 42d3 57bb 07f3 ffbd e30b ff3c 41a2 383d
00000320: 2555 54bb fc31 9dbc 0d3a 213e 9718 a23d
00000330: 6d27 a1bd b2be a9bd e91b 273c cceb 14bc
00000340: e30d 51b9 4105 a6bd 1358 35bd 4754 93bc
00000350: 02b0 f63c c92c bdbd 8bb8 733d add8 083c
00000360: 3d1d b03d ff55 f33b f1a7 85bd 6089 c9bd
00000370: 0b3e e83b 7a96 80bd 9fdc 563c 5159 a6bd
00000380: 8431 273d e196 073e 0674 e2bd b7d8 cd3d
00000390: a90b 0abe 0e38 a8bd e1f9 16bd 7136 38be
000003a0: b1c3 a33d 785a 763c b719 f0bc 8233 063c
000003b0: 45f4 58bd 7510 3bbd 350f 253e 615a 373e
000003c0: b0b5 123d 8097 e73c d2d3 65bd cdd9 563d
000003d0: 4f6f 15bd e5f3 5ebd 2846 d2bd 9a71 2d3d
000003e0: 9f98 a1bd b78d 9e3d 5f3d 01be 5f74 4a3e
000003f0: f45a fdba c1f0 bfbc 7ef6 79bd 38c8 143e

network.2.bias f4 [192]
0.0042979983 0.037138827 0.011630936 0.023689587 0.020104546 0.020503268 0.0071677584 -0.005213442
0.018917968 0.020879988 0.004714197 0.020344784 -0.0066857496 0.018197214 0.010903501 -0.0015418109
0.019284911 0.03369698 0.014425812 0.009843135 0.013416023 0.040968545 0.02052654 0.0053397715
0.014031973 0.0071551683 0.0124321915 0.005774259 0.0074182632 0.009263699 0.03870946 0.0373863
0.027521756 0.018098317 0.024461713 0.01654197 0.025841024 0.010993069 -0.0062999446 0.026905313
-0.008722161 0.023569828 0.0052765463 0.041378386 0.044331167 0.022738429 -0.022241002 -0.011984412
0.031432297 0.027523948 0.014821745 3.319641e-06 0.012272087 0.035040975 0.019119356 0.03000147
0.014279479 0.055468973 0.028456228 0.02090762 0.017387487 0.013797304 0.033853862 0.010239428
0.026483458 0.03125839 0.012257704 -0.00796628 0.010327433 0.008201443 0.022424804 0.028104795
0.02476034 0.026527623 0.0019345084 0.020267224 0.011577397 0.013302619 0.041043818 0.034338523
0.024079286 0.022794042 -0.00956685 0.007341924 0.010610776 0.035934974 0.0058441246 0.010529447
-0.0056447173 0.005450498 0.01133671 0.030740237 0.016935872 -0.0037903197 0.00964566 0.013526872
0.027563632 0.006808993 0.012925314 0.014408644 0.031642634 0.018531853 0.00969016 0.022184491
0.021634497 0.023901798 0.0498759 0.021603744 0.010881707 0.025309233 -0.0069180094 0.013683312
0.0128713865 0.02150524 0.046416868 -0.0052412925 0.03514241 0.0033446695 -0.002819275 0.050726116
0.048658863 0.024548633 0.039830394 -0.028145624 0.010945311 0.035539012 0.0113583505 0.01388437
0.040855005 0.01401885 0.024784839 0.035434198 0.037994135 0.01660486 0.0070558526 0.0132045485
0.017647596 0.027445324 0.0105794575 -0.012921909 0.0362342 0.060523838 0.032489795 0.026529549
0.040848218 0.0209423 0.027094534 0.014356031 0.041182607 0.03627539 0.03363271 0.018424898
-0.015247391 0.011705216 0.028254967 0.012099934 0.026224932 0.03315567 0.024274858 0.049992204
0.011652184 0.00043045732 0.0023870242 -0.007505111 -0.0052142832 0.03410583 0.024351211 0.03538229
0.027245827 0.06801972 0.0037370038 0.0077549303 0.034795787 -0.029714094 0.053775437 0.046993736
0.023643441 0.03645851 0.05251282 0.021875838 0.0334237 0.020807683 -0.0070211478 -0.008885383
0.031948205 0.02493965 0.04240985 0.0060403286 0.0006665636 0.004926419 0.049076788 0.030304637
00000000: 39d6 8c3b e21e 183d ae8f 3e3c aa10 c23c
00000010: 4ab2 a43c 78f6 a73c 84df ea3b 85d5 aabb
00000020: dbf9 9a3c 820c ab3c 8d79 9a3b 1baa a63c
00000030: 2214 dbbb 5312 953c 99a4 323c 9716 caba
00000040: 64fb 9d3c d805 0a3d 3e5a 6c3c 1a45 213c
00000050: e1ce 5b3c a2ce 273d 4627 a83c 40f9 ae3b
00000060: 5ce6 653c e775 ea3b 64b0 4b3c ff35 bd3b
00000070: e714 f33b c5c6 173c d08d 1e3d 6022 193d
00000080: 4e75 e13c ec42 943c ee63 c83c 0783 873c
00000090: 8eb0 d33c 461c 343c c46f cebb 8868 dc3c
000000a0: 65e7 0ebc 8315 c13c e1e6 ac3b 627c 293d
000000b0: 9994 353d f145 ba3c c332 b6bc 445a 44bc
000000c0: 27bf 003d e779 e13c e8d6 723c 00c7 5e36
000000d0: dd10 493c 2087 0f3d 32a0 9c3c a5c5 f53c
000000e0: 7af4 693c 6f33 633d 091d e93c 7546 ab3c
000000f0: 3470 8e3c 160e 623c 59aa 0a3d 46c3 273c
00000100: d6f3 d83c cc08 003d 89d4 483c 0085 02bc
00000110: 6534 293c 585f 063c 39b4 b73c 073c e63c
00000120: 32d6 ca3c 7550 d93c 558f fd3a 7307 a63c
00000130: 1faf 3d3c 3af3 593c 901d 283d 8da6 0c3d
00000140: ec41 c53c 92ba ba3c 47be 1cbc 8694 f03b
00000150: d2d8 2d3c 8d30 133d 1280 bf3b b483 2c3c
00000160: 52f7 b8bb 179a b23b 9cbd 393c f3d2 fb3c
00000170: 19bd 8a3c 0367 78bb d508 1e3c d09f 5d3c
00000180: 20cd e13c f91d df3b b2c4 533c 3c12 6c3c
00000190: b59b 013d 1dd0 973c 7ac3 1e3c 40bc b53c
000001a0: d43a b13c b4cd c33c ac4a 4c3d 56fa b03c
000001b0: 3049 323c 4f55 cf3c 78b0 e2bb f82f 603c
000001c0: 82e2 523c c22b b03c 9d1f 3e3d 26bf abbb
000001d0: 7df1 0f3d 3e32 5b3b 96c3 38bb 30c6 4f3d
000001e0: 844e 473d 371a c93c 3225 233d a791 e6bc
000001f0: f653 333c 5b91 113d 6018 3a3c 457b 633c
00000200: 9457 273d 52af 653c 9309 cb3c 7323 113d
00000210: bd9f 1b3d ea06 883c c834 e73b e457 583c
00000220: b191 903c 04d5 e03c 7655 2d3c 6ab6 53bc
00000230: 506a 143d d8e7 773d 0514 053d 7f54 d93c
00000240: 7650 273d 308f ab3c 5bf5 dd3c 8f35 6b3c
00000250: 18af 283d 8195 143d 74c2 093d d0ef 963c
00000260: 31d0 79bc 3cc7 3f3c f676 e73c cd3e 463c
00000270: abd5 d63c 3dce 073d 11dc c63c a0c4 4c3d
00000280: cde8 3e3c 01af e139 9f6f 1c3b 6fed f5bb
00000290: 94dc aabb 8eb2 0b3d 317c c73c 05ed 103d
000002a0: a432 df3c ec4d 8b3d 85e8 743b 121d fe3b
000002b0: 0786 0e3d f96a f3bc a243 5c3d 817c 403d
000002c0: e4af c13c 8555 153d af17 573d f534 b33c
000002d0: 4ae7 083d e074 aa3c a811 e6bb ff93 11bc
000002e0: 1fdc 023d 3d4e cc3c f3b5 2d3d f3ed c53b
000002f0: 53bc 2e3a cc6d a13b be04 493d 6e41 f83c

network.4.weight f4 [128, 192]
-0.07619768 -0.095519766 0.084664136 -0.004395205 0.03363442 -0.02323687 -0.18175693 0.06922276
-0.009299595 -0.061265312 -0.12419811 -0.082308285 -0.11862252 0.04900533 -0.11846209 -0.072515465
-0.1057665 -0.013043376 -0.094189815 -0.027508676 0.066893004 0.25794592 0.017699804 0.24298833
0.05563772 -0.034198273 -0.081806265 -0.102153584 -0.016186185 0.09501444 0.020043595 0.19562976
-0.109247185 0.21759185 -0.05034453 -0.008160485 -0.089464836 0.13463554 0.052814383 -0.0013702642
0.009700006 0.10408493 0.15716144 0.05204971 0.18279096 -0.049298283 -0.104411215 0.10100667
0.06874319 -0.017416757 -0.115954965 0.13199823 -0.18187825 -0.095635414 -0.01714843 0.074607715
-0.11000786 0.06846119 0.23825109 -0.045027412 0.21773477 0.0748786 -0.04527167 -0.009884273
-0.048974443 0.029343897 -0.116441704 0.05431538 0.041070677 -0.12787654 0.004699359 0.0029787903
-0.03584889 0.08084044 0.009713712 0.04059726 0.15668006 -0.122455865 0.123110235 -0.09789203
-0.0041722977 -0.13116269 -0.012183799 -0.009274019 0.26873758 -0.092710145 -0.008690868 -0.013925089
0.02514832 0.06505235 0.1430794 0.14047594 -0.1540015 0.018198926 -0.08983242 -0.26631477
-0.06198931 0.04919125 0.039617367 0.013589843 -0.014648464 -0.020030964 0.011789957 -0.052098792
-0.070418 -0.02727611 -0.09684755 -0.012957585 0.119323604 -0.08066253 -0.018956747 -0.07691336
0.114196815 0.105006985 0.13431753 0.003889591 0.14382286 0.08259433 0.05380137 -0.09413183
-0.02495921 -0.08781136 0.025409104 -0.11668068 0.1663829 0.08227303 -0.021809867 0.04610015
0.19818999 0.1164375 0.16112018 -0.109542124 0.060544647 -0.15717815 -0.13426238 -0.13314518
0.06111242 -0.1171584 0.043753706 0.018812878 0.047662307 0.13254945 0.05635752 -0.024142304
-0.04923976 0.109709755 0.11928057 0.19859834 0.1680076 -0.020069724 0.11757986 0.04695596
-0.14790545 -0.09883617 0.12910967 0.052638732 0.026511654 -0.08077409 -0.1584911 0.14310826
-0.034228988 -0.08626278 0.08186469 0.20850773 -0.10016352 -0.111937776 0.019325228 0.091111846
0.19962251 -0.012588364 -0.096332476 0.014268481 0.06377675 -0.05504834 0.14691247 -0.0052441745
-0.0058504343 -0.015477094 0.21310027 -0.052558314 -0.043554462 -0.004637909 0.046394836 0.14296213
0.09985458 -0.041889112 -0.1236025 0.008803187 0.041725103 0.08833373 -0.105374575 0.01984985
-0.055409286 -0.08294605 0.0765865 -0.15921392 0.05361845 0.14099987 0.011196548 0.10628363
0.004435272 -0.15463509 -0.0017491578 -0.17364402 0.08020548 -0.044580877 0.08690467 0.027132122
0.015166766 0.00053013477 0.13316174 0.051797125 0.06871964 0.12450183 -0.081696585 0.18021728
-0.076983675 -0.054405417 -0.031908993 0.04949737 -0.015109443 -0.048590034 -0.03270078 0.10941406
0.08794991 0.062866 -0.18431683 0.04440331 0.07719628 0.14700207 0.097055696 -0.09155774
-0.00089848903 -0.04529828 -0.0238783 -0.0052651027 0.043459766 0.06733647 0.06905371 0.05565836
0.023233658 -0.08442284 -0.12519579 -0.08245846 0.1155012 -0.10308978 -0.19532998 -0.008742996
-0.08020245 -0.09700527 0.095515706 -0.07257417 0.09029209 0.12271998 -0.06699979 0.10514417
00000000: 870d 9cbd de9f c3bd 6464 ad3d a705 90bb
00000010: 3fc4 093d 405b bebc 7d1e 3abe aac4 8d3d
00000020: 545d 18bc 56f1 7abd 945b febd 3f91 a8bd
00000030: 5df0 f2bd d0b9 483d 419c f2bd fd82 94bd
00000040: 1b9c d8bd e2b3 55bc 97e6 c0bd e059 e1bc
00000050: 33ff 883d 7d11 843e 2eff 903c efd1 783e
00000060: 61e4 633d 7d13 0cbd 0b8a a7bd e635 d1bd
00000070: e498 84bc ee96 c23d 7732 a43c 2b53 483e
00000080: fdbc dfbd 66d0 5e3e 1136 4ebd 8eb3 05bc
00000090: 5739 b7bd e6dd 093e e553 583d 709a b3ba
000000a0: c6ec 1e3c 7b2a d53d eeee 203e 1432 553d
000000b0: 8e2d 3b3e ffec 49bd 8cd5 d5bd 96dc ce3d
000000c0: 3bc9 8c3d 96ad 8ebc cc79 edbd 8b2a 073e
000000d0: 4b3e 3abe 80dc c3bd dd7a 8cbc eecb 983d
000000e0: cd4b e1bd 6135 8c3d 18f8 733e aa6e 38bd
000000f0: ddf5 5e3e f459 993d c96e 39bd a5f1 21bc
00000100: 6d99 48bd 9d62 f03c fd78 eebd ce79 5e3d
00000110: ba39 283d 11f2 02be 15fd 993b cf37 433b
00000120: 49d6 12bd ac8f a53d 4326 1f3c 5049 263d
00000130: bd70 203e 24ca fabd 3821 fc3d 9e7b c8bd
00000140: c5b7 88bb 834f 06be 8f9e 47bc 0ef2 17bc
00000150: f997 893e d1de bdbd 2464 0ebc 0e26 64bc
00000160: d903 ce3c 2b3a 853d 6883 123e edd8 0f3e
00000170: 92b2 1dbe ea15 953c 0ffa b7bd 695a 88be
00000180: 81e8 7dbd c47c 493d d245 223d efa7 5e3c
00000190: 1c00 70bc fa17 a4bc aa2a 413c 8b65 55bd
000001a0: 5037 90bd 2672 dfbc 0258 c6bd 0d4c 54bc
000001b0: ef5f f43d 6632 a5bd 2e4b 9bbc c084 9dbd
000001c0: 05e0 e93d e70d d73d 898a 093e 82e8 7e3b
000001d0: 4d46 133e 3727 a93d d35e 5c3d 30c8 c0bd
000001e0: 4277 ccbc 71d6 b3bd c126 d03c 48f6 eebd
000001f0: 4760 2a3e c37e a83d 9baa b2bc 83d3 3c3d
00000200: 51f2 4a3e c976 ee3d b0fc 243e 9f57 e0bd
00000210: aafd 773d 4ff3 20be 147c 09be 3657 08be
00000220: 0451 7a3d bef0 efbd 1637 333d 771d 9a3c
00000230: 8d39 433d 0bbb 073e 25d7 663d 15c6 c5bc
00000240: a1af 49bd 82af e03d 5f49 f43d 5d5d 4b3e
00000250: 2f0a 2c3e 4369 a4bc b6cd f03d e554 403d
00000260: 8774 17be 9e6a cabd 5335 043e b69b 573d
00000270: f82e d93c e36c a5bd 7e4b 22be f98a 123e
00000280: b233 0cbd 8aaa b0bd ada8 a73d 0d83 553e
00000290: 8822 cdbd a23f e5bd f14f 9e3c d998 ba3d
000002a0: d869 4c3e 6d3f 4ebc f649 c5bd 59c6 693c
000002b0: 629d 823d 5e7a 61bd 3970 163e 53d7 abbb
000002c0: 00b5 bfbb a393 7dbc f536 5a3e 6347 57bd
000002d0: 2a66 32bd 9af9 97bb 8308 3e3d aa64 123e
000002e0: 8f80 cc3d eb93 2bbd 4f23 fdbd 3e3b 103c
000002f0: f1e7 2a3d 51e8 b43d a0ce d7bd 279c a23c
00000300: d9f4 62bd 9edf a9bd 62d9 9c3d f908 23be
00000310: 059f 5b3d 4562 103e ba71 373c 3bab d93d
00000320: c255 913b a958 1ebe ff43 e5ba bdcf 31be
00000330: c542 a43d 709a 36bd 13fb b13d 2f44 de3c
00000340: 077e 783c bef8 0a3a 8d5b 083e 3929 543d
00000350: e2bc 8c3d d1fa fe3d 8a50 a7bd e18a 383e
00000360: 9ea9 9dbd 37d8 5ebd 01b3 02bd c1bd 4a3d
00000370: 998d 77bc 5806 47bd 41f1 05bd 7b14 e03d
00000380: 151f b43d e4bf 803d 8dbd 3cbe 3fe0 353d
00000390: 1519 9e3d b687 163e 23c5 c63d a082 bbbd
000003a0: 9488 6bba b08a 39bd 6d9c c3bc e286 acbb
000003b0: de02 323d b4e7 893d 086c 8d3d 05fa 633d
000003c0: 8354 be3c e2e5 acbd 5333 00be fbdf a8bd
000003d0: e58b ec3d bc20 d3bd 9504 48be c83e 0fbc
000003e0: 2f41 a4bd b3aa c6bd bd9d c33d c4a1 94bd
000003f0: 0feb b83d 9d54 fb3d 3037 89bd d455 d73d

network.4.bias f4 [128]
0.038935587 0.005405899 0.030950371 0.021130385 0.022718342 0.011718986 0.015624905 0.01609466
-0.011944414 -0.013712963 -0.012788993 -0.014808056 0.00910897 -0.004213116 -0.0066453046 0.003951803
0.01878114 0.04305437 -0.017538702 0.025945783 0.014751533 0.004095702 0.013326524 0.024905916
-0.0058881515 0.015617017 0.017937815 0.017718123 0.030747548 -0.01083811 0.026113452 0.013143463
-0.019656466 0.01364363 0.016803376 -0.01739634 0.011397949 0.028423628 0.028921053 -0.015385569
0.015967295 0.023954872 -0.021882758 -0.002101979 0.025184967 0.009914999 0.003653653 -0.0063048685
0.0033800022 0.043106813 0.013277106 0.016362976 -0.01574721 0.029132137 0.039938167 -0.0053487485
-0.014281743 -0.017536435 0.010818775 0.012924894 0.006176374 -0.010396003 -0.009008128 0.040739655
0.012513155 -0.0013861235 -0.015429267 -0.012840196 -0.01488447 -0.016522657 0.010213422 -0.01854788
1.0070275e-05 0.048903756 -0.019025669 -0.0027987394 -0.0009469038 -0.009486181 0.016594151 -0.018530613
0.00684999 -0.027308913 0.023205217 -0.00363544 0.034811474 -0.0153615335 0.02462446 0.047705043
-0.017943151 -0.013395813 0.030547732 0.03750947 -0.010520094 0.008129567 -0.009918406 0.015493908
0.0144161 0.009465895 0.006605386 0.03147271 -0.017114354 0.010844395 -0.0070211836 0.021795163
0.013928042 0.03329176 0.018005962 0.019937137 -0.016543018 0.0014309675 0.017572332 -0.002135673
-0.009781823 0.0013538661 0.028953528 -0.0073899864 0.034465745 -0.013370466 0.0004093311 0.012355547
0.042030543 0.006540209 0.037433874 0.02013945 0.018694326 0.015848156 0.026349204 0.0051560076
00000000: ec7a 1f3d f823 b13b a28b fd3c a119 ad3c
00000010: d11b ba3c fd00 403c 9aff 7f3c f3d8 833c
00000020: 81b2 43bc 56ac 60bc ed88 51bc 7d9d 72bc
00000030: ca3d 153c 2e0e 8abb dbc0 d9bb 207e 813b
00000040: e8da 993c c759 303d 53ad 8fbc 408c d43c
00000050: 6ab0 713c 3d35 863b 7e57 5a3c 7e07 cc3c
00000060: 65f1 c0bb 84de 7f3c 53f2 923c 9925 913c
00000070: 48e2 fb3c 5492 31bc e1eb d53c ae57 573c
00000080: 9906 a1bc 8889 5f3c 3ca7 893c c582 8ebc
00000090: 77be 3a3c abd8 e83c d8eb ec3c c113 7cbc
000000a0: d8cd 823c 023d c43c 7843 b3bc 5bc1 09bb
000000b0: b450 ce3c 8572 223c 2072 6f3b 1299 cebb
000000c0: 0783 5d3b c590 303d 3888 593c a60b 863c
000000d0: 4b00 81bc 85a6 ee3c 3496 233d 8e44 afbb
000000e0: f9fd 69bc 92a8 8fbc 3b41 313c efc2 533c
000000f0: 2e63 ca3b ff53 2abc d496 13bc a0de 263d
00000100: fa03 4d3c 96ae b5ba 09cb 7cbc af5f 52bc
00000110: fedd 73bc 865a 87bc 3256 273c b9f1 97bc
00000120: 80f3 2837 4e4f 483d b8db 9bbc 0e6b 37bb
00000130: a339 78ba ed6b 1bbc 75f0 873c 83cd 97bc
00000140: e275 e03b f1b6 dfbc de18 be3c 9040 6ebb
00000150: 7a96 0e3d f1ae 7bbc 3cb9 c93c 5d66 433d
00000160: 84fd 92bc 1d7a 5bbc 3d3f fa3c 88a3 193d
00000170: 795c 2cbc e031 053c cf80 22bc 29da 7d3c
00000180: 8231 6c3c d716 1b3c fe71 d83b 87e9 003d
00000190: 6733 8cbc b0ac 313c f511 e6bb c58b b23c
000001a0: 7132 643c f15c 083d 3d81 933c 3553 a33c
000001b0: 3985 87bc 4d8f bb3a daf3 8f3c a6f6 0bbb
000001c0: f043 20bc 3574 b13a f32f ed3c b327 f2bb
000001d0: f42b 0d3d cd0f 5bbc 7e9b d639 ec6e 4a3c
000001e0: 3828 2c3d 404f d63b 4354 193d 7dfb a43c
000001f0: d824 993c fed3 813c 49da d73c baf3 a83b

network.6.weight f4 [39, 128]
-0.32081652 0.10197839 -0.14822327 -0.26764622 -0.20024253 0.19101992 -0.10381795 0.05095566
0.03210164 5.5915505e-05 0.24776043 -0.2055342 -0.25675833 -0.17246087 3.900365e-05 0.000107787266
-0.3479221 -0.016668031 -1.4909183e-05 -0.25490153 -0.010817096 0.019753534 0.15847172 -0.13948394
-0.00025950753 -0.10406481 -0.2939972 -0.100009315 0.0049951174 -0.25572845 0.1293378 -0.059580326
0.00012845991 -0.1009589 -0.08091867 0.00020230621 -0.26079512 0.082132205 -0.09859924 -0.19412881
0.02403881 -0.070670016 0.076371126 -0.08433086 -0.06798675 -0.044544145 -0.0127668325 -0.24254978
-0.19171116 -0.2706065 -0.065622404 0.2545184 0.00012657803 -0.2733976 -0.17305653 0.010686576
-0.24331805 -2.4637893e-06 0.028970335 -0.053927433 -0.18144867 -0.0008886982 0.033947233 -0.095007144
-0.1743815 -0.14818083 0.031684928 0.03078591 0.07681165 1.8557443e-05 -0.016761297 1.3586554e-05
-0.10828079 -0.067649856 -0.24631318 -0.039132368 0.07775075 0.24260275 -0.24608326 -3.9021106e-06
-0.0108697275 -3.3458932e-06 -0.22680986 -0.00012797344 -0.35920712 0.011903402 -0.17321676 -0.3213513
0.0001734441 -4.4732005e-05 0.17279929 -0.20402807 -0.25379053 -0.16012071 0.024938948 -0.23998035
-0.1929516 0.24194168 -0.10872395 -0.18050411 -0.051498458 -0.11651902 1.5299905e-05 -0.09326771
0.010989296 -0.00033486396 -0.096796624 -0.13720094 -0.14926277 0.008987752 -0.13413548 -9.243522e-06
9.532107e-05 -0.04237805 -0.2597273 0.07352974 -0.14242753 -4.4732828e-05 0.04265543 -0.16101718
-0.10227809 -0.0541914 -0.22747444 -0.13282666 -0.04443304 -0.10043179 -0.30230308 -0.05493783
-0.06457227 0.047816914 -0.15906526 -0.024504893 -0.09990621 0.060792275 0.19392431 -0.048972823
-0.0828594 -6.4426195e-07 0.037375472 0.114258684 -0.18934281 0.048198864 0.0003223523 0.06315814
0.09755444 -0.027021257 -0.016178023 0.13848047 0.189288 -0.036081947 0.08832524 -0.021752467
4.7211568e-05 -0.14274368 0.115591235 -0.16020675 0.055856477 3.1462696e-07 0.3122025 0.12088736
0.24234168 0.17939883 -0.06996137 -0.00014017374 -0.06044504 0.05999543 0.13256614 -0.17968407
0.11312767 -0.06610342 -0.0060747117 -0.047638647 0.037029203 -0.065221205 -0.08998781 0.24350695
-0.13407952 -0.3050794 -0.19945574 0.14699274 -1.6482063e-05 0.03422357 -0.024655465 -0.18750441
-0.008916133 -0.07361641 0.24950735 0.045257397 0.021603618 0.077185094 -0.29432636 0.3334931
0.014186257 0.12832372 5.2172613e-06 -0.026159419 -0.13902128 -0.13806637 0.024331218 -0.050656486
-0.007217438 0.067459665 -3.3167034e-06 -0.082981914 0.16065907 0.25255445 0.08073609 -0.059877705
-0.093384184 -3.3014883e-05 -0.14113002 4.8870956e-05 0.1430564 0.028116072 0.21839264 -0.008182853
-0.00022774728 0.000105177634 0.04027445 0.23740949 -0.07391067 0.025500465 -0.15685971 -0.05083362
-0.23537777 -0.25784975 0.14684339 -0.10791013 -0.18727686 0.03457036 -0.22237512 0.061043467
0.1805974 -0.09682561 -0.1292504 -0.0007043849 0.084237635 -0.07630435 0.084924676 -0.00015316317
2.6183225e-06 -0.16774467 0.04799971 0.1273891 0.12042502 0.2542807 -0.088758476 0.09884674
0.060436804 0.036382604 -0.10755628 0.042566895 0.18616897 -0.048669554 -0.1663917 -0.045693845
00000000: 1042 a4be 0cda d03d d7c7 17be ed08 89be
00000010: 610c 4dbe ba9a 433e 819e d4bd e2b6 503d
00000020: 027d 033d d186 6a38 e9b4 7d3e 8f77 52be
00000030: d475 83be 9599 30be da97 2338 d90b e238
00000040: d822 b2be 658b 88bc 7422 7ab7 7482 82be
00000050: 303a 31bc 2ad2 a13c 6946 223e e1d4 0ebe
00000060: 830e 88b9 ee1f d5bd cd86 96be afd1 ccbd
00000070: 15ae a33b d7ee 82be 2171 043e 800a 74bd
00000080: 32b3 0639 8ac3 cebd b0b8 a5bd 2922 5439
00000090: f086 85be ee34 a83d 66ee c9bd b4c9 46be
000000a0: 0aed c43c 71bb 90bd 7768 9c3d a8b5 acbd
000000b0: a33c 8bbd ec73 36bd fa2b 51bc f85e 78be
000000c0: ee4f 44be ef8c 8abe 0a65 86bd 3c50 823e
000000d0: 08ba 0439 c5fa 8bbe bb35 31be c016 2f3c
000000e0: 5e28 79be 9457 25b6 3253 ed3c 03e3 5cbd
000000f0: aecd 39be 87f7 68ba 410c 0b3d 1b93 c2bd
00000100: 1091 32be b7bc 17be 0ec8 013d bc32 fc3c
00000110: 6d4f 9d3d ceab 9b37 fd4e 89bc cef1 6337
00000120: 52c2 ddbd 028c 8abd 8639 7cbe 4349 20bd
00000130: c93b 9f3d db6c 783e 40fd 7bbe e0ee 82b6
00000140: f116 32bc 028a 60b6 d840 68be 9c30 06b9
00000150: ffe9 b7be 7d06 433c bc5f 31be 2888 a4be
00000160: 8cde 3539 a09e 3bb8 4cf2 303e bcec 50be
00000170: d5f0 81be aff6 23be c44c cc3c 69bd 75be
00000180: 1b95 45be 8fbf 773e aaaa debd 12d6 38be
00000190: 0cf0 52bd 86a1 eebd 4c58 8037 2403 bfbd
000001a0: 730c 343c ae90 afb9 4f3d c6bd 677e 0cbe
000001b0: 57d8 18be 5d41 133c d05a 09be a014 1bb7
000001c0: 1ce7 c738 9b94 2dbd fafa 84be c396 963d
000001d0: 86d8 11be 829f 3bb8 76b7 2e3d b0e1 24be
000001e0: 2d77 d1bd cdf7 5dbd 0fef 68be b603 08be
000001f0: 6bff 35bd 2faf cdbd 78c7 9abe 7d06 61bd
00000200: 773e 84bd abdb 433d 01e2 22be 7cbe c8bc
00000210: a19b ccbd 5201 793d 1894 463e ba97 48bd
00000220: 30b2 a9bd 58f1 2cb5 0617 193d 7500 ea3d
00000230: 15e3 41be 2c6c 453d 6501 a939 0e59 813d
00000240: 9fca c73d af5b ddbc c687 84bc d3cd 0d3e
00000250: b7d4 413e aaca 13bd dde3 b43d 3b32 b2bc
00000260: 0905 4638 662b 12be 19bb ec3d 3d0d 24be
00000270: c3c9 643d 00ea a834 02d9 9f3e cb93 f73d
00000280: 6b28 783e 54b4 373e e847 8fbd 9afb 12b9
00000290: 3895 77bd c5bd 753d 6bbf 073e 1aff 37be
000002a0: 7baf e73d 3b61 87bd 600e c7bb be20 43bd
000002b0: efab 173d b292 85bd 874b b8bd e359 793e
000002c0: 244c 09be 5e33 9cbe 203e 4cbe 4485 163e
000002d0: f642 8ab7 042e 0c3d 42fa c9bc 2801 40be
000002e0: f914 12bc 33c4 96bd db7e 7f3e d25f 393d
000002f0: 12fa b03c 3813 9e3d f2b1 96be 9cbf aa3e
00000300: 796d 683c 4b67 033e ef0f af36 474c d6bc
00000310: 985b 0ebe 4561 0dbe 4352 c73c 2d7d 4fbd
00000320: 4280 ecbb 4b28 8a3d 8894 5eb6 6cf2 a9bd
00000330: d083 243e d14e 813e f758 a53d 5342 75bd
00000340: 3540 bfbd 7679 0ab8 6384 10be cafa 4c38
00000350: 607d 123e ad53 e63c 52a2 5f3e 6011 06bc
00000360: 72cf 6eb9 d092 dc38 d2f6 243d 791b 733e
00000370: 7a5e 97bd 5ae6 d03c d59f 20be ea36 50bd
00000380: df06 71be e204 84be 1d5e 163e fcff dcbd
00000390: 81c5 3fbe a699 0d3d 4eb6 63be b708 7a3d
000003a0: 86ee 383e 814c c6bd 385a 04be 78a6 38ba
000003b0: c884 ac3d 7445 9cbd fdec ad3d 6d9a 20b9
000003c0: 70b6 2f36 42c5 2bbe 589b 443d 4a72 023e
000003d0: 65a1 f63d 1431 823e 01c7 b5bd 2970 ca3d
000003e0: 958c 773d ed05 153d 7846 dcbd a05a 2e3d
000003f0: 14a3 3e3e ba59 47bd 9662 2abe 7829 3bbd

network.6.bias f4 [39]
-0.04248765 0.013757361 0.05500765 -0.0055319425 0.00094161264 -0.021441692 -0.00079749536 -0.0050477996
0.009057035 -0.0032325946 -0.04664153 0.010817326 -0.018060125 0.0038884233 0.009783935 0.020044565
0.0006684003 -0.037793107 0.0050342707 0.009447907 0.03542719 0.025637066 -0.025916683 0.034910697
-0.041302748 0.013346233 -0.040415768 -0.020230379 -0.004234368 -0.021032922 -0.029158544 6.558999e-05
-0.025072942 -0.03919665 -0.042149328 -0.044244483 -0.050365947 -0.056403123 -0.03027076
00000000: 8807 2ebd 8e66 613c b44f 613d 4c45 b5bb
00000010: 8ed6 763a 7da6 afbc 020f 51ba 0368 a5bb
00000020: f563 143c f0d9 53bb 300b 3fbd 273b 313c
00000030: d4f2 93bc ebd4 7e3b cc4c 203c 8034 a43c
00000040: 9637 2f3a f2cc 1abd 86f6 a43b 65cb 1a3c
00000050: 1a1c 113d d304 d23c 394f d4bc 85fe 0e3d
00000060: 122d 29bd 29aa 5a3c 018b 25bd 2eba a5bc
00000070: 74c0 8abb 3c4d acbc e6dd eebc 5c8d 8938
00000080: c565 cdbc ab8c 20bd c6a4 2cbd b439 35bd
00000090: 864c 4ebd f606 67bd 63fa f7bc
