Homework/HW2/results/baseline_lr0005.pt (torch, 584591 bytes, 8 tensors)

network.0.weight f4 [256, 256]
0	0xbd1ed1e4	-0.038774386
1	0xbcf27b6a	-0.029599864
2	0x3df3621f	0.118839495
3	0xbd83ad4f	-0.0642954
4	0x3c99ec91	0.018789561
5	0xbdb17ebc	-0.08666751
6	0xbd1fc91c	-0.039010152
7	0xbd346f61	-0.04405153
8	0xbd1ef811	-0.038810793
9	0xbc23e284	-0.010002736
10	0xbdc06dda	-0.093959525
11	0x3dd5779a	0.10423203
12	0xbddb0fb1	-0.10696352
13	0xbd9c9df8	-0.07647318
14	0x3dad02f4	0.08447829
15	0xbd0f01a5	-0.034913678
16	0x3d9fd4ea	0.07804282
17	0xbd61b5fd	-0.0551052
18	0xbe1d1499	-0.15339889
19	0x3c62c405	0.01384068
20	0xbde3cd99	-0.11123199
21	0x3de0ac55	0.1097037
22	0x3db07f67	0.0861805
23	0x3ca097c3	0.019603616
24	0x3ddc5c2f	0.1075977
25	0x3dde5ca6	0.10857515
26	0xbd764067	-0.060120013
27	0xbcae95c3	-0.021311646
28	0x3d580d7f	0.052747246
29	0xbca77c94	-0.020445146
30	0xbd33a1f2	-0.043855615
31	0x3d1578e7	0.036492255
32	0xbd96b833	-0.07359352
33	0x3df27517	0.11838739
34	0xbda166a4	-0.07880905
35	0xbdc304c8	-0.09522396
36	0xbe16f179	-0.14740552
37	0x3dbb7218	0.09152621
38	0x3deb1fd9	0.11480684
39	0x3cdb000a	0.026733417
40	0x3d4b8bb7	0.04969379
41	0x3da195bb	0.07889887
42	0x3cb68d31	0.022284122
43	0xbe41320d	-0.18866749
44	0x3ce85247	0.028359545
45	0x3d2d8afd	0.042368878
46	0x3c661574	0.014043201
47	0xbe0feb32	-0.14054564
48	0xbe1d90ab	-0.15387218
49	0xbe36c0ab	-0.17846934
50	0x3c92e829	0.017932968
51	0x3d8bbffa	0.06823726
52	0x3d16ad52	0.036786385
53	0x3ccbc771	0.024875375
54	0x3daf6f9f	0.08566212
55	0xbdbd9d25	-0.092584886
56	0xbd44dd33	-0.048062515
57	0xbc0b621a	-0.008507276
58	0x3c9cdb3a	0.019147504
59	0x3c34a855	0.011026462
60	0xbdcb4b1e	-0.09926437
61	0xbd83a78e	-0.06428443
62	0x3d371369	0.044696245
63	0x3de67985	0.11253647
64	0x3d1d91ee	0.038469248
65	0xbc8b6e51	-0.017020376
66	0x3dfa3a04	0.12218097
67	0xbdbd0bb5	-0.092307486
68	0xbd5ba70b	-0.0536261
69	0x3d19857c	0.037480816
70	0x3d770d02	0.06031514
71	0xbbbc1eca	-0.005740975
72	0x3c81e39b	0.015855601
73	0xbd26d7ec	-0.040733263
74	0x3dc33db9	0.09533257
75	0xbda1e4c0	-0.07904959
76	0x3df2c7d3	0.1185452
77	0x3de62075	0.112366594
78	0xbc9fbbe4	-0.019498773
79	0xbc8288ad	-0.015934313
80	0xbc5eefd2	-0.013606982
81	0x3d57b1dd	0.052659858
82	0x3c82eb72	0.01598141
83	0xbc138a9b	-0.009005214
84	0x3d0f9a3f	0.03505921
85	0x3d94711f	0.07248139
86	0x3d5ca1e6	0.053865336
87	0x3a95c9f7	0.0011427988
88	0x3d4a7ee1	0.049437407
89	0xbe0970f3	-0.13421993
90	0x3db0dce6	0.08635883
91	0x3da26666	0.07929687
92	0x3da656bf	0.08122014
93	0xbe25c8cf	-0.16189884
94	0xbd359ef8	-0.044341058
95	0xbcffea59	-0.031239675
96	0xbdc95027	-0.09829741
97	0x3c2e20d2	0.010627942
98	0xbd28b4d1	-0.041188065
99	0x3d805fc8	0.06268269
100	0xbca1f502	-0.01977015
101	0x3d58df61	0.052947406
102	0x3db112e9	0.08646185
103	0x3d239edf	0.039946433
104	0x3db1da74	0.08684245
105	0x3d8092c7	0.062779956
106	0x3de9cde6	0.11416225
107	0x3d82c117	0.06384485
108	0x3ce90775	0.028445939
109	0xbb67ae8b	-0.0035351838
110	0xbd4024a5	-0.046909947
111	0x3cd850a5	0.026405642
112	0x3d1f590e	0.03890329
113	0xbcda410f	-0.02664235
114	0xbd89a347	-0.06720596
115	0x3dbe57fc	0.092941254
116	0x3d106090	0.03524834
117	0xbdf75b41	-0.12077952
118	0x3e01bd51	0.12669875
119	0xbd8daf63	-0.06918218
120	0xbdb115f9	-0.08646769
121	0xbd7ba288	-0.0614343
122	0xbd4250dd	-0.0474404
123	0xbdcde11e	-0.10052703
124	0xbc38e8e3	-0.011285993
125	0x3de633c0	0.11240339
126	0x3d91f879	0.071274705
127	0x3cf47bba	0.029844154
128	0xb7c9ff6c	-2.4080007e-05
129	0x3894c15d	7.093207e-05
130	0x3e74cd69	0.23906483
131	0x38823d78	6.2103325e-05
132	0xb7079414	-8.081104e-06
133	0xb85fd1ac	-5.3362615e-05
134	0x386a2910	5.582819e-05
135	0x3e749acf	0.2388718
136	0xb6cea6b4	-6.158685e-06
137	0xb8266eda	-3.9680723e-05
138	0xbe74aeda	-0.23894826
139	0xb54d7f08	-7.6553306e-07
140	0xb6288b1b	-2.511492e-06
141	0xb74b23eb	-1.2108106e-05
142	0xbe3422a9	-0.17591347
143	0xb82af4c4	-4.0759114e-05
144	0xb5affe20	-1.3112476e-06
145	0x382b92fb	4.0906463e-05
146	0x3e74c378	0.2390269
147	0xb74e64a0	-1.2301985e-05
148	0xb8339e56	-4.2824387e-05
149	0x381a5df3	3.680396e-05
150	0x38852044	6.347944e-05
151	0xb7769db6	-1.4699463e-05
152	0x38194f2c	3.6551777e-05
153	0xb893863b	-7.0345086e-05
154	0x3e74c095	0.23901589
155	0x38837dfa	6.270032e-05
156	0x38044bf9	3.1542007e-05
157	0x382d36bb	4.1297386e-05
158	0xb818d474	-3.6437486e-05
159	0xb7d40682	-2.52754e-05
160	0xb79fca48	-1.9048472e-05
161	0x383e2191	4.533079e-05
162	0x3e74b241	0.23896123
163	0x38376ff2	4.3734857e-05
164	0xb879f1bb	-5.9591355e-05
165	0x3890b867	6.900803e-05
166	0x387d5b24	6.0404782e-05
167	0x39332acf	0.00017086718
168	0x3728224c	1.0021566e-05
169	0xbe05674c	-0.13027686
170	0xb7a81ae4	-2.0039683e-05
171	0x3e74c29f	0.23902367
172	0xb792e2d8	-1.7510189e-05
173	0x3e32056c	0.17384881
174	0xb5855488	-9.933874e-07
175	0xb7e93b0c	-2.780326e-05
176	0xbe74a1cf	-0.2388985
177	0x388d84c6	6.748135e-05
178	0x3830de90	4.2168947e-05
179	0x38500c8e	4.9602757e-05
180	0x3e74c379	0.23902692
181	0x388c781f	6.6980945e-05
182	0x3706ed88	8.042327e-06
183	0xbe74bd0c	-0.2390024
184	0x38bb8a8b	8.9426605e-05
185	0xb8a96aa2	-8.07841e-05
186	0x38833ce6	6.25791e-05
187	0xb87739e4	-5.8943304e-05
188	0xb88378d0	-6.26907e-05
189	0xb8595cec	-5.1823372e-05
190	0x3e619d4c	0.2203266
191	0xb83d736a	-4.51686e-05
192	0xbe749b79	-0.23887433
193	0x3e74a62b	0.23891513
194	0xb7964d82	-1.7917486e-05
195	0xb329ee80	-3.9565293e-08
196	0xbe74b85c	-0.23898453
197	0xb853df4f	-5.0514293e-05
198	0xbe74a102	-0.23889545
199	0x34994500	2.8548675e-07
200	0x379344f5	1.7555876e-05
201	0x36670fd0	3.4430886e-06
202	0xb923e98d	-0.00015631896
203	0x3835d354	4.3350577e-05
204	0xb87d2a16	-6.0359096e-05
205	0x38adc6bc	8.2863e-05
206	0xb78b116e	-1.6578208e-05
207	0x37d6f283	2.5623716e-05
208	0x37f601bc	2.9326293e-05
209	0x38bd74a2	9.033947e-05
210	0xb8efd53b	-0.00011436125
211	0xb833095f	-4.2685653e-05
212	0xbe74bdbe	-0.23900506
213	0xb75ba67b	-1.3092179e-05
214	0x36677228	3.448813e-06
215	0xb77f5268	-1.5218371e-05
216	0xb8052c2d	-3.1750813e-05
217	0xb6429860	-2.8996947e-06
218	0xb8f97211	-0.00011894492
219	0xbe74af11	-0.23894908
220	0xbe74bd81	-0.23900415
221	0x3707b398	8.088442e-06
222	0xb803e130	-3.1442556e-05
223	0x38bcf8ea	9.0109024e-05
224	0xb92f150a	-0.00016697138
225	0x3801958c	3.0895273e-05
226	0xb7e09212	-2.67709e-05
227	0xbe74caf8	-0.23905551
228	0x3e5ea37d	0.21742053
229	0xbe74cbdc	-0.23905891
230	0xb8808624	-6.128501e-05
231	0x37ed28d0	2.8271606e-05
232	0x3e74b07c	0.23895448
233	0x3804cf86	3.1664524e-05
234	0x37167920	8.968898e-06
235	0xb88877cf	-6.5073014e-05
236	0xb600b1f6	-1.9177073e-06
237	0xb913fd50	-0.00014113379
238	0xb93225f5	-0.00016989543
239	0x36016efc	1.92871e-06
240	0xb857a751	-5.141582e-05
241	0xbe74b794	-0.23898154
242	0x37b00d0f	2.0986916e-05
243	0x3e74d733	0.23910217
244	0xb78f4868	-1.7080645e-05
245	0x3e74bd0d	0.23900242
246	0xb8c8818a	-9.560872e-05
247	0xb61a4320	-2.298686e-06
248	0xbe74bc2b	-0.23899905
249	0xb8d5b28c	-0.000101898884
250	0xb81a118a	-3.6732796e-05
251	0xb888c39f	-6.5214226e-05
252	0xbe74a898	-0.23892438
253	0x35109e7c	5.3874805e-07
254	0x36053596	1.9849736e-06
255	0xb6f5e2fc	-7.3279934e-06

network.0.bias f4 [256]
0	0x3d1ce657	0.038305607
1	0x3c35c095	0.011093278
2	0x3dce71ea	0.10080321
3	0x3cc1cfaf	0.023658602
4	0x3cb4280a	0.021991748
5	0x3d006e40	0.031355143
6	0x3c7926a3	0.015206966
7	0xbb0a3a15	-0.0021091748
8	0x3cc1b0a9	0.023643808
9	0x3c95af4b	0.018272063
10	0x3ca4ee6b	0.020133218
11	0xba95081b	-0.0011370213
12	0x3d1cae17	0.038251963
13	0x3d14e419	0.036350343
14	0x3d2ea394	0.04263647
15	0x3da1602e	0.07879673
16	0x3d8fd538	0.0702309
17	0xb99c48b8	-0.00029808818
18	0x3d3a5821	0.045494203
19	0x3d923fc7	0.07141071
20	0x3d7a7879	0.061150048
21	0x3d55a722	0.052161343
22	0x3d5ec8a0	0.05439055
23	0x3d4a0e34	0.04932995
24	0x3d4a3e39	0.049375746
25	0x3d9cb91c	0.07652494
26	0x3d1dab73	0.038493585
27	0x3ca4e008	0.020126358
28	0x3c8aab32	0.016927335
29	0x3c8c396d	0.017117226
30	0x3d4f375a	0.050589897
31	0x3d6fdeb6	0.058562003
32	0x3d210336	0.039309703
33	0x3da916bb	0.082562886
34	0x3d52bfe6	0.05145254
35	0x3cde25bf	0.027117608
36	0x3c7916e6	0.015203213
37	0x3c2022c4	0.009773914
38	0xbc9cfc4b	-0.019163271
39	0x3b1e8636	0.0024188883
40	0xbc70cd68	-0.01469741
41	0x3c046780	0.008081317
42	0x3c892538	0.01674138
43	0xba09b0d2	-0.00052524835
44	0x3d304682	0.04303599
45	0x3d617fe3	0.055053603
46	0x3d174046	0.03692653
47	0x3d037682	0.03209544
48	0x3c4eb1e8	0.012615658
49	0x3cceb5a1	0.025233092
50	0x3d61090f	0.05494028
51	0x3da6e67d	0.08149431
52	0x3cfae90d	0.030628705
53	0x3ca945f0	0.020663232
54	0x3d1805ea	0.037115015
55	0x3d1e44d7	0.03863987
56	0x3d0370e8	0.032090098
57	0x3c1079fa	0.008818144
58	0xbc6634b2	-0.0140506495
59	0x3c874afa	0.016515244
60	0x3c9406b8	0.01806961
61	0x3c9b0b7d	0.018926376
62	0x3d45d84e	0.048301987
63	0xbc09c60e	-0.008409036
64	0x3c592b8b	0.01325501
65	0x3cd67eb8	0.026183471
66	0x3ba9aec2	0.0051783035
67	0x3cff9a7e	0.031201597
68	0x3d2a2fde	0.041549556
69	0x3cd1d096	0.025612157
70	0x3ce98fd1	0.02851096
71	0x3c1c5c74	0.009543527
72	0x3d333214	0.04374893
73	0x3d2e41a7	0.04254308
74	0x3cd685a5	0.026186774
75	0x3c7edd0e	0.015555633
76	0x3ce35284	0.027749307
77	0x3cf56a9c	0.029958062
78	0x3cadb596	0.021204751
79	0x3cedf7fe	0.029048916
80	0x3d353cc0	0.04424739
81	0x3bfdb7a4	0.007742839
82	0x3d1f7a3c	0.03893493
83	0x3d8aa2af	0.06769311
84	0x3d403338	0.046923846
85	0x3d2cc82e	0.042183094
86	0x3d3bf370	0.045886457
87	0x3dd515e4	0.10404566
88	0x3d56591c	0.052331075
89	0x3d08c5b2	0.033391662
90	0x3d73e248	0.05954197
91	0xbc20e0c3	-0.009819212
92	0x3ce48dd2	0.027899656
93	0x3d0c269b	0.034216505
94	0x3ce779d1	0.028256329
95	0x3d50c90a	0.050972976
96	0x3cf20b26	0.029546332
97	0x3c62bfda	0.013839686
98	0x3cb9173d	0.022594089
99	0x3d54f4fa	0.05199144
100	0x3d1b784b	0.037956517
101	0x3d59f236	0.053209506
102	0x3d79f684	0.06102611
103	0x3d10debf	0.035368677
104	0x3d74faf1	0.05980963
105	0x3ce79d32	0.028273199
106	0x3c6cebea	0.014460543
107	0x3bdeff41	0.006805331
108	0x3b68b677	0.0035509148
109	0x3d13c338	0.036074847
110	0x3d8e9fe4	0.069640905
111	0x3c4c7950	0.012480095
112	0xbb1af220	-0.0023642853
113	0x3b2077e1	0.0024485516
114	0x3c8a0332	0.016847227
115	0x3cfe57d0	0.031047732
116	0x3d41fca4	0.047360078
117	0x3c04ed51	0.008113221
118	0x3c05ec09	0.008173951
119	0x3d080b7c	0.033214077
120	0xbcc33a8e	-0.023831632
121	0x3d6be03e	0.0575869
122	0x3d3ca16c	0.04605238
123	0x3c8a7616	0.01690201
124	0x3d0989a4	0.03357853
125	0x3bf1d33a	0.0073799165
126	0x3d797535	0.060902793
127	0x3d3a09f0	0.045419633
128	0x3cd770b5	0.02629886
129	0x3d16492f	0.036690887
130	0x3d10d68f	0.03536087
131	0x3d954ced	0.07290063
132	0x3c8176d2	0.015803728
133	0x3cea3371	0.028588982
134	0x3d421dfe	0.047391884
135	0xbc14b245	-0.009075706
136	0x3d1614dc	0.036640987
137	0x3d44808b	0.04797415
138	0x3bec8e50	0.0072191134
139	0x3cf7e00a	0.030258197
140	0x3cf72132	0.030167196
141	0x3da657cf	0.08122217
142	0x3cbda9bf	0.02315223
143	0x3cd4116c	0.025887214
144	0x3dab8716	0.08375375
145	0x3cbd8077	0.023132546
146	0x3c9262cd	0.017869378
147	0xbc159358	-0.009129368
148	0x3cc4fe7b	0.024047127
149	0x3d305a40	0.04305482
150	0x3d04c224	0.03241171
151	0x3bb0fc3d	0.005401163
152	0x3cdae6bd	0.026721353
153	0x3c37e031	0.011222885
154	0xbb51f4d7	-0.0032036805
155	0xbbb3e2e8	-0.005489696
156	0x3cec1a0d	0.028821016
157	0x3c491578	0.012273185
158	0x3d986f63	0.0744312
159	0x3d05f8f1	0.032708112
160	0x3cf627d7	0.030048294
161	0x3d17a924	0.03702654
162	0x3c8c5a61	0.01713294
163	0x3c8b425a	0.016999412
164	0x3d097a26	0.033563755
165	0x3d1a839f	0.03772318
166	0x3d2762ca	0.040865697
167	0x3d07015c	0.03296028
168	0x3d3b6ba2	0.045756944
169	0x3ca05370	0.019571036
170	0x3d04108a	0.032242335
171	0x3c5f1dd9	0.013617956
172	0x3c0f4959	0.008745515
173	0xbb0874e2	-0.002082162
174	0x3d8b32e1	0.06796814
175	0x3c86d494	0.016458787
176	0x3c3a61bf	0.011375844
177	0x3ceba547	0.028765334
178	0x3d435603	0.04768945
179	0x3af3a7a5	0.0018589391
180	0x3cd1e903	0.025623804
181	0x3d2e3a6a	0.042536177
182	0x3cf9a5fe	0.030474659
183	0x3c9e876c	0.019351684
184	0x3d42339c	0.0474125
185	0x3d057086	0.032578014
186	0x3d205a2f	0.039148506
187	0x3ce180f8	0.027527317
188	0x3c36a88d	0.011148584
189	0x3d6fa656	0.05850824
190	0x3d76fe6f	0.06030124
191	0x3d11b65d	0.035574306
192	0x3d0df53c	0.0346577
193	0x3d2b850f	0.04187494
194	0x3d3841a1	0.044984464
195	0x3d50fe82	0.051023968
196	0x3d9e2087	0.07721048
197	0x3d457eb1	0.048216525
198	0x3d5224e1	0.0513047
199	0x3d53368f	0.051565703
200	0x3d33a20b	0.043855708
201	0x3d2e24d2	0.042515583
202	0xbb610e5f	-0.0034340841
203	0x3d37429a	0.04474125
204	0x3be0409f	0.006843641
205	0x3cea966b	0.028636178
206	0x3ce76fb1	0.0282515
207	0x3da0e4b0	0.07856119
208	0x3cff26ba	0.031146396
209	0x3c27aed6	0.010234555
210	0x3d8b1ac0	0.067922115
211	0x3d528324	0.051394597
212	0x3d5fcdfd	0.054639805
213	0x3d030cf3	0.03199477
214	0x3d4c0934	0.049813464
215	0x3c8055c1	0.01566589
216	0x3b995076	0.004678781
217	0x3c534b52	0.012896376
218	0x3bde03c0	0.0067753494
219	0x3d8eea1f	0.06978249
220	0x3d758998	0.059945673
221	0x3c932418	0.017961547
222	0x3d913100	0.07089424
223	0x3c72559c	0.014790919
224	0x3ca06983	0.019581562
225	0x3d0df684	0.034658924
226	0x3d78c6cb	0.06073646
227	0x3d928690	0.07154572
228	0x3d29a810	0.041420043
229	0x3d17313f	0.0369122
230	0x3d8ed537	0.06974261
231	0x3d50ae30	0.05094737
232	0x3bbb6e69	0.005719949
233	0x3d22faac	0.03978984
234	0x3ccf912b	0.025337776
235	0x3d2fa848	0.042885095
236	0x3cbd52f7	0.02311085
237	0x3c58fd01	0.013243915
238	0x3d2d06ab	0.042242687
239	0x3cddbfde	0.027069028
240	0x3cab0362	0.020875636
241	0x3d22b806	0.03972628
242	0x3c5e689f	0.013574748
243	0x3d3f7fbd	0.04675268
244	0x3caed8cf	0.021343617
245	0x3d885783	0.066573165
246	0x3cd37317	0.025811715
247	0x3d3c23c8	0.04593256
248	0x3cc71e9e	0.024306592
249	0x3d56e0b9	0.052460406
250	0x3cff0016	0.03112797
251	0x3d21d655	0.039511044
252	0xbc91da65	-0.017804334
253	0x3d5d09b3	0.053964328
254	0x3d1f52e9	0.03889743
255	0x3cf20d60	0.029547393

network.2.weight f4 [192, 256]
0	0x3d0ec04a	0.03485135
1	0xbd6a609a	-0.057221033
2	0x3bcf9992	0.0063354457
3	0xbe13ac0a	-0.14421096
4	0x3dd1e77c	0.1024923
5	0xbd71e6ad	-0.05905788
6	0xbe872395	-0.26394334
7	0x3d13743d	0.035999525
8	0x3bf4d758	0.00747196
9	0x3c4bb7cd	0.012433958
10	0xbc1ffaa2	-0.009764345
11	0x3d44e9af	0.04807442
12	0x3d559cbd	0.05215143
13	0x3d4dacb3	0.050213527
14	0x3e029626	0.1275259
15	0xbd55b6ed	-0.052176405
16	0xbc1d0112	-0.009582775
17	0xbe075cb9	-0.13218965
18	0x3d77f231	0.060533706
19	0x3bb30b8b	0.0054640225
20	0xbcead224	-0.028664656
21	0xbd4b12aa	-0.049578346
22	0x3d2b3114	0.04179485
23	0x3d513c72	0.051083036
24	0xbdd1a404	-0.102363616
25	0xbe1a2a6e	-0.15055248
26	0xbc9fd4ed	-0.01951071
27	0x3d2ddc5c	0.04244648
28	0x3c3d2d64	0.0115464665
29	0x3e1a741a	0.15083352
30	0x3d4a9681	0.049459938
31	0xbd31df2c	-0.043425724
32	0xbd8dfa25	-0.06932477
33	0xbcea41f8	-0.02859591
34	0xbda322dd	-0.07965634
35	0x3d733bc1	0.059383158
36	0xbc1b6ecd	-0.009486866
37	0x3db1f5c3	0.086894535
38	0xbcd6ab6a	-0.026204783
39	0x3d0343c3	0.032047044
40	0x3d116c4b	0.035503667
41	0x3de9fe21	0.11425424
42	0xbcaa2459	-0.020769285
43	0x3d1e9455	0.03871568
44	0xbd453d5e	-0.048154227
45	0xbd6cdefd	-0.057829846
46	0x38abc74c	8.191037e-05
47	0xbd04db7a	-0.03243587
48	0xbde12c64	-0.10994795
49	0xbd99d957	-0.075121574
50	0x3e11f7b1	0.14254643
51	0x3d6e1979	0.05812976
52	0xbe03c259	-0.12867106
53	0x3dcbd885	0.09953407
54	0xbcd303fa	-0.025758732
55	0x3d101293	0.035173964
56	0x3d60bfde	0.05487048
57	0xbdacbe33	-0.08434715
58	0xbcc02c14	-0.023458518
59	0x3dd712b0	0.10501611
60	0x3b11d412	0.0022251648
61	0x3e3031e3	0.1720653
62	0x3d21840f	0.03943258
63	0x3d09bb37	0.033625808
64	0x3d584003	0.05279542
65	0x3ba83f9f	0.0051345374
66	0x3b61cef9	0.003445564
67	0x3d7219b7	0.059106555
68	0xbc4125c7	-0.011788792
69	0x3cad7234	0.02117262
70	0xbcb0502d	-0.021522606
71	0x3e10f59d	0.14156194
72	0x3e0a6f47	0.13519011
73	0xbe12ae64	-0.14324337
74	0x39e83074	0.0004428659
75	0x3b193ffd	0.0023384087
76	0x3d0f091b	0.034920793
77	0xbdc36793	-0.095412396
78	0xbcb4ac8a	-0.02205493
79	0x3e0531a2	0.13007215
80	0x3cba2bdf	0.022725997
81	0xbce95735	-0.028483966
82	0x3c2e302e	0.010631604
83	0x3c9cdde4	0.019148774
84	0x3d756214	0.059907988
85	0x3dbf9f09	0.093565054
86	0xbdce8203	-0.100833915
87	0xbe038562	-0.1284385
88	0xbe2d3cf0	-0.16917777
89	0xbdb90600	-0.090343475
90	0xbdaed684	-0.08537009
91	0x3da13744	0.07871869
92	0xbb69d276	-0.0035678423
93	0x3ddc4df6	0.10757057
94	0x3d330f71	0.043715898
95	0x3b04fdaa	0.0020292797
96	0xbd19b89d	-0.037529577
97	0xbd952c77	-0.072838716
98	0xbd323e0d	-0.043516207
99	0x3d9a16cd	0.0752388
100	0xbe14cfd1	-0.145324
101	0xbda92653	-0.08259263
102	0x3c66b541	0.0140813
103	0xbd994164	-0.074831754
104	0xbc695b73	-0.014242995
105	0xbcfe4667	-0.03103943
106	0xbc04e3cc	-0.008110952
107	0xbdc0d2c7	-0.094152026
108	0xbcb19d2f	-0.021681396
109	0xbddb3ffa	-0.10705562
110	0xbdcd7d49	-0.10033662
111	0x3d9ee3a3	0.07758262
112	0xbda7bdac	-0.08190474
113	0x3d94ffee	0.07275377
114	0x3da1409a	0.0787365
115	0x3e0aed8a	0.13567176
116	0x3d0e5775	0.034751374
117	0xbd271382	-0.04079009
118	0xbdd228c1	-0.102616794
119	0xbcf7e8b5	-0.03026233
120	0x3d997674	0.07493296
121	0xbc05f7cb	-0.008176754
122	0xbdca5b24	-0.09880665
123	0xbe417bcb	-0.1889488
124	0xbd435300	-0.047686577
125	0x3e1af746	0.1513339
126	0xbc2e6c7b	-0.010645981
127	0xbd76fc5e	-0.06029927
128	0xbae4df50	-0.0017461572
129	0xbdc07849	-0.093979426
130	0xbd8f35ac	-0.06992659
131	0xbe20f304	-0.15717703
132	0xbd6723f9	-0.05643079
133	0xbbf6584c	-0.00751785
134	0xbd880d8d	-0.066432096
135	0x3d7d7b17	0.061884966
136	0xbaedf494	-0.0018154555
137	0xba3f2d58	-0.00072928285
138	0x3a932352	0.0011225736
139	0x392c4d76	0.00016432055
140	0xbd350fea	-0.04420463
141	0xbd2042e4	-0.039126292
142	0x3da2821f	0.07934975
143	0xbd34e968	-0.044167906
144	0xba5e2021	-0.00084734155
145	0xbcd9ffff	-0.026611326
146	0x3dad5b39	0.08464665
147	0x3d0dc647	0.03461292
148	0xbdffe112	-0.12494101
149	0x3d6e49c5	0.05817582
150	0x3ba43172	0.005010777
151	0xbd79dd3f	-0.061002012
152	0x3ac6e001	0.001517296
153	0xbdc7052b	-0.097177826
154	0x3d1c5ec3	0.03817631
155	0xbe54fc5e	-0.20799395
156	0x3dfb99d7	0.12285202
157	0x3bdf8508	0.0068212785
158	0xbd144115	-0.03619488
159	0xbcd5c70d	-0.026095891
160	0xbd0d8008	-0.03454593
161	0x3a0ffef6	0.0005493009
162	0x3e3b79cf	0.18308185
163	0x3bd87359	0.0066055474
164	0x3d039ef0	0.032133996
165	0xbe2455d9	-0.16048373
166	0x3d173648	0.036917
167	0xbe0def0a	-0.13860717
168	0x3cb4f81c	0.022090964
169	0x3e1bd1a8	0.15216696
170	0xbd17e3b2	-0.03708238
171	0x3db3e94e	0.08784734
172	0x3cd873e4	0.026422448
173	0x3cc6c76f	0.02426502
174	0xbda50afd	-0.080587365
175	0xbcd50f08	-0.026008144
176	0xbc9c259d	-0.019060904
177	0x3d173c68	0.036922842
178	0xbe0bf731	-0.13668515
179	0x3c9b00f2	0.01892135
180	0xbcb018b2	-0.02149615
181	0x3dcb943d	0.099403836
182	0x3bce2c67	0.0062919143
183	0x3d93ac99	0.07210655
184	0xbde54332	-0.11194457
185	0x3a0921b5	0.0005231158
186	0xbb8f03ba	-0.004364458
187	0x3da9846e	0.08277212
188	0x3c07ea11	0.008295552
189	0x3dcc15f3	0.09965124
190	0x3c5180c3	0.012787047
191	0xbe017d3f	-0.12645434
192	0x3a6c4c67	0.00090140704
193	0xbb9000c9	-0.004394625
194	0x3cf394f8	0.02973412
195	0x3b916726	0.004437345
196	0x3e0905fb	0.13381188
197	0x3cc34b46	0.023839604
198	0x3df976f1	0.121808894
199	0x3d835245	0.06412176
200	0x3d3722f3	0.044711065
201	0x3cedf36d	0.029046739
202	0xbb87e42b	-0.004147073
203	0x3daa1600	0.083049774
204	0xbd55b809	-0.052177463
205	0xbe1eba61	-0.15500785
206	0xbdbc87dd	-0.09205601
207	0x3cd38ed1	0.025824936
208	0x3de2215e	0.110415205
209	0x3da8e5ff	0.08246993
210	0xbbe2652b	-0.006909033
211	0xbcb11f60	-0.021621406
212	0x3d841425	0.06449155
213	0x3c5691f8	0.013096325
214	0xbe5deb19	-0.21671714
215	0x3dacfbfd	0.084465005
216	0x3d022538	0.031773776
217	0x3bdbb5f0	0.0067050382
218	0x3d4d49ee	0.050119333
219	0xbdb53109	-0.08847243
220	0xbdfc965b	-0.123333655
221	0x3d1c9832	0.038231082
222	0xbb7cc524	-0.0038569653
223	0xbe26b829	-0.16281189
224	0x3d47f549	0.048817907
225	0x3e0ac826	0.13552913
226	0xbcb20c3f	-0.021734355
227	0xbdbed253	-0.0931746
228	0xbdc2c74c	-0.09510669
229	0xbb2831be	-0.0025664414
230	0xbb6dcfb2	-0.0036287126
231	0x3bf9c294	0.0076220725
232	0xbcbe357e	-0.023218866
233	0xbc2c3370	-0.0105103105
234	0x3dad39fc	0.08458325
235	0x3d20e4c0	0.039280653
236	0xbd978099	-0.07397575
237	0xbda8b8db	-0.082383834
238	0xbd3c3b06	-0.045954727
239	0x3defcbb2	0.11708774
240	0x3d8e2e69	0.06942446
241	0xbd9f4e74	-0.077786356
242	0x3cde0332	0.027101133
243	0x3df1b4a5	0.11802033
244	0x3cfcdaa6	0.030865978
245	0xbd900be9	-0.07033522
246	0x3c5bb1a9	0.013409057
247	0xbd0d3bab	-0.034480732
248	0x3d15543c	0.036457285
249	0x3d66680a	0.056251563
250	0xbd54bc6a	-0.0519375
251	0x3da8929a	0.08231087
252	0x3e1f362a	0.15548006
253	0xbdd82b10	-0.105550885
254	0x3d6b2685	0.057409782
255	0xbdf97892	-0.121812

network.2.bias f4 [192]
0	0xbc0d29d5	-0.008615931
1	0x3ca25bc6	0.019819152
2	0x3ccb6d3f	0.024832366
3	0x3c8398be	0.016064044
4	0x3cea7c5b	0.02862375
5	0x3d293709	0.04131225
6	0x3c96d850	0.018413693
7	0x3d095157	0.033524837
8	0x3cf4d8df	0.029888568
9	0x3bfb773c	0.007674126
10	0x3cf746ea	0.030185182
11	0xbbba6ef0	-0.0056894943
12	0x3d428bb4	0.047496513
13	0x3cd0f270	0.025506228
14	0xba60e55a	-0.0008579098
15	0x3bb38e77	0.0054796296
16	0x3cc300c9	0.023804085
17	0x3c97878c	0.018497251
18	0x3cd15769	0.025554376
19	0x3c69d53d	0.014272031
20	0x3c24c909	0.010057696
21	0x3cf67847	0.03008665
22	0xbc20290d	-0.009775412
23	0x3c754fdf	0.014972656
24	0x3cd6718b	0.026177188
25	0x3d054b40	0.032542467
26	0x3c2d7242	0.010586323
27	0x3d3808c9	0.044930253
28	0x3c584c8c	0.013201844
29	0x3d3609c1	0.044442896
30	0x3b991d7a	0.0046727033
31	0x3cd14088	0.025543466
32	0x3d2641d2	0.040590115
33	0x3ca2c3e9	0.019868808
34	0x3c41aa7a	0.01182043
35	0x3c69e3c5	0.014275496
36	0x3c273ccf	0.010207369
37	0x3cee4dc2	0.029089812
38	0x3d1f44b6	0.038883887
39	0x3bd5ccdc	0.0065246653
40	0x3c9bcdeb	0.019019088
41	0x3ca74e1b	0.020422986
42	0x3b1f62e9	0.002432043
43	0x3cdf1548	0.027231827
44	0x3bed5308	0.007242564
45	0x3d1db13d	0.038499106
46	0x3d095d93	0.033536505
47	0x3d361edf	0.044463035
48	0x3d370442	0.044681795
49	0xbb82fd78	-0.003997501
50	0x3ca85979	0.020550476
51	0x3d1e00b6	0.038574897
52	0x3c9d0ad3	0.0191702
53	0x3d16c8fd	0.03681277
54	0x3d45b362	0.048266776
55	0x3ce399d6	0.027783316
56	0x3d0258af	0.031822857
57	0x3cab198d	0.020886207
58	0x3cac73f4	0.021051385
59	0x3d32c35c	0.04364334
60	0x3c619c52	0.01377018
61	0x3aa26339	0.001238919
62	0x3d4375fc	0.04771994
63	0xba0526ee	-0.00050793483
64	0x3d1bc336	0.038027965
65	0x3bb25e78	0.0054433905
66	0x3c9e181a	0.019298602
67	0x3bde685a	0.006787342
68	0xbbadbfb1	-0.0053023924
69	0x3d0e98aa	0.03481356
70	0x3be13233	0.0068724393
71	0x3c996f5b	0.018729856
72	0x3c3033a1	0.010754497
73	0x3d45546b	0.04817621
74	0x3c85c02a	0.016326983
75	0x3cc70130	0.024292558
76	0xba91741f	-0.0011097229
77	0x3d1ba2cf	0.037997063
78	0x3cc467df	0.02397531
79	0x3d04af6d	0.03239386
80	0x3d2c9e12	0.042142935
81	0x3d26ffa4	0.04077114
82	0x3d072a70	0.032999456
83	0x3c74d9bd	0.014944491
84	0x3d140221	0.036134843
85	0x3bef65fd	0.007305859
86	0x3d0c81cd	0.034303475
87	0x3c4b280a	0.012399683
88	0x3bc3f290	0.0059798434
89	0x3cf5ccaa	0.030004818
90	0xbc1612c3	-0.009159747
91	0x3c7f2a8c	0.015574109
92	0x3ca9c7af	0.0207251
93	0xbc7ed165	-0.015552853
94	0x3c6d89de	0.014498202
95	0x3c9e217b	0.019303074
96	0x3ced6223	0.02897746
97	0x3b2f53b1	0.0026752765
98	0xbba7762d	-0.005110523
99	0x3d1b30e1	0.03788841
100	0x3c70de57	0.014701447
101	0x3c8e96d4	0.017405905
102	0x3cdc225c	0.026871853
103	0x3c162c18	0.009165786
104	0x3c8b40d7	0.016998691
105	0x3d41b6b9	0.0472934
106	0x3ca89e4e	0.020583298
107	0x3ca34ab9	0.019933091
108	0x3d35eb43	0.044413816
109	0xbbc0999d	-0.005877687
110	0xbc7ace26	-0.015307939
111	0x3d2a33ea	0.041553415
112	0xb9ec66be	-0.00045089977
113	0x3bd3481e	0.006447806
114	0x3cb756d5	0.022380272
115	0x3bb048c8	0.00537977
116	0x3d148a87	0.036264922
117	0x3c8e6164	0.017380424
118	0x3cdc6f40	0.026908517
119	0x3ce5e0a9	0.028061228
120	0x3cdbd330	0.0268341
121	0x3c6b8f97	0.014377496
122	0x3d6458ea	0.055748858
123	0xbbe8f483	-0.007109226
124	0x3d0c779c	0.034293756
125	0x3ca3cabd	0.019994134
126	0xbcb7cf19	-0.022437619
127	0x3cc0452d	0.023470486
128	0x3c476962	0.012171121
129	0x3ce881d3	0.028382218
130	0x3cbef60a	0.02331068
131	0x3c881305	0.016610632
132	0x3b89d63e	0.004206448
133	0x38ee4dc9	0.00011363213
134	0x3bbc5a53	0.005748072
135	0xbc0cb3f7	-0.008587829
136	0xbc7dc72f	-0.015489384
137	0x3d138289	0.03601316
138	0x3b38421b	0.0028115574
139	0x3caa8b15	0.020818273
140	0x3ca1b274	0.019738413
141	0x3ce9e022	0.028549258
142	0x3ca1f835	0.019771675
143	0x3ca2dcf9	0.019880759
144	0x3c2589cf	0.010103657
145	0x3d57b111	0.052659098
146	0x3bc53126	0.006017822
147	0x3c7c5091	0.015400068
148	0x3c2bc904	0.010484938
149	0x3c89c376	0.016816836
150	0x3c808c1e	0.015691813
151	0xbc3c6d03	-0.0115006
152	0xbb78225c	-0.0037862277
153	0x3ce912c4	0.028451331
154	0xbc915bee	-0.01774403
155	0x3befbfde	0.0073165735
156	0xbaa38ebe	-0.0012478454
157	0x3c39fefe	0.011352299
158	0x3c6a5a15	0.014303704
159	0x3d10f55e	0.03539025
160	0x3d06c156	0.032899223
161	0x3c27c713	0.010240334
162	0x3c66f420	0.01409629
163	0x3c3aa4b7	0.01139181
164	0x3c2ae600	0.010430813
165	0x3cd86498	0.026415154
166	0x3cbc4cdd	0.02298587
167	0x3d3b8d80	0.04578924
168	0x3d18451c	0.037175283
169	0x3d03e18d	0.032197524
170	0xbbda5372	-0.0066627795
171	0x3d0056a7	0.031332638
172	0x3ce535be	0.027979728
173	0x3c9f8996	0.019474786
174	0x3d4e5959	0.050378177
175	0x3ca8df99	0.020614432
176	0x3c823818	0.015895888
177	0x3c77cfae	0.015125198
178	0x3cfcb1bb	0.030846467
179	0x3cc74f44	0.024329789
180	0x3ccc2717	0.024920983
181	0x3d3e90f4	0.046524957
182	0x3d2cb6e7	0.042166617
183	0x3bfda8da	0.007741076
184	0x3d0d75aa	0.03453604
185	0x3c5e187b	0.013555641
186	0x3c5d8288	0.013519891
187	0x3cda8baf	0.026677934
188	0x3d493799	0.049125288
189	0x3c8ff71b	0.017573884
190	0xbc4e8e0e	-0.012607111
191	0x3c50ae85	0.012736921

network.4.weight f4 [128, 192]
0	0x3ce65ecd	0.028121376
1	0x3e275122	0.16339543
2	0x3b8dd081	0.004327834
3	0xbd3ca09a	-0.0460516
4	0xbbc440c1	-0.0059891646
5	0x3cd64f2d	0.0261608
6	0xbdbe9742	-0.09306194
7	0x3c5b83b3	0.013398099
8	0x3e0c80ae	0.13720962
9	0xbbf9404e	-0.0076065427
10	0x3d8ebca0	0.06969571
11	0xbc08eaae	-0.008356733
12	0x3dad6313	0.084661625
13	0xbc2f795f	-0.0107100895
14	0xbdae40a2	-0.085084215
15	0xbd49ec5f	-0.049297687
16	0xbdb4c55a	-0.08826704
17	0xbd7117db	-0.05886064
18	0x3e0a9104	0.13531882
19	0xbbb6f5fd	-0.0055835233
20	0x3cf5824e	0.02996936
21	0x3e1ca163	0.15295939
22	0x3d62897f	0.055306908
23	0xbc0c3916	-0.008558532
24	0xbd442d76	-0.047894917
25	0x3ad4a224	0.0016222638
26	0xbe13444c	-0.14381522
27	0xbcd2460a	-0.025668163
28	0x3d8ad916	0.06779687
29	0x3df03ea8	0.11730701
30	0xbe01c911	-0.12674357
31	0x3cef0e3f	0.029181598
32	0x3dbe426b	0.09290012
33	0xbdd4cfea	-0.10391219
34	0x3cb3f45f	0.021967111
35	0xbd4ea24b	-0.050447743
36	0x3d939518	0.07206172
37	0xbd9f0dd8	-0.07766312
38	0xbe169edf	-0.14709042
39	0xbd8c5578	-0.06852239
40	0x3cfb8c99	0.03070669
41	0xbe0aa367	-0.13538896
42	0xbd9baf4f	-0.07601797
43	0xbdbcdd4d	-0.09221897
44	0x3dbfba82	0.093617454
45	0xbca529dc	-0.020161562
46	0x3d22e73e	0.03977131
47	0x3decc910	0.11561787
48	0x3c498b2c	0.012301248
49	0x3db3e27a	0.08783431
50	0xbdcf950d	-0.10135851
51	0x3d1d6821	0.038429383
52	0x3da6a02a	0.081360176
53	0x3c47985b	0.0121823205
54	0x3daa4431	0.08313788
55	0xbe12a827	-0.14321958
56	0x3d85ea9b	0.06538888
57	0x3c847e03	0.016173368
58	0x3dd92faa	0.10604794
59	0x3e2b2710	0.1671412
60	0x3c901beb	0.017591437
61	0x3d9da06f	0.07696616
62	0x3b23be6e	0.002498533
63	0x3e0eaabe	0.1393232
64	0x3ae8457b	0.0017720902
65	0xbe140ff1	-0.14459206
66	0xbae4b863	-0.0017449971
67	0xbc71dfd8	-0.014762841
68	0xbd3a3cfa	-0.045468308
69	0x3d0d4ede	0.03449904
70	0xbe1ea6da	-0.15493336
71	0x3d0605ec	0.03272049
72	0xbe0f16f8	-0.13973606
73	0xbd8aa301	-0.06769372
74	0x3da2bf7a	0.079466775
75	0x3cc39d3c	0.023878686
76	0xbd7f7328	-0.06236568
77	0x3dd2514b	0.10269412
78	0x3dc84cb4	0.09780255
79	0x3cdb0bfd	0.026739115
80	0x3e211dd2	0.15734032
81	0x3cb97e52	0.022643242
82	0x3dbc628f	0.09198486
83	0x3d950903	0.072771095
84	0x3d9c7f3f	0.07641458
85	0x3d05e594	0.032689646
86	0xbd3f6805	-0.04673006
87	0x3d6cceb0	0.0578143
88	0xbd1c6b7e	-0.03818845
89	0x3d4ef505	0.050526638
90	0xbdcf40a5	-0.10119752
91	0x3ce93b57	0.028470678
92	0x3d442572	0.047887273
93	0xbcd39f86	-0.025832903
94	0x3e0c4af1	0.13700463
95	0x3d3e7e7d	0.046507347
96	0xbbfb9b78	-0.0076784454
97	0xbc19de71	-0.009391413
98	0xbcd7edfb	-0.026358595
99	0x3cc8f600	0.024531364
100	0xbdcabdae	-0.0989946
101	0x3c9852f4	0.018594243
102	0x3c0e6dc4	0.008693162
103	0xbd66e5c4	-0.056371465
104	0xbdf2740f	-0.11838543
105	0xbd74ade5	-0.05973615
106	0xbc8110d1	-0.015755089
107	0xbce3244b	-0.027727267
108	0x3d7cb08a	0.0616918
109	0xbd41e982	-0.04734183
110	0x3d2d5baf	0.042323764
111	0x3dc76c6b	0.09737476
112	0x3c2a0810	0.010377899
113	0xbe1b29ff	-0.15152739
114	0xbc96f899	-0.018429087
115	0x3ca13cd5	0.019682327
116	0xbd2230fb	-0.039597493
117	0x3dc25ae5	0.09489993
118	0xbe16ae87	-0.14715014
119	0x3df089f9	0.11745066
120	0x3c5663a7	0.013085282
121	0x3d636e91	0.055525366
122	0x3db2b642	0.08726169
123	0xbe083cbc	-0.13304418
124	0x3dbd9494	0.09256855
125	0xbd0e6732	-0.034766383
126	0xbd768826	-0.060188435
127	0x3e4f599d	0.20249029
128	0x3d668b1a	0.056285
129	0x3de1cfd0	0.11025965
130	0xbd680039	-0.056640837
131	0xbd6b471e	-0.05744087
132	0x3e26da15	0.16294129
133	0xbc7dd70b	-0.015493165
134	0x3d351390	0.04420811
135	0x3e1d37ce	0.15353319
136	0x3d4875b1	0.048940364
137	0xbca17e0d	-0.019713426
138	0x3d913dd4	0.07091871
139	0x3d7faef5	0.06242271
140	0x3ceaadb0	0.028647274
141	0x3d6085f2	0.05481524
142	0xbe28cbf7	-0.16484056
143	0xbd874cb5	-0.066064276
144	0xbe32a3a6	-0.1744524
145	0xbdb188a0	-0.08668637
146	0x3bb90917	0.0056468355
147	0xbdea77b2	-0.11448611
148	0x3dc59709	0.09647948
149	0x3e03e8f8	0.1288184
150	0xbda34d91	-0.07973779
151	0x3db81a27	0.08989363
152	0x3bf3995f	0.0074340547
153	0x3d810b5f	0.06300997
154	0xbd3390b8	-0.043839186
155	0x3dbc4eea	0.09194739
156	0x3d4601ef	0.048341688
157	0x3d2f90f5	0.04286285
158	0x3b930130	0.0044862255
159	0x3da6a393	0.08136668
160	0xbda38546	-0.07984404
161	0xbddafcda	-0.10692759
162	0xbe0e3ef0	-0.13891196
163	0x3d40f8d9	0.04711232
164	0x3d501552	0.050801583
165	0x3d7801ce	0.060548596
166	0x3d09aa26	0.03360953
167	0x3dec09cb	0.11525305
168	0x3e14a984	0.1451779
169	0xbdad379d	-0.08457873
170	0x3c26984c	0.010168146
171	0x3d536217	0.051607218
172	0x3e199c8b	0.15001123
173	0xbc7c8f09	-0.015414962
174	0x3e5025c8	0.20326912
175	0x3e34586d	0.17611857
176	0x3cab3e7b	0.020903816
177	0x3e092af8	0.13395298
178	0xbdf3b1dd	-0.11899159
179	0xbdf5a5ba	-0.119945005
180	0x3d7e7cc2	0.062130697
181	0x3dc4a65f	0.09602045
182	0xbe32b297	-0.17450939
183	0xbddf6792	-0.10908426
184	0xbbf3c974	-0.0074397866
185	0xbc977afc	-0.01849126
186	0x3d9555d7	0.07291763
187	0xbdc57207	-0.096408896
188	0x3b857625	0.004072922
189	0x3e179a64	0.14804989
190	0xbd522686	-0.05130627
191	0x3c48125e	0.01221141
192	0xbda88677	-0.08228772
193	0x3d0a3aba	0.033747412
194	0xbbf3bebb	-0.0074385083
195	0x3d13363e	0.0359404
196	0x3c86db5b	0.016462019
197	0xbdc01565	-0.09379081
198	0x3bb9c0ac	0.00566872
199	0xbd985c38	-0.07439464
200	0x3dc4fd5e	0.096186385
201	0xbd846cd0	-0.06466067
202	0xbcf9f169	-0.030510621
203	0x3e16c09d	0.14721914
204	0x3d1d1d23	0.038357865
205	0xbd8b99a7	-0.06816416
206	0xbcde0075	-0.027099827
207	0xbcc42008	-0.023941055
208	0x3c735366	0.014851427
209	0x3e0150f5	0.12628539
210	0x3d640e93	0.05567796
211	0xbc31aaf4	-0.010843981
212	0x3dc6cb66	0.09706764
213	0x3d2b39a6	0.041803025
214	0xbd795fae	-0.060882263
215	0xbd052a2e	-0.03251093
216	0x3d4e014c	0.050294206
217	0xbd556e3d	-0.052107085
218	0x3c0faa5e	0.008768646
219	0x3d9a7a70	0.07542884
220	0xbd72a44b	-0.059238713
221	0xbd5cfa14	-0.05394943
222	0xbde0f3a1	-0.109839685
223	0x3e4304ab	0.1904475
224	0xbd406e36	-0.046980105
225	0xbc8ef590	-0.017451078
226	0x3e07351e	0.13203856
227	0x3df39d48	0.118952334
228	0xbd17d890	-0.037071764
229	0xbdb8ac9d	-0.09017298
230	0x3d9b273f	0.07575845
231	0x3d46f054	0.04856904
232	0xbc9885f5	-0.018618563
233	0x3d21f888	0.03954366
234	0xbdc179ad	-0.09447036
235	0x3dbff785	0.093733825
236	0xbd8251c9	-0.063632555
237	0xbc64d1da	-0.013966048
238	0xbe01ab92	-0.12663105
239	0x3d88778c	0.06663427
240	0xbcf096d8	-0.029368803
241	0x3da4944c	0.08036098
242	0x3d44e300	0.048068047
243	0xbd8c6a09	-0.06856162
244	0x3d7641fd	0.060121525
245	0xbdabecf9	-0.08394808
246	0x3d040847	0.032234456
247	0x3d41ef6f	0.047347482
248	0x3caebd16	0.021330398
249	0xbd86c957	-0.06581371
250	0x3d4e3612	0.050344534
251	0x3d687243	0.056749593
252	0x3e179f44	0.14806849
253	0x3d3414c3	0.043965112
254	0xbd8cdef5	-0.06878463
255	0x3cd75e47	0.026290072

network.4.bias f4 [128]
0	0x3ca76163	0.02043218
1	0xba0bb0e4	-0.0005328788
2	0x3c861f88	0.016372457
3	0x3ca78e8a	0.02045371
4	0x3c8322cd	0.016007805
5	0x3c9255a9	0.017863112
6	0x3c850470	0.016237468
7	0x3c423732	0.01185398
8	0x3cde496d	0.027134622
9	0x3a6d7c17	0.00090593233
10	0xbb2e30f8	-0.002657948
11	0xbc01b395	-0.007916351
12	0x3cab57d4	0.020915903
13	0x3c128bda	0.008944476
14	0x3c6b4bf5	0.014361371
15	0xbc9baf16	-0.019004386
16	0x3b1b0146	0.0023651882
17	0x3b7d43c8	0.0038645137
18	0x3c899100	0.016792774
19	0x3cdd47da	0.0270118
20	0xbc8e8da1	-0.017401518
21	0xbbdc3e1b	-0.0067212707
22	0xbc0928b6	-0.008371523
23	0xbbd488de	-0.0064860424
24	0x3c964945	0.018345485
25	0x3c8a70e0	0.016899526
26	0x3ca86d05	0.020559797
27	0xbc1a2b76	-0.009409776
28	0x3a0f5dd8	0.0005469001
29	0x3b8bddc9	0.004268382
30	0xbc1c0442	-0.0095224995
31	0x3bf490b5	0.0074635395
32	0xbbf11e44	-0.0073583443
33	0xbc65a308	-0.01401592
34	0x3cc0140f	0.023447065
35	0x3c1714fb	0.009221311
36	0x3cd6f1aa	0.026238281
37	0x3cf154a4	0.029459305
38	0x3b9a7c57	0.0047145295
39	0xbac23cfc	-0.00148192
40	0x3a35be0b	0.00069329207
41	0x3c896672	0.016772483
42	0x3bf86e68	0.007581521
43	0x3d2e3735	0.04253312
44	0x3ba4fd4e	0.005035079
45	0x3cb4b7b8	0.02206026
46	0x3c92163c	0.017832868
47	0x3b86dca3	0.0041156574
48	0xbca3e384	-0.020005949
49	0x3cdf2ab3	0.02724204
50	0x3cd12bcc	0.02553358
51	0xbb41236a	-0.0029470571
52	0xbb51d915	-0.003202026
53	0x3d230462	0.0397991
54	0x3c402dfe	0.011729715
55	0xbb1ed80e	-0.0024237665
56	0x3c3c814f	0.011505439
57	0xbc0e0566	-0.008668279
58	0x385dd8dc	5.2892472e-05
59	0x3d3780c8	0.04480055
60	0xba93f4f6	-0.0011288214
61	0xbbe52d7b	-0.006993947
62	0x3af96642	0.0019027668
63	0x3cb9bca1	0.022672953
64	0xbc298aa2	-0.010347994
65	0x3c524b96	0.012835404
66	0x3a8d6a5f	0.0010789147
67	0x3c3edfe4	0.011650059
68	0x3ccd736d	0.025079453
69	0x3b03291b	0.0020013514
70	0x3cff037e	0.031129595
71	0x3c3294e4	0.010899756
72	0x3c8e327b	0.017358055
73	0xbb859e0e	-0.0040776795
74	0x3d07976f	0.033103403
75	0xbb3942ac	-0.00282685
76	0x3b353114	0.002764766
77	0x3c753293	0.014965671
78	0xbc17e2f4	-0.009270418
79	0x3c3bd21c	0.011463668
80	0x3c80d60b	0.015727064
81	0x3b3b2c58	0.0028560366
82	0xbb3a18df	-0.0028396172
83	0x3cdef1e8	0.02721496
84	0x3cdee11a	0.027206946
85	0x3cb9a8de	0.02266353
86	0x3c902593	0.017596042
87	0x3c98d00d	0.018653894
88	0x3c0c7148	0.00857193
89	0x3a5aaa4a	0.0008341415
90	0x3cc5893e	0.024113294
91	0x3d02a5a8	0.031896263
92	0xba9a2099	-0.0011758982
93	0x3d1584cd	0.0365036
94	0x3c774592	0.01509227
95	0x3d052cef	0.032513555
96	0xba1cbb29	-0.0005978817
97	0x3be6901f	0.0070362235
98	0x3c54a38e	0.012978448
99	0x3c3fc146	0.011703795
100	0x3bc3d09e	0.005975797
101	0x3cb4ab67	0.022054387
102	0x3d0eba07	0.03484538
103	0xbb91ae4b	-0.004445826
104	0x3c1889e3	0.0093102185
105	0x3c120f12	0.008914726
106	0xbca65531	-0.020304294
107	0x3c18ff77	0.009338251
108	0xbc6f37fb	-0.014600749
109	0xbbfa9606	-0.0076472787
110	0x3d0e274f	0.034705456
111	0x3cfd9949	0.030956881
112	0x3c60137f	0.013676523
113	0xbc61e004	-0.01378632
114	0xbc335560	-0.010945648
115	0x3c87bf17	0.01657061
116	0xbc55c4ff	-0.013047456
117	0xb8dad1a8	-0.000104341016
118	0x3bc9933f	0.0061515863
119	0xbb0583ad	-0.0020372674
120	0x3b91f76f	0.004454545
121	0x3c615f42	0.013755621
122	0xbb897cc6	-0.0041957824
123	0x3c9e04d1	0.019289406
124	0x3cd1bce6	0.02560277
125	0x3ce4d240	0.027932286
126	0x3cad5ea6	0.021163296
127	0xb97e893e	-0.00024274454

network.6.weight f4 [39, 128]
0	0xbbbc1e5e	-0.0057409247
1	0xbcb199e4	-0.021679826
2	0xbe2a5ccf	-0.16636966
3	0xbcfdd78a	-0.030986566
4	0xbe8b87b5	-0.27251974
5	0xbd149176	-0.036271535
6	0xbdde27c9	-0.10847432
7	0xbd9199ee	-0.07109438
8	0xbe3926e1	-0.18081237
9	0xbe7cd88a	-0.24691978
10	0x382c063e	4.101381e-05
11	0x384a885c	4.8287548e-05
12	0xbe303b15	-0.17210038
13	0xbe3ac282	-0.18238261
14	0xba92ef23	-0.0011210184
15	0xb70e9a18	-8.499737e-06
16	0xbdbcfe84	-0.092282325
17	0x3e45d40c	0.1931917
18	0xbe3f731c	-0.18696254
19	0xbd0b24a3	-0.033970486
20	0xbe807ec2	-0.2509671
21	0x3e7b671a	0.24551049
22	0xb870e956	-5.743777e-05
23	0x3d4c9da8	0.04995504
24	0xbdbeee25	-0.09322766
25	0x3d272574	0.040807202
26	0xbcad8821	-0.021183075
27	0x3e34ea3c	0.17667478
28	0x3e3a389e	0.1818566
29	0xbe44b4c5	-0.19209583
30	0x3c7d8978	0.01547467
31	0xbdfd3375	-0.1236333
32	0x381869e9	3.633826e-05
33	0xbe17d8c7	-0.14828788
34	0xbe811669	-0.2521241
35	0xbccaf088	-0.024772897
36	0xbe70c0c7	-0.23511039
37	0xbe02f0c6	-0.1278716
38	0xbd41c6b8	-0.047308654
39	0x38578748	5.1385985e-05
40	0x37d83f38	2.5778645e-05
41	0xbce34c71	-0.027746411
42	0xbb9f8096	-0.0048676236
43	0xbde24e08	-0.110500395
44	0x3ce7b848	0.028286114
45	0xbe785aab	-0.24253337
46	0xbd57a9d2	-0.052652188
47	0xbe7f0d3e	-0.24907395
48	0x3e7d2dca	0.24724498
49	0xbd9f69fc	-0.07783887
50	0xbe35be48	-0.17748368
51	0xbe81fdf5	-0.25389066
52	0xbdb45db6	-0.088069364
53	0xbe52ec78	-0.20598018
54	0xbc92e8b6	-0.01793323
55	0x37fa59e0	2.9844174e-05
56	0xbe301205	-0.17194374
57	0x3e117c57	0.14207588
58	0x3dbec7a4	0.09315422
59	0xbe1e6d7d	-0.15471454
60	0xb79cfda8	-1.8714767e-05
61	0x37cc6273	2.4364539e-05
62	0x3e8031f0	0.250381
63	0xbeae60b9	-0.3405817
64	0x3d604c68	0.054760367
65	0xbe4cfb88	-0.20017827
66	0xbcdd2afc	-0.026998036
67	0x3b6dc548	0.003628092
68	0x3d8e8c7c	0.06960389
69	0x3d68a4d9	0.056797836
70	0xbe0da8dc	-0.13833946
71	0x3d8628f1	0.06550778
72	0xbe9bbe70	-0.3041873
73	0xb5488658	-7.47013e-07
74	0xbd2da3dc	-0.042392597
75	0xbe92c69b	-0.2866715
76	0xbdbd02f1	-0.09229077
77	0xbe860ac6	-0.26180094
78	0x36b7d50a	5.478626e-06
79	0xbdf55297	-0.119786434
80	0x3dd4caa4	0.10390213
81	0xbe9bc329	-0.30422333
82	0xbd109a35	-0.035303313
83	0xbe54acc6	-0.20769033
84	0x3d9e2db7	0.07723563
85	0xbc959437	-0.01825915
86	0xbe1d0baa	-0.1533648
87	0xbe0fe47a	-0.14052
88	0xbd43739d	-0.04771768
89	0x3928965d	0.00016077743
90	0xbdc4427f	-0.095829956
91	0xbc9fed49	-0.019522326
92	0x3e1c9e64	0.15294796
93	0xbe1fe925	-0.15616281
94	0xbd867bfe	-0.065666184
95	0xbd73c6ee	-0.059515886
96	0xbddc422c	-0.10754809
97	0xb8c461de	-9.3642375e-05
98	0xbe8d77aa	-0.2763036
99	0x3a902bb2	0.001099935
100	0xbdfbcc84	-0.12294868
101	0xb8884dae	-6.499454e-05
102	0x3cc294c8	0.023752585
103	0xbe2b8013	-0.16748075
104	0xbdfa12a7	-0.12210589
105	0xbe533199	-0.20624389
106	0xbd8c5a10	-0.068531156
107	0x3bb45454	0.0055032168
108	0xbe1b5558	-0.15169275
109	0xbd605aec	-0.05477421
110	0xbe3c7741	-0.18404867
111	0xbe898653	-0.26860294
112	0xbe223f78	-0.15844524
113	0xb786f226	-1.6086804e-05
114	0x3837e426	4.384308e-05
115	0xbe7b9463	-0.24568324
116	0xbd69d967	-0.057092097
117	0x3e5cea9c	0.21573871
118	0xbd1d3788	-0.038383037
119	0xbe795e61	-0.24352409
120	0xbe0c3377	-0.13691507
121	0xbc95ff11	-0.018310102
122	0x3b6c5a4a	0.0036064559
123	0xbdfbf676	-0.12302868
124	0xbe678adb	-0.22611563
125	0xbded7bb4	-0.1159586
126	0xbda161c5	-0.07879976
127	0xbe3664df	-0.17811917
128	0x3b9c7ce1	0.004775629
129	0xbe1a6c49	-0.1508037
130	0xbc921cc9	-0.017835991
131	0xbe17cca8	-0.14824164
132	0x3de768b8	0.112992704
133	0xbc322256	-0.010872444
134	0xbdda8d2a	-0.10671456
135	0xbdb4a7ff	-0.08821105
136	0x3b5bcabc	0.0033537587
137	0x3e699e5d	0.22814317
138	0x3e7d481d	0.2473454
139	0xb606e8b8	-2.0103016e-06
140	0xbd55c5e0	-0.05219066
141	0x3daf2476	0.08551876
142	0xbe48f778	-0.19625652
143	0xb653d526	-3.1565519e-06
144	0xbe0870f1	-0.13324334
145	0xbcfa659b	-0.030566027
146	0x3d91d2d4	0.071202904
147	0xbcbc8f01	-0.023017408
148	0xbaf1985d	-0.0018432249
149	0x372cbfa9	1.0296623e-05
150	0x37af5e84	2.0905638e-05
151	0xbd5f5f6f	-0.054534372
152	0x3cd1a2d6	0.025590342
153	0xbca37ff0	-0.019958466
154	0x3d310a51	0.04322273
155	0xbcfd3c6d	-0.030912602
156	0x3dd7c289	0.105351515
157	0x3d04c554	0.03241475
158	0x3db10641	0.08643771
159	0xbe885d50	-0.26633692
160	0x3e64e265	0.22351988
161	0x3cc82a46	0.02443422
162	0xbd8d406d	-0.06897054
163	0xbdbdbdde	-0.0926473
164	0x3d29dffd	0.041473377
165	0x3dcdfbda	0.100578025
166	0x3db419ef	0.08794009
167	0x3d0b2711	0.033972804
168	0x3c90ffe6	0.017700147
169	0x3d6077bb	0.054801684
170	0x3d3a0203	0.045412075
171	0xbde6fc8f	-0.112786405
172	0x3dc82816	0.09773271
173	0xbe116252	-0.14197662
174	0xbe9f6543	-0.31131944
175	0xbd6c4435	-0.057682235
176	0xbc0d82cd	-0.008637142
177	0xbd4fc4ab	-0.050724667
178	0x3c2cdce7	0.010550714
179	0x3dfe4f5d	0.12417481
180	0x3d9d8352	0.07691063
181	0xbe2656c6	-0.16244039
182	0xbdae4157	-0.08508556
183	0x376ddd36	1.41778055e-05
184	0xbc645222	-0.013935598
185	0x3d815f38	0.0631699
186	0xbd018aba	-0.03162644
187	0xbe4ada1b	-0.19809763
188	0xbcb9f12a	-0.022698004
189	0xbe20faf9	-0.15720738
190	0x3ccbe4d3	0.024889385
191	0xbeb70e7c	-0.35753238
192	0xbceb5239	-0.02872573
193	0x3d761659	0.060079906
194	0x3d935e3f	0.071957104
195	0xbe74efcc	-0.239196
196	0x3d7a2e86	0.061079524
197	0x3e5fd6fd	0.21859355
198	0x3e64467a	0.2229251
199	0x3da84492	0.08216204
200	0xbe044b17	-0.1291927
201	0x3e1f18d3	0.15536813
202	0xbcbee85e	-0.02330416
203	0x3dc5a3ea	0.09650405
204	0xbdf8f5b8	-0.12156242
205	0xbe120739	-0.14260568
206	0xb6cc7a7f	-6.093934e-06
207	0x3e8d225d	0.2756528
208	0xbd9255a0	-0.07145238
209	0xbe56859a	-0.20949402
210	0xbb9ee740	-0.0048493445
211	0x3ddd23b6	0.10797827
212	0x3df3da58	0.1190688
213	0x3e1a2d3f	0.15056323
214	0xbdaf4519	-0.08558101
215	0xbdca8521	-0.098886736
216	0x3d18d685	0.037313957
217	0x3c29c267	0.010361291
218	0x3e017a83	0.12644391
219	0xbdf7370f	-0.120710485
220	0x3daa9886	0.08329873
221	0xbda1bc51	-0.07897247
222	0xbdb21273	-0.08694925
223	0x3d98efb1	0.074675925
224	0x3d0a887b	0.033821564
225	0x3da429e2	0.08015801
226	0xbe211830	-0.15731883
227	0x3c3c66a6	0.011499083
228	0x3d830096	0.06396596
229	0xbccb72bd	-0.024834985
230	0x3dc1bf30	0.09460294
231	0xbe3a56ff	-0.18197249
232	0x3e07b56c	0.132528
233	0x3e4c6d80	0.19963646
234	0xbd8a7e3f	-0.06762361
235	0x3e205a05	0.1565934
236	0xbdd20150	-0.102541566
237	0x3e81c469	0.25345162
238	0x3d144f35	0.03620835
239	0xbd9f19e1	-0.07768608
240	0xbdcfed8b	-0.101527296
241	0xbef000b1	-0.46875528
242	0xb6eace04	-6.997727e-06
243	0x3a091218	0.00052288314
244	0xbdff5808	-0.124679625
245	0x3c78ebaa	0.015192905
246	0xbd03e221	-0.032198075
247	0xbc8944f8	-0.01675652
248	0xbde3455e	-0.11097215
249	0x3df9168e	0.12162505
250	0x3df592b8	0.11990875
251	0x3d854d5c	0.06508896
252	0x3debb163	0.11508443
253	0xbe305ddf	-0.17223309
254	0xbc021aab	-0.007940928
255	0x3dab6815	0.083694614

network.6.bias f4 [39]
0	0xbd25a56c	-0.04044096
1	0x3c370f50	0.011173084
2	0x3cf402f6	0.029786568
3	0xbc3fba69	-0.0117021585
4	0x3bc691d6	0.0060598655
5	0xbc9e7de3	-0.019347137
6	0x3c5c6ce3	0.013453695
7	0xba85ed6a	-0.001021785
8	0xba803281	-0.0009780676
9	0xbc29ed19	-0.01037147
10	0xbd2bdb70	-0.04195732
11	0x3a83776b	0.0010030096
12	0x3c8cfe2c	0.017211042
13	0xbc1e8c66	-0.009677028
14	0x3caadb4b	0.02085652
15	0x3d087cbd	0.033322085
16	0xbc070201	-0.008240224
17	0xbcb50fc4	-0.022102244
18	0x37096070	8.18829e-06
19	0x3c57fbd1	0.013182596
20	0xba186c5c	-0.00058144866
21	0x3b947aa8	0.0045312233
22	0xbbbc89ce	-0.0057537323
23	0x3c9314dd	0.017954284
24	0xbd1d5f9a	-0.03842125
25	0x3cbb0b83	0.022832638
26	0xbd0dbff5	-0.034606893
27	0xbc760b9c	-0.015017416
28	0x3a50c487	0.0007963855
29	0xbc48b866	-0.012250995
30	0xbcc9aa5e	-0.02461737
31	0xbcbfb2f5	-0.023400763
32	0xbcbc4cf2	-0.02298591
33	0xbd0b4d82	-0.034009464
34	0xbd0b284e	-0.033973984
35	0xbd14dd2c	-0.03634374
36	0xbd42aee7	-0.04753008
37	0xbd126c77	-0.03574797
38	0xbcd200fa	-0.025635231
