Homework/HW2/results/baseline_model.pt (torch, 15090 bytes, 6 tensors)

network.0.weight f4 [32, 64]
0.071248405 -0.21603803 0.17454162 -0.21614622 -0.2602612 0.13811345 -0.12716746 -0.058339663
0.18459441 0.12431294 0.03974971 -0.42063308 -0.115896985 0.1011568 0.092141524 -0.18902746
-0.09360249 -0.19745214 -0.099707186 -0.18018919 0.13442759 0.08257377 -0.017439624 -0.10154509
0.024840973 -0.087794304 0.01276809 0.03528236 -0.102009065 -0.06688574 0.17111993 -0.03751197
-0.08988744 -0.05280869 0.19513458 0.10072343 -0.18840423 -0.06352555 0.12820557 -0.1091516
-0.16461915 -0.14314678 0.07112905 0.058547426 -0.014682878 -0.07010114 0.013577717 -0.011730588
0.053160686 -0.015138257 -0.3222482 -0.017652621 -0.022897119 -0.22634344 -0.063938685 0.104308665
0.11117824 0.03762902 -0.08759332 -0.122456096 -0.10851584 0.33700368 -0.04110643 0.07789079
0.16139759 -0.034630526 -0.16492653 -0.0713354 0.06489903 0.07768236 -0.16112655 -0.0729205
0.25105172 -0.09495188 0.115707174 -0.0040144674 0.09425008 0.013450467 0.09355934 -0.19012694
0.011421619 -0.070339 -0.058189325 0.13274568 -0.06982236 0.09198878 -0.122421734 -0.028809875
0.023237858 0.117928326 0.05155032 -0.055687927 0.027635932 -0.013566319 -0.028659344 -0.0568292
0.055863626 0.14614269 0.34904447 -0.022660742 -0.11493803 0.19417554 -0.06427603 0.11771937
-0.20892188 0.023270553 -0.10249639 -0.046680633 0.055471625 -0.08124626 0.19110975 -0.025290681
0.08703822 -0.29415494 0.09976882 -0.16303445 -0.022541841 0.1572559 -0.09067265 -0.27335855
-0.02657321 -0.056113992 0.10210036 -0.06758766 0.14540513 0.1770072 0.057578344 0.16043046
0.16565485 -0.01680735 0.027446045 -0.11731024 0.009349376 0.17496386 0.1260121 0.1810428
0.0723195 0.14892799 0.16908704 0.112750426 0.0027694649 -0.03722756 0.15800467 0.23980525
-0.115818836 -0.18719 -0.17926796 0.07012206 0.33001617 0.08945484 0.029495806 0.15940921
-0.056670457 0.12132518 -0.30483612 0.19726427 -0.12258482 0.13705009 0.023077395 -0.108391784
-0.21203957 0.11924723 -0.020354107 -0.16533546 0.019111743 -0.010255795 -0.14052334 0.036198642
-0.1781095 -0.081849694 0.04507254 0.2084904 0.058594678 -0.07790077 -0.09108706 -0.03607949
-0.029373225 0.23126459 -0.0056701703 -0.23088352 -0.07464472 -0.064265415 -0.008964608 0.02934126
0.040622745 -0.049530342 0.10197122 -0.107385844 0.14676946 0.3105547 -0.116698116 0.012143593
-0.06759241 -0.32057503 -0.047519714 -0.064480685 -0.3479806 0.20902349 -0.2059464 0.2721788
0.005229635 0.21621871 0.06260601 -0.12944075 0.21446668 -0.05715887 0.005643449 0.20418333
-0.31085712 0.22696292 0.17648302 0.17184441 -0.28548813 0.021044675 -0.036315933 -0.043662194
0.11985999 0.034997348 -0.07123959 0.066730104 0.034631338 0.059358552 -0.12515576 0.016257904
-0.14987783 0.023660993 0.23270807 0.15488626 -0.11723235 0.14961031 -0.30974576 0.18955277
-0.07200344 0.2536754 0.20608881 -0.3507787 -0.08361331 -0.031584963 -0.042382043 -0.17539853
-0.12586166 0.069037914 -0.061884552 -0.24464446 -0.18119486 -0.321911 -0.105514124 -0.022383146
-0.122367226 -0.16769737 -0.19057997 0.1349819 -0.19987373 0.060700763 0.18094674 0.23012708
00000000: afea 913d 1339 5dbe 0abb 323e 6f55 5dbe
00000010: f540 85be 9d6d 0d3e 3038 02be 92f5 6ebd
00000020: 5106 3d3e c897 fe3d 98d0 223d 385d d7be
00000030: 665b edbd 4c2b cf3d b2b4 bc3d 6a90 41be
00000040: aab2 bfbd e530 4abe 4833 ccbd 8483 38be
00000050: 63a7 093e 701c a93d 8bdd 8ebc dff6 cfbd
00000060: 4c7f cb3c 80cd b3bd 4031 513c 3c84 103d
00000070: 21ea d0bd 64fb 88bd 103a 2f3e 27a6 19bd
00000080: e816 b8bd ed4d 58bd 5cd1 473e 1648 ce3d
00000090: 0aed 40be af19 82bd 5248 033e e08a dfbd
000000a0: ec91 28be 1295 12be 1bac 913d 6dcf 6f3d
000000b0: 7490 70bc 3091 8fbd 1375 5e3c a731 40bc
000000c0: 05bf 593d 7406 78bc b7fd a4be 3b9c 90bc
000000d0: bd92 bbbc 93c6 67be 49f2 82bd c89f d53d
000000e0: 6bb1 e33d e320 1a3d 2064 b3bd 43ca fabd
000000f0: 8d3d debd bf8b ac3e 375f 28bd 3585 9f3d
00000100: 6945 253e bdd8 0dbd 80e2 28be 4b18 92bd
00000110: c8e9 843d ee17 9f3d 5cfe 24be 5857 95bd
00000120: da89 803e 2276 c2bd e2f7 ec3d cb8b 83bb
00000130: 3006 c13d 595f 5c3c 0a9c bf3d a3b0 42be
00000140: be21 3b3c e50d 90bd ee57 6ebd 7cee 073e
00000150: 07ff 8ebd 9d64 bc3d 3fb8 fabd b002 ecbc
00000160: 525d be3c 6884 f13d 6e26 533d 0619 64bd
00000170: c064 e23c 4445 5ebc 00c7 eabc bcc5 68bd
00000180: 42d1 643d 6ea6 153e f5b5 b23e 05a3 b9bc
00000190: a164 ebbd f4d5 463e 27a3 83bd da16 f13d
000001a0: 9eef 55be e3a1 be3c a1e9 d1bd 3134 3fbd
000001b0: 3736 633d 7064 a6bd 46b2 433e 672e cfbc
000001c0: 1841 b23d 7a9b 96be 9853 cc3d 81f2 26be
000001d0: aba9 b8bc b107 213e 95b2 b9bd a7f5 8bbe
000001e0: 0fb0 d9bc c9d7 65bd fe19 d13d 666b 8abd
000001f0: 15e5 143e 6041 353e 45d7 6b3d e247 243e
00000200: 6da1 293e 91af 89bc 87d6 e03c 5a40 f0bd
00000210: 202e 193c ba29 333e 5109 013e 4963 393e
00000220: 3f1c 943d 9480 183e 2725 2d3e b2e9 e63d
00000230: e97f 353b ed7b 18bd facb 213e 828f 753e
00000240: 6d32 edbd bcae 3fbe 0592 37be 289c 8f3d
00000250: e1f7 a83e 1934 b73d 30a1 f13c 2b3c 233e
00000260: 481f 68bd 5679 f83d 7b13 9cbe a5ff 493e
00000270: c00d fbbd dc56 0c3e ce0c bd3c 83fc ddbd
00000280: e720 59be e437 f43d a8bd a6bc b34d 29be
00000290: 3b90 9c3c ec07 28bc 5ae5 0fbe 0745 143d
000002a0: 5662 36be d0a0 a7bd fc9d 383d 827e 553e
000002b0: f900 703d 708a 9fbd da8b babd 16c8 13bd
000002c0: 1ea0 f0bc a0d0 6c3e d6cc b9bb bb6c 6cbe
000002d0: 55df 98bd 969d 83bd 4be0 12bc 155d f03c
000002e0: 0964 263d 54e0 4abd 49d6 d03d 1ced dbbd
000002f0: bc4a 163e 0701 9f3e 6cff eebd ecf5 463c
00000300: e46d 8abd 6922 a4be 08a4 42bd 730e 84bd
00000310: 832a b2be 410a 563e 9de3 52be 055b 8b3e
00000320: 5c5d ab3b 7068 5d3e 9437 803d 1e8c 04be
00000330: 279d 5b3e 6b1f 6abd aeec b83b 6f15 513e
00000340: aa28 9fbe f868 683e f7b7 343e fbf7 2f3e
00000350: 802b 92be e265 ac3c 04c0 14bd 21d7 32bd
00000360: 2879 f53d 6159 0f3d 10e6 91bd cba9 883d
00000370: 97d9 0d3d f421 733d d528 00be 4c2f 853c
00000380: 9379 19be b3d4 c13c 064b 6e3e 819a 1e3e
00000390: 8417 f0bd 7233 193e ff96 9ebe 1f1a 423e
000003a0: 8a76 93bd bee1 813e f208 533e 4499 b3be
000003b0: 743d abbd 3c5f 01bd cb98 2dbd ac9b 33be
000003c0: e1e1 00be c063 8d3d a87a 7dbd 1484 7abe
000003d0: 258b 39be 85d1 a4be ca17 d8bd dc5c b7bc
000003e0: ab9b fabd dcb8 2bbe 6527 43be b238 0a3e
000003f0: b3ab 4cbe 5da1 783d 1a4a 393e 6fa6 6b3e

network.0.bias f4 [32]
-0.01070482 -0.05114777 -0.018224413 0.019297892 -0.0135426875 -0.003724372 0.0003449073 -0.025001075
-0.018999692 -0.0006806003 0.011153163 0.030310852 -0.0012607313 -0.014446796 -0.024837373 -0.028858824
-0.02255952 0.025337424 0.009258649 0.006783273 -0.053121455 -0.0064505273 -0.036075704 -0.024481328
-0.0059764395 -0.034480453 -0.032277197 -0.022488395 0.0019169848 0.042520832 -0.034359984 0.036451984
00000000: 4563 2fbc 5380 51bd 5d4b 95bc 9d16 9e3c
00000010: 26e2 5dbc 9814 74bb add4 b439 0ecf ccbc
00000020: 3ea5 9bbc 506a 32ba c2bb 363c 774e f83c
00000030: 1f3f a5ba 41b2 6cbc bf77 cbbc 5769 ecbc
00000040: bece b8bc 6e90 cf3c 97b1 173c 3846 de3b
00000050: e295 59bd f25e d3bb 1ec4 13bd 118d c8bc
00000060: 02d6 c3bb 603b 0dbd 1835 04bd 9539 b8bc
00000070: 5643 fb3a 532a 2e3d 0ebd 0cbd ad4e 153d

network.2.weight f4 [16, 32]
0.187373 0.22963963 -0.036146797 0.12035428 -0.007736448 -0.2504031 -0.042692456 0.30451897
-0.06280367 0.032111246 -0.3074315 -0.28149194 0.019038867 -0.18292928 0.0071450323 0.4355918
-0.042707566 0.13800938 -0.13200927 0.20209472 0.53706497 -0.1467617 0.2006575 -0.05997595
-0.1630333 -0.08047161 0.018225206 -0.08280411 -0.06798981 -0.26697764 0.053980824 -0.01389026
-0.14392245 0.18734582 0.1600114 0.06887782 0.15914041 -0.21586835 -0.033590063 -0.03636317
-0.11587802 -0.16648339 -0.034661874 -0.15805943 -0.017157955 0.11132286 0.0766259 -0.15657395
0.696174 0.0089032035 0.37256768 0.0006008378 -0.20595905 -0.08866911 -0.014526201 0.038144782
-0.55162656 -0.33314854 -0.006088269 -0.15024123 0.38119602 -0.08691346 0.08914505 0.32217833
-0.18890984 -0.021582482 -0.3368094 -0.18093003 0.16283968 -0.14693229 -0.21925004 0.06069928
-0.0024641152 -0.2080814 0.13430914 0.0048438944 -0.016482776 -0.30595714 -0.015956996 -0.07481893
0.09342603 0.06051939 0.06071663 0.08539424 -0.21651413 -0.027192572 0.2983467 0.2827086
-0.17628193 -0.11986702 -0.31036392 0.08079027 -0.11363607 -0.32015902 -0.15577835 -0.08818727
-0.0095108505 0.3318269 0.2592772 -0.12425704 -0.041901294 0.09477225 0.3823493 -0.17711614
-0.08012099 0.29017752 0.019303814 0.07744587 0.0842258 0.27304146 0.09254767 -0.35346255
-0.2147292 -0.27951345 -0.065072194 0.04706367 0.1594329 -0.3792142 -0.29992822 0.27117804
0.19831394 -0.20398644 0.09737275 -0.10703975 -0.17051928 -0.078273624 0.066676356 -0.119479954
0.053997263 0.19194667 -0.052777182 0.19926037 0.0072086235 -0.061524983 0.00088062516 -0.038261063
-0.11888635 -0.17503898 -0.26752302 -0.04883397 -0.20730083 -0.14593752 -0.22694612 -0.34009054
0.22739026 -0.02461588 -0.24665062 -0.13231611 0.1336338 -0.039540417 -0.053120423 0.19916303
-0.12270763 0.052413456 0.006001734 0.1059149 -0.10182409 0.16280645 -0.18795836 0.026502542
0.13030948 -0.10427572 -0.24026513 0.27701002 0.037356924 -0.25037524 0.15503134 -0.08611958
0.2652205 0.085446686 0.21844009 -0.054967824 -0.32325163 0.052658454 -0.1772496 0.053416915
0.02529578 -0.1414191 0.26525363 -0.0764052 -0.12000407 -0.1419559 -0.09027276 -0.1390636
0.06668058 0.066962205 0.43413582 -0.34398815 -0.2116354 -0.058115516 -0.2039484 -0.17970756
0.0077402703 -0.015872281 -0.023501731 -0.27349192 0.337494 0.104051016 0.12476033 -0.38751265
-0.140844 -0.22455066 -0.1180127 -0.11941451 -0.14334251 0.12435765 -0.20990059 0.18391916
-0.15641606 -0.2141564 -0.046377145 0.13816127 -0.1870408 -0.056549247 -0.14415714 0.13922474
-0.076958835 0.35703805 0.6557143 0.41004342 -0.24947527 -0.2571319 -0.12039044 -0.24336338
0.1497098 -0.014242849 -0.38851154 0.22157872 0.2346364 0.05080967 -0.12946874 0.13075894
-0.11082273 0.14960352 -0.100368045 -0.1746031 -0.10173864 -0.288159 -0.047173716 0.066990025
0.028032666 -0.09518055 0.17485811 -0.07016747 -0.012120325 0.4490721 0.1259589 0.16080207
0.22985145 0.227418 -0.012496321 0.09055075 0.1302691 0.080675304 -0.16617064 -0.02919129
00000000: b5de 3f3e a726 6b3e aa0e 14bd 4e7c f63d
00000010: 0882 fdbb d634 80be 49de 2ebd e9e9 9b3e
00000020: 369f 80bd 1587 033d a967 9dbe b61f 90be
00000030: 66f7 9b3c d051 3bbe e020 ea3b e305 df3e
00000040: 21ee 2ebd 5552 0d3e 702d 07be ebf1 4e3e
00000050: 177d 093f b348 16be 2979 4d3e 57a9 75bd
00000060: 34f2 26be 4dce a4bd 074d 953c 3495 a9bd
00000070: 3e3e 8bbd 4bb1 88be ff1a 5d3d f993 63bc
00000080: 6860 13be 95d7 3f3e 07da 233e d10f 8d3d
00000090: b4f5 223e 980c 5dbe bc95 09bd 8cf1 14bd
000000a0: 7551 edbd 9f7a 2abe 9cf9 0dbd 55da 21be
000000b0: d78e 8cbc 3dfd e33d 0aee 9c3d ec54 20be
000000c0: 7638 323f bede 113c 31c1 be3e 8b81 1d3a
000000d0: eee6 52be 2698 b5bd 4eff 6dbc b43d 1c3d
000000e0: 6637 0dbf 7292 aabe 1a80 c7bb d6d8 19be
000000f0: 202c c33e afff b1bd ae91 b63d 8ff4 a43e
00000100: 9571 41be bfcd b0bc 4872 acbe b945 39be
00000110: 72bf 263e 6b75 16be 1583 60be cf9f 783d
00000120: fe7c 21bb 4a13 55be 5688 093e 88b9 9e3b
00000130: e306 87bc 6aa6 9cbe 3fb8 82bc ab3a 99bd
00000140: 2556 bf3d 2ee3 773d 00b2 783d 2de3 ae3d
00000150: e1b5 5dbe f5c2 debc e6c0 983e 2ebf 903e
00000160: 4083 34be d77c f5bd 05e8 9ebe 5e75 a53d
00000170: 07ba e8bd e2eb a3be 5c84 1fbe 879b b4bd
00000180: 66d3 1bbc 37e5 a93e fbbf 843e 7a7a febd
00000190: b1a0 2bbd f417 c23d 4ac3 c33e ef5d 35be
000001a0: 7916 a4bd 2692 943e 0823 9e3c f19b 9e3d
000001b0: 947e ac3d 17cc 8b3e a289 bd3d 0bf9 b4be
000001c0: f9e1 5bbe 631c 8fbe 9244 85bd d6c5 403d
000001d0: 6142 233e 5d28 c2be 3190 99be d9d7 8a3e
000001e0: cf12 4b3e d2e1 50be 5d6b c73d a837 dbbd
000001f0: 9b9c 2ebe ec4d a0bd 9d8d 883d e8b1 f4bd
00000200: 3c2c 5d3d ab8d 443e e32c 58bd e90a 4c3e
00000210: 5136 ec3b 9f01 7cbd c1d9 663a a2b7 1cbd
00000220: b07a f3bd 6b3d 33be c7f8 88be 2106 48bd
00000230: ab46 54be a570 15be 9064 68be 5920 aebe
00000240: fed8 683e 3ea7 c9bc fb91 7cbe e07d 07be
00000250: 4dd7 083e 22f5 21bd cd94 59bd 65f1 4b3e
00000260: 234e fbbd 7eaf 563d 32aa c43b e9e9 d83d
00000270: 2689 d0bd bcb6 263e 2878 40be dc1b d93c
00000280: d96f 053e 828e d5bd 1008 76be 42d4 8d3e
00000290: 9303 193d 2f31 80be 89c0 1e3e 765f b0bd
000002a0: fbca 873e acfe ae3d c2ae 5f3e f125 61bd
000002b0: 3d81 a5be 64b0 573d eb80 35be b2cb 5a3d
000002c0: 1839 cf3c 2bd0 10be 53cf 873e 547a 9cbd
000002d0: b2c4 f5bd e35c 11be ede0 b8bd b066 0ebe
000002e0: d48f 883d 7b23 893d 0d47 de3e 371f b0be
000002f0: f3b6 58be 890a 6ebd d9d7 50be 4205 38be
00000300: 18a2 fd3b 9606 82bc b486 c0bc 2207 8cbe
00000310: 03cc ac3e b318 d53d 5882 ff3d 0f68 c6be
00000320: 6939 10be 9cf0 65be a4b0 f1bd 988f f4bd
00000330: 61c8 12be 39af fe3d 2ef0 56be 4e55 3c3e
00000340: 882b 20be d14b 5bbe f6f5 3dbd 267a 0d3e
00000350: a087 3fbe 2fa0 67bd ee9d 13be ee90 0e3e
00000360: 989c 9dbd b1cd b63e e4dc 273f 36f1 d13e
00000370: 7276 7fbe cba6 83be 438f f6bd 4034 79be
00000380: 874d 193e d75a 69bc fcea c6be 88e5 623e
00000390: 8644 703e cd1d 503d 7493 04be ace5 053e
000003a0: 07f7 e2bd aa31 193e c38d cdbd 28cb 32be
000003b0: 595c d0bd 9489 93be 3a39 41bd 1132 893d
000003c0: c3a4 e53c 05ee c2bd 010e 333e f6b3 8fbd
000003d0: 5494 46bc c7ec e53e 5ffb 003e 4ca9 243e
000003e0: 2e5e 6b3e 44e0 683e 5fbd 4cbc ac72 b93d
000003f0: 4365 053e 1839 a53d a328 2abe 9222 efbc

network.2.bias f4 [16]
-0.039784282 -0.012454714 0.005080812 -0.034684036 3.8863207e-05 0.025535854 -0.02938527 -0.008955637
0.020923872 0.0049481727 0.008052915 -0.020301126 -0.022619735 -0.022331154 0.003143043 -0.011101631
00000000: d8f4 22bd db0e 4cbc f17c a63b d910 0ebd
00000010: 0d01 2338 9130 d13c 61b9 f0bc aaba 12bc
00000020: 8a68 ab3c 4824 a23b 60f0 033c 8c4e a6bc
00000030: 064d b9bc d3ef b6bc 83fb 4d3b 9ee3 35bc

network.4.weight f4 [10, 16]
-0.05330759 0.13784319 0.05566381 -0.031317588 -0.53000593 -0.1337311 -0.02165397 -0.03182351
0.394191 0.19762643 0.62777597 0.17159209 0.26764026 -0.17521213 -0.0099541 -0.40131745
0.35019213 0.29150432 -0.15225956 -0.0144946575 -0.27774882 -0.055923305 0.03517999 0.1522877
-0.3351457 0.2559757 0.28742707 -0.080382034 -0.41393337 -0.023472348 -0.3633794 -0.27812824
-0.4364038 0.5737673 -0.3437031 -0.66580683 -0.04180234 0.26396868 0.37729946 -0.17803974
0.41304603 0.33975908 -0.16692498 0.32623678 -0.2566409 -0.49016258 -0.29922307 0.19003256
0.24638145 -0.23079436 0.11018179 0.09561984 0.5383246 -0.27011806 0.22991754 0.19509436
-0.48597348 0.01727204 -0.2992767 0.1308675 0.30156216 0.2066091 -0.034374155 0.034039795
-0.21533628 -0.19352429 0.3443651 -0.021285003 -0.16535789 0.11249212 0.082328126 -0.47782815
0.32673064 0.1458937 0.26128453 -0.10199576 -0.4392928 0.27959406 -0.0834761 -0.40334168
-0.2589188 0.36517912 -0.22189443 0.027226515 0.43159437 0.06804955 -0.4951949 -0.35302234
-0.050870556 0.17937906 -0.22870539 -0.37133563 0.2844787 0.016716056 -0.24149607 0.50970215
0.16708767 -0.08582609 -0.16578603 -0.43043843 0.07899225 -0.20894907 0.24600188 0.29809374
0.036802944 0.054623656 0.022030156 -0.28766316 0.1992079 0.015701855 -0.15759411 0.39626095
-0.7640937 0.23736577 -0.11125233 -0.079866834 -0.10227224 -0.25603005 -0.087370105 -0.019599004
0.37507373 0.46541533 -0.016015945 -0.29426795 -0.44295794 0.20492378 -0.20476289 0.22021203
-0.14914869 -0.15541814 0.068001434 -0.032178145 0.07491627 -0.27007076 -0.46364006 -0.17090033
-0.15228744 0.10229982 -0.2108004 0.33786622 -0.43672183 0.54170984 0.017686795 -0.53452784
0.24314937 -0.31390944 -0.31915978 -0.7807618 0.45888254 -0.4497934 0.048457727 0.54552716
0.40740442 0.039864626 -0.3834208 0.08528141 -0.16718943 0.11380488 -0.18915533 -0.17200835
00000000: 0f59 5abd c426 0d3e bcff 633d df46 00bd
00000010: 78ae 07bf cef0 08be ab63 b1bc 5e59 02bd
00000020: 67d3 c93e 955e 4a3e edb5 203f d6b5 2f3e
00000030: 2508 893e cf6a 33be 8516 23bc 7b79 cdbe
00000040: 624c b33e 0e40 953e eee9 1bbe 007b 6dbc
00000050: 1835 8ebe d60f 65bd e518 103d 4ff1 1b3e
00000060: 3898 abbe 3f0f 833e a429 933e 569f a4bd
00000070: 13ef d3be 1549 c0bc dd0c babe d366 8ebe
00000080: 5270 dfbe 6ae2 123f daf9 afbe 5172 2abf
00000090: ee38 2bbd e726 873e 652d c13e 0d50 36be
000000a0: c57a d33e e7f4 ad3e 62ee 2abe 8208 a73e
000000b0: 7066 83be 97f6 fabe c433 99be e597 423e
000000c0: 6b4b 7c3e 5b55 6cbe fea6 e13d 56d4 c33d
000000d0: a4cf 093f ea4c 8abe 816f 6b3e d1c6 473e
000000e0: 84d1 f8be 187e 8d3c cc3a 99be 2102 063e
000000f0: 5b66 9a3e 5691 533e eacb 0cbd 506d 0b3d
00000100: 1d81 5cbe 3b2b 46be 9f50 b03e e35d aebc
00000110: 9453 29be 4562 e63d a69b a83d e4a5 f4be
00000120: 3d49 a73e 2865 153e 16c7 853e 27e3 d0bd
00000130: fcea e0be f426 8f3e 84f5 aabd cd82 cebe
00000140: 0191 84be c2f8 ba3e 4b38 63be 240a df3c
00000150: f0f9 dc3e 905d 8b3d 308a fdbe 58bf b4be
00000160: a55d 50bd 25af 373e bf31 6abe b41f bebe
00000170: 31a7 913e 1cf0 883c bf4a 77be d77b 023f
00000180: 0819 2b3e 97c5 afbd d0c3 29be 6d62 dcbe
00000190: b0c6 a13d bff6 55be ebe7 7b3e be9f 983e
000001a0: afbe 163d 0ebd 5f3d 9678 b43c 9648 93be
000001b0: 28fd 4b3e 2da1 803c 5a60 21be b7e2 ca3e
000001c0: a59b 43bf 0310 733e 43d8 e3bd 3991 a3bd
000001d0: 1c74 d1bd 5f16 83be 19ef b2bd 178e a0bc
000001e0: aa09 c03e eb4a ee3e df33 83bc 4aaa 96be
000001f0: 62cb e2be 8ad7 513e 5dad 51be 437f 613e
00000200: 6fba 18be ef25 1fbe 5644 8b3d 3bcd 03bd
00000210: b46d 993d b746 8abe 3b62 edbe 7f00 2fbe
00000220: 3df1 1bbe 9182 d13d 0fdc 57be cdfc ac3e
00000230: 019a dfbe 7fad 0a3f e6e3 903c d1d6 08bf
00000240: 26fc 783e bdb8 a0be e968 a3be 01e0 47bf
00000250: a7f2 ea3e 524b e6be 9c7b 463d aba7 0b3f
00000260: 5097 d03e 1749 233d bb4f c4be 05a8 ae3d
00000270: b533 2bbe 8812 e93d efb1 41be f522 30be

network.4.bias f4 [10]
-0.019952724 0.0098621445 0.017450245 -0.03306335 0.026695354 -0.004179891 -0.018104553 0.029958528
-0.014860757 0.014430676
00000000: e573 a3bc d594 213c d1f3 8e3c 6f6d 07bd
00000010: 37b0 da3c 78f7 88bb 0050 94bc 966b f53c
00000020: 887a 73bc a46e 6c3c
