Homework/HW2/results/baseline_careful.pt (torch, 584609 bytes, 8 tensors)

network.0.weight f4 [256, 256]
000000 1b ae 83 bd 25 a0 d1 3c 69 23 21 be a8 70 29 bd
       -0.06429692 0.025589058 -0.15736164 -0.041367203
000010 ef e0 93 bc 13 b7 14 3d 92 e4 f1 3d 08 cd b0 3c
       -0.018051593 0.036307406 0.118111745 0.021582142
000020 cf 65 bf bb bd 48 d4 bb e8 66 8d 3d df 3c 66 3e
       -0.005840994 -0.0064783976 0.069043934 0.22484158
000030 65 e4 ec 3d f1 8a e6 3d cd 93 a7 3d 45 6e 6d bd
       0.11567 0.1125697 0.08182488 -0.05796649
000040 57 86 34 3d 04 05 c3 3d 16 53 73 3d 51 f7 b2 bd
       0.04407343 0.09522441 0.05940541 -0.08738578
000050 89 6f 5a bd d5 e9 ea bd 2a 8a 06 bc 3f 66 8e bd
       -0.053329024 -0.11470381 -0.008211652 -0.06953096
000060 e0 86 b7 3a bb ec dc bc a2 68 d3 bb eb 58 ef 3c
       0.0014001988 -0.02696835 -0.006451682 0.029217204
000070 77 a6 a8 3d 92 cf a6 3c 60 87 b0 bd 18 97 e6 bd
       0.08234876 0.02036265 -0.08619571 -0.112592876
000080 af 08 f9 3c 3f f5 c5 3b 0f 71 4d 3d 9e 93 af 3d
       0.030399648 0.0060411985 0.05015665 0.085730776
000090 d7 02 68 3d 62 17 d6 3c ad 77 2a bc a0 00 f4 3d
       0.056643333 0.026134197 -0.0104045095 0.11914182
0000a0 94 bd a1 3d bb 9c e1 3d e8 fa ee 3d 6f 27 39 3d
       0.07897487 0.11016222 0.1166895 0.045203622
0000b0 e2 53 2a 3e d0 e1 77 bd 2e 70 09 3d 88 8a 6c bb
       0.16633561 -0.060518086 0.03355425 -0.0036093313
0000c0 10 c6 e1 bd f5 43 95 3d 8d 2e ee 3d b8 66 9c bd
       -0.110241055 0.072883524 0.116299726 -0.076367795
0000d0 f8 a4 46 3d 97 2a 0a 3d 6c fe f5 3c 61 2c 9d bd
       0.04849717 0.033732023 0.030028544 -0.0767448
0000e0 93 c5 5b 3d b5 f7 85 bc e9 39 16 3d 7f 60 a3 bd
       0.05365522 -0.016353467 0.03667632 -0.079773895
0000f0 ec 14 ac 3d d9 12 89 3d 64 af 5b 3d 04 f2 b2 3d
       0.08402428 0.06693048 0.053634062 0.08737567
000100 86 8d eb bd a5 34 e6 bb 0b bf 8b 3c 71 53 ad bd
       -0.11501603 -0.0070253187 0.01705887 -0.08463181
000110 3b 77 46 bd c1 f3 ef bd b4 b4 8a 3d 01 9f b4 bd
       -0.04845355 -0.11716414 0.06772748 -0.0881939
000120 6b 4d c3 bc ee 4e 44 3d 8e af 63 bd 58 56 10 3d
       -0.023840627 0.047926836 -0.055587344 0.035238594
000130 3c 3c e7 3b e3 5b 3b bd 53 68 93 3d 1c 3c 1e 3e
       0.007056741 -0.045741927 0.07197633 0.15452617
000140 20 f6 46 be de 83 e1 bd 79 9d 41 3c 26 18 59 3d
       -0.19429827 -0.1101148 0.01181733 0.053001545
000150 7c fe ce 3c 7e 60 e6 3d a4 2f 55 3d a1 c0 96 3d
       0.025267832 0.11248873 0.052047387 0.0736096
000160 42 a6 b8 bd 50 75 e6 3d 97 fe 9e 3c f4 7e e8 bd
       -0.09016086 0.11252844 0.019408507 -0.113523394
000170 78 50 ec 3d 02 97 80 bd ee 69 58 be 2e c0 22 3d
       0.11538786 -0.062788025 -0.21134159 0.039734058
000180 6b cb c8 3d 07 91 53 be 95 eb e7 bd 65 5a b4 bc
       0.09804424 -0.20660792 -0.113242306 -0.02201576
000190 c6 10 ad 3b 44 66 33 3c 33 f2 1d 3e 1a d9 f0 3d
       0.0052815406 0.010949675 0.15424423 0.11760159
0001a0 3c c0 e2 3d 98 ee 18 3e 9d 98 19 3d cc 31 24 3c
       0.11071822 0.14934766 0.03749906 0.010021638
0001b0 ba 45 7b 3d b0 6c 0d be 35 9d be 3b 0f 88 be bc
       0.061345793 -0.13810992 0.0058170804 -0.023258237
0001c0 b9 70 37 3c 9a 54 e9 bc 05 f7 54 bd ca 0f fb bd
       0.011196309 -0.028482724 -0.05199339 -0.12258871
0001d0 39 ae 20 bc be 54 2a 3b 63 ff ab bd d8 ca b4 3d
       -0.009807163 0.0025990452 -0.083983205 0.08827752
0001e0 57 fa b4 3d 5d 2e e6 3d 27 95 fa bd 4e c6 88 3c
       0.08836811 0.11239312 -0.1223548 0.016696122
0001f0 f8 c9 eb bd 51 76 88 bc ad 3c ea bd 1f ff 4a bd
       -0.11513132 -0.01665798 -0.11437354 -0.04955971
000200 d9 0e 67 be a0 87 a9 34 9b 0c 67 be 7d 0c e9 36
       -0.22564258 3.1577383e-07 -0.22563402 6.945395e-06
000210 47 11 67 be 4c ca 0e 37 ac 50 87 38 a0 0c 9a b7
       -0.22565185 8.5109605e-06 6.452328e-05 -1.836411e-05
000220 11 0c 67 3e a1 63 e1 b7 ac 12 cc b6 7c fd 6f 37
       0.22563197 -2.6868483e-05 -6.0818475e-06 1.4304529e-05
000230 c5 f5 66 3e 92 ed 3c 3e a8 f6 e1 36 59 f6 f7 b6
       0.22554691 0.18450001 6.734237e-06 -7.3898523e-06
000240 b3 36 74 b8 d0 40 40 b5 ee 7b 06 b8 68 63 ce 37
       -5.8225076e-05 -7.161989e-07 -3.2063508e-05 2.4603403e-05
000250 8a 34 66 3e 7b c7 e6 b7 73 cf 1d 3e 0c 19 1a be
       0.2248098 -2.7511027e-05 0.15411167 -0.15048617
000260 b0 0d 67 3e 55 0d 37 b8 34 f1 0f 38 cc 67 e8 b7
       0.22563815 -4.3643016e-05 3.4318495e-05 -2.770489e-05
000270 64 11 67 3e 1d 19 67 be f5 83 1d b7 eb 76 81 b7
       0.22565228 -0.22568174 -9.388653e-06 -1.5433374e-05
000280 3f 01 05 be 0c 0d 67 3e 00 65 2c 37 0c 0a 67 be
       -0.12988757 0.2256357 1.0275515e-05 -0.22562426
000290 60 b2 cc b7 cb 09 67 be cc 05 4c b5 fe f0 99 37
       -2.4401757e-05 -0.2256233 -7.600436e-07 1.8351242e-05
0002a0 6e a5 2d b8 d6 0b 67 be 5f e3 8e 37 2c b0 a5 37
       -4.1400483e-05 -0.22563109 1.7033597e-05 1.975157e-05
0002b0 ab 0d 67 be 88 18 e8 b7 ba ec af b7 c9 09 67 be
       -0.22563808 -2.7667978e-05 -2.097186e-05 -0.22562326
0002c0 e4 56 d1 37 31 0b 67 be 13 fa 50 b8 7c 6b df b6
       2.4955203e-05 -0.22562863 -4.9823964e-05 -6.6584307e-06
0002d0 dc 7f 1b 37 23 9f ae 37 54 33 25 b7 87 19 67 be
       9.2684895e-06 2.081652e-05 -9.846717e-06 -0.22568332
0002e0 61 ad f2 36 7b 0b 67 be 0a 74 0d 38 05 16 67 3e
       7.232346e-06 -0.22562973 3.372509e-05 0.22566994
0002f0 02 9f 3c b8 fd 04 62 3e ca e6 50 b8 ce c2 3c b8
       -4.497078e-05 0.22072215 -4.9806004e-05 -4.500412e-05
000300 df 84 3a b8 b4 b2 66 b7 46 d0 28 38 dc 8a b2 37
       -4.44696e-05 -1.3750676e-05 4.024829e-05 2.1283915e-05
000310 46 8b b8 37 3c fe 0c b8 80 f0 b2 35 ae f6 1f 38
       2.1999364e-05 -3.3615375e-05 1.3332028e-06 3.8138292e-05
000320 f5 3e ea 37 7c 66 85 37 80 85 61 3e 56 c1 2d 38
       2.792429e-05 1.5902559e-05 0.22023582 4.1426472e-05
000330 e6 ac e4 36 8e 44 9f 37 e7 4a fb 37 60 e5 e4 b7
       6.8150575e-06 1.89862e-05 2.995641e-05 -2.7286529e-05
000340 20 87 2d b6 62 ac 08 b8 f1 e2 66 3e 5d 0d 67 be
       -2.5857662e-06 -3.258547e-05 0.22547509 -0.22563691
000350 c0 50 e6 37 7a bf 03 37 c8 4e 63 3e c4 a5 fc b6
       2.7455739e-05 7.85279e-06 0.22198021 -7.529483e-06
000360 fa 07 31 b7 c8 7c 96 b8 c4 f2 1e 37 a8 20 83 b6
       -1.0551879e-05 -7.1758e-05 9.474057e-06 -3.907906e-06
000370 0e a2 a4 b6 12 b5 b9 37 26 d6 86 37 f3 ed aa 38
       -4.9064465e-06 2.2138036e-05 1.6073765e-05 8.150553e-05
000380 60 cb 24 35 55 00 71 37 1c 2b 61 38 8c 8b 0f 3e
       6.139071e-07 1.4364797e-05 5.368433e-05 0.14018077
000390 42 cb ae b7 c1 7c 4d 3e fd 0d 67 3e 13 aa 11 38
       -2.0837066e-05 0.20067121 0.2256393 3.4729088e-05
0003a0 3d ec c1 37 59 11 67 be 41 aa d4 b7 3a ad 4f b7
       2.31174e-05 -0.22565211 -2.535165e-05 -1.2378494e-05
0003b0 e8 47 3a 38 b6 24 a2 b8 bc ca ee 37 85 e1 d8 b7
       4.4412824e-05 -7.7316e-05 2.8466216e-05 -2.5854222e-05
0003c0 00 64 e9 37 65 05 67 3e 7d 09 67 be 76 33 33 38
       2.782233e-05 0.22560652 -0.22562213 4.2724852e-05
0003d0 af 17 67 be 04 45 7c 37 8e 24 e7 37 56 9f 51 be
       -0.22567628 1.5036439e-05 2.7554368e-05 -0.20470938
0003e0 30 3b 3d 36 94 c3 36 37 35 1e 67 be f4 68 0a b8
       2.8197646e-06 1.0893582e-05 -0.22570117 -3.299951e-05
0003f0 9e 00 67 3e 85 48 8e b7 76 11 67 be 45 99 ea 37
       0.22558829 -1.6961489e-05 -0.22565255 2.7966345e-05

network.0.bias f4 [256]
000000 da 37 8b 3c 35 76 5b 3d 23 aa 46 3d ed 53 90 3d
       0.016994406 0.053579528 0.0485021 0.070472576
000010 b1 ae 04 ba ad 13 f6 3c 59 91 24 3d 40 b3 e6 3c
       -0.00050614314 0.030038679 0.040177677 0.028161645
000020 ac a5 e5 3d 74 8b 43 3c 93 c8 b0 39 56 b9 08 3d
       0.1121324 0.011935104 0.00033718775 0.033379875
000030 ed da 5a 3d 3e e3 ea 3c fb 76 b8 3b a5 94 6d 3d
       0.05343144 0.02867281 0.005629418 0.058003087
000040 7e 9d 97 3d 2e 56 de 3c e3 77 14 3d 24 55 3b 3d
       0.07403086 0.027140703 0.036247145 0.045735493
000050 82 7d 5c 3c 25 b4 20 3d d2 55 99 3d 7b c0 09 3d
       0.013457658 0.0392343 0.07487072 0.03363083
000060 44 55 96 3d 45 8c e1 3c 4b 45 7b 3d 6d 71 d3 3c
       0.07340482 0.027532706 0.06134538 0.025810922
000070 0f d5 82 3c 75 41 ac ba 59 f6 5b 3d 86 13 53 3c
       0.015970735 -0.0013142066 0.053701732 0.012883073
000080 64 ac 76 3d 1d cb 02 3d 71 3c 0b 3d 60 ae 0b 3d
       0.060223 0.031931985 0.03399319 0.034101844
000090 39 ea 28 3d a8 cb 44 3d 37 65 1f 3d 4c e3 9a 3c
       0.041238997 0.048045784 0.038914885 0.018907212
0000a0 05 c0 ee 3a 4d 80 a9 3c 02 e9 40 3d 15 79 8d bc
       0.0018215185 0.020691061 0.047097214 -0.01726965
0000b0 43 6e 22 3d db ac 94 3c 69 b7 70 3c 08 be f4 3c
       0.039655935 0.01814883 0.014692166 0.02987577
0000c0 34 da cc b8 77 91 95 3c b5 2b 78 3d 68 02 ed 3c
       -9.7681215e-05 0.01825784 0.060588557 0.028931811
0000d0 94 2d 16 3b 02 dd 22 3c a2 b6 3d 3b 1d cd 0d bc
       0.002291535 0.009940388 0.002894797 -0.00865486
0000e0 e1 38 b5 3b eb f2 47 3d 9c 0e 57 3a 58 c6 2e ba
       0.005530462 0.04881565 0.0008203776 -0.0006667129
0000f0 9e b8 59 3d c7 88 74 3a 04 8d 96 3d 81 a1 6f 3c
       0.05315458 0.0009328243 0.07351115 0.014625908
000100 bf 92 da b9 0d 9d 29 3d c7 dd 17 3a 34 ca 12 3d
       -0.00041689535 0.04140954 0.000579324 0.035837367
000110 41 1f 8e 3d 32 f8 c6 3c b8 0f 9b 3d 4e 8c f8 3c
       0.06939555 0.02428827 0.075713575 0.03034034
000120 ac af 79 3c 99 8b 06 3c d3 e5 04 3d d4 12 b6 3c
       0.015239637 0.008211994 0.03244574 0.022225775
000130 4a 74 49 3c cf 23 9b 3b aa 79 e3 3c 43 4c ca 3b
       0.012295792 0.0047344933 0.027767975 0.006173642
000140 c2 cd 36 3b 26 88 71 bc dd ac 1d 3d a0 5e 5b 3b
       0.0027893637 -0.014741933 0.038494933 0.003347315
000150 1a 2f 0a 3d 7f 4b 54 3c b0 d4 0c 3c 5b 14 5f 3d
       0.033736326 0.012957453 0.0085956305 0.054462772
000160 82 a8 65 3d 98 4d ea 3c e6 e0 93 3d 8d de 33 3d
       0.056068905 0.028601453 0.0722063 0.043913413
000170 47 13 46 3d ee 40 15 3d 4b b9 ad 3d 1b a0 7d 3c
       0.048358228 0.036438875 0.084826075 0.015480067
000180 c0 18 28 ba ed 55 03 3d 77 30 51 3d f8 93 c0 3c
       -0.00064123794 0.032064367 0.05107161 0.023508057
000190 b6 2c 1f 3d 99 cd 3c 3d c6 e1 57 3c d5 76 ee 3b
       0.038861 0.04609451 0.013176387 0.0072773495
0001a0 44 fd 32 3d b0 64 b8 3d 2c b2 21 3d ce 15 21 3d
       0.043698564 0.090035796 0.03947656 0.039327435
0001b0 41 21 73 3c 77 32 af 3c da d6 a4 3d 11 42 63 3c
       0.014839471 0.021386368 0.08048792 0.013870732
0001c0 ea d4 11 3d a7 e7 af 3c e8 aa 31 3d 8c f6 fc 3b
       0.03560344 0.021472765 0.04337588 0.0077198204
0001d0 0a 8e b0 3c 10 8d ec 3d 2d ea 85 3d c7 ba 68 ba
       0.021552105 0.11550343 0.06538806 -0.00088779296
0001e0 80 03 31 3c 6a 13 03 3d 15 07 0d 3d 10 47 0a 3c
       0.010804057 0.032000937 0.034430582 0.008439794
0001f0 d7 e8 6c 3d bc f8 b1 3d 2d ec 56 3d 2c c9 1a 3d
       0.05783924 0.086900204 0.05247133 0.03778951
000200 43 96 d6 3c d5 e9 19 3d 63 7d 73 3d 99 8f b6 3c
       0.026194697 0.037576515 0.05944575 0.02228527
000210 ae 2d 2c 3d d7 2a 4a 3d 94 fd a9 3d 4c 9f 19 3d
       0.04203575 0.04935726 0.08300319 0.037505433
000220 50 50 c1 3c 49 eb ec 3c fc d0 39 3c 90 da 47 ba
       0.023597866 0.028920786 0.01134133 -0.0007623816
000230 ae 59 31 3d 8f 61 4d 3a 21 84 56 3d f5 ed e9 bb
       0.043298416 0.0007834667 0.0523721 -0.0071389624
000240 3c 8d eb 3c 79 7e 9b 3c 4a c2 20 3d 85 f6 a0 3c
       0.02875387 0.018981205 0.03924779 0.0196488
000250 6f 1b e6 38 9e 9b 48 3d 75 55 4f 3c 3f dd 72 3c
       0.000109723645 0.048976533 0.012654652 0.014823257
000260 86 15 17 3d ee 3f ea 3c 7d 7a 69 3c 6c 3d 46 3d
       0.03688576 0.028594937 0.014250395 0.04839842
000270 5f 11 db 3b 88 b6 1c 3d a6 29 d0 3a 3e b1 ab 3c
       0.0066854204 0.038260013 0.0015881553 0.02095854
000280 8d 22 0b 3b 3b f2 ce b9 22 66 fc 3c 92 eb b9 3c
       0.002123031 -0.00039471858 0.03081042 0.022695336
000290 76 ee ed 3c 53 5a e6 3c 3a 01 07 3d 37 7c dd 3b
       0.029044371 0.028119242 0.032960154 0.0067591923
0002a0 92 95 b9 3c 65 fa 38 3d ff c7 93 3b fb eb 81 3d
       0.022654328 0.04516067 0.0045099254 0.06343838
0002b0 f5 62 51 3d be 1a 63 3b 57 ea 22 3d a8 09 8f 3c
       0.051119763 0.003465339 0.039774265 0.01746066
0002c0 bf 28 39 3d 22 83 9a b9 fd db 8d 3d 19 e2 b9 3c
       0.045204874 -0.0002947087 0.06926725 0.02269082
0002d0 1d a2 a6 3c d9 4a fd 3c 69 d6 88 3d c9 8e e2 3b
       0.020340974 0.03091948 0.066815205 0.006913994
0002e0 bb c4 b5 bb bc 52 14 3d 86 f8 1e 3d 17 74 81 3c
       -0.0055471337 0.036211714 0.03881123 0.015802426
0002f0 e8 8c 5b 3c 62 3a 95 3c 0c d6 18 3c 67 52 de 3c
       0.013400294 0.018216316 0.0093283765 0.027138902
000300 d0 eb 26 ba b6 68 39 3d 62 68 33 3d 14 dc 8d 3d
       -0.0006367536 0.045265876 0.04380072 0.06926742
000310 ee 20 bb 3d bd 79 62 3d c5 37 c1 3c 21 4b 6a 3d
       0.0913714 0.05529188 0.023586163 0.057200555
000320 8b 3b 8a 3c c3 3a f5 3c e5 14 e4 bb 5f 91 93 3d
       0.016874095 0.029935246 -0.0069604986 0.07205462
000330 85 dc 32 3d e4 bf 32 3c 8e d2 97 3d 80 78 0b 3c
       0.043667335 0.010910008 0.07413207 0.008512616
000340 79 08 fa 3c ea f4 28 3d c0 fb 9c 3c cc a8 0c 3d
       0.030521618 0.041249193 0.019163013 0.034340665
000350 3d 4d 64 3d 04 f4 5b 3c b3 93 47 3d b1 fd e5 3c
       0.055737723 0.013424877 0.04872484 0.028075071
000360 93 06 60 3b 56 3a 62 3d 68 d7 88 3d 31 1c 95 3c
       0.0034183606 0.055231415 0.066817105 0.01820192
000370 ef b4 9d ba c6 5a 97 3b 15 a2 8b 3d 84 3c 84 3c
       -0.0012032072 0.0046189753 0.06818024 0.016142137
000380 21 19 d1 3d 6c 1a da 3c 2e 10 4c 3b 22 8a 3f 3d
       0.10209871 0.026623927 0.0031137574 0.046762593
000390 a2 ba 0e 3d 9d 67 68 3d e3 50 82 3c 0c d3 46 3d
       0.034845956 0.05673944 0.01590771 0.048541114
0003a0 b3 9c a7 3c c9 d2 e6 bb 7a 77 45 3d 23 fb c2 3c
       0.020460462 -0.0070441705 0.048209645 0.023801392
0003b0 8b ed 4e 3d ab 16 1d 3d 5b 32 14 3d 2a 80 96 3c
       0.050519507 0.038351696 0.036180835 0.01837166
0003c0 fe 7b 27 bb fc 90 f3 3c 57 6c 24 3d ce 1c c6 3d
       -0.0025556083 0.02973222 0.040142383 0.09673463
0003d0 5d 53 39 3c 7d ac 3b b9 63 f6 1c 3d d1 9b ae 3c
       0.011311379 -0.00017897967 0.03832091 0.021314533
0003e0 f7 56 b7 3c 29 dd a7 3c 18 40 72 3d 63 6d 1e 3d
       0.022380335 0.0204912 0.059143156 0.038678538
0003f0 19 b8 1f 3d 42 94 81 3d 09 c2 1b 3d c2 f1 13 3d
       0.03899393 0.06327106 0.038026843 0.03611923

network.2.weight f4 [192, 256]
000000 08 06 99 3d a5 a3 32 3e f1 9f 9d 3c 5e f5 a8 3a
       0.074718535 0.17445238 0.019241305 0.0012890508
000010 fa 50 49 3e ba 2d db bd f0 16 89 bd 5d f6 1d 3d
       0.19659796 -0.10702081 -0.06693828 0.03856503
000020 83 39 f2 bd 31 6b bc 3d 4a c7 bd bd 56 5f 67 3e
       -0.11827376 0.09200133 -0.09266527 0.22594962
000030 00 2c b4 bd b2 e3 e0 bd 79 e9 0f 3e 67 d2 f2 3d
       -0.08797455 -0.109809294 0.14053907 0.11856537
000040 a2 c3 07 bd 0d 98 00 3a 47 12 cf 3c 18 2f bc bd
       -0.033145554 0.000490547 0.02527727 -0.0918867
000050 0b 8c ee 3c dd d3 0a 3e 13 ba 7d 3d c5 37 51 3c
       0.029119512 0.13557382 0.061945032 0.012769644
000060 95 e0 c5 3a 53 97 a1 bd 7a d1 9d bd 30 7e ef 3d
       0.0015096838 -0.07890191 -0.0770597 0.1169399
000070 69 ea f0 bb 35 72 87 bd f1 17 6f bd 75 fa fd bd
       -0.0073521626 -0.0661358 -0.05837244 -0.124012865
000080 c3 88 03 bc c8 4e 9e 3d 97 05 68 3d 71 59 8f 3d
       -0.008028212 0.0772987 0.056645956 0.069994815
000090 2e c6 66 bc 94 bf c4 bd d4 9c b5 bd 8f d9 8c bd
       -0.014085336 -0.09606853 -0.08867803 -0.068774335
0000a0 35 02 b9 3b 48 46 ff bd a5 41 8b 3d 6d 5a d5 ba
       0.005646015 -0.12464577 0.0679963 -0.0016277559
0000b0 b2 5b f2 bc af 7d 32 bd 24 80 7d 3e aa 26 08 bc
       -0.02958474 -0.043576892 0.24755913 -0.0083099995
0000c0 b2 f1 8e 3d ab 9c 1e 3e a3 ec 1a bb 43 98 ce 3d
       0.069796935 0.15489452 -0.0023639582 0.10087635
0000d0 a5 76 50 bc 15 aa 98 bd d2 af 62 3d 9a d7 b3 bd
       -0.0127236 -0.074543156 0.055343457 -0.08781357
0000e0 35 4b ad bd ad f5 c3 bd 34 a5 1d 3e 27 29 4b 3b
       -0.0846161 -0.09568343 0.15395051 0.003099987
0000f0 6e ce ac 3d 3d e3 2a 3d cb 6b 57 3d 6e 45 da bc
       0.08437811 0.041720618 0.052593034 -0.026644435
000100 86 0c af bd 8f f1 ea 3d 6f b5 1f 3e 10 1e ce 3b
       -0.085473105 0.11471855 0.15596555 0.006290205
000110 93 6c 06 bd f4 e1 ab 3c 00 b3 a1 bd 35 d1 6f bc
       -0.03281839 0.020981766 -0.0789547 -0.014637281
000120 90 f9 9d bc 2c 09 87 3d 10 d7 5e 3d df eb e4 3d
       -0.01928404 0.06593546 0.05440432 0.11177801
000130 70 3d 49 bd ae 64 04 3d f2 8c 67 bd c2 fd 61 3d
       -0.049130857 0.032322578 -0.0565309 0.055173643
000140 d1 1b 02 3d ce 46 ad 3d 63 77 02 3e 41 03 0c 3d
       0.03176481 0.084607705 0.12740855 0.03418279
000150 9d b4 63 3d c6 2d 11 3d 1a 85 25 bb 35 95 39 3e
       0.055592168 0.035444044 -0.0025256337 0.18123324
000160 53 3e 82 3d 5c 7a 11 3d 16 a6 ba 3d 35 40 9a bb
       0.06359544 0.03551708 0.0911371 -0.004707361
000170 54 2d f2 3a 8a 12 d8 3d 80 e1 18 3d 05 c8 0e 3e
       0.0018476644 0.10550411 0.03732443 0.13943489
000180 9f ed 95 bc d4 c2 be 3c 65 e4 d7 bb 0d 24 72 3d
       -0.018301783 0.02328626 -0.006588506 0.059116412
000190 7b a8 aa 3d 75 ab aa 3d a5 2f e4 3a c7 04 cd 3d
       0.08332916 0.08333484 0.0017409219 0.10010677
0001a0 a7 06 e8 bd 3e 2b 7e bc 36 65 bf 3d 5e 7e de 3c
       -0.11329394 -0.015513239 0.09345476 0.027159866
0001b0 01 5b 67 3d 9a 4f 71 3c 25 58 95 3d 75 b1 c8 3d
       0.056483272 0.014728451 0.07292203 0.09799472
0001c0 ee 6a 89 3d dc 41 c4 bc b1 99 e3 bc 5a ed 1f 3d
       0.06709848 -0.023957185 -0.027783247 0.039044715
0001d0 86 6e ed bd 58 62 93 3d 32 87 b5 3d a8 38 9f 3d
       -0.11593346 0.07196492 0.08863677 0.07774478
0001e0 36 78 87 3d 39 13 37 3d 33 8b 84 bc da de da 3d
       0.06614725 0.044696067 -0.016179657 0.10687037
0001f0 03 32 b3 3c e4 7b 41 be aa 74 96 3d 0a 6b 6f bb
       0.021874433 -0.18894917 0.07346471 -0.0036532306
000200 ae 5b 27 3b 41 d8 4e bd 9d 5b ed 3d e5 4e 00 be
       0.0025536823 -0.050499205 0.115897395 -0.12530096
000210 d1 e6 05 be d3 8e 52 3d 47 0d 07 be 18 9d 48 bd
       -0.1307633 0.05140574 -0.13188659 -0.04897794
000220 32 ba 5c 3d 57 3e 35 3e 35 6e 8d 3d 63 c5 d6 bc
       0.053888507 0.17699562 0.06905786 -0.026217168
000230 9e 68 e4 3a f5 f0 d9 bc 19 9d df 3d b8 06 ad bc
       0.0017426198 -0.026604155 0.10918636 -0.021121368
000240 97 c9 a1 3d 09 b5 0b bc 77 eb 90 3d c7 fc 48 bc
       0.07899778 -0.008527049 0.07076161 -0.012267298
000250 5a dd 5e bd 5d a4 4e 3d 1b 1b ec 3d 0f 84 69 3d
       -0.054410316 0.050449718 0.115286075 0.057010707
000260 2f 3e f9 bc fa 9a da 3d 7c db 21 be 9a c2 3a bd
       -0.03042516 0.10674091 -0.15806383 -0.045595743
000270 cf 20 37 bc 68 d3 cb bc e4 d4 79 3d b7 ad 90 3d
       -0.011177256 -0.02488108 0.060994044 0.070643835
000280 46 42 8a 3b 77 66 eb 3d cc db 9f 3c b6 84 b7 bd
       0.004219326 0.11494153 0.019513987 -0.089608595
000290 96 9d f5 bd 73 cb c9 3d 29 f9 a1 b9 6a 5f 2e 3e
       -0.11992948 0.09853258 -0.00030893952 0.17028585
0002a0 c2 29 c4 bc 5d a8 3d bd 21 d5 4a 3d 42 32 c1 3c
       -0.023945693 -0.04630314 0.04951966 0.023583535
0002b0 25 73 80 3d ac 0c 1b 3e 7e 6c d9 3d 1f 46 b4 3d
       0.06271962 0.15141553 0.10616396 0.08802437
0002c0 2e 13 d5 bc 0c a3 06 3e fe 0e 3e bd 27 42 4c bd
       -0.026010122 0.13148135 -0.046401016 -0.049867775
0002d0 3a 83 bc 3c cf 72 ba bd 53 a4 fd bd de 2c 89 3d
       0.023011792 -0.09103929 -0.12384858 0.06698011
0002e0 d1 17 71 3e 9c 8a d4 3a d3 f6 89 3d 4f 79 ab bd
       0.23544241 0.0016215625 0.06736531 -0.08372747
0002f0 fc ab b9 3d c1 44 f3 3d 96 ac 83 3d df b6 df 3d
       0.090660065 0.11878348 0.064294025 0.10923552
000300 20 19 ea bd 05 6d d6 bd 1e ba 09 3d 67 d3 9e 3d
       -0.114305735 -0.104700126 0.03362476 0.077551655
000310 6e 7b 14 bc c1 a6 fd bc c6 df a7 bb b4 c2 f0 3d
       -0.009062631 -0.030963304 -0.0051231114 0.11755887
000320 2b 00 22 3e 8c fd da bb e2 b2 ef ba ec 9f a7 bc
       0.15820377 -0.006683057 -0.0018287564 -0.020461999
000330 7b ce de ba ec 31 8b 3d c3 52 5d 3d b4 97 91 3d
       -0.0016998792 0.06796631 0.054034006 0.07109013
000340 3f 8e 8e bd 77 2c 91 3c 30 1b 33 3d 67 b3 71 3c
       -0.06960725 0.017721398 0.0437271 0.0147522455
000350 59 66 11 be e8 43 14 3e 86 02 8b bd bd 20 8e bc
       -0.14199199 0.14479029 -0.06787591 -0.017349595
000360 ca 29 d2 bb 12 7d 37 be 7e 9d 82 bd 31 1c 13 bc
       -0.006413673 -0.17918804 -0.063776955 -0.008978889
000370 ff 43 c9 3d 06 45 14 bc 0d d4 09 3d bd d9 02 3e
       0.09827422 -0.00904966 0.033649493 0.12778373
000380 d3 56 dc bd 5e cd 08 be c3 18 b2 bb ae 09 7d 3d
       -0.10758748 -0.13359591 -0.0054350807 0.06177681
000390 d1 69 85 3d f4 5f a4 3d ec 34 d2 bc 3a c0 fa bc
       0.065143235 0.08026114 -0.02566 -0.030609239
0003a0 af 25 c7 3d 23 c2 ba 3d 44 7b 5d 3d 26 e1 e6 3d
       0.097239845 0.0911906 0.054072633 0.112734124
0003b0 ce 9f 59 3d 49 6b b4 bb 95 57 62 bc 33 24 d7 3d
       0.053130917 -0.0055059534 -0.0138148265 0.10504951
0003c0 09 b9 fb 3c 81 46 16 be 7d 40 e0 bc 12 85 1f 3d
       0.03072788 -0.14675333 -0.0273745 0.038945265
0003d0 b2 2d 5f bb 7a cf 7f bb d5 8e 0e bd 9d bc 61 3d
       -0.0034054336 -0.0039033578 -0.034804184 0.055111516
0003e0 79 2c 16 be 29 6d 42 bd 86 1f 69 3d 4b 5e b9 3d
       -0.14665402 -0.047467384 0.05691483 0.09051188
0003f0 55 50 ba 3b 44 74 e9 3c 65 e2 00 be 8b ab 0e bd
       0.005685846 0.028497823 -0.12586363 -0.034831565

network.2.bias f4 [192]
000000 b7 6f 9a 3c d7 92 06 3d f9 ed a0 3b f1 1e 46 bb
       0.018852098 0.03285488 0.004911181 -0.0030230845
000010 95 62 6b 3c ba 21 81 3c d9 0d f5 3c 60 87 2b 3d
       0.0143667655 0.015763152 0.02991383 0.04187715
000020 3a 91 10 3c a7 14 94 3c b9 80 9f 3c 5b aa d7 3c
       0.008823687 0.018076254 0.01947056 0.026326349
000030 91 e1 7d bb fb 8f 97 3c 36 55 71 3c b2 71 bb 3c
       -0.0038739184 0.018501272 0.0147297885 0.022881363
000040 fa 05 f9 3c 5f 53 96 3b 26 e8 0c 3d 73 0d a3 3c
       0.030398358 0.0045875753 0.03440108 0.019903874
000050 11 3d 05 3d 67 1b 7f bc 63 b4 94 3c 0b 9d 48 3c
       0.03252894 -0.015570498 0.018152421 0.012244473
000060 f9 46 e0 3c 17 34 21 3c 27 2c a9 3b fa 18 23 3d
       0.027377592 0.009839079 0.005162734 0.03981874
000070 c1 15 d4 3c 4b 2f cb 3c db 55 03 3d a4 c7 e6 3c
       0.02588928 0.024802824 0.0320643 0.028171368
000080 f2 99 cc 3c c7 01 32 3c af b6 78 3c 4e cb 79 3c
       0.02497575 0.010864682 0.015180274 0.0152462255
000090 74 17 d1 38 0a dd 7b 3c c5 2e 77 3b a2 60 f0 3c
       9.970265e-05 0.015372524 0.0037717086 0.029342953
0000a0 41 08 58 3b 1d 8e 89 3c 86 2d 94 3b 5a 81 0e 3d
       0.0032963904 0.016791398 0.0045220284 0.034791328
0000b0 f4 e9 ec 3c 36 6a a9 3c 39 ad d7 3c 1c 93 0f 3d
       0.028920151 0.020680528 0.026327716 0.035052404
0000c0 02 ca 91 3c 9f c7 a0 3b 3e 88 a0 3c 36 a8 4d 3d
       0.01779652 0.004906609 0.019596215 0.050209247
0000d0 2d 7f 54 3b 88 24 31 3b 66 6f d2 3c 01 2b 1c bc
       0.0032424435 0.002702983 0.025687885 -0.009531737
0000e0 82 a3 d2 3c b8 e9 2e 3d ef 1c 86 3b 1f 8d 10 3c
       0.025712732 0.04270336 0.0040928046 0.008822708
0000f0 79 cb 0c bc c8 fe 80 3b e7 17 b4 3c 47 6a 3c 3c
       -0.008593434 0.0039366223 0.021984054 0.011499948
000100 d0 67 c6 3c f3 cf 8c 3b d1 17 52 3c 6a f6 e4 3c
       0.024219424 0.0042972504 0.012823061 0.02794953
000110 fb 69 ae 3c fc 6c 60 3c 6f c6 a6 bb f6 13 1d bb
       0.02129077 0.013697859 -0.005089573 -0.0023968196
000120 29 1d 86 bb 07 d8 35 3b 62 01 4e 3d ff 56 18 3d
       -0.0040928316 0.002774717 0.050294288 0.03719234
000130 03 bd cb bb 5c 9c a3 3b 6c 88 6a 3b f0 c6 06 3c
       -0.0062176003 0.0049930047 0.003578688 0.008226141
000140 59 6f 01 3c db 8f 81 3c a9 a4 c6 3c 9c 45 00 3d
       0.0079000825 0.015815666 0.024248438 0.031316385
000150 24 38 fb 3c c7 26 01 bb 61 b7 15 3c b2 e9 8b 3c
       0.030666418 -0.001970695 0.009137959 0.017079208
000160 38 b0 c4 3c 9a 0e 05 3c 9e 3b 68 3d 6c 25 d4 3c
       0.024009809 0.008121157 0.05669748 0.02589675
000170 45 10 4b 3c 65 02 6e bc 83 60 7c 3a e0 cc f9 3c
       0.012394016 -0.014526938 0.00096274185 0.0304932
000180 90 dd 3a 3d ed a6 b8 3c 94 7c 06 3d b4 1a 16 3b
       0.045621455 0.022540534 0.03283365 0.00229041
000190 52 68 28 3d 78 17 cd 3c 68 1c 36 3d 92 6f fa 3c
       0.041115113 0.025035605 0.044460684 0.030570779
0001a0 15 e5 3e 3d 69 61 03 3c 81 eb 4a bb 03 58 99 3c
       0.04660519 0.00801883 -0.0030963125 0.018718725
0001b0 ca 5c c7 3c 10 c4 16 3d 26 9c 20 3d 92 37 2f ba
       0.024336237 0.036808074 0.039211415 -0.0006684001
0001c0 b4 26 01 3d bb f6 dd 3b 73 c5 b6 3c 78 d6 4e 3c
       0.03153105 0.0067737973 0.022310948 0.0126243755
0001d0 68 e6 cf 3c 51 46 ff 3c 59 6a 11 3c 05 2a 10 bb
       0.025378421 0.03116146 0.008875453 -0.0021997702
0001e0 eb b0 01 3d b7 7c c4 3c 90 1d 50 3d 20 83 95 3c
       0.031662863 0.02398525 0.050809443 0.018251002
0001f0 55 e8 3e 3c 7e cf 13 3d 06 a9 6f 3c d4 2b 5b 3c
       0.011652072 0.03608655 0.014627701 0.013377149
000200 d7 b8 fc 3b bb 21 4b 39 79 f2 d5 3c ac dc 1c 3d
       0.0077124643 0.00019372154 0.026116597 0.038296387
000210 95 a3 08 3c 07 1c c2 3c 53 e6 2a 3d c2 d4 c5 3c
       0.008339782 0.023695005 0.04172356 0.024149302
000220 ed 72 b5 3c d2 ab 62 bc d6 1b bf 3b 74 8e ae 3b
       0.022149527 -0.0138349105 0.0058321757 0.0053270403
000230 8c 32 02 3d 73 24 24 ba 25 d8 3f 3d f9 3a f0 3c
       0.031786487 -0.0006261535 0.04683699 0.029324995
000240 74 53 fa 3c 37 2b 76 3b d9 44 c2 3c 2d 1c 3d 3c
       0.030557372 0.003756238 0.02371447 0.011542362
000250 e1 98 0f 3d 40 01 3c ba 24 a9 ec bb 56 23 82 3c
       0.035057906 -0.0007171817 -0.0072223116 0.01588599
000260 cc 97 9b 3c 72 c6 77 3a 70 74 6c 3c 38 92 af 3c
       0.01899328 0.0009451873 0.014432058 0.021432027
000270 09 9b 0b 3d c4 af cc 3c 14 71 1e 3d 84 7f af 3c
       0.0340834 0.024986155 0.03868206 0.021423109
000280 11 46 98 3b 0c 9c ef 3c 69 e3 3b bc 6a 1d f4 3c
       0.0046470244 0.029249214 -0.011467793 0.029799182
000290 a2 60 91 3c 29 60 0f 3d f9 83 7a 3c f0 a5 7a 3d
       0.017746273 0.035003815 0.015290254 0.061193407
0002a0 fd 3d b3 3b f5 75 8c 3c 3b 64 94 bb 13 ab 3d 3d
       0.005470036 0.01714609 -0.00452855 0.046305727
0002b0 9c a5 3b 3d fb 88 e7 3c c2 cb 3e 3d 75 9f 59 3c
       0.045812234 0.02826356 0.046581037 0.013282646
0002c0 59 c4 c7 3c 6b c7 74 3d 1c 7a af 3c ef 2f 5f 3c
       0.024385618 0.059760492 0.021420531 0.013622268
0002d0 32 c5 a4 bb 00 41 b4 3c 94 49 ac 3c 1f 0e 0b 3d
       -0.0050283903 0.02200365 0.021031179 0.033949014
0002e0 37 2d 88 3d e9 6c 7e 3c 13 bb 86 3c 08 50 32 3d
       0.06649249 0.015528896 0.016446626 0.043533355
0002f0 4f d6 12 3c de 17 86 3c 0f 8b c8 3c 7f 43 d1 3c
       0.008962228 0.016368803 0.02448037 0.02554488

network.4.weight f4 [128, 192]
000000 db 59 b4 bd e0 48 8a 3d c7 c8 9b 3b f5 4b a0 bb
       -0.08806201 0.06752181 0.004754159 -0.0048918673
000010 3f 3e ec ba b7 b0 f1 3c ef c3 2a bd ed 5d be 3d
       -0.0018023922 0.02950321 -0.041690763 0.09295259
000020 a9 0a 25 be 7e 8c f3 bd 8f 88 0f be 6a 29 66 3d
       -0.16117348 -0.11892031 -0.14016937 0.05619184
000030 3b b1 8a 3d 5c f3 20 be cc 60 e3 3d a3 ba 11 bd
       0.06772085 -0.15717834 0.11102447 -0.03557838
000040 b4 a4 a6 3d 3a c3 48 bc 78 67 36 39 84 63 0c bd
       0.081368834 -0.012253577 0.00017395418 -0.034274593
000050 a7 7b 93 3d 9a 1f 0e 3e c5 1a 41 bd c8 a1 6b 3d
       0.07201319 0.13879243 -0.04714467 0.057527333
000060 b1 d8 9c 3d de e0 1c 3c 8a 33 28 3d 2d 74 aa bd
       0.07658518 0.009575097 0.041064776 -0.0832294
000070 a1 70 15 3c a2 4a 08 3d 68 88 64 bd de 02 40 3d
       0.009121091 0.0332743 -0.05579415 0.046877734
000080 9f 60 a8 bd 00 2e 40 bb 18 2d 5e bd f2 74 84 3d
       -0.08221554 -0.0029324293 -0.054242224 0.06467618
000090 f6 fc 5c be 77 ca f2 3c f0 05 a9 bd a9 26 75 3c
       -0.21580872 0.029637558 -0.082530856 0.014962831
0000a0 ef d1 2c 3d 2f c6 34 3d ea da 93 3d a2 50 2e 3d
       0.042192396 0.044134315 0.07219489 0.042557366
0000b0 e5 c9 56 bd d6 57 d3 3b 3c 0c 34 3d 91 27 31 3d
       -0.052438635 0.00644968 0.04395698 0.043250624
0000c0 42 d6 b1 bc 50 9c 26 be db 55 df bd 73 af 13 3d
       -0.021708611 -0.16270566 -0.109050475 0.036055993
0000d0 45 29 6f 3e 1a 99 97 bd 2e 77 bf 3d b7 04 13 3e
       0.23355587 -0.07402249 0.093489036 0.14357267
0000e0 74 fe 65 3b 17 72 b0 bd bb ea f2 3c ce 1b ef 3c
       0.0035094293 -0.08615511 0.029652944 0.029188063
0000f0 e9 37 43 bd 69 18 6c bd aa 62 bd bd 25 b4 31 3e
       -0.047660742 -0.057640467 -0.09247334 0.17353876
000100 a4 60 ff 3d ef 05 c5 bd fc 21 35 3d 59 73 8e bd
       0.124696046 -0.09620272 0.044221863 -0.069555946
000110 19 b3 b6 3d 38 a3 95 bd 34 46 14 be 78 d6 36 bd
       0.08920879 -0.07306522 -0.14479905 -0.044638127
000120 88 0b b0 bc 83 02 a4 3c 43 ec 9e bd 21 ea bf bc
       -0.021489874 0.020020729 -0.07759907 -0.023427071
000130 f1 27 98 3d ad c9 13 bd 6b 07 99 bd 4a d3 e8 bd
       0.07429493 -0.036081005 -0.07472118 -0.11368425
000140 d5 ed 70 bc 09 91 0b bd 3f f8 52 bd b0 37 ec bc
       -0.014705141 -0.034073863 -0.051506277 -0.028835148
000150 2f 3c fd 3a c3 2d 0e 3d 07 9c 99 bd 25 a7 82 bd
       0.0019320304 0.03471161 -0.07500463 -0.063795365
000160 d7 c0 11 be a7 92 05 3e be 6c 84 3d 1d c2 a3 bc
       -0.14233719 0.13044225 0.064660534 -0.019990021
000170 43 f5 79 bd f1 de c2 3c 8a ac 93 3c 7e 8c 5d 3d
       -0.061024915 0.023787947 0.018026609 0.054089062
000180 8d e6 ec 3c 7b 0c ed bc fd fd ca bd ea a7 fe 3d
       0.028918529 -0.028936615 -0.09911726 0.12434371
000190 38 cd 80 3d a2 49 8e bc ac db 32 3d 42 7d 45 3d
       0.06289142 -0.017369095 0.043666527 0.04821516
0001a0 db 2b 82 3c f2 cc e1 3d dc d3 a5 bd 36 f3 14 3c
       0.015890053 0.11025418 -0.080970496 0.009091189
0001b0 84 38 d5 3b a5 82 bb 3d 2c a6 7d bd af e0 5b 3d
       0.0065069813 0.09155778 -0.061926052 0.05368107
0001c0 8e a2 a1 bc 4e 1d e6 3b b4 49 e2 3c e3 62 79 3d
       -0.019730832 0.0070225364 0.027623035 0.06088532
0001d0 dc e4 5c 3d 40 71 cc 3d 18 03 c6 bc 5f dd 23 3e
       0.053929195 0.09982538 -0.024171397 0.16002415
0001e0 15 cc 9e 3d 2b ca a3 bd f9 5d f9 3b fe bf a4 bd
       0.07753769 -0.07997545 0.0076100794 -0.08044432
0001f0 5f 91 01 3d 56 16 73 bd 60 cb ab 3c 14 36 0c be
       0.031632777 -0.059347473 0.020971 -0.13692504
000200 04 df 6f bc 0b 4f 73 bd 38 d9 17 be 45 bd 8a bd
       -0.014640573 -0.059401553 -0.14828956 -0.067743815
000210 05 d9 16 bc 3c c9 2e bd 87 18 22 be b2 2e 10 3e
       -0.009207015 -0.04267238 -0.15829669 0.14080313
000220 03 b7 32 3d 56 eb af 3d 36 fe 59 3c 0b f6 16 3d
       0.043631565 0.08589809 0.0133052375 0.03685574
000230 f3 a1 41 3d f9 01 82 bd 67 31 2e bc 7f 1a 7e 3d
       0.047273587 -0.063480325 -0.010631896 0.062036987
000240 1b 6c fc 3d c4 a7 64 bd 51 57 eb 3c 54 51 56 3d
       0.12325307 -0.055824056 0.02872816 0.052323654
000250 9e 00 4b 3d 68 24 87 3e 9f 86 e6 bc d5 0f a1 bd
       0.049561135 0.26394963 -0.028140364 -0.07864348
000260 ab d3 65 be 99 33 a5 3d dd ba 17 bc 51 de 3c bc
       -0.22444026 0.08066482 -0.00926086 -0.011527614
000270 8f fc c8 bd ff 0b 97 3d fe eb f7 3c 86 12 82 bd
       -0.09813797 0.07375335 0.030263897 -0.06351189
000280 6e 6a bb bc 68 94 9f 3d 02 28 33 bd 2b ac 21 3d
       -0.022877898 0.07791978 -0.043739326 0.039470833
000290 63 a2 8e 3d 54 ac f0 3d 77 c6 1f 3e bf 4a 1f bd
       0.069645666 0.11751619 0.15603052 -0.038889643
0002a0 a2 a1 2c be ad 4e 28 3e a2 05 c7 bd 1b aa 27 3e
       -0.16858533 0.16436262 -0.09717871 0.16373484
0002b0 df 7b 14 3c 0e e0 33 bc 46 63 67 be ba 47 18 3d
       0.009062736 -0.010978712 -0.22596464 0.03717778
0002c0 c1 1f 09 bc e6 70 2c bd b7 a6 86 3c 45 48 e4 bc
       -0.008369387 -0.042099856 0.016436918 -0.027866492
0002d0 88 80 fa 3d f9 47 00 be e6 a8 5f bc 94 ed 47 3c
       0.12231547 -0.12527455 -0.013651108 0.012202639
0002e0 23 fb 37 3d 2c d4 7c 3d ee d5 5e be de 83 b4 bd
       0.044917237 0.06172578 -0.21761295 -0.08814214
0002f0 24 01 3b bd 30 0d fd 3d 5f 27 dd 3d 06 2c cb bd
       -0.045655385 0.12356031 0.10798525 -0.09920506
000300 38 ec ca bd 10 3c 63 3e 25 57 ba bc e6 c2 d5 bd
       -0.099083364 0.22190881 -0.022746632 -0.104375646
000310 1b cb e4 bc 62 02 9a bd 15 99 36 3d 00 c2 cb 3c
       -0.02792888 -0.07519986 0.044579584 0.02487278
000320 60 54 11 3d db 6e fe 3d be b4 90 3d 8b a1 16 be
       0.035480857 0.12423488 0.07065724 -0.14710061
000330 86 ac 00 3e 32 36 ee 3c 4b 89 6b bd 8f 29 5c 3d
       0.12565812 0.029078577 -0.05750398 0.05375057
000340 27 59 6b 3c 80 c6 08 3e e7 f6 60 3d 03 54 9f bc
       0.014364517 0.13356972 0.054922964 -0.01944924
000350 f4 99 1c bb e8 af 32 be 6b 50 f3 3d 8e 46 26 3e
       -0.0023895474 -0.17449915 0.11880573 0.16237852
000360 29 aa 9e be 66 a4 2c be 6c 79 81 bc 6d c9 a9 3d
       -0.30989197 -0.16859588 -0.015804969 0.08290372
000370 fb b5 99 bc c4 74 90 bc bb 65 1b bd be 41 27 3d
       -0.018763533 -0.017633803 -0.037938815 0.04083418
000380 6a a6 df 3c 0d 17 17 bd c8 83 3c bd 7e b5 b3 3d
       0.027301032 -0.036887217 -0.046024114 0.08774851
000390 e7 be b4 3c 23 fc df 3c e2 83 9b 3d c5 cb 55 3e
       0.022063686 0.027341908 0.07593514 0.20878513
0003a0 a0 db 8d 3d 1a 13 39 be b8 ea 69 be 59 4f 4d 3e
       0.06926656 -0.18073693 -0.22843444 0.200498
0003b0 db c9 67 bd 87 99 9c 3d 14 2d d9 bc 28 93 03 3e
       -0.05658899 0.076464705 -0.026510753 0.12849104
0003c0 e7 51 bf 3d 67 2a 97 3d ef d7 2e bd 81 6c f7 3c
       0.093417935 0.073811345 -0.0426864 0.030203106
0003d0 57 56 be 3d cf 39 84 bc 84 16 2d bd c9 36 04 3e
       0.09293812 -0.016140847 -0.0422578 0.12911524
0003e0 58 87 b0 bc 1b 99 d2 bd cc 16 73 bc d7 18 2f be
       -0.021548912 -0.10283109 -0.014836978 -0.1709932
0003f0 7f d7 bb 3c 20 55 14 bd d2 9f 6f 3e ea 43 86 3e
       0.022929905 -0.036213994 0.2340081 0.2622369

network.4.bias f4 [128]
000000 56 30 36 bc c2 16 d2 3c fe 8e 91 bc 10 eb 0c 3d
       -0.011119923 0.025645617 -0.01776838 0.03440386
000010 74 4d 10 3d a7 71 37 3a 70 cf 2e bc 21 8b f5 3c
       0.035230115 0.00069978315 -0.010669574 0.029973568
000020 58 31 6f 3c 5b fc 93 3c b7 aa 37 3d c6 ae 75 bb
       0.014599167 0.018064668 0.04484054 -0.0037488206
000030 2c 2f b9 3c ca 66 ea ba 54 26 00 ba 6b b7 e3 3b
       0.022605501 -0.0017883417 -0.0004888524 0.0069493554
000040 13 43 61 3c b9 37 85 3c 33 67 55 3c ee 74 b3 3c
       0.013748902 0.016261922 0.013025093 0.021906342
000050 c3 27 80 3c b3 87 00 3c 88 09 8f ba ed 73 b6 3b
       0.01564396 0.007844853 -0.0010912875 0.0055680186
000060 80 c4 f2 3c 57 19 03 bc b4 52 23 3d a5 fa 5e 3c
       0.029634714 -0.008001647 0.039873794 0.013609563
000070 9f e6 46 3d af 20 bb 3c 2b e0 82 3c f6 e3 64 bb
       0.04855978 0.022842733 0.015976032 -0.0034925914
000080 9a 63 fe 3c 01 b8 12 3d 8c 9f d6 3c 5f b6 ac 3b
       0.031053353 0.03582001 0.026199125 0.0052707638
000090 cd 6a 04 3d 8c 63 dd 3c ef 5c ed bb 74 a2 86 3b
       0.032328416 0.027025007 -0.0072437446 0.0041087214
0000a0 5e de 03 3d e5 e4 e0 3b 48 a1 3d 3c 11 10 a4 3c
       0.032194488 0.006863224 0.011574097 0.020027192
0000b0 d2 61 42 3c a9 3e 43 3c d5 80 c6 bb 8e 13 24 3c
       0.0118641425 0.011916795 -0.0060578384 0.010014428
0000c0 37 44 07 3b 62 74 23 ba a0 2a e7 3c 10 06 e0 bb
       0.0020640024 -0.0006235299 0.028218567 -0.00683666
0000d0 53 bf d0 bb 81 72 91 3c 1e cf a3 3c bc e5 3f bc
       -0.006370464 0.017754795 0.019996222 -0.011712488
0000e0 45 eb 19 bc 35 4f 19 3d 1d 80 c1 3c 74 3e a1 3c
       -0.0093944715 0.037429053 0.02362066 0.0196831
0000f0 23 62 1b 3d 44 6d 07 3c 90 fe b3 3b a5 af bd bb
       0.037935387 0.008265797 0.0054929927 -0.0057887607
000100 a3 09 65 bb 09 8a b6 3c b9 55 dc 3b 13 d2 2a bc
       -0.003494837 0.022282617 0.006724086 -0.010426062
000110 31 64 0c 3b d5 1d ee bb db d3 a2 3c 79 17 3a 3c
       0.0021422023 -0.00726674 0.019876411 0.011358135
000120 1e 19 8f 3c f6 a9 7c 3b 6c 2d cc ba c7 93 b1 3c
       0.017468031 0.0038553453 -0.0015577502 0.021676911
000130 1d ba 17 3d 1a 95 96 3c da 32 2d 3a c1 0e 5d 3c
       0.037042726 0.018381644 0.0006607004 0.013492287
000140 40 0d c9 3c d1 c4 ca ba 3d 95 6a 3c 51 3a ed 3b
       0.02454245 -0.0015470033 0.014317808 0.007239618
000150 9e 40 33 bb f5 ad af 3c 0e c6 11 3d b7 a3 a5 3b
       -0.0027351747 0.021445254 0.03558927 0.0050549167
000160 92 62 bb 3c 61 82 bf 3c 46 cb 29 3c 06 4e 00 3d
       0.02287415 0.0233776 0.010363406 0.03132441
000170 21 53 f5 3c c3 d7 a3 3c 6b 5f 01 3c 5a f3 2e 3d
       0.029946866 0.020000344 0.007896285 0.042712547
000180 0a e4 18 3c 01 a9 68 3c 45 0f 30 3d dd 11 06 3b
       0.0093317125 0.01420045 0.042983312 0.0020457425
000190 56 65 28 bc e1 9d b0 3c e7 7d 69 bb 14 16 f1 3b
       -0.010278067 0.021559658 -0.0035628022 0.0073573682
0001a0 d5 79 22 3c ff 5a 94 3c 09 0f 31 bb 63 f0 71 3c
       0.009916742 0.018109797 -0.0027017018 0.014766785
0001b0 f9 6d 5e bc b1 f9 86 3a 8b f7 25 bc c9 26 bf 3b
       -0.013576024 0.0010297803 -0.01012982 0.005833481
0001c0 e0 7e b8 3c 91 bb 46 bb c1 22 4e 3c cc 74 53 39
       0.022521436 -0.00303242 0.012581528 0.00020166038
0001d0 8d 7d d3 3b 92 63 5b ba d0 88 cd 3c 6c e3 2a bc
       0.006454176 -0.0008369024 0.025089651 -0.010430198
0001e0 c1 ea a5 3c 47 d5 c9 3b c0 24 e5 3c 67 de 6d bc
       0.020253541 0.006159458 0.027971625 -0.014518357
0001f0 c9 34 a8 3c 63 e6 d1 3c 98 e5 66 3c 57 7a 39 3c
       0.020532982 0.025622552 0.014092825 0.011320672

network.6.weight f4 [39, 128]
000000 9f d2 67 3d 12 0a d9 ba c5 b0 99 bd 41 f9 b0 bd
       0.05659735 -0.0016558787 -0.07504419 -0.086412914
000010 e7 9b 40 bc a9 e9 20 be a0 ac 4c b6 f1 2d fb 3c
       -0.01175592 -0.15714134 -3.049885e-06 0.030661555
000020 57 e3 b5 3d 61 ff 7c bc 6a 59 8e be ea bb b0 bc
       0.08881252 -0.015441746 -0.27802593 -0.02157398
000030 40 68 85 be ad 7c de bd 3d 15 6a 3d 7c 68 85 be
       -0.260561 -0.10863624 0.05714916 -0.26056278
000040 11 82 b5 3c f4 8d e3 bd e0 94 fe b4 cd f2 8b bd
       0.022156747 -0.1111106 -4.7419508e-07 -0.0683342
000050 74 09 c2 bc 8e b1 b4 35 53 81 85 3e 0d 30 3b be
       -0.023686148 1.346272e-06 0.2607523 -0.18280049
000060 e0 5a 4c bc 2c bf 96 37 41 77 4b bd 22 b9 2a bd
       -0.012472838 1.7970415e-05 -0.049674276 -0.041680463
000070 63 ea b5 bd 55 e1 27 be fd fc 85 be fc 45 86 be
       -0.08882596 -0.16394551 -0.26169577 -0.2622527
000080 a7 b0 68 be fd 26 57 be 06 3f b6 37 81 da 62 be
       -0.22723638 -0.21010967 2.1725438e-05 -0.22153665
000090 62 12 ad be c3 41 12 b7 8d b4 d8 b5 21 e9 85 be
       -0.33803087 -8.7175895e-06 -1.6145801e-06 -0.26154426
0000a0 4e cf 85 be 2e db a1 bb 7a 88 6d bd 54 d6 85 be
       -0.26134723 -0.0049394583 -0.057991482 -0.26140082
0000b0 28 1c 71 be 4c 13 0d 37 18 8e 85 3e cd 01 b4 bd
       -0.23545897 8.408748e-06 0.2608497 -0.08789406
0000c0 e1 24 85 be 98 a2 4e b7 77 05 c3 bd 10 93 71 36
       -0.260047 -1.2316414e-05 -0.09522527 3.59974e-06
0000d0 86 b7 85 be e6 f7 11 bd 77 10 85 be cf 36 c3 bc
       -0.2611658 -0.035636805 -0.25989124 -0.023829846
0000e0 ef db 43 bd 87 33 8d be 24 6e 13 be 09 05 bf bd
       -0.047817167 -0.27578375 -0.14397484 -0.09327132
0000f0 84 0b 9d be 32 fa 73 37 41 70 74 3d 2b c5 85 be
       -0.30672848 1.4542182e-05 0.059677366 -0.2612699
000100 61 86 e8 bd 4c 9b 85 be 8b 91 d3 bc f9 fa 6c bc
       -0.11353756 -0.26095045 -0.025826236 -0.014464133
000110 18 21 b7 bd be 80 f2 35 6c 49 85 be 92 53 91 b7
       -0.08941859 1.8067874e-06 -0.2603258 -1.7324262e-05
000120 15 36 82 b8 c5 29 5b bd b7 0f 07 be 7b 6d 12 bc
       -6.2089566e-05 -0.05350663 -0.13189588 -0.008937235
000130 82 9f f8 be 13 c7 85 be 1b a6 36 bb da 88 85 3e
       -0.48559195 -0.26128444 -0.0027870003 0.26080972
000140 67 e5 85 be 9e 47 98 be f6 fa 83 be 94 3d 73 36
       -0.26151583 -0.2974214 -0.25777406 3.6245665e-06
000150 44 d7 21 b7 03 f5 b8 b8 01 e8 7d be 62 cb a9 bd
       -9.646468e-06 -8.819441e-05 -0.24795534 -0.08290745
000160 34 50 f1 3d b5 df 7c be 6e e7 8d 35 37 2c 9e bd
       0.11782876 -0.24694712 1.0572674e-06 -0.07723277
000170 08 62 28 bd d5 1c 96 3d 4a 75 81 b5 6d ad 81 bd
       -0.041109115 0.07329718 -9.645385e-07 -0.063319065
000180 38 a0 4e 3d e5 23 d6 bd 07 6b 3a 3c 5e f1 69 be
       0.050445765 -0.10456065 0.011378056 -0.2284598
000190 8a c0 e1 bd 66 87 8f be af 49 c5 bd 09 de 91 3d
       -0.11023052 -0.28032988 -0.09633195 0.07122428
0001a0 06 cd 3a 3e 7d 02 a0 bd 22 2a 86 be a0 7b f4 3c
       0.18242273 -0.078129746 -0.2620402 0.029844105
0001b0 62 50 bb bd d2 6d 98 be b1 0c 86 be 08 76 a4 be
       -0.09146191 -0.29771286 -0.26181558 -0.321213
0001c0 0f e5 5d be 0e 50 54 38 b4 b3 4d 36 56 24 74 37
       -0.2166941 5.0619296e-05 3.0651981e-06 1.4551993e-05
0001d0 2b 6b 75 b7 71 3e 85 be c0 e7 92 b6 a2 82 3c be
       -1.462809e-05 -0.26024202 -4.3781183e-06 -0.18409207
0001e0 3b e3 85 be 0f 36 22 be 84 e9 a1 b6 02 43 12 ba
       -0.26149926 -0.15840934 -4.8253587e-06 -0.0005579443
0001f0 a0 a3 c2 bc 2e 7e 09 3d 4e 03 91 37 3d dc b4 bd
       -0.023759663 0.0335676 1.7286886e-05 -0.088310696
000200 8f e9 53 be 0b 49 1b 3e 16 20 13 bd c2 89 3f 3d
       -0.20694564 0.15164582 -0.03591927 0.046762235
000210 fd b0 e8 bc 36 ca d9 bd a4 d3 2e bd 3c aa 06 3e
       -0.028404707 -0.10634272 -0.042682305 0.13150877
000220 9d d1 16 3e 5d 31 85 3d ac 1b 30 3d 69 c3 48 3e
       0.14728399 0.06503556 0.04299514 0.19605793
000230 bf 73 87 be 8b ac 30 3d d8 91 82 3c 40 9b 68 3d
       -0.26455495 0.0431333 0.015938684 0.056788683
000240 70 02 81 be 0d 47 b4 bd 92 a0 05 3e 9e c1 86 3d
       -0.25197172 -0.08802614 0.13049534 0.06579898
000250 00 90 d2 3d 02 41 b5 36 f4 ac 7f bd f4 ed bc 3c
       0.10281372 5.4017883e-06 -0.0624208 0.023062684
000260 3d 33 16 bd 48 a0 5c 34 40 4d 99 bd 88 42 bc bc
       -0.03666996 2.0547407e-07 -0.074854374 -0.022980943
000270 e0 1c 3e 3e 2c 23 0c bd b4 50 9c bd a8 86 f6 bd
       0.18565702 -0.03421323 -0.076325804 -0.120374024
000280 87 33 da bd f6 54 31 bd 9b b0 a0 bd 8a aa 96 3c
       -0.10654359 -0.043293916 -0.07846185 0.018391866
000290 74 77 ff 3d 68 0d d3 bd 54 fc d5 bc 60 33 8e be
       0.12473956 -0.103052914 -0.026121296 -0.2777357
0002a0 0f 9e ad be e7 87 a7 3c ab 28 64 3e 5e 87 80 3d
       -0.33909652 0.020450545 0.22281139 0.06275819
0002b0 5e 4e a1 3d f3 a6 31 3e 80 e6 83 3e ba 2e 16 3e
       0.078762755 0.17348842 0.25761795 0.14666262
0002c0 f2 fc 8a 3e fb a6 83 b9 e1 c4 fe bd 77 5b fd bc
       0.27146107 -0.00025110677 -0.124398954 -0.030927403
0002d0 06 a5 3f 3d 6a 97 b0 3c d3 b9 b8 be 97 a8 9a bc
       0.046788238 0.021556575 -0.36079273 -0.018879218
0002e0 c4 78 a9 3d 06 0d a1 bd 8b 6b b9 3d 11 89 91 3c
       0.08274987 -0.07863812 0.09053715 0.017765554
0002f0 8c 95 5f 3e 8c 98 13 bd 8c 33 96 3c a3 21 0c be
       0.21834391 -0.036034152 0.018335126 -0.13684706
000300 6a f3 03 be cb 0d 4a be 61 92 d7 3c d0 6d 44 be
       -0.12885824 -0.19731824 0.026314916 -0.19182515
000310 66 df 25 bd 4b 09 a0 3b 97 be ad 3d 2e e1 85 bc
       -0.040496252 0.0048839203 0.08483618 -0.016342726
000320 7e 17 89 ba 39 7d 25 3e 01 fb 76 bd f9 3e 1e 3d
       -0.0010459272 0.1616105 -0.06029797 0.038634274
000330 6d fa e7 3d 86 e1 0b bd b5 e0 d1 3d 95 5f 7e bc
       0.11327062 -0.034150623 0.102479376 -0.015525718
000340 f9 4b 0e be 8b 04 6c bd fd 24 a3 bc 45 30 87 be
       -0.13896169 -0.05762152 -0.019915098 -0.26404014
000350 86 d7 cd bc d8 e1 a4 3c b2 07 03 3d 20 80 5d 3b
       -0.025127184 0.020127222 0.03198976 0.0033798292
000360 41 c2 62 be be 5e 10 3e 6a fe ad be 30 64 38 3e
       -0.22144414 0.14098641 -0.33983165 0.18006968
000370 2f 91 3d 3d 39 32 3e be 56 57 4d be bb 33 1b 3e
       0.046281036 -0.18573846 -0.20052847 0.15156452
000380 67 91 63 3e b2 22 98 3c f7 a6 2f bd 7a ad f0 bd
       0.22223435 0.018571232 -0.04288384 -0.11751838
000390 9e 69 5e 3c 03 aa 8d 3d af 1b 6f 3d b8 22 b8 3d
       0.013574986 0.06917193 0.05837601 0.08990997
0003a0 89 ba 9d bd bc a7 58 3d 26 91 3c bd 54 bf a5 be
       -0.077015944 0.05289434 -0.04603686 -0.32372534
0003b0 d5 22 c7 3c a6 b7 a4 bd fa 58 7f bb 0f 27 7e bd
       0.024308601 -0.08042841 -0.0038962946 -0.062048968
0003c0 38 50 66 3e 77 f1 30 3c 05 3c 67 3a f2 b6 5c 3e
       0.22491539 0.010799757 0.0008820894 0.21554163
0003d0 93 35 01 be 08 fe 85 3e 02 2e 48 3d b4 1a 12 be
       -0.12618093 0.26170373 0.048872 -0.14267999
0003e0 ce 96 38 bc 7f 3d c5 3d 32 17 a8 3b fd 31 c1 bd
       -0.011266423 0.0963087 0.005129718 -0.09433363
0003f0 18 06 50 3d f8 b1 07 3d 28 b4 2c bc bf 61 2d be
       0.05078706 0.03312871 -0.0105409995 -0.16931818

network.6.bias f4 [39]
000000 4b 9d 01 bd 90 c1 7f 3c e6 9a df 3c 94 c1 f1 3b
       -0.031644147 0.015610114 0.027295541 0.0073778126
000010 05 0e 03 bd ca 86 a7 bb 62 bf a2 3c 7a 7f 5a bc
       -0.031995792 -0.0051125037 0.019866649 -0.013336057
000020 2c be 58 3c 98 31 15 bd 2b 3c 2a bd 45 52 9a bc
       0.013228934 -0.03642425 -0.041561287 -0.018838057
000030 07 66 dc 38 f0 99 22 bc df f3 74 3c b4 99 a8 3c
       0.000105094216 -0.009924397 0.0149507215 0.020581104
000040 d9 ce 6f 3b 25 fc 1e bb 18 b4 a2 3b 26 7e f0 3b
       0.0036591797 -0.0024259177 0.0049653165 0.007339257
000050 35 cb 32 bc c1 aa 81 bc 87 8b 07 3c f9 34 b2 3c
       -0.010912706 -0.015828492 0.008273012 0.021753775
000060 82 fd 0b bd f6 48 e8 3c 5a 6c 16 bd aa ef 7f 3b
       -0.03417731 0.028355103 -0.036724426 0.0039052763
000070 71 46 3a 3a b0 49 f6 3c 7c 30 89 3c 35 31 07 bc
       0.00071058335 0.030064434 0.016746752 -0.008251478
000080 37 e7 8f bb 77 11 ad bb f8 c2 1c bc 98 18 07 bd
       -0.0043915766 -0.005281623 -0.009567969 -0.03298244
000090 77 1b 25 bd 4e ba 0b bd 94 36 1a bd
       -0.040309396 -0.03411322 -0.037649706
