Homework/HW2/results/baseline_lr001.pt (torch, 584573 bytes, 8 tensors)

network.0.weight f4 [256, 256]
00000000: 7b23 b83d 37f9 bd3d a556 d83d adcd e8bc
00000010: 0de0 cdbc b454 06be 6cb2 f1bd f393 273d
00000020: 3a0b 8bbd 09d7 aabc fef6 21bc 11ba a6bc
00000030: cbbf 5bbc 8a31 eaba 8368 e83d dd12 89bd
00000040: 47eb 4dbe 0634 99bd 57d2 8f3d 194a 5bbd
00000050: d453 b73c 5f39 6f3d 4701 7c3c 646a a4bc
00000060: ff49 56bd 9890 a5bd 5e49 cd3c 9dbc 3fbd
00000070: 8bac 0abd 9e58 e83c 723e 8dbd f325 cebd
00000080: abfb 803c b234 6c3d 6ca4 ea3d e794 623d
00000090: e9e0 863d 0934 853d c811 fabd d6cb 05ba
000000a0: 75e1 053e ee0d 293d 717f 41bd 70f7 f03c
000000b0: c6c9 6bb8 91a1 b0bd ca1c 39be fa80 043e
000000c0: c0f4 c53c c0f3 7a3d 411b 893d 463f fcbc
000000d0: 4089 9ebd e722 86bd c129 07bd 9901 a23c
000000e0: 6c12 03bd 9755 4a3d d8cd 0ebc fa25 a9bd
000000f0: 0b16 07be 4149 923d e2d2 b5bd 2f2f a6bd
00000100: 1e44 59bd e9a8 713d 2a16 58bd fc1e f4bc
00000110: e880 063e ea64 253c 84be 333d 7e41 693d
00000120: 4865 abbd e4b5 ad3d 2812 a13d d9c2 2b3e
00000130: aeba 24bc 9a10 febb ff21 a43c a88e 843d
00000140: 2242 343d 5e0d 35bd d88d 2e3d 1696 fdbc
00000150: bb65 ca3d 8523 c5bd 378a c63d de04 3f3b
00000160: 0726 88bd 929d 083b f47b 283d 471b 16bd
00000170: 1e67 983d 462e 9abd e0f3 243d 460f 02be
00000180: 58c2 c63d 0e44 fa3c 79f7 763d 79e3 22be
00000190: 71c8 283d 6970 a1bc 3d46 42bd 8b6c 423d
000001a0: a1b4 243d 35c1 12be 2cec f23c 54a6 11bc
000001b0: 62d7 833d d483 6e3c 2d5d 833d 11dc ab3d
000001c0: aaa8 6a3d f0fa 0cbd 43ae b3bd f209 2ebc
000001d0: 1e5d 6ebd b2a8 bfbd cda5 ecbd 2b7e dfbd
000001e0: 403e 1ab7 d840 843b 09f4 03bc 2aa5 913d
000001f0: b793 07bd 0958 fc3d 6c02 5dbd 3344 35bc
00000200: 49ec 85be 88f9 0ab9 2009 c3b5 b755 cd37
00000210: d46c d737 60e9 853e 1ad5 853e 842c 8d37
00000220: 0869 08b9 e28b 12b8 1220 b8b8 f8e6 17b8
00000230: 40db d7b6 0e6e 51b8 91eb 853e b0f6 85be
00000240: 7aea 85be 10e9 bfb7 b4d3 5138 6800 3d37
00000250: bfb1 0139 286b 0f39 ca07 0b39 82d5 853e
00000260: 7dd5 853e 8486 af37 7685 d538 f02f 9736
00000270: 6489 08b8 369d 6238 1e36 08b9 b7c1 e937
00000280: c68f 0a39 a5f3 853e 99f0 853e 60e2 853e
00000290: fc7e b8b8 a8da a8b7 8159 beb8 f6b6 d938
000002a0: bcca 1239 bae0 853e c04d cc38 cd1d 36b9
000002b0: bc2f 0eb9 d3ed 96b7 00ea 32b7 623d 2b39
000002c0: f495 8d38 8c84 49b8 c6f7 8a38 09d8 83b8
000002d0: 55fa 6b3e 02af c738 79e9 853e 3ae4 8d38
000002e0: 08cb 4eb6 a2fd d5b8 adc8 853e 58fb b638
000002f0: 68f1 853e 942b c438 1c70 c038 2683 99b7
00000300: 5acd b0b9 a01a 8638 4dea 853e bddc 853e
00000310: 7ce8 85be 807a b438 8ee0 c6b8 3071 2a38
00000320: 8bef 853e 2a22 7839 e3e7 c2b8 6327 b3b8
00000330: d67c 05b9 f6df 853e 856d 60b9 a0ec 853e
00000340: 22f0 57b9 bf1c 4339 6060 01b5 e43e 0cb9
00000350: 263e 30b8 f860 1439 57cb 85be 4cdf c0b8
00000360: 86e9 853e 5109 ffb7 9075 dbb7 73c3 85be
00000370: 9662 92b8 e520 3ab8 bad9 853e 67aa f3b8
00000380: 08dc 85be 33b7 0039 2a1b 62b8 69e6 06b9
00000390: 56e1 0939 503a d0b8 02f5 853e 43ae a1b8
000003a0: b211 76b8 2e49 4a38 30e9 85be 9018 b636
000003b0: d848 eb37 abdb 85be 21e6 85be c081 c3b8
000003c0: 57d4 85be eafc 8638 4739 5bb9 35dd 85be
000003d0: 6784 11b9 08ea efb8 d154 0639 76fe 85be
000003e0: 20e0 b5b5 6dde 85be d964 f0b7 3671 a2b8
000003f0: c6f5 dd38 a002 82b8 6893 c738 be75 0639
0.08991142 0.092760496 0.10563401 -0.028418386 -0.02513125 -0.13118249 -0.118016094 0.04091258
-0.06789251 -0.02085449 -0.009885548 -0.020352395 -0.013412426 -0.0017867547 0.11348059 -0.06693051
-0.20109282 -0.07480626 0.07022541 -0.053537462 0.02237884 0.058404323 0.015381164 -0.020070262
-0.052316662 -0.0808422 0.025059398 -0.046810735 -0.033855956 0.028362568 -0.06896676 -0.10065832
0.015745005 0.05766744 0.11457142 0.055317786 0.06585867 0.065040655 -0.12210423 -0.0005103921
0.13074286 0.04127305 -0.04724068 0.029414862 -5.6216282e-05 -0.08624566 -0.18077388 0.12939826
0.024164557 0.061267614 0.066946514 -0.03079189 -0.07741022 -0.06549626 -0.032998804 0.019776152
-0.03199999 0.04939803 -0.008716069 -0.082591966 -0.13192002 0.07142878 -0.08878113 -0.08114468
-0.053043477 0.058998976 -0.052755512 -0.02979993 0.13135111 0.010094861 0.04388286 0.056947224
-0.08368927 0.084819585 0.07864791 0.16773547 -0.0100542735 -0.007753444 0.020035742 0.06472522
0.04400838 -0.0442022 0.04261574 -0.030955356 0.09882685 -0.096259154 0.09694331 0.0029147188
-0.06647878 0.0020845872 0.041133836 -0.036647107 0.07441543 -0.07528357 0.04027164 -0.12701139
0.09705037 0.03055003 0.060294602 -0.15907086 0.04120678 -0.019706922 -0.047430266 0.047466796
0.040211324 -0.14331515 0.029653631 -0.008889753 0.064375654 0.014557797 0.06414256 0.08391584
0.057289757 -0.034419 -0.08773472 -0.010622488 -0.058194272 -0.09358348 -0.115550615 -0.109127365
-9.193609e-06 0.0040360503 -0.008053788 0.07111581 -0.033099856 0.12321479 -0.053957388 -0.011063623
-0.26156834 -0.00013253663 -1.4531288e-06 2.4477818e-05 2.5680674e-05 0.26154613 0.26139146 1.6829239e-05
-0.00013009098 -3.493939e-05 -8.779777e-05 -3.6216312e-05 -6.4330234e-06 -4.993198e-05 0.26156285 -0.2616477
-0.26155454 -2.2877502e-05 5.0026647e-05 1.1265372e-05 0.00012368614 0.00013677462 0.00013258975 0.26139456
0.2613944 2.0924264e-05 0.000101814905 4.5057313e-06 -3.255288e-05 5.4029013e-05 -0.00012990131 2.786597e-05
0.00013214265 0.2616245 0.26160124 0.26149273 -8.7974564e-05 -2.012898e-05 -9.0765774e-05 0.000103814455
0.0001399917 0.26148015 9.74196e-05 -0.00017367974 -0.00013559958 -1.7992139e-05 -1.0664109e-05 0.00016330698
6.751335e-05 -4.804558e-05 6.626504e-05 -6.2868065e-05 0.23044713 9.521657e-05 0.26154688 6.7659144e-05
-3.0814572e-06 -0.00010203874 0.26129666 8.725253e-05 0.2616074 9.354125e-05 9.1761554e-05 -1.8300092e-05
-0.00033722335 6.394577e-05 0.2615532 0.26144972 -0.26153934 8.605886e-05 -9.483202e-05 4.0636573e-05
0.2615932 0.0002366385 -9.293833e-05 -8.5427215e-05 -0.00012730373 0.2614743 -0.00021403104 0.26157093
-0.00020593454 0.00018607358 -4.819649e-07 -0.00013374869 -4.201955e-05 0.00014150504 -0.26131698 -9.196866e-05
0.26154727 -3.0402707e-05 -2.6161579e-05 -0.26125678 -6.9801856e-05 -4.437649e-05 0.26142675 -0.00011618883
-0.26144433 0.00012275278 -5.3907897e-05 -0.0001286507 0.00013149282 -9.9290744e-05 0.2616349 -7.709537e-05
-5.866745e-05 4.8228707e-05 -0.2615447 5.426882e-06 2.8048104e-05 -0.26144156 -0.26152137 -9.3224924e-05
-0.26138565 6.436727e-05 -0.00020906805 -0.2614533 -0.00013877601 -0.0001144 0.00012810832 -0.261707
-1.355078e-06 -0.2614626 -2.865719e-05 -7.745849e-05 0.0001058388 -6.199372e-05 9.516516e-05 0.00012823098

network.0.bias f4 [256]
00000000: 6e4a 8cbb 8013 de3c 8699 90b9 18e4 55bd
00000010: bce9 a53b e0e1 c33c d019 4a3d e23d c3bc
00000020: 02f5 1b3c b266 efba 7a5c 1abc e7cd 863c
00000030: 7eff af3d 5d8c da3c f7fe 34bb 7ac3 f13c
00000040: 387e bc3c 0b63 0ebd 7e74 363d e4ef 553d
00000050: 6fe8 a83c e385 233d 8c63 85b9 aa96 92bc
00000060: 26d4 b43a bab7 7a3d 8552 38bc ed9f 0c3d
00000070: 3bfa 9b3d 718a c63c 7293 e13c a9b5 1ebd
00000080: 6e42 f33b 777d 3abd ef78 783d 7729 ac3c
00000090: b9c8 1a3d a3b2 2e3d 256e 163d 983e 4b3c
000000a0: e5c9 8b3c 017b 173d fb16 823c ab03 333d
000000b0: 43f2 603c 4d8d 823c d2b6 0b3b 2c9a ef3c
000000c0: 678d 223c 271c 793d 345e f43c 6f46 113d
000000d0: 5e1a cdbc 3590 1b3d a794 793d 992d 493d
000000e0: 43f3 e83c ed78 903c 74e6 583d 1f46 803d
000000f0: 135e 4f3d ab27 de3c 4d5b 343d 47a5 5fbb
00000100: 435b 893d f51d 543d bb8f 823b 49d5 423d
00000110: 0898 db3c 512e 263d a3cd 1dbb dcfb febb
00000120: 37f8 293d daee bf3c 3a37 1c3d 472c d53c
00000130: ad42 cd3c 6e8a 493c 4e4e 323d 17af 1b3d
00000140: cf2d fe3c aef1 af3c bae6 8b3c 86e1 a1bc
00000150: 427a c63c 5da3 633d 0b6e 473d 2973 393d
00000160: 5f93 8a3d c714 f13c f602 0f3d 8eca bfbc
00000170: 85b5 4e3d 3e65 593b 44f7 823c d56a 9b3c
00000180: c9f9 39bc fe00 8b3c d217 873d 1507 ac3c
00000190: 7451 983d 9fdc 893d f590 483d de41 6c3a
000001a0: a26a 603d b98d 263c 7448 bd3c 0135 c33c
000001b0: 47de 803c 5ad4 6d3d f8b9 c63c 875c 2ebc
000001c0: ed9d 223c 7737 ebb9 8ff0 f43c c06c 983c
000001d0: 0b10 843d 5fb7 233d 6dec 523d aaac 39bc
000001e0: 7906 86bb 440b 9d3d 980c 003c fc82 82bc
000001f0: cfaa 593d e1b5 b63c 0339 ae3b e0df c63c
00000200: d1a2 123b 294d 813d 6022 6a3d 0c81 663d
00000210: 904b 53bc 91c3 e33c 9ff2 e23c 5aa2 a1bb
00000220: e660 51bc e378 31bc 13e6 cb3c d88b 873d
00000230: c632 0c3c 649b c4bc 8eab 3e3d 3980 a43c
00000240: 20a8 313d 8f45 f7ba 0c85 6a3d d1f5 103d
00000250: 43df 043d bad5 183c 97b8 143d 0680 243d
00000260: d7d2 0b3c 2629 033d dc07 263d 2f56 d13c
00000270: 2ffb 1e3d fbad f73a 2416 fe3c bcbd 6cbb
00000280: 11d4 1c3c fb76 1e3d cee0 5abc a24f d73c
00000290: ec40 4339 a7f8 813d d95e 2d3c 577c 553d
000002a0: 95e0 8f3c 263d 083d d037 d73c 0176 9e3c
000002b0: 88a6 1a3d ecd5 9c3d 566e a23c 8fef 373d
000002c0: 61c2 363d cd11 4d3c e74b 1e3d 2b02 ac3c
000002d0: 28f2 363d d8ce d93c 17e4 1d3d c02d d23c
000002e0: 406a a63c 47c3 f73c 9132 213d e064 93bb
000002f0: 8cba c1b9 1773 b43b 5f0a 923d 1b9f e53c
00000300: 274a 343d 781a 123d 4caa 9abb ec69 db3b
00000310: d988 573d 7b2c 273d b4b8 5a3d aaa9 343d
00000320: 300c 573d 63eb 0fbb 27b5 e83c 25c3 6a3c
00000330: 8879 383d 6d82 df3b 53dc 8b3b 6987 9e3c
00000340: e380 053d 7632 303c 2421 913d 0c78 093d
00000350: 5019 1abd 81f8 0d3d 3616 683c 78ef 3d3d
00000360: e5e1 633d e36b 003d 257f 233c 9b43 1b3d
00000370: 8c14 b33c 5d74 913c b1f3 553d 3d5f 233d
00000380: dfd8 123d 81dc 763d cce7 4c3d a296 783d
00000390: ee5b 84b8 983a 233d 5007 873d 2ae6 cfbb
000003a0: 6bc9 cd3c 9887 b93c 440d c53c c300 603d
000003b0: 99e8 8e3c a562 3ebc ad71 ad3d e05e ea3c
000003c0: ec91 b43c 9865 b03c b96b 90bb ece6 cf3c
000003d0: 4feb 96bc a24e 2b3c e09c ea3d 6bae c9bc
000003e0: 2632 7439 b734 433d a555 8c3c 0c6d 2bbd
000003f0: c082 b6bb 3f90 00bd dce7 273d 48f7 293c
-0.0042813336 0.027108908 -0.00027580204 -0.05221948 0.0050632637 0.023911417 0.049341023 -0.023833219
0.009518864 -0.0018264859 -0.009421462 0.016455604 0.08593653 0.026678259 -0.0027617791 0.029512156
0.023009405 -0.034762423 0.04454469 0.05223073 0.020618645 0.039922606 -0.00025441905 -0.017894108
0.0013796135 0.06121037 -0.011250143 0.034332205 0.07616087 0.024235936 0.027536128 -0.038747463
0.0074236905 -0.04552981 0.060662206 0.021015866 0.03778908 0.04265083 0.036726136 0.01240506
0.017064044 0.03698254 0.015880099 0.04370467 0.013729635 0.015936518 0.0021318686 0.02924832
0.009921408 0.060817864 0.029830076 0.03546756 -0.025036987 0.037979323 0.06093278 0.04911575
0.028436309 0.017635787 0.052954152 0.062633745 0.050626826 0.027118525 0.044032384 -0.0034125613
0.0670686 0.05178638 0.003984419 0.047566686 0.026805893 0.040571515 -0.0024078868 -0.007781489
0.04149648 0.023429323 0.038138606 0.02602209 0.025056208 0.012301071 0.04353171 0.038008776
0.031027703 0.021477547 0.017077792 -0.019760858 0.024228219 0.055575717 0.04868893 0.04527584
0.0676639 0.029428853 0.034914933 -0.023412015 0.05046608 0.0033171917 0.015987046 0.01897184
-0.011351057 0.016968247 0.0659634 0.02099947 0.07437411 0.06731533 0.048966367 0.00090125005
0.054789193 0.010165625 0.023105837 0.023828985 0.01573099 0.058063842 0.024258599 -0.010642177
0.009925348 -0.00044864017 0.029899864 0.018606544 0.064483725 0.0399698 0.051495004 -0.01133267
-0.004090127 0.07668164 0.007815503 -0.015931599 0.05314141 0.022303523 0.005316855 0.024276674
0.0022374878 0.06313545 0.05716169 0.056275412 -0.0128964335 0.027803214 0.027703581 -0.004932684
-0.01277945 -0.010832044 0.024889981 0.0661847 0.008557027 -0.023999877 0.046550326 0.020080673
0.043373227 -0.0018865335 0.05725579 0.03539068 0.03243948 0.0093283 0.03630885 0.040161155
0.008534155 0.032021664 0.04053484 0.02555379 0.038813766 0.0018896455 0.031016417 -0.0036123833
0.009572045 0.038687687 -0.013359262 0.02628309 0.00018620834 0.06346255 0.0105816955 0.052120533
0.017563144 0.03326144 0.02627173 0.019343378 0.037756473 0.0765799 0.019828003 0.044906195
0.044618968 0.012516451 0.038646605 0.020997128 0.044664532 0.026587889 0.0385476 0.02565658
0.020314336 0.030244483 0.039354865 -0.004498109 -0.00036950817 0.005506884 0.071308844 0.028029969
0.04401603 0.035669774 -0.004720008 0.0066959765 0.052620742 0.040813904 0.053398803 0.044107117
0.052501857 -0.002196037 0.028406693 0.014328753 0.045037776 0.006820968 0.004268208 0.019351678
0.03259362 0.010754218 0.07086399 0.03356175 -0.037621796 0.03466082 0.014165452 0.046370953
0.05563535 0.03135289 0.009979044 0.03790627 0.021860383 0.017755682 0.052234355 0.03988575
0.035851356 0.060268883 0.050025746 0.06069053 -6.311374e-05 0.0398508 0.065931916 -0.0063445764
0.025120458 0.022647664 0.024054177 0.054688226 0.017444896 -0.011620198 0.084689476 0.028609693
0.022042237 0.021532819 -0.004407373 0.025378667 -0.01842275 0.010455759 0.11455703 -0.024619302
0.00023288335 0.047657695 0.017130682 -0.041852042 -0.005569786 -0.031387564 0.040992603 0.010373898

network.2.weight f4 [192, 256]
00000000: 48f8 8fbd 09ea 8bbd a3ae 323e 91f0 ad3c
00000010: 6eef bcbc aa14 063e 5fc6 12bd d301 23bb
00000020: 5d18 123a 1717 723d 0ec6 c9bd 9732 b5bd
00000030: 9b4e a2bd 1faf c2ba 5057 83bc e8bc d33b
00000040: c85e aa3d a83e 91bc d1cc 593e 60a6 56bd
00000050: 8ca7 6cbd 8a89 5cbd d7f4 03bd 3af4 7ebd
00000060: 02be 1a3d c7ba 5cbd c89e 14bb d8fb e2bc
00000070: e253 1abe ca32 9abd 118b c0bc 8ae4 dc3c
00000080: 615c 68bd d4bd 923d 6a0d 893c aae1 e1bc
00000090: 7aba 21bd ab9d 88bd 7280 4fbd 1bfa 173d
000000a0: c230 91bd fe18 fb3c 31a3 b4bc a04c 2c3e
000000b0: dafb e83d ff40 82bd 4f05 c8bd ed0e eb3d
000000c0: b964 c4bd 6f2b d63c 826c f5bc 7d7d 03bc
000000d0: f793 c83d 832f 43bc 270f 87bd 8e7d b6bd
000000e0: 3a13 583d 6094 4f3c 1419 27bd 1721 d43d
000000f0: 4cc4 f83c 7690 ecbc 04e0 babd b5da 73bc
00000100: 4655 30bd 7659 4ebd f0e3 ce3d 0989 483d
00000110: 4a9f 003e 0202 983c 68d9 633d 879a 2dbd
00000120: f80b 85bd f0f2 a4bc 544b 13bd 7345 a13d
00000130: 1022 3a3d fa1b 603a 9398 c43c 4d83 b5bd
00000140: daf6 b0bd 66ef 45bd 9f57 543b d34a 993d
00000150: cedc 1ebe 6285 4e3c 0d8e 843d f12d 05bd
00000160: 94f4 d3bd 29d2 72bc 0d5f 9dbc bc62 90bd
00000170: 8726 30bd 9d7a adbc d989 cbbc 6c33 d93d
00000180: 323a cbbd 66bf 143c 9049 b13d 385c 913b
00000190: 51f5 9d3c a056 0bbd 1d94 073e 29cd 15bd
000001a0: 7aaf cebd 001e b13c a132 e7bc 44ff 7dbc
000001b0: 62a9 60bd 9654 b73c f1be 4f3d 9f25 37bd
000001c0: d5bc 1e3d 689f dcbc 39b8 c43b a9fb fdbd
000001d0: 139d 1abd ea97 ecbd f871 4abe 4e3a 1bbd
000001e0: 0f69 e13d 37e4 643c 2dc7 66be dcba d8bd
000001f0: 456f 38bd 07a9 5bbd 2a86 0abe 24e3 9d3b
00000200: bb89 4b3e 1f6b febd 8f9e 4bbd 32ad 143e
00000210: 3920 95bc 888d 5d3c d859 083c 427c ed3d
00000220: 33b6 803d da26 94bd 55f6 4c3d 0f2a 2cbc
00000230: 0f5b e4bd f5ad 613e 022b a2bd c494 cabc
00000240: 259b 26bd 3ff1 273c 4d81 633c 5995 a93c
00000250: 2ec9 b03d 8cb8 0f3e 529b 113e d8ed fe3c
00000260: f605 c6bc 1df8 4d3d 294d 07bc 3819 8dbc
00000270: 33aa 8dbc 9a21 1a3e 6ee3 c7bd 573c b43d
00000280: 9151 a2bd 3764 4ebc 3cdc 6a3e 886c 4c3d
00000290: 3e19 f03d a373 cb3c ba7f 813b ec39 cc3c
000002a0: 6e3a 823d 3b1d 0e3e 147a 943d 08b4 8dbd
000002b0: 8aa5 b6ba b6e5 36bd 2bd5 3e3d 090c d93c
000002c0: 1e31 6abd 37e6 953c 8df3 d03c f0e7 873d
000002d0: 5ef9 4fbd 9a7e f8bc 0f99 64bd 940d 93bc
000002e0: 85b9 4fbe b506 ce3c a0bc bd3d babf 3b3d
000002f0: 5af5 4cbd e6b4 bd3b 74cb 9b3d 217d 803d
00000300: 8ae4 26bc 85a3 20be 3a4b 6c3d 92da a4bc
00000310: 52d3 a43d c11f 843b f6cd 133d 7961 8c3d
00000320: d756 39be 5baf eb3c 7f77 c63d 0a56 02bc
00000330: 962c d73c 996e 6c3d e25c d43c f6e8 2abb
00000340: c7e8 cabd 5ba8 de3d c4e5 173e 0de1 d83d
00000350: b8a4 01be f646 5d3d 0a6f 923b 61af 22be
00000360: fb57 61bd b732 5dbd d273 65bd bbef d83d
00000370: a9c1 3c3e 3d30 f53d 9a40 26bd f8d8 f5bc
00000380: a9a3 163d 9e8a 46be 950a 5b3d 213b 563d
00000390: 65c0 d33d 1bce 77bd a463 37bd cb2c ccbd
000003a0: 7129 233d 2852 edbd f0c4 be3b f0d7 9d3d
000003b0: 8f6c 083e d3c8 e3bc 9acf 893d 6548 3c3d
000003c0: a201 acbd 37aa 11bc d1a7 85bc 4f81 bfbd
000003d0: 895b 2c3d 2ce4 33be 6fb8 123d c6f7 373e
000003e0: ce62 cb3b 6412 c0bd 2c69 ed3d a025 de3d
000003f0: 3b47 493d f006 e0bc 20a3 c6bd 97fa 19bd
-0.07029778 -0.06831748 0.17449431 0.021232875 -0.023063388 0.1309382 -0.035833713 -0.0024872913
0.00055730884 0.05910405 -0.09852229 -0.0884754 -0.07925149 -0.0014853216 -0.016032845 0.0064617284
0.08318859 -0.017730072 0.21269538 -0.05240476 -0.057776973 -0.053842105 -0.03221592 -0.06224463
0.03777886 -0.053889062 -0.0022677649 -0.02770798 -0.15071061 -0.075292185 -0.023503812 0.026964445
-0.056728724 0.07165113 0.01673003 -0.027573425 -0.03948448 -0.06670698 -0.050659604 0.037103754
-0.07089378 0.030651566 -0.022050472 0.16826105 0.11376162 -0.06360053 -0.097666375 0.11477456
-0.09589524 0.026143758 -0.029958967 -0.008025524 0.09793847 -0.011913183 -0.06594687 -0.089106664
0.05275271 0.012669653 -0.0407954 0.10357874 0.03036704 -0.028877478 -0.09124759 -0.014883687
-0.043050073 -0.050378285 0.101020694 0.048958812 0.12560764 0.018555645 0.055627257 -0.042383697
-0.064964235 -0.020135373 -0.03596051 0.078745745 0.04544264 0.00085490907 0.023998534 -0.08862934
-0.08640833 -0.04832401 0.003240086 0.07484975 -0.15513918 0.012605043 0.064724065 -0.032514516
-0.10349384 -0.014820614 -0.019210363 -0.07050082 -0.043005493 -0.02117663 -0.024846004 0.10605511
-0.09923209 0.009078836 0.08656609 0.004436042 0.019282015 -0.03401816 0.13240094 -0.03657261
-0.10092063 0.02162075 -0.028222384 -0.015502755 -0.054849036 0.0223792 0.050719205 -0.044713613
0.038754303 -0.02693148 0.0060034064 -0.12401516 -0.037747454 -0.11552413 -0.19770038 -0.0378974
0.110063665 0.013970426 -0.22536917 -0.105825156 -0.04502799 -0.053627994 -0.13527742 0.004818337
0.19876759 -0.124227755 -0.04971176 0.14519194 -0.018203842 0.013522513 0.008322202 0.11595966
0.06284752 -0.07233973 0.050039608 -0.010508074 -0.111501805 0.22039016 -0.07918359 -0.02472914
-0.0406753 0.010250389 0.013885808 0.020701097 0.08632122 0.14035243 0.14219406 0.031119272
-0.024172764 0.050285447 -0.0082581425 -0.01722394 -0.017293071 0.1505188 -0.09760176 0.088005714
-0.07925714 -0.012597135 0.22935575 0.04990819 0.117235646 0.024835413 0.003951994 0.024929963
0.06358801 0.13878338 0.07249847 -0.06919104 -0.0013934833 -0.044652663 0.04659001 0.026494997
-0.057175748 0.018298252 0.025506759 0.066360354 -0.050774924 -0.030333806 -0.05581003 -0.01795081
-0.20285614 0.025149683 0.09264493 0.04583714 -0.050038673 0.005789387 0.07607165 0.062738664
-0.010186324 -0.15687378 0.05768893 -0.020123754 0.08048119 0.0040321057 0.03608509 0.06854529
-0.18099533 0.02877014 0.09690761 -0.007955084 0.026266377 0.05772266 0.025923196 -0.0026078797
-0.0990768 0.10871955 0.14833742 0.105898 -0.12660491 0.05402275 0.0044688033 -0.15887214
-0.055015545 -0.054003444 -0.056018658 0.105926 0.1843325 0.11972091 -0.040588953 -0.030010685
0.036777172 -0.19388816 0.05347689 0.052302483 0.10339431 -0.060499292 -0.04477276 -0.09969481
0.039834443 -0.11587936 0.0058218166 0.077072024 0.13322662 -0.027805721 0.0672905 0.04596748
-0.08398749 -0.00889068 -0.016315373 -0.093508355 0.042079482 -0.1756751 0.03582042 0.17965612
0.006206847 -0.09378508 0.115923256 0.1084702 0.049140196 -0.027347058 -0.096990824 -0.037592497

network.2.bias f4 [192]
00000000: 14a1 2b3c 6fe6 3c3d 0dca 223d 4674 903b
00000010: a69c aa3c d394 d53c 8362 0f3d c018 41bc
00000020: dba3 053d 7f2c 173d 2c71 d73c ba41 de3c
00000030: 3905 cfba 457f ba3c 6d9a ad3a c520 9b3c
00000040: 8258 163c 2d47 483d 9063 653d 6bbf a53c
00000050: 6a0d 853c c48c 82bb 535d 113c 561f b93c
00000060: 9729 fc3b 9156 0f3d fc85 a9bc a243 80bc
00000070: 90a4 f6bb 7425 143d 8414 ac3c 7955 a9bb
00000080: 2f7b 093c c7ae 51bc e029 073c f6af 7f3c
00000090: 703f 893c a3b2 e53c 9222 c03c b947 4b3c
000000a0: a7a1 8e3c f29d b33c a25a 243c db0b 8b3c
000000b0: 3a2a 1abc 5594 193d edd9 2d3d 31df c43b
000000c0: 1b60 adbb 3573 613d 4f6f 2c3d 589d 043d
000000d0: a78f e23c 540b 0c3c 340b ddbb 8e35 ba3c
000000e0: 0bc5 a5bc 2a89 603c dc94 0a3c d02a 0cbc
000000f0: 109d 2f3c cbb7 353c 6661 833c 551b e33b
00000100: ab2b 663c edc3 c83c c22d 9d3c eb9d 263a
00000110: 0974 0d3d 5fa6 153d 1523 513c b74e d13c
00000120: bc32 1b3d 0409 8e3c 605d 0b3d ecd0 043d
00000130: 6be2 8b3c 0803 813c 194a 323d f34c 573c
00000140: 7905 023c 75a1 083c 46bb 7a3d 30e0 e13c
00000150: 0ef4 a43c 43bb 003d bf74 203d 0b3f 803c
00000160: f9a2 0e3c 044f 0c3d 4c13 4d3c bfe2 8e3b
00000170: 1029 573c 0b1e f43c 5cac 703c 26a8 433a
00000180: 657a 1e3d ad40 d03c 5f51 3c3d 4d52 fc3c
00000190: 2745 283b 078f 533c 4a9c 353d 2900 bf3b
000001a0: 4af0 4abb 4fcc 8e3c a83d 9e3a 5d8a ba3c
000001b0: 0c2d 70ba f768 de3a 31ff c23c ba8d 143d
000001c0: 9ee2 013b dae9 503c d34d 883c f054 e03c
000001d0: 45dd 123d 5c73 d4ba b4bf ff3c 260d 313c
000001e0: 0658 ab3c 0c5e be3c ccf1 623d b78d 113d
000001f0: 9978 2a3b f3a0 b93c 0a8c ab3c 1e61 63bc
00000200: 236d e23c 52c9 303c 39d9 bf3c cb05 8e3c
00000210: a6bf 6d3c c161 893c 0c31 bebc bab5 6f3c
00000220: 5237 80ba 2c61 df3c e4ab a73c 9062 763b
00000230: 39e6 803c 637a 8b3c 9528 943c 19e7 bf3c
00000240: 015b 303c 0aba 643d 90d6 a03c d2e7 ec3c
00000250: d656 dd3c 13ab 763c 3b5d 5f3c af74 173c
00000260: 2115 443c 4b18 a83c f083 1e3d 7a23 dc3c
00000270: 7665 303b cb84 2b3c 31f4 5c3c 9c46 8d3c
00000280: bb8b d83b ef38 063d cdb4 293c 13cf b63c
00000290: 3552 e13b feec 853c bae8 3d3b 27aa 383d
000002a0: 3fbf a03c 7e60 e03a 0807 743c 575b ea3c
000002b0: e9bb 4c3d f881 a33b f960 fc3b 9ee0 b93c
000002c0: 9e5a 253d 689b 8b3c 5978 e73c 769b a4bc
000002d0: 74f5 c53c 1bed 453c e4f1 8a3c bf8e ce3c
000002e0: a04b d93c c53c 653c 9e68 d13b df57 323b
000002f0: 3686 083d 469f 193b e515 073d 3052 bd3c
0.010475416 0.046118196 0.039743472 0.004408392 0.020826649 0.026071941 0.035006057 -0.011785686
0.032626968 0.03690767 0.026299082 0.02713095 -0.0015794403 0.022765765 0.0013244875 0.018936524
0.009176375 0.048896004 0.056003153 0.020232877 0.016241748 -0.0039840657 0.008872348 0.02259795
0.0076953876 0.034994666 -0.020693772 -0.01565725 -0.0075269416 0.03616853 0.021005876 -0.00516766
0.008391186 -0.012798018 0.00824973 0.015605917 0.016753882 0.028039282 0.023453984 0.012407237
0.017411066 0.0219259 0.010031374 0.016973427 -0.009409482 0.037494976 0.04244416 0.006008052
-0.0052909977 0.05504151 0.04209834 0.032376617 0.02765639 0.008547623 -0.0067457203 0.022730615
-0.020235559 0.013704577 0.008458342 -0.008555129 0.010718599 0.011091183 0.016037654 0.0069307485
0.014048497 0.024507487 0.019186858 0.0006355929 0.034534488 0.036535617 0.012764712 0.02555023
0.03789018 0.017338283 0.034024596 0.032425806 0.017075738 0.015748516 0.043527696 0.013140905
0.007935875 0.008339276 0.061213754 0.027572721 0.020135906 0.031428587 0.039173838 0.015655061
0.008705848 0.034255043 0.012516808 0.0043605263 0.013132349 0.029799482 0.014689531 0.0007463716
0.038690943 0.025421465 0.04597604 0.030800963 0.0025675984 0.012912518 0.044338502 0.0058288765
-0.0030965977 0.017431406 0.0012072818 0.022771055 -0.0009161986 0.0016968538 0.023803325 0.036267973
0.0019818912 0.012751067 0.016638672 0.027384251 0.03585555 -0.0016208696 0.03121934 0.0108063575
0.020915996 0.023238204 0.055406377 0.03553554 0.0026011823 0.022659754 0.0209408 -0.013878135
0.027639931 0.010790186 0.02341901 0.017336747 0.014511025 0.016770246 -0.023216747 0.014630729
-0.0009782112 0.027268015 0.020467706 0.003759537 0.015734779 0.017026132 0.018085757 0.023425626
0.0107638845 0.055841483 0.019633561 0.028919134 0.027018946 0.015055436 0.013633068 0.009244128
0.011967928 0.020519396 0.038700044 0.026872385 0.0026915944 0.010468672 0.013485954 0.017245583
0.006608454 0.03276914 0.010358048 0.022315538 0.006876255 0.016348358 0.0028977827 0.045084145
0.019622443 0.0017118601 0.0148942545 0.028608007 0.049983893 0.0049898587 0.0077019897 0.022690114
0.040369622 0.017041877 0.028255628 -0.02009366 0.024164893 0.012080456 0.016961046 0.025214551
0.026525319 0.013991539 0.006390645 0.002721302 0.03333112 0.0023440882 0.032979865 0.02311048

network.4.weight f4 [128, 192]
00000000: a427 71bd 7058 d2bd bcc2 bebd c963 013d
00000010: f95a 213e 8ce4 593c 7830 aebd 9de8 09be
00000020: c712 45bd 63a3 4a3d 71d6 4c3c 7792 993d
00000030: c999 a9bd 43eb 973d 5493 2b3e 991e fe3d
00000040: baa5 6e3c 6958 863d 4a5e 84bd e445 32be
00000050: 61f3 a8bb 4798 443c 2c7b 25bd fb33 163d
00000060: c4d5 11bd 7bfc 19bd 80c3 f1bd 111c 843d
00000070: 4cf3 21be a559 1bbe 4c8c c03d ebc8 dbbc
00000080: 52dd cf3d bfad 283d 3134 4ebe 56a3 d5bd
00000090: 2158 0ebb 5110 b53b 6d47 873d 9aa1 29be
000000a0: 642c 22be b1b1 d3bd 8c69 a7bc f260 e5bc
000000b0: 37ed 213d d40b 30bc 2024 e73d 8e84 2c3e
000000c0: a671 153e 5a13 85bc 0ee7 b13d 530b e43c
000000d0: 0e03 513d 2c60 87bd 9c74 72bd 0cd2 52bd
000000e0: 898c b1bd eea3 12bd 3b14 163d 164d f2bc
000000f0: eff5 c2bd 63ae d1bc 5e98 6cbd 71af 783d
00000100: 22a3 a13d 6276 13be 4fb2 423d eb10 8cbc
00000110: 877b f43c b5be 9bbd 6a99 01bd 76c3 043e
00000120: be54 e2bd f4eb db3b 68a9 20be 020f 183e
00000130: 4502 89bc 1e96 443c 2a75 263e 62b0 abbc
00000140: 5d44 67bd 886e c23c 317b 053e 2c33 f23c
00000150: 4970 aebd b52c 583c 7999 023d f187 283d
00000160: 05fc c23c b003 5d3d f78e d9bd a279 e33c
00000170: e369 0a3d 0fd4 383e a969 f0bc 77a0 c9bd
00000180: 71b3 dc3d 9e25 923d 2a2e 173e d33f 013d
00000190: effb 00be 03b3 febc 25e3 03be 07ab 04bd
000001a0: 087e 2fbc 3a05 183e cfa3 37bd 5b58 893c
000001b0: d15e abbd 95d4 0ebe 5777 0ebe 5564 40be
000001c0: a316 1ebd a2cf 073d 7d7d e03c 8e70 85bc
000001d0: d3d7 b33c ecf4 cabc ac0a 193d 7786 5bbd
000001e0: defa 22bd 63f8 b33d 3c37 c73c 8b64 a3bb
000001f0: 1b40 58be d5de c1bc 5db3 33be e5ff c238
00000200: f705 07be ee5e 37bd 11e4 5e3d bb3c 823d
00000210: 0f92 ddbd 9475 273d 364d 02bd 108f 803d
00000220: 350e 823e 91c0 aabb c834 b0bd d531 c4bd
00000230: 6712 0c3e 090d 723e c7f5 35be d2dc a13d
00000240: 21b6 0e3d 3ae7 26bd 8fd4 32bd b949 ac3c
00000250: 28b3 2f3c 37ac 40be c3e6 b73d 5e26 9c3e
00000260: e3f0 1abe cc72 533d ce4d a13d 2c35 3e3d
00000270: c10e 983c 78fc e43c cb39 663d 1109 c8bd
00000280: c58f 2c3d f851 073c 789e e5bb 6f91 06bd
00000290: a7d5 6bbe 4601 223d 0ace cdbd 66ce 133c
000002a0: d367 a5bd 03d8 fbbc eac9 5c3d b81f 15be
000002b0: c24d b53d 5f76 f13d 833c ed3d 9bb3 3b3c
000002c0: 7c98 39bc e2ff c3ba 89e9 073e 6030 87b8
000002d0: af44 9f3c ad85 3cbc 03b7 45bd 68d0 83bd
000002e0: 3b6e dabc 76c0 00bb c529 afbb bab2 8ebd
000002f0: c82b 23be 9ddb b7bb 7653 44bd 23c5 d6bc
00000300: a8b7 bfbc 8dc0 253d 7143 c7bd db21 47bd
00000310: 528a 90bd 2076 f23c 1d4a 34be e8e4 7936
00000320: 9c46 003e a55e 8b35 b71e 28bc 0b51 1abb
00000330: 852f 12bd d770 563d 70f8 10be 97c4 963d
00000340: 5292 fcbd 1dae 083e 51ce ea3c 5c9d a6bc
00000350: f797 23be e48a 16be 4a9c 9e3c bb96 033d
00000360: bcb9 bd3c 5df5 2735 e769 06be d28a 6b3d
00000370: 6442 fe38 562c 2f3e 96da d73c 23ad 8f3d
00000380: 2a9c cf3d 0de4 b73c 6e1c c33c 962e ce3d
00000390: 19c7 2e3d 4d4a 37bc 66aa 853d 0499 23bd
000003a0: f25e 093e 805e d23c d01c c63d 3cca 74bd
000003b0: f9fa f43d f534 63bc 0624 b13b db42 68bb
000003c0: e8ce 3bbd 57bc 35be e7f3 c0bd 861b cebd
000003d0: 066d 923d b0a4 16bd 9bff 22bb 4c9f 19be
000003e0: bfb6 b43c 4747 833a 308d eb3c 0dda 443c
000003f0: d3f8 273d 92c5 053c 5a6d f93d 28b8 963d
-0.058875695 -0.10270774 -0.093144864 0.031589303 0.1575736 0.013299119 -0.085053384 -0.13467641
-0.04811361 0.049472224 0.012502299 0.07498639 -0.08281285 0.074179195 0.1675542 0.1240818
0.0145658795 0.06559832 -0.06463297 -0.17409474 -0.005155966 0.011999196 -0.04040067 0.036670666
-0.035604253 -0.0375943 -0.11804867 0.06450666 -0.15815467 -0.15170915 0.094017595 -0.026829204
0.101496354 0.041181322 -0.20137097 -0.104315445 -0.002172001 0.0055256267 0.0660542 -0.16565552
-0.15837246 -0.10336626 -0.02043607 -0.028000329 0.039532866 -0.010745008 0.11286187 0.1684744
0.14594135 -0.01624458 0.08686648 0.027837431 0.051028304 -0.0661014 -0.05919324 -0.051469848
-0.08669383 -0.035800867 0.036640387 -0.029577773 -0.09519564 -0.02559585 -0.057762496 0.06071419
0.07892443 -0.14400628 0.04753333 -0.01709791 0.029844059 -0.07604734 -0.031640448 0.12965187
-0.110513195 0.0067114774 -0.15689623 0.14849475 -0.016724715 0.011998681 0.16255632 -0.02095813
-0.05646168 0.023734346 0.13035275 0.029565416 -0.085175104 0.013194253 0.031884644 0.04114527
0.023801813 0.053958595 -0.106229715 0.02776796 0.033792388 0.18049644 -0.029347258 -0.09845059
0.10776413 0.07136081 0.14763704 0.03155501 -0.12596105 -0.031091219 -0.12879618 -0.032389667
-0.010711201 0.14845744 -0.044833954 0.016765764 -0.08367694 -0.13948281 -0.13912712 -0.18788274
-0.038595807 0.033157 0.027403587 -0.016289022 0.021953499 -0.024774991 0.037363693 -0.053595033
-0.039790027 0.087876104 0.02431833 -0.004986351 -0.21118204 -0.023665825 -0.1754889 9.298305e-05
-0.13185869 -0.044768266 0.05441672 0.0635924 -0.10818874 0.040883616 -0.031811915 0.06277287
0.25401464 -0.005210944 -0.08603817 -0.09579817 0.13678895 0.23637785 -0.17769538 0.07903446
0.03484166 -0.04074786 -0.043659743 0.021031247 0.0107238665 -0.18815695 0.08979561 0.30498022
-0.15130953 0.05162315 0.07876168 0.046437427 0.018561723 0.027952418 0.05620746 -0.09767354
0.042129297 0.008259289 -0.0070074163 -0.03285354 -0.2303072 0.039551996 -0.100490645 0.009021377
-0.080764435 -0.03074265 0.053903498 -0.14562881 0.08852722 0.117901556 0.11583807 0.0114563955
-0.011327859 -0.0014953578 0.1327268 -6.446312e-05 0.01944193 -0.01150648 -0.048270237 -0.06436235
-0.02666389 -0.0019645966 -0.0053455555 -0.06967683 -0.1593467 -0.0056108967 -0.047931157 -0.026217049
-0.023403004 0.040466834 -0.0972966 -0.04861627 -0.070576325 0.029597342 -0.17606397 3.7237132e-06
0.12526935 1.0383852e-06 -0.010261229 -0.002354684 -0.03568985 0.052353706 -0.14157271 0.07361715
-0.12332596 0.13347669 0.028662832 -0.020338707 -0.15975939 -0.1470142 0.019361634 0.03212617
0.023159854 6.25694e-07 -0.13126336 0.057505436 0.0001212403 0.17106757 0.026349347 0.07015445
0.10137208 0.02244761 0.023817267 0.10067479 0.042670343 -0.011187148 0.065266415 -0.03994085
0.13415125 0.025679827 0.09673464 -0.05976318 0.11961932 -0.013867606 0.0054059057 -0.003544024
-0.045851618 -0.17747627 -0.09421521 -0.100638434 0.07149701 -0.036778152 -0.002487159 -0.15002173
0.022059796 0.0010015749 0.028753847 0.012014878 0.04100878 0.00816478 0.1217906 0.07359344

network.4.bias f4 [128]
00000000: 7f9d 8d3c 6d88 d7bc 5690 8c3b 88df 8c3c
00000010: 46e0 3ebc 51ab 14bb 655b 0d3d 47ab 053c
00000020: 7a46 303b a6a5 3d3d c8fa aabc 4f33 82bc
00000030: 5a7c 55bc 3085 8fbc 4b83 9a3c 54c2 203b
00000040: 9ce9 ec3c ec56 65bc 22ed b23c 0129 b63c
00000050: 2976 58bc 4e54 073d ce6e 60bb 8ea9 d93c
00000060: eedc 16bc 3306 a83c 1a99 e43c 0c2f edbb
00000070: d369 ea3c 8ebb adbc 9ae6 e13c 0b38 ab3c
00000080: d6fe c13c aa0c 373c 325f 423c f408 42bc
00000090: 38d5 313c 968d bf3c 9b71 163d 1ee1 fb3c
000000a0: 96da 873c e227 a93c cf37 c93c 7aa7 67bb
000000b0: a469 3d3c 2f19 af3c d68d 833c 6262 993c
000000c0: 8d0c 133d a67d a43c 5d8a a2bb 5869 8dbc
000000d0: d072 1f3d af6c 643c baf7 3fbc 8181 013d
000000e0: 011b 4f3c 9a03 3dbc 23b3 a8bc d1bd e73c
000000f0: 0eed 9fbc dabc aa3c 0ca0 d9ba 22cd debb
00000100: b2d3 303c 8e35 afbb 9e70 0e3c 0a8a a03c
00000110: 68ed 61bc 38e1 033d decc 133d 0490 a03c
00000120: e8b4 96bb f9d7 88bc 1c2b ac3c f8ec 313d
00000130: 4feb 9c3a 121b c03b c144 ba3b ac6e 063d
00000140: 6949 80bc 512c c0bc 1f58 55bc aebb db3c
00000150: 0bf2 22bc de79 11bc 120c fd3b 4d59 27bc
00000160: d1a2 d6ba 5b50 4b3c 72b5 003c b624 10bc
00000170: 0942 443d 09f3 a03c a5f2 3b3c ed2a 703d
00000180: cf8f 9c3a 3c13 1c3d 5b9f 4cbc 4a30 0d3c
00000190: 895b c33c 70d1 233a ce33 aabb 627a 9dbc
000001a0: 7eb7 133d accd 643c 81af 72bc 297d 2a3c
000001b0: a570 83bc 39d2 2e3a ca05 ce3c 3aa5 5b3c
000001c0: 2cb8 ef3b a0e8 303d 6232 d13c 1d23 aa3b
000001d0: 24a8 e4bc 5edd d33c 846c 8abc a766 883b
000001e0: e9af 11bc 701c c83b 8ba6 f23c f77e 8ab9
000001f0: 9cca dd3b aa0f 9abc 0d6d 90bc 0ede c2bc
0.017287014 -0.02631017 0.004289667 0.017196432 -0.011650151 -0.002268512 0.03451099 0.0081585115
0.0026897476 0.046300553 -0.020871535 -0.015893606 -0.013030136 -0.017519563 0.018861433 0.002452989
0.028919987 -0.013997775 0.02184159 0.022236349 -0.013211765 0.033039384 -0.0034245732 0.026570108
-0.009207947 0.020510769 0.027905036 -0.0072382744 0.028614914 -0.021207597 0.02757578 0.020900747
0.023681086 0.011172453 0.011863517 -0.011842955 0.010854058 0.023382943 0.036729436 0.030746993
0.016583722 0.0206489 0.024562744 -0.0035347627 0.011560831 0.021374313 0.016058844 0.01872367
0.03590064 0.020079445 -0.004960342 -0.017262146 0.038927853 0.013941928 -0.011716777 0.031617645
0.012640716 -0.011536503 -0.020593232 0.028288754 -0.019522216 0.020842005 -0.0016603484 -0.006799356
0.01079266 -0.0053469604 0.008693842 0.019597072 -0.013789512 0.032197207 0.03608405 0.019599922
-0.0045992024 -0.016704546 0.02101665 0.04343888 0.0011971983 0.005862602 0.0056844656 0.03282039
-0.015660005 -0.023458632 -0.013021498 0.026822891 -0.009945403 -0.008879153 0.007722386 -0.010214162
-0.0016375427 0.012409295 0.00785576 -0.008797815 0.04791454 0.019647138 0.011471425 0.058634687
0.0011944714 0.03810428 -0.012489165 0.00861747 0.023847358 0.0006249165 -0.005194164 -0.019223396
0.036063664 0.013965052 -0.014812351 0.010405817 -0.016044924 0.0006668899 0.025149245 0.013406092
0.007315656 0.0431906 0.02553672 0.005192174 -0.027912207 0.025862392 -0.016897447 0.0041626277
-0.008892038 0.0061069056 0.02962043 -0.00026416007 0.0067685377 -0.018806297 -0.017630124 -0.023787525

network.6.weight f4 [39, 128]
00000000: 4d63 773e 7b6c 803e ee00 10b9 5682 82be
00000010: 07dd 04b8 0495 83be f25d fdbd 8c04 c438
00000020: db74 34be 2145 5abe 04b7 76b9 18f6 45be
00000030: 8ded 4b3d ab1a 84b7 9961 283d 980d 57be
00000040: df88 65bb f30d 0cb8 85ef 14bd b72a 88be
00000050: 6e62 d2b7 2abf ca3d d54e a0bb 20fe 9ebe
00000060: 8698 81b7 321d 38be e896 73ba b03c 47be
00000070: bc43 0dbe 5e28 13bd 0a84 52be 786d 24be
00000080: 3466 a7bd 8c2f 7fbe e6cf b5bd 8a61 143d
00000090: 8bc9 63be 4d56 8b3d 72e2 abbe e4d7 32bd
000000a0: 0ac4 dbbd 0323 92bb 9d77 80be 11dc 6bbe
000000b0: 5284 6dbc eafd 98bd f1f3 0d3d 2e50 ffbd
000000c0: 18ca a4be 19ce ddbd 5072 2937 b239 7bbe
000000d0: 0e2d 88bd 1f53 7ebe 3efd 3cbe c6f1 4bbe
000000e0: ce59 c5bd 9e2e b3b8 3767 2c3e 3a27 9a3a
000000f0: fad1 87bc 9620 65be a5bd 2fb8 233a 98be
00000100: cffc 6fbd b853 83b9 4da0 40bd c46f 9bbc
00000110: 4d51 5738 f5ef 72be 35fd e8bd bb5b 69bd
00000120: 8f48 83be 17fa f03c 7bc8 14bd a73d adbe
00000130: e4fd 15be 1c25 e4bd 4828 c63c 7cce 9fbe
00000140: 75e8 7d3e 6e4d 08b7 5c17 bd3d c806 59bd
00000150: 638c 8fb6 6c1d 1238 9fa7 b3bd c967 6dbe
00000160: 4275 18be 78fc 16be bbe1 f737 5ed2 793e
00000170: 3aa0 b3bd 3bea 653b 389d efbd 1983 bdbe
00000180: f9f3 3b3e 22e2 49ba d64a bbb8 4370 d0bd
00000190: 162f 81be b223 f0bb 91d2 36b9 d48c 0138
000001a0: b4dc 46be 9440 d1bd 8d3b 77be a4a9 56be
000001b0: 732f 6e37 1d24 84be 84da 1f3d 789f 7cbc
000001c0: 6414 f63c 405c 05be d03c 13be bee0 4ebe
000001d0: f4a9 bb38 f4b3 19be 590c ccbb f4b2 4fbe
000001e0: ae7c 7c3e 99ea 0abe b4f0 41bc 5cfe 34be
000001f0: e081 bfb7 aefc 0337 5425 d33c df1f 7abe
00000200: 08ad 0f3c 8c06 3b3c 2ddf 82be f35c 18bd
00000210: a005 493c bf45 7f3e 6875 0c3d 2a0d c33b
00000220: 3c23 a3bd cecd c3bd 7899 44b7 170b 843d
00000230: 1f12 fabc 9927 263e 61b8 b3bc 3377 433e
00000240: 71ad acbd 74f9 2238 82bd 5bbe 80a0 f9bd
00000250: 2091 9737 f446 c5bd 7411 d3bc 9d31 b3bd
00000260: 50a8 d3bc fbeb a73d 6b26 113d 092e 303d
00000270: 27fb debd a03a ae3d dcfd 65be 4c89 813d
00000280: 0417 3d3e d53f 87bc 73b9 983d 4c62 4a3d
00000290: 04aa 183d ce30 ccbd 2012 453d 5a77 bfbd
000002a0: f860 ed3c c049 0ebe 44e6 84bd fa09 f2bd
000002b0: dcd4 8fbd 6d30 fa3d 7183 7abd 4e4f 333d
000002c0: 8295 5bbd c551 003e a6cd 7638 d5c4 16be
000002d0: 58cc b83b 9936 143e 4fb9 aabc 6f84 053e
000002e0: 6d39 04bc 9b2f 80be c556 74be d9e1 603e
000002f0: b743 85bc 5d53 263e 46b7 4b3c 9154 513b
00000300: d713 0cbe ff69 79be e1ab f8bd 990f 193e
00000310: ded9 c0bc cac1 603c 2f6a 8fbd ce80 54be
00000320: 4dba 893c afdd 723e 7579 303e 7737 273e
00000330: fbd0 6c3d 0801 93bd 3e4c 243e 534d 83be
00000340: 6e3d 30bd dd87 9dbd 6d77 98be 7d27 1d3d
00000350: 9b42 653b 3bfd 1039 3951 d53d 990a 613b
00000360: 3076 b23d c9af 6f3e 53a9 483c 4762 f6bc
00000370: 02e5 b33d 7257 34be 0062 c03d 1194 d9bc
00000380: e93e 223e 40d7 45bd 23cc 41bd fed0 c2bc
00000390: cf7d 013d d9cf 05be 1c5f 67b9 b79e 8f3c
000003a0: 8233 763d 2e86 9d3d 0221 1ab7 6f2b 033d
000003b0: e183 9bbb b09c 7bbd 4a29 4dbe 45ee d33d
000003c0: 8e62 073c 934e d6bc 887a a03e ea7c 6cbd
000003d0: 929c 80be 6a89 01bd 3d0d d23c 70bb aabd
000003e0: 17e9 90bd 6600 9d3d cf56 053d 13fb 2e3e
000003f0: 0ca6 d1bc c139 98bc e37c 17bd c989 82bc
0.24158974 0.25082764 -0.00013733256 -0.25490063 -3.16771e-05 -0.25699627 -0.12371434 9.346855e-05
-0.17622702 -0.21315433 -0.00023528567 -0.19332159 0.049787093 -1.5748044e-05 0.0411087 -0.2100128
-0.0035024208 -3.3391592e-05 -0.036361236 -0.2659509 -2.5079786e-05 0.09899743 -0.00489221 -0.31053257
-1.5449023e-05 -0.17979887 -0.0009292201 -0.19456744 -0.1379537 -0.03592717 -0.20558181 -0.16057384
-0.081737906 -0.24920481 -0.08877544 0.036225833 -0.22244851 0.0680357 -0.33571202 -0.04366292
-0.10730751 -0.00445974 -0.25091258 -0.23033167 -0.01449688 -0.07470305 0.03465647 -0.12466465
-0.32185435 -0.10830326 1.00998e-05 -0.24533728 -0.066492185 -0.24836396 -0.18455979 -0.19916448
-0.096362695 -8.544068e-05 0.16836248 0.0011760958 -0.016579617 -0.22375712 -4.189987e-05 -0.29731855
-0.058590706 -0.00025048642 -0.047027875 -0.018974192 5.133571e-05 -0.23724349 -0.113764204 -0.056972247
-0.25641295 0.029416127 -0.036324006 -0.338361 -0.14647633 -0.111398906 0.02418913 -0.31212223
0.24795707 -8.12426e-06 0.09232971 -0.052984983 -4.2780753e-06 3.4836514e-05 -0.087722056 -0.23184122
-0.1488848 -0.14744747 2.9549808e-05 0.24396655 -0.08770795 0.003508224 -0.11699909 -0.37014082
0.18354787 -0.0007701238 -8.930794e-05 -0.10177662 -0.25231236 -0.007328474 -0.00017435315 3.0887153e-05
-0.19420129 -0.102173954 -0.2414381 -0.2096315 1.4196953e-05 -0.25808802 0.039026752 -0.01541888
0.03003902 -0.13023472 -0.14378667 -0.2020292 8.948511e-05 -0.15010053 -0.006227058 -0.20283109
0.24656937 -0.13566054 -0.011837173 -0.17675155 -2.2829452e-05 7.86704e-06 0.025774635 -0.2442622
0.008769281 0.011415135 -0.25560895 -0.03719802 0.0122694075 0.2492895 0.034291655 0.005952497
-0.07965705 -0.095607385 -1.1718243e-05 0.06447428 -0.030526219 0.16226043 -0.021938505 0.1908844
-0.08431519 3.885613e-05 -0.2145901 -0.12188816 1.8068182e-05 -0.09632674 -0.025765158 -0.08749697
-0.025837094 0.081993066 0.03543703 0.043012653 -0.10887747 0.085072756 -0.22460121 0.063250154
0.18465811 -0.01650993 0.07457247 0.04941015 0.037271515 -0.09970246 0.04811299 -0.093489364
0.028976902 -0.13895321 -0.06489232 -0.11818309 -0.070230216 0.12216268 -0.06116051 0.043776803
-0.05360938 0.12531193 5.8842495e-05 -0.14723523 0.005639594 0.14473952 -0.020840315 0.130388
-0.008070332 -0.2503632 -0.23861225 0.21961154 -0.01626764 0.16242738 0.0124338325 0.0031941275
-0.13679443 -0.2435684 -0.12142158 0.14947356 -0.023541387 0.013718078 -0.07002675 -0.2075226
0.016812468 0.23717378 0.17233832 0.16329752 0.057816487 -0.07177931 0.16044709 -0.2564493
-0.043027334 -0.076919295 -0.29778615 0.038367737 0.0034982327 0.00013827246 0.104158826 0.0034338592
0.08713949 0.234069 0.012247401 -0.03007616 0.08783914 -0.17611483 0.09393692 -0.026559861
0.15844311 -0.04830098 -0.04731382 -0.023781296 0.03161412 -0.13067569 -0.00022065308 0.017531736
0.060107715 0.07691608 -9.1868005e-06 0.032023843 -0.004745946 -0.061428726 -0.20035282 0.10348181
0.008263243 -0.026160514 0.31343484 -0.057736315 -0.25119454 -0.03162519 0.025641078 -0.08336532
-0.07075708 0.076660916 0.03255349 0.17087965 -0.025591873 -0.018582227 -0.036984336 -0.015934842

network.6.bias f4 [39]
00000000: f3f1 4ebd d366 d63b 6260 1e3d 5001 e13c
00000010: e76c 08bc a691 86bb 20ce 233c 2f00 d43b
00000020: a0ee be3c 4b81 88bb 5dfc 4cbd b66c 26bb
00000030: 1342 8f3c ad37 13bc e63b a13c a910 cb3c
00000040: d039 6f3c 7d45 02bd de05 ae3c 5aae 1c3d
00000050: 9b92 01bd 3b4a 29bb 2ac7 85bc bbc7 ae3c
00000060: 851c 4cbd 7118 933c fff0 47bd 339c 09bd
00000070: 78eb 1abc a50b 30bb 8fe7 6fbc f765 c4bc
00000080: ddc2 0fbd b366 f7bc d280 46bd 99ab 57bd
00000090: 938f 45bd 9a72 37bd 7186 1fbd
-0.05052371 0.0065430193 0.038666137 0.027466446 -0.008326746 -0.004106718 0.0099978745 0.0064697484
0.023307145 -0.0041658035 -0.05004536 -0.0025394387 0.017487561 -0.008985442 0.019681882 0.024788218
0.014601186 -0.03180455 0.021243032 0.038252212 -0.031633954 -0.0025831598 -0.01633032 0.021335473
-0.049831886 0.01795599 -0.048813816 -0.03359623 -0.009455554 -0.002686241 -0.01464261 -0.023974402
-0.035097945 -0.030200338 -0.048462696 -0.052653883 -0.048232626 -0.044787027 -0.038946573
