Homework/HW2/results/baseline_100ep.pt (torch, 584573 bytes, 8 tensors)

network.0.weight f4 [256, 256]
00000000: ca2b f93d fbea 9fbd bf3f 043e 6934 d3bd
00000010: 0765 c63b ebab b5bd dee4 84bc 9f8b b33c
00000020: 1c24 983d 0e2d 04bd c9fa 653c 59e6 1b3d
00000030: c52a 563d 68ae 043d a6ad 05be 2425 c4bb
00000040: bada 5fbd f632 d2bc d0e9 3b3d 276a 3dbd
00000050: 32ad cd3c 2f9a c8bd 6c2a 0cbd 1f51 c33d
00000060: 4997 113e f769 133e bb13 9ebd eaf9 313d
00000070: 1f11 143d bb52 b33d f4a8 81bc 50cf c73d
00000080: e71a 6cbd da28 b1bd 8c30 adbb 0b62 573d
00000090: 1e52 cfbb 807e 1d3c 5256 723c 4e75 94bd
000000a0: 9162 723c 207c 863d 684e ffbc 8ba8 0c3e
000000b0: ee71 90bd 7478 21bd 2d59 3c3d 6c9d b3bd
000000c0: 9659 acbd 9e97 0fba d63e c73d 91f7 4a3d
000000d0: 799b 643d 0036 2fbc a436 eabc e99a 043e
000000e0: ac2f 38be ebca 90bd 1239 823c 5020 f63c
000000f0: dd66 4dbd 7795 ef3c b0c9 cabd 363a f6bd
00000100: 4ca7 e9bb b025 c43c 08de 90bc 7652 053e
00000110: 602e 03be 6a09 65bd 1b3e cbbc 7053 933d
00000120: 97fe 0ebe 37f9 72bd d9ea 14be 840d dc3d
00000130: 84d2 51bd e332 15be 41a4 ad3d e6b5 84bc
00000140: 9804 4dbd 3dd4 bb3d 4e0f b23d 60d2 323e
00000150: fbea f8bd 3810 703c f42a a5ba d905 62be
00000160: 995c e53c 88f3 7cbb 6dc9 d6bc 4bd3 093d
00000170: 700e 4b3e a056 18bd bf00 413c 50f1 88bd
00000180: 6ce0 3e3c cd94 18be 1d78 03bd b2bd 53bd
00000190: 8eef 63bd 82c3 d5bd 53c1 11bd 45f9 25bd
000001a0: 7b9a a83c bac7 06be 3499 86bc a225 24bd
000001b0: a066 58bd ec0f 9dbd 2af2 573d c277 cb3d
000001c0: 1616 873d d1f4 363c 4d6a 103e dbb9 58bd
000001d0: 3a3a 04be 2eb6 0abe 7a41 33bd 8131 1c3e
000001e0: 08c3 4b3d 9284 60bd c0e3 6c3d 988d fd3d
000001f0: c4c6 56bd f3b0 c23d 15cc 09bc 7ee4 75bd
00000200: 8a42 8fbe 8855 8fbe 7c5b 8fbe 4bdb 8dbe
00000210: 779f 03b9 0463 8f3e 7a62 8fbe c2c4 eb37
00000220: ea5a 8fbe d4dc 5b39 cd6b 8fbe 7442 8fbe
00000230: 54e9 e4b7 211b 8838 20e1 7839 1eca 33b8
00000240: 9f56 8fbe 58c6 4dbe e01b 1437 e47d a3b6
00000250: 8471 8f3e 506e 8fbe f410 05b8 8047 95b8
00000260: 2140 8fbe 46be 7638 2c58 5cb9 acaf 063e
00000270: e06d 8f3e 2c67 8fbe e02e d738 f1af dcb8
00000280: cc44 1539 df11 82b8 eb58 8fbe b553 8fbe
00000290: e7f8 67b9 f31e eeb8 6767 8f3e 8276 d5b8
000002a0: 7022 b637 ce77 13b9 b4bc fd36 1368 2739
000002b0: 444a 4239 0096 0533 894a f1b8 51dd a7b9
000002c0: 649d 60b8 d860 5236 b9ad be37 22e6 6fb9
000002d0: 143d 50b9 189a ce38 39f7 93be b05b 8f3e
000002e0: e426 5bb8 d057 14b8 3072 a137 4306 1f37
000002f0: b770 8f3e 3156 8fbe f692 5539 f56d 8f3e
00000300: 5898 4038 b37c 8fbe 3560 8fbe 3564 8fbe
00000310: a46a 11b7 9d62 9ab8 eeb2 3b39 788f 8d3e
00000320: 245a 4cb8 4e5d ef38 a0ce 72b8 7d5e 8fbe
00000330: a96a 82b7 7a59 8f3e a813 50b7 4270 5738
00000340: dcca 1838 38d0 9ab8 dee8 4d38 2a0b 8d38
00000350: 9865 b338 1951 8f3e c043 d138 1237 3e39
00000360: 68a0 6539 e75b d8b8 2b40 8f3e 0c6c 8fbe
00000370: ff91 6f38 2b7c b1b7 1f4c 8fbe 3558 8fbe
00000380: bfaf d7b8 4a67 8f3e e363 8fbe 591e 80b8
00000390: cbf5 5b38 a163 8f3e e2fe d737 50b4 a4b8
000003a0: 1326 0c38 6e4d 94b8 80b7 13b6 eada afb9
000003b0: 3d6a 8f3e b4df 8b38 2b63 8f3e ab66 8fbe
000003c0: 1c05 e438 0a6c 8f3e 7c05 b3b8 d27c 3a38
000003d0: 201b 83b7 ed6a ba37 0021 eeb6 1e55 8f3e
000003e0: 7fdc 0db9 4470 8fbe f6f2 8638 d906 73b8
000003f0: 48b8 6739 faa8 0637 5f60 8f3e 7596 f037
0.12166555 -0.07808491 0.12914942 -0.10312731 0.006054524 -0.088706814 -0.016222414 0.021917162
0.07428762 -0.03226953 0.014036843 0.038061474 0.052286882 0.03239289 -0.13054523 -0.005985873
-0.054651953 -0.025659066 0.045877278 -0.046243813 0.025107 -0.09795033 -0.034220144 0.09536957
0.14217867 0.14395891 -0.07718607 0.043451227 0.03614914 0.08756014 -0.015827633 0.097563386
-0.057642844 -0.0865037 -0.0052853283 0.052583735 -0.006326928 0.0096126795 0.014791088 -0.072489366
0.014794008 0.06566644 -0.031165317 0.13736169 -0.0705298 -0.039421514 0.045983482 -0.0877026
-0.08415525 -0.000547761 0.09728782 0.049552504 0.055812333 -0.010694027 -0.028590508 0.12949719
-0.17986935 -0.070699535 0.015896354 0.030044705 -0.050146926 0.029246075 -0.0990175 -0.120228216
-0.007130539 0.023943752 -0.017683998 0.13019738 -0.1281066 -0.05591718 -0.024809888 0.07193649
-0.13964306 -0.0593197 -0.14542712 0.107447654 -0.051226154 -0.14570193 0.084785946 -0.016200017
-0.05005321 0.091713406 0.086943254 0.17463064 -0.12154194 0.014652304 -0.0012601302 -0.22072543
0.027998256 -0.0038597304 -0.026219094 0.03364877 0.19829726 -0.037191987 0.011779963 -0.06686652
0.011650186 -0.14900513 -0.03209697 -0.05169458 -0.05564838 -0.10437681 -0.03558476 -0.040520925
0.020581475 -0.13162127 -0.016430475 -0.040074952 -0.052832246 -0.076690525 0.05272118 0.09934951
0.065960094 0.011166767 0.1410305 -0.05291162 -0.12912837 -0.13546059 -0.043763615 0.15253259
0.049746543 -0.05481393 0.057834387 0.123805225 -0.05243565 0.09506407 -0.008410473 -0.06003236
-0.27980453 -0.27994943 -0.27999485 -0.2770637 -0.00012552539 0.2800523 -0.2800482 2.8105806e-05
-0.2799905 0.00020967732 -0.28011933 -0.27980387 -2.728837e-05 6.4900385e-05 0.00023734989 -4.2865162e-05
-0.27995774 -0.20095193 8.827978e-06 -4.872434e-06 0.28016293 -0.2801385 -3.172546e-05 -7.1181916e-05
-0.27978614 5.8828176e-05 -0.00021013682 0.13152951 0.28013515 -0.280084 0.0001026073 -0.00010523189
0.00014235376 -6.202212e-05 -0.27997527 -0.2799355 -0.000221226 -0.00011354489 0.28008577 -0.00010178705
2.1712127e-05 -0.00014063643 7.5619555e-06 0.00015965132 0.00018528948 3.11029e-08 -0.00011505659 -0.00032017616
-5.3552343e-05 3.134881e-06 2.2730661e-05 -0.00022878547 -0.00019859179 9.851548e-05 -0.28899553 0.2799964
-5.224989e-05 -3.536773e-05 1.9245868e-05 9.478596e-06 0.28015682 -0.27995446 0.0002036801 0.28013578
4.591825e-05 -0.28024825 -0.28003088 -0.2800614 -8.667503e-06 -7.3616604e-05 0.00017900366 0.2764852
-4.872134e-05 0.000114137874 -5.788973e-05 -0.28001776 -1.5546875e-05 0.27997953 -1.2402343e-05 5.1364543e-05
3.642855e-05 -7.382076e-05 4.9092683e-05 6.7254834e-05 8.5543084e-05 0.2799156 9.978516e-05 0.00018140327
0.00021898898 -0.00010316801 0.27978644 -0.2801212 5.711801e-05 -2.1157864e-05 -0.27987763 -0.27996984
-0.00010284734 0.2800849 -0.28005895 -6.109168e-05 5.244258e-05 0.28005698 2.5748686e-05 -7.853715e-05
3.341406e-05 -7.071612e-05 -2.2011518e-06 -0.00033541705 0.2801074 6.6697045e-05 0.28005347 -0.28008017
0.00010872839 0.28012115 -8.536407e-05 4.4462104e-05 -1.5629048e-05 2.2222719e-05 -7.0967944e-06 0.27994627
-0.00013528949 -0.2801534 6.434873e-05 -5.7942092e-05 0.00022098527 8.026365e-06 0.28003213 2.8680292e-05

network.0.bias f4 [256]
00000000: 4876 163d 6d9b 0d3d 000e 023c 6020 5339
00000010: e8f1 7e3b bea7 573c fb3c 843d c7d2 913b
00000020: b293 9f3d a654 47bc ada6 643c 914b 2a3d
00000030: deed 6d3d 7cc0 f93c c74e 983d 7d81 523d
00000040: 698b 2e3d a5e0 84bb baae e23c 3086 f73c
00000050: 44cb e23c 6fab 403c 3417 be3c d13c 0b3c
00000060: 3691 243d da53 703c 6b30 f93c 4eb1 473d
00000070: 1c71 c23c 9457 ba3c 7016 213c ba53 ec39
00000080: f1ad cd3b 263f 7f3d 9e32 25bc db64 643d
00000090: 6210 163d 32e2 373d b425 0e3d 7980 bf3b
000000a0: b214 2c3d e5c3 efbc b551 0f3d f557 20bc
000000b0: e0ee c63c 29a7 673c 673b b9bc db56 2cbc
000000c0: 4e25 3e3d 218e 3b3d 2d65 bebb 7856 383c
000000d0: c6ce 5a3d 957d 283c 4e71 c83c 7f58 a5bb
000000e0: c3f7 0e3d 3bb6 a83d 9b11 05bd ae49 903c
000000f0: 79e2 2b3d 14b0 f33c 60a4 c03b e7a0 6b3d
00000100: 338b a53c a114 f43b 513c 1c3d e421 a03c
00000110: 92ac df3c c44b 633d 7620 e83b 89bd 783c
00000120: e7df 3c3d 7e29 5ebc 47ee dcba 902a 163c
00000130: fb01 fb3c a2c9 393d 4635 8a3d b65a 063d
00000140: 8596 453d e05d bcbb 495a 843d 95b6 c43c
00000150: d7cf 433d 024a 063c 3647 273d 9abf 53bc
00000160: bff3 f43c a1f8 ec3b b129 493d a99a 7fbb
00000170: 3485 3a3d ddec 933d 510e 43ba bb79 403d
00000180: 4083 ac3b 671e e93c 1749 833d 6879 e7ba
00000190: b374 623c 8970 503d d02f 2e3d 5774 2c3d
000001a0: 90f2 a03c 7e6d abbc 6915 bbbc 1c2e 9a3b
000001b0: cb82 923c 2f40 223d c9e8 89bc 0fed 923c
000001c0: 064e 373d f2bb 953c 053c 913c e646 8b3c
000001d0: 32da 013d b3d3 eabc 1fe7 9bbb 0ff7 7e3d
000001e0: e42d 8a3c 2895 c53a 381a 6a3d c160 9e3c
000001f0: e857 bcbc 2d66 423d 3fe0 f53b 238c ce39
00000200: 026f ad3c 2bff ac3b 0c79 403c f070 6ebc
00000210: 4ce4 543d 43aa 903d c9ab a93c b97e e8bb
00000220: 52e8 7b3d 653c 953c f695 c93c 7c79 f43c
00000230: b36e 6d3d 0861 223d 67e5 c6bc 88f3 c33c
00000240: a480 aa3c 5309 023d 9fde 043d a104 87bb
00000250: ae81 cd3c 5adb fabb 70a2 8b3c 0c54 8f3c
00000260: 620a 833b 3c31 d53c 7077 1a3d ed84 d93c
00000270: 5670 273b 7dff f63c 548c eb3c 31c1 2b3d
00000280: 3587 533d f897 1d3d badc 983a 4d52 b93c
00000290: 2b18 403d e11d 813d 5fca 3d3d 1aa9 ab3b
000002a0: e195 7d3c cb22 833d 3ff9 0a3d 0a00 cc3d
000002b0: 9952 88bc a964 823c 2913 103d 36a0 cd3c
000002c0: 0c4d b7bb 0d29 e73c 2174 f33b cc17 573d
000002d0: 92d0 c1bc 8da8 163d 9cc3 513d 8b31 503d
000002e0: 23dd 343c e79a c4bb ee5f 0b3d e355 0b3d
000002f0: b394 013c 59d3 bc3c 1bbe f6bc 0ee7 a93d
00000300: 6408 fa3c caec 173d 2c7a 673d 9eb8 053d
00000310: 23c3 f03b 9163 b93a b91f 07bc 166b 383c
00000320: a263 f13c 67f7 c93b f11c af3c 0680 723c
00000330: 5099 983d 98f1 383c dce6 4f3d 94ae fbba
00000340: 973e 083c b55e 4a3c a048 ed3b e14c 663d
00000350: 77a2 e33c 3ef0 a5bb 8825 be3a 842e 0c3d
00000360: 4f66 523c bb0a b3bc 6083 983d 0ef5 6c3d
00000370: 63ef e7bb 9b22 c23c f850 aebb b87d 9e3d
00000380: 19a9 a93d 01dd 163d bd64 b33b f69c 993d
00000390: 7efb a53b 63b8 0dbc e3b1 983d 265f c93c
000003a0: f252 8c3c 9552 1f3d 5bc5 ec3c a8e9 0ebc
000003b0: 4791 ff3c ec39 793d 015c f63c 8769 bc3c
000003c0: 106b d83c 50b1 463c ddb2 143d 1810 7a3d
000003d0: 95c7 bebb 4586 243d d561 d13d 118b 3a3d
000003e0: 89f5 473d b035 543d 9111 293d 35d4 ec3c
000003f0: 9aa8 823c 5599 513d 0fbf 8f3c b8bf 173d
0.036733896 0.034572054 0.007937908 0.00020134589 0.0038901512 0.013162551 0.064569436 0.0044501754
0.077918425 -0.012166178 0.013955754 0.041575972 0.058088176 0.030487292 0.074369006 0.05139302
0.04261342 -0.0040551 0.027671207 0.030215353 0.027684815 0.011759623 0.023204423 0.0084983865
0.040177546 0.014668429 0.030418595 0.048753075 0.023735575 0.022746839 0.00983201 0.0004507581
0.006276839 0.062316082 -0.010082869 0.055760246 0.036636718 0.04489345 0.034703925 0.0058441726
0.042011924 -0.029268214 0.03499003 -0.009786596 0.024283826 0.014138975 -0.022611333 -0.010518755
0.046422295 0.04578984 -0.005810401 0.0112510845 0.05341985 0.010283847 0.02446809 -0.00504595
0.034904253 0.08237883 -0.032487493 0.017613258 0.041964028 0.029747047 0.00587897 0.057526495
0.020207977 0.007448748 0.03814346 0.01954741 0.027303968 0.055492178 0.007083948 0.015181907
0.046111967 -0.013559697 -0.001685568 0.009165421 0.030640593 0.045358308 0.06748442 0.032801352
0.04823925 -0.0057484955 0.06462533 0.024012843 0.047805633 0.008196356 0.040839396 -0.012924099
0.029901383 0.0072317873 0.049112026 -0.0039002097 0.04553719 0.072229125 -0.0007440793 0.04699109
0.0052646697 0.02845688 0.06410425 -0.0017660083 0.013821769 0.050888572 0.042526066 0.042103138
0.019646913 -0.020926233 -0.022837358 0.0047052037 0.017884633 0.03961199 -0.016834633 0.017935304
0.044752143 0.018278096 0.017728815 0.01700158 0.031702228 -0.0286654 -0.0047577764 0.062247332
0.016867585 0.0015074359 0.05715391 0.019333245 -0.022991136 0.047460724 0.007503539 0.00039395792
0.021171097 0.005279442 0.01174761 -0.014553294 0.051975533 0.07063725 0.020711796 -0.0070951846
0.061500855 0.018217275 0.02460764 0.029843085 0.0579669 0.039643317 -0.02427931 0.023919836
0.020813294 0.031747174 0.03243887 -0.004120425 0.02508625 -0.0076555433 0.01704523 0.017496131
0.0039990405 0.026024453 0.03771156 0.026552642 0.0025549135 0.030151123 0.028753437 0.04193229
0.051642615 0.038475007 0.0011662461 0.022622252 0.04689805 0.06304527 0.046335574 0.0052386643
0.015477628 0.064031206 0.033929106 0.09960945 -0.016640948 0.01591714 0.035174523 0.025100809
-0.0055939015 0.028217817 0.007429615 0.05251293 -0.023659024 0.036781836 0.05121194 0.050828498
0.011039051 -0.005999911 0.034027033 0.034017455 0.007908988 0.023049997 -0.030119946 0.08296023
0.03052158 0.037091054 0.056512997 0.032646768 0.007347481 0.0014144053 -0.008247309 0.011256
0.029466454 0.006163526 0.021376105 0.014801031 0.07451117 0.011288069 0.050757274 -0.0019201809
0.008315704 0.0123516815 0.0072413236 0.05622566 0.02778743 -0.0050640395 0.0014507035 0.03422405
0.012841775 -0.021855703 0.07446933 0.05785089 -0.0070780977 0.023698142 -0.005319711 0.07738823
0.08284206 0.03683186 0.0054746554 0.07500641 0.0050653806 -0.008649918 0.07455804 0.024581503
0.017129395 0.038897116 0.0289027 -0.0087227 0.031197203 0.060846254 0.030073168 0.022999538
0.026418239 0.0121272355 0.03630339 0.061050504 -0.005822132 0.040167112 0.10223738 0.04554278
0.048818145 0.051809013 0.04127652 0.028909782 0.015949536 0.05117162 0.017547159 0.03704807

network.2.weight f4 [192, 256]
00000000: 8674 3ebd 54b4 e03d c4f9 cabd 3ef8 fdbd
00000010: 2403 57bb 0f8d 0dbd e2d2 923d 5d77 e7bd
00000020: fcc5 2e3d ce6f 833d e9a0 193c ff2a 2c3e
00000030: e267 963d 79a6 363d 81a7 e33b 3577 4f3e
00000040: f5c3 bf3d ea4c 64bd be72 063e ca5a 073d
00000050: de1b 0b3d 6d68 8abd 1a5f 84bd 6498 c03a
00000060: 375f 503d 3df7 12bd 01a1 b1bc 0f24 15be
00000070: ed1a 773d 9477 21be 839b e7bd 1aaf 493b
00000080: dcf0 40bc 8b00 07be 8aa3 6e3d b341 e93b
00000090: eb9a d2bc 4e42 433d 7b70 c63c c538 033d
000000a0: 1718 7b3c c069 ccbc 9bf5 063d a455 58bc
000000b0: b3a0 923d 84c9 bebd ed00 223d 371d ea3d
000000c0: 6cea 45bd a743 88bd 9c14 b73d 8764 39bd
000000d0: 7b11 c03d 3f0f 883c d3cd a13c 4d95 303e
000000e0: 0cfa 523d e5f2 e33d 1294 5a3b 07cf 593d
000000f0: e32a 673b 67f1 243d 742c f53d bf8c 3ebd
00000100: 929b 543c ded2 5e3d c530 14be 4d3c 843c
00000110: 18a2 d3bc 3357 e23c 7c12 38be 9a1b bfbd
00000120: 1eba 45bd b3ae 23bd c995 8dbd 197f fabd
00000130: 5d8c b43c 880d 7abc 73ea 8d3d ed97 e63c
00000140: b2fa 033e bbaf e1bd 76b3 08be d5e9 f4bb
00000150: 5c5b c2bd 2153 7c3c fcf1 98bd dda3 223e
00000160: 3a92 dabb 2d2c babc b80d fc3d 7a40 1fbe
00000170: bf9e 443d 1c05 0dbc 6908 71bd bf25 afbd
00000180: e08a 70bc f67e 693d cfb8 a2bd 19e4 343e
00000190: ba6a 0f3e 9067 7dbd 99b1 9fbd 0345 f4bd
000001a0: 7a3b 0c3e a950 ec3c 6218 d9bc 7c5d e73c
000001b0: 46a3 d13b 3e0d a9bb 3aff 253d 1389 05be
000001c0: 2859 ffbc 8dc9 413d 8d2f 133d cc50 743d
000001d0: 63d8 fb3c 71eb 113e a52d a93d a2a1 d9bd
000001e0: 7532 a43d a981 84bd 296e 48bd 9240 883d
000001f0: 5b92 043d 68c7 b33c b3c0 d93d df84 883d
00000200: eae1 0abe 3976 55bb 9e50 dc3d c003 123e
00000210: ef0a 38bd 6de8 2dbe a021 3bbd b81c 0dbd
00000220: a56b 3b3d 0cbd 15bd fa1d 5abd c103 87bc
00000230: 4304 863b c0bc 253e 2bd5 653d 76c6 ed3d
00000240: 0d0e 0ebd 6754 ac3d 7c55 6f3d be9d 093d
00000250: 0f2d 133c d772 e33b 95d8 b03d ea07 1d3e
00000260: fe79 8c3c 3eff e3bc 46af 6c3d d719 693d
00000270: f4c4 a2bd 3814 59bd e0a9 edbd 67f3 c13b
00000280: 2d62 3e3c 83c0 c73d 16a3 1abd f267 de3d
00000290: 1080 8b3d 7de7 113d 9096 8a3c a0ca 9ebc
000002a0: 8c5b a73c 6b89 c2bd 3b21 e1bc 8215 003d
000002b0: e9c6 e03c 5189 82bd d80c 083d dbe5 f83d
000002c0: bcea 7cbd 17d0 2d3c 0ca6 61bd 337f 18be
000002d0: d680 4e3d 95fe cbbd 3491 013e 399a 7dbc
000002e0: 8719 9ebd 40a6 2ebc d8a0 a23d 9aa4 b63d
000002f0: dbeb 013e 20b7 8db7 6992 b63d 20fb bb3d
00000300: 7900 36bd 73af 1abd c9f0 b43c e81d b8bd
00000310: ab18 793d 9647 073b c89e 213d 3bfc 2cbe
00000320: b2bc 23bd 9bcb fe3c 0ef5 683d 477a 71bd
00000330: 7840 0dbe 7187 7b3d 64df 94bd 26c0 553d
00000340: ca2b 3e3d 5841 8cbc 75c7 56bd 2af0 4b3d
00000350: e601 41be b625 2bbe b206 2e3b 88fb cc3d
00000360: 8fa0 893d 1b95 edbc d8f2 81b9 e392 92bd
00000370: e53c 143d 132b 25be f0b4 3fbe 2f41 cabd
00000380: f358 583d 7935 63bd d839 a7bc c10d a23d
00000390: 75e4 eb3d a974 383e 6291 243d 1448 0ebe
000003a0: 16b1 c33d b645 88ba 887c f2bd 1b71 22be
000003b0: 030f a2bd c579 603d b8c7 11be ece2 193b
000003c0: 9eb0 c5bd 4ec5 9abd 3c8e 00bd 8676 253d
000003d0: 1342 123d 20fa efbd 4a5b 11be 0741 643d
000003e0: c944 213d 545a 5abc bb66 6239 ad0a 073c
000003f0: e5f4 cdbc cf31 80bd 5972 22be 80b4 95bd
-0.046497844 0.10971895 -0.0991092 -0.12400864 -0.0032808268 -0.034558352 0.07169129 -0.113020636
0.04266928 0.064178094 0.009376743 0.16813277 0.07344033 0.044592354 0.0069474583 0.20260318
0.09363548 -0.055737413 0.13129708 0.033045568 0.033962123 -0.06758199 -0.06463452 0.0014693853
0.050872054 -0.035880316 -0.021683218 -0.14564537 0.060328413 -0.15768272 -0.113089584 0.0030774535
-0.011776175 -0.13183801 0.05826143 0.0071184277 -0.025708636 0.047670655 0.024223557 0.03203656
0.015325568 -0.02495277 0.03294907 -0.013204012 0.07159557 -0.0931578 0.039551664 0.114313535
-0.048319265 -0.06653529 0.08939478 -0.045261886 0.09378334 0.016608832 0.019751465 0.17244454
0.051507995 0.11130313 0.0033352417 0.053175952 0.0035273365 0.04026928 0.119713694 -0.046520945
0.012976544 0.054400317 -0.14471729 0.016142035 -0.025834128 0.02762947 -0.17975801 -0.093314365
-0.0482732 -0.039961528 -0.06913335 -0.12231273 0.022039587 -0.015262015 0.06929483 0.028148616
0.12888601 -0.11019846 -0.13349709 -0.007474164 -0.09490082 0.015400679 -0.0746803 0.15882821
-0.0066702636 -0.022726143 0.12307304 -0.1555194 0.048002955 -0.008607175 -0.05884591 -0.08552121
-0.014681548 0.057005845 -0.07945406 0.17665137 0.14005557 -0.061866343 -0.07797546 -0.119272254
0.13694564 0.028847056 -0.026500884 0.028242819 0.0063976375 -0.0051590493 0.040526606 -0.13040571
-0.031170443 0.047311354 0.03593402 0.059647366 0.03074283 0.1424997 0.08260659 -0.10626532
0.080174364 -0.06470043 -0.048933182 0.06652941 0.032366138 0.02194567 0.106324576 0.06665968
-0.13562742 -0.0032571687 0.10757564 0.14259243 -0.044932302 -0.16983195 -0.045686364 -0.034451216
0.045756955 -0.036557242 -0.053251244 -0.016481282 0.0040898635 0.16185284 0.056111496 0.11610119
-0.03468137 0.08414536 0.058431134 0.0335977 0.008982911 0.00694118 0.0863506 0.1533505
0.017148014 -0.02783167 0.05778434 0.05690941 -0.07947722 -0.052997798 -0.11604667 0.0059189084
0.011620087 0.097535156 -0.037753187 0.1085967 0.06811535 0.035621155 0.016917497 -0.019383729
0.020429395 -0.09498867 -0.027481666 0.03127051 0.027438598 -0.06373847 0.033215374 0.121532165
-0.061747298 0.0106086945 -0.055089995 -0.14892273 0.050415836 -0.09960667 0.12653047 -0.015478664
-0.07719713 -0.010659754 0.07940835 0.08918114 0.12687628 -1.6893784e-05 0.08914644 0.09178758
-0.044434045 -0.037764978 0.022087472 -0.08990079 0.06081454 0.0020642034 0.039458066 -0.16893093
-0.039974876 0.031102946 0.056874327 -0.058954503 -0.13794124 0.061408464 -0.07269171 0.0521852
0.04642848 -0.017121002 -0.05243631 0.049789585 -0.1884838 -0.16713604 0.0026554284 0.10008913
0.06720077 -0.029001763 -0.0002478573 -0.07156923 0.036190886 -0.16129713 -0.18721366 -0.09875714
0.052819204 -0.055470917 -0.020413324 0.079127796 0.11518184 0.18013252 0.04017771 -0.13894683
0.09555261 -0.0010396752 -0.11840159 -0.15863459 -0.079130195 0.05480363 -0.14236343 0.0023481203
-0.09652828 -0.07557164 -0.031385645 0.040396236 0.035707545 -0.117176294 -0.1419498 0.055726077
0.03937224 -0.0133272 0.0002159131 0.008242291 -0.025141189 -0.062595 -0.15863933 -0.07309818

network.2.bias f4 [192]
00000000: 2374 853c 9054 413c 170d b7ba b0c1 1f3d
00000010: a651 bc3c a9a8 923c 6b12 183d 919a 423c
00000020: 1845 b2ba a078 ddb9 4f20 1c3c 2f6c 923c
00000030: 81ff 293c 0a59 a83c 25e2 1e3c d227 443c
00000040: ac72 1d3c 844a 1c3d 9bc9 083d a0a8 833c
00000050: 2bd1 cf3c 516b ab3c 340b e43b d29e e13c
00000060: 71ab 10bc f416 ad3c c10e a23c e881 88bb
00000070: 112d 453b 604f 8c3c e45a 193d c323 613b
00000080: afce 0b3d e65a a83b f78d 923c e575 cd3c
00000090: e6b5 613c 98ba db3c bc78 c23c 680d 94bb
000000a0: a2c2 583d 76b4 ff3c 0a06 f03c 5973 f63c
000000b0: 1abe 1a3d 3df1 2b3c 7ad9 9b3c f069 6d3c
000000c0: 9671 533d 2af1 7e3c 6699 293c 0eb3 013d
000000d0: 3492 b83c 726d b1ba ae7d 00bb 7d55 353d
000000e0: abb1 7b3c ba54 113c 6c75 153d f926 2f3d
000000f0: 782f d23c be6c 763c acc2 8d3c 9a58 1c3d
00000100: 99f4 88bc b187 323b 9784 4b3c 5d8d ec3c
00000110: c323 643c eeef 693c 1f6b 153d 40e8 f53a
00000120: 2ffb 243d f59b 243d d0b9 4438 f7b8 803c
00000130: fb68 6f3c cbaa 2b3d c0ee ae3c 0561 b03c
00000140: a21c 0abb 2c6c 703c 88b3 033d a068 033d
00000150: 9f20 e43c fb13 ba3c 3707 ce3c 9437 013d
00000160: 8087 e33c 4852 3b3d 11e2 9e3c 58d5 a0bc
00000170: ccdf f43c 9fb6 f1bc 9097 493d cdcc 14bb
00000180: fa52 fe38 2c56 e63c c239 de3c 4d9e 8c3c
00000190: 42f8 0f3d 2cc1 2f3d 70e1 1a3d 9eea 1c3d
000001a0: 77be 8f3c 8d98 423c 68cd 213d fd27 faba
000001b0: a9e4 ae3c 26eb 923b e312 2c3c 353b 003c
000001c0: c989 03bc b14f 5dbc c3ae 903c 7506 0e3d
000001d0: 9754 c8bc cf82 023d 1e41 b53c c467 9039
000001e0: 0e57 c73b 59b6 4e3d 8e84 dc3c 1126 9b3c
000001f0: 0460 f53c fa55 4f3d 3494 853c d956 453b
00000200: 5192 2d3d a946 043d 51aa febb 36d6 0b3d
00000210: a305 a4ba c1bb 0d3a 50ec 043d 741b 293c
00000220: 45ef 963c 7d38 913c 41a4 f73c a80f 1c3d
00000230: f812 013d a17b 5f3d 2ad2 593c b7cc cf3c
00000240: 1bd8 3b3d f874 eb3c af2b 4e3c d492 eb3c
00000250: a1b2 d63c 0a75 963c 76ce e73c 6947 c13c
00000260: 7136 3b3b 5b0c f73c 4ee1 163b f456 ff3c
00000270: 1562 4d3c 6925 993c 9f95 db3c b241 0b3d
00000280: 118c bd3c 6555 453d a191 b63c 4bb0 583c
00000290: 2499 4c3d 3d88 c53c 4921 693c 6d7a 343c
000002a0: 5ebd e73c 4e36 8dbc 2631 033d 3131 fd3c
000002b0: 4956 043c e4c6 453d e0e5 893c 261f 50bc
000002c0: ad5e f53c 9918 c03c fc3a 94bb f889 463c
000002d0: 8aad b13c 23b5 753c 2374 563c 28e5 bf3c
000002e0: ef6a c53c f8f5 b53b 548c a03c 852c af3c
000002f0: cfb8 4f3c 993d 543c e697 e23b dbc9 563c
0.01629073 0.011799946 -0.0013965693 0.039003074 0.022988152 0.017902689 0.03712694 0.011877672
-0.0013600914 -0.00042242277 0.009529187 0.017873852 0.010375858 0.02055027 0.009697472 0.0119723845
0.009609859 0.038157 0.03339539 0.016071618 0.025368294 0.020925196 0.0069593433 0.027541552
-0.008829937 0.021129109 0.019782426 -0.0041658767 0.0030086676 0.017127693 0.037440196 0.003435359
0.034132656 0.005137789 0.01788996 0.02508063 0.013776278 0.026822373 0.023739211 -0.0045181997
0.05291999 0.03121398 0.029299755 0.030084299 0.03777895 0.010494527 0.0190246 0.0144905895
0.051621996 0.015560428 0.010351514 0.0316649 0.022530653 -0.0013536646 -0.001960616 0.04427098
0.015362184 0.008870298 0.036488935 0.042761777 0.0256574 0.015040575 0.01730474 0.038170435
-0.016718196 0.0027241523 0.012421749 0.028876001 0.013924542 0.014278395 0.03647911 0.0018761232
0.04027861 0.040187795 4.6903093e-05 0.015713198 0.014612432 0.041910928 0.02135408 0.021530638
-0.0021074195 0.014674228 0.032153636 0.0320822 0.027847586 0.022714606 0.025149925 0.031547144
0.027774572 0.045732766 0.019394906 -0.01963298 0.02989187 -0.029506026 0.049216807 -0.0022705079
0.000121271194 0.028117262 0.02712715 0.017165327 0.035148866 0.042908832 0.03781265 0.038309686
0.017546875 0.011877191 0.03950253 -0.0019085404 0.021349268 0.0044835983 0.01050255 0.007826616
-0.008028456 -0.013507769 0.017661458 0.034674127 -0.024454398 0.03186303 0.022125777 0.00027543132
0.006083376 0.05046687 0.026918676 0.01893905 0.02995301 0.050619103 0.01630602 0.003011158
0.042375866 0.03229395 -0.007771768 0.034139834 -0.0012513887 0.00054067007 0.032451928 0.010321487
0.01842464 0.017727131 0.03022969 0.03810087 0.03151223 0.05456126 0.013294736 0.02536617
0.04586039 0.028742298 0.012583657 0.028756537 0.026208224 0.018366355 0.02829669 0.023593621
0.0028566385 0.030157259 0.0023022476 0.031169392 0.012535592 0.018694596 0.026804743 0.0339982
0.023138078 0.04817714 0.022286238 0.013225625 0.049950734 0.024112815 0.014229127 0.011015517
0.02828854 -0.017237809 0.032029293 0.030907245 0.008077213 0.04828538 0.016833246 -0.012702739
0.029952371 0.02344923 -0.004523633 0.012117855 0.021689195 0.0149968 0.013089213 0.0234247
0.024098841 0.0055530034 0.019598164 0.021383533 0.012678339 0.012954139 0.0069150804 0.0131096495

network.4.weight f4 [128, 192]
00000000: 2f4a 60bc 755c 4abe 8ec2 c7bd 40ad 20bc
00000010: 24a2 8d3d 3f9f 0837 8e97 31bc 8754 19bd
00000020: 6580 abbd e380 31be cf4a 48bc a1fe dc3d
00000030: 29d7 d43d caff 80bd 9a93 f13d 27ae d3bd
00000040: b758 ce3a b06a b2bc 6437 cebd b25d f13d
00000050: d2bc 43bd d11b aa3c 7ce2 d6ba 5759 d0bc
00000060: 5633 f4b5 61a7 53bd 1371 e13c c035 b53a
00000070: a721 823b 7549 113d 6cd3 26bd 35c8 7b3d
00000080: f386 a93c dbd4 15bc d02a 02bd 4e54 ce3c
00000090: c171 bc3d 068c 30bc 8a13 6b3b 06f9 aa3d
000000a0: 5821 1238 d245 5cbd 37d2 49be 9961 543d
000000b0: 7b12 d4bc 437e 293e 9003 063d 3cc6 f4bd
000000c0: 0231 86bc d3fc 24be db4d df3c 3a0e 403e
000000d0: 32ad 61b9 03bc 11be b15e 293d 08d4 113d
000000e0: db8f 88bc 3725 3ebd 33e0 5d3d 319b 30bd
000000f0: 1aca b8bc 961a 1cbd d50b 0d3d bcf8 8bbd
00000100: e200 ef35 9580 d63d bbf8 e13d 48a5 ac3c
00000110: 0dee d7bd 94cb 22bd a6d7 fdbd ea4d 2d3e
00000120: f161 86bd 4b73 14bc 22d2 d6bd 9ba9 0ab7
00000130: 180c 9cbd 2339 a5bb 7815 8ebd d15d 47bc
00000140: 0242 c2bc 9b19 e6bc 8feb 27bd 0a0c eaba
00000150: 8756 04bb 5805 28bd a595 48be 50a1 85bd
00000160: b36d 763d d576 1ebc e462 c5bd 9cec 23bd
00000170: 94c3 b83d a0df 02bc 71cc 9fbd cd5f 71bb
00000180: d80a 6abd ad99 8dbc cc18 29be 0b4f d5bc
00000190: 1e4b e13b 5ab8 9cbc 5f47 e03d 7576 103e
000001a0: e095 eabd 61af 3abe 44a9 d03d 0999 c0bc
000001b0: a2a9 e3bd 4957 0e3e 7c71 8bbd fbca 033c
000001c0: 64ab 7dbd 714a 6e3a 60c7 cebd cba1 37bd
000001d0: 1e61 0d3e 91fc debd dad2 87bd 1dcf f4bd
000001e0: a6fb c1bc 16bf a7bc a2c1 f63c 11b9 e3bd
000001f0: bb38 4237 7958 823d 68c1 4a3c 9d4b 003d
00000200: 22a8 a7bc 447f c73d eed2 5ebd 4b9b 4ebd
00000210: dc33 363a a2ea 8cbd db5d 123e 7849 923c
00000220: 5113 0abb ac60 743c c7ad edbd 373c ebba
00000230: 91f4 b03c 454c f0bb 663f 75bd 649e be3c
00000240: 3e16 54bd ba71 6dbd dc41 3bbd f1cf e53c
00000250: 4115 1dbc 492e 493d cb06 9cbb 7216 d0bd
00000260: d149 f03a f83a 49ba 6dac fd3b b9c7 36bd
00000270: 7700 dcbc a42b fa3b 9db5 52bd 31c6 49bc
00000280: 8369 8fbd 7be9 593a 981e fbbc 1c0e ec3d
00000290: 093f 253e bbfe 2cbd e6cb 113e 108e 7cbd
000002a0: 5a9a 32be d753 9939 23a9 08bd 1849 f2bc
000002b0: af14 e53d d148 14bd 7729 91bc 9a2e 18bc
000002c0: f462 99bd 6689 b33d 71f7 963d 6185 703d
000002d0: cdfa 39bd 5d12 c1bd 49f1 48bd 30aa 88bc
000002e0: c0ba cb3d d1f3 e33d c0cc 84bd d908 09be
000002f0: 618b 71bd 82b2 f43a 70b3 14be 0582 e0bd
00000300: 3fd4 83bd 743a 05bd 6901 1abe 0c66 833c
00000310: d550 083e fa9f 443d 9ac8 713e 941a 333d
00000320: 6054 d33c 9a73 32be 85c1 4ebc c16b 763d
00000330: 0db8 403e 105d d0bd 724c 0cbb a930 353c
00000340: 21a5 a03d 39bc 373d 538b 37be 2cac 8cbd
00000350: 72d8 5fbc 87d1 023b 062e 993d 9c68 a63c
00000360: 286d edb6 4b18 8b3c e5ed fe3b 2ab6 92bb
00000370: 1e0b 2bbd 7283 94bd 85f0 84bc a835 b63c
00000380: 3376 17bd 915b 42bc 2d64 c5bd 2ca7 98bc
00000390: a80e 9cbd 6535 07be c323 103e 90da 1c3e
000003a0: 3223 c3bd bd56 f73c 2a40 943d b6f4 40be
000003b0: 56ab 8fbd ad37 973d 5b50 2d3e 582a 0abc
000003c0: 9e03 00bb 30fd e13d bee6 373d e976 8a3b
000003d0: d527 0dbd b30e 503e 1847 f73d d5be 233d
000003e0: 82b6 b43b 6cbc ecbd 789d 03be 4bf1 903d
000003f0: ced8 533e 5905 1cbb da52 76bd a84e 15be
-0.013689562 -0.19761832 -0.09753905 -0.009806931 0.069156915 8.143309e-06 -0.010839356 -0.037434127
-0.08374099 -0.17334323 -0.012224867 0.10790754 0.10392601 -0.06298788 0.11795731 -0.10335951
0.0015742992 -0.021779388 -0.10069159 0.11785449 -0.047787495 0.020765217 -0.0016394402 -0.025433226
-1.8194357e-06 -0.051673297 0.027519738 0.0013825223 0.003971297 0.035470445 -0.04072897 0.06147023
0.020694232 -0.009144987 -0.03177911 0.025186684 0.09201384 -0.010775572 0.00358698 0.08348279
3.4840166e-05 -0.053777523 -0.19709097 0.05185089 -0.025887718 0.16552071 0.03271824 -0.11951873
-0.01638079 -0.1611207 0.027258804 0.18755427 -0.00021522192 -0.14231877 0.04135007 0.0356026
-0.016670158 -0.04642221 0.05416889 -0.043116752 -0.022557307 -0.03811129 0.034435112 -0.06834552
1.7807145e-06 0.10473744 0.1103377 0.021074906 -0.105434515 -0.03974493 -0.12394647 0.16924253
-0.065616496 -0.009060691 -0.104892984 -8.26493e-06 -0.07619494 -0.0050422116 -0.069376886 -0.012168364
-0.023713116 -0.028088382 -0.04099613 -0.0017856371 -0.0020193176 -0.04102072 -0.19588335 -0.065249085
0.06016321 -0.009671886 -0.096380025 -0.04002057 0.090216786 -0.007987887 -0.07802666 -0.0036830783
-0.057139248 -0.017285192 -0.16513366 -0.026038667 0.0068754097 -0.019130874 0.10951113 0.14107688
-0.11454368 -0.18230964 0.10188535 -0.023510473 -0.11116339 0.13900484 -0.06808755 0.008044
-0.06193103 0.0009090072 -0.100966215 -0.044832032 0.13806579 -0.10888017 -0.066320136 -0.11953566
-0.023679566 -0.020476859 0.030121628 -0.11119283 1.157651e-05 0.06364531 0.012375213 0.03132211
-0.020465914 0.09741071 -0.054400377 -0.050441068 0.00069504767 -0.0688069 0.14293616 0.017857298
-0.0021068642 0.0149156265 -0.11605411 -0.0017947023 0.021600993 -0.007333311 -0.059874915 0.023268886
-0.051779024 -0.057969786 -0.045717105 0.028053256 -0.009587587 0.049116407 -0.004761552 -0.10160531
0.0018332546 -0.00076763285 0.007741502 -0.044624064 -0.02685569 0.007634597 -0.05144273 -0.012315319
-0.07002547 0.00083126844 -0.030654237 0.11526129 0.16137327 -0.042235117 0.14237937 -0.06165892
-0.17441693 0.000292449 -0.033364426 -0.02957587 0.11185586 -0.036202256 -0.017719967 -0.009288454
-0.07489577 0.08766441 0.073714145 0.05872095 -0.045405198 -0.09427331 -0.049058232 -0.016682714
0.09947729 0.11130489 -0.064843655 -0.13382281 -0.058970813 0.0018668922 -0.14521575 -0.10962299
-0.06436967 -0.03252645 -0.150396 0.01603987 0.13312085 0.048004128 0.2361168 0.04372652
0.02579707 -0.17426911 -0.012619381 0.060161356 0.1882021 -0.10174 -0.002140787 0.011058965
0.07843996 0.044857237 -0.17924242 -0.06868777 -0.013662444 0.0019961314 0.074794814 0.020313554
-7.075858e-06 0.016979357 0.007779824 -0.004477282 -0.04175865 -0.07251634 -0.01622797 0.022242382
-0.036977958 -0.011862651 -0.09638248 -0.018634401 -0.07619983 -0.13203962 0.14076142 0.1531775
-0.09528197 0.030192727 0.07238801 -0.1884335 -0.070151016 0.07383666 0.16925184 -0.008432947
-0.0019533406 0.1103462 0.044897787 0.004225601 -0.034461815 0.20318107 0.12074107 0.039976913
0.0055149207 -0.11559376 -0.12853038 0.07077273 0.20688173 -0.0023806898 -0.060137607 -0.14580786

network.4.bias f4 [128]
00000000: 4735 b1bc c4ec 35bb 0ea8 2abc 5e47 ae3c
00000010: a323 ff3c feb6 11bc 9849 283c f468 013d
00000020: 6d43 903c 7d0f d53b fe48 263c 2c9e 49bc
00000030: 4927 263c 1d13 4d3c 4e51 a93c fdea 71bc
00000040: dabf a8bc 2c4d 26bc 98af 9e34 169f deba
00000050: e18e 7a3c 178a 2a3d 3806 073c d74d 873c
00000060: 2dd6 d73b 59db e53c 4b6d ebbb bd24 acbb
00000070: ad21 493c 5001 b03c c0db 733c 89a8 5b3b
00000080: 5773 803b 9cbd 9338 21c8 293b 643e d23c
00000090: e970 843c 5d20 de3c 94db deb9 5dc5 4bbc
000000a0: ba53 843c 8a50 623a eee3 e4bb ec7f 8abc
000000b0: e001 ce3c 5200 92bc 53d4 043d 448e fe3c
000000c0: 7b32 cdbb d80c 1b3b 6cf4 b33a 9757 063d
000000d0: 1c0b 1f3d 160b 4cbc 7371 29bc 3745 293a
000000e0: c430 b8bc 018b eb3c 164c 913c 92af 133c
000000f0: 5024 fb3c 89be 143c 5f33 7d3c fe4a 9cbc
00000100: 691d 81bc b7da 8fbb d950 8b3c e33f f93c
00000110: a4e9 12ba 60ba 0e3c 6e07 173c b916 7bbc
00000120: 4951 80bc 5593 e23c 3fb0 b33c 3eb4 78bc
00000130: 750e 9d3b 8e5a 763b dc0a e63c e874 9b3c
00000140: 38db 703c ecd2 7fbc 18fb 08bb 7711 433c
00000150: eb46 533c 8027 59bb cd06 963c cd64 c93c
00000160: 84ca 313c f326 c23b 7d98 e53b 4750 1d3d
00000170: cc35 3c39 3631 eb3c f06f 903c 6568 6a3c
00000180: f4a8 b9bc 0000 0000 b858 54bc 5d68 a63c
00000190: be16 903b 92d1 823c fb65 c73b 348e b73c
000001a0: 03f4 9e3c e3fb 8d3a 060e 5fbb c51d 82bc
000001b0: ba40 1b3c ee58 abbc dfc3 563b 2890 ec3b
000001c0: 3fc6 a33c d4af 96bc 24dd 6eba 3761 8a3c
000001d0: 58fe 98bc 1f5e 663c 0791 8f3d e45c cb3c
000001e0: b4e4 83bc c439 993c 3a1b be3c ef3f e53c
000001f0: ca81 1f3d 0474 083a 6aea 01bc 0913 333d
-0.02163185 -0.0027759532 -0.010416044 0.021274265 0.031144923 -0.008893726 0.010271452 0.03159423
0.017610276 0.0065020905 0.010149239 -0.0123057775 0.010141202 0.012516764 0.020668652 -0.014765498
-0.020599294 -0.010150235 2.9557555e-07 -0.0016984667 0.015292854 0.0416356 0.008241229 0.01651661
0.006586811 0.028058695 -0.0071846596 -0.005253403 0.012276095 0.021485 0.014883935 0.0033517203
0.0039199996 7.044824e-05 0.002590664 0.025664516 0.016167121 0.027115041 -0.00042506738 -0.012437192
0.016153205 0.0008633217 -0.006985179 -0.016906701 0.025147378 -0.017822418 0.03242905 0.031073697
-0.0062621213 0.0023658779 0.001372946 0.032798376 0.038828954 -0.012453815 -0.01034199 0.0006457152
-0.02248419 0.028752806 0.017736476 0.009014027 0.030656964 0.00907863 0.015454142 -0.019078728
-0.015761094 -0.0043900865 0.017006325 0.030425971 -0.0005604273 0.008711427 0.00921808 -0.015325242
-0.01566376 0.027658144 0.021934627 -0.015179692 0.004792983 0.0037590596 0.02808135 0.018976644
0.014700703 -0.015614253 -0.0020901617 0.011906019 0.012895326 -0.0033135116 0.01831379 0.024584198
0.010851506 0.0059250533 0.0070067034 0.038406637 0.00017949118 0.028709989 0.017631501 0.014307116
-0.022663571 0.0 -0.012960605 0.020313436 0.0043972423 0.015969072 0.006085155 0.022406675
0.019403463 0.0010832514 -0.0034035458 -0.015883336 0.009475881 -0.020916428 0.0032770557 0.007219333
0.019991992 -0.018394388 -0.0009111932 0.016892059 -0.018675968 0.014060526 0.07010084 0.024824567
-0.016100265 0.018704303 0.023206342 0.027984587 0.038942136 0.0005205276 -0.007929424 0.043719325

network.6.weight f4 [39, 128]
00000000: 629e 88b9 4371 51be 574a d4b8 99fe 88bd
00000010: b393 ab3d f9f4 96be fd0d 553d 9123 76be
00000020: 6d4f 71be 3f94 1d3d a917 6bbe a701 da37
00000030: b7ad 80bd be4d 2bbd 7128 ecbc 9c90 d1b8
00000040: c306 db35 36b7 ab3c b79d aab8 be0a cdb9
00000050: c341 c3bc 7573 c1bc 302c 5cbe b550 8f3b
00000060: 6c6a 2bbe 8276 44be f20f 44be 7ce7 803e
00000070: a8b2 49bd e0ed bdbd 875c 7ebd c0aa c4bc
00000080: 4308 0b3c 7d22 20be 01d0 d4b7 046b 82bd
00000090: a997 82be 0fb6 67be 5bd8 a7bc 929e 90b8
000000a0: 2e6e 9abe d8f7 783e aa89 ccb7 20ae 7a36
000000b0: cca6 e9be 7bf0 733e 097d 08be 7b8b 1ebe
000000c0: 92d2 323e 47c2 36be 5b18 eebd 9bc0 14bd
000000d0: 67f9 80be b84b 8235 99b3 983c f77e 97bd
000000e0: c71c 473c ed80 bebc 7988 adbd de2d 0e3e
000000f0: 3b8a 65bd ce71 2dba 60b4 f635 3d25 783e
00000100: 1c25 54be 524a f6bc 3590 8fb7 c325 9cbe
00000110: a127 ebbb 494d 85be 01bf 93be 601c 79be
00000120: b3cc 4dbe d4f6 b63d c5eb 17be c2ce f1bc
00000130: 0f2d 62be db2f 013d 7662 cbbd 443c 80be
00000140: 5f19 8cbd 17e2 9b37 eeac 0bbe 2e74 91bd
00000150: 3adf 86be 605f a63d 364b 5cbe 3108 70be
00000160: 4814 973d c232 00be 4382 14be 4aec 6ebe
00000170: eaf8 80bd 7090 e7bc c26c 22be 0f58 5dbb
00000180: f355 673e 52f2 5639 560d 5fbe 34f2 59be
00000190: 6e77 44be 9a9f 2fbe c9c5 75be 4879 cfbd
000001a0: 2c6c 39be caab 0139 3ccc b4bd 54e5 5837
000001b0: e51c ad3b f199 803d 95f1 29bd 1dcf 1bb9
000001c0: 461d 07bd adf2 8db7 aeba 66be 34b5 753b
000001d0: 2054 c83c 163d 433d 2f0e 4bbd 410b 153d
000001e0: 3a39 1fb7 d1f6 76bd a247 44be 54f6 0fbe
000001f0: 14ac dfbd 46d3 7fbe 089c 803e e423 b4bd
00000200: 2266 1b3e cfd0 973d 892f 23be a537 263e
00000210: 6099 b1bb c990 b03d 4de7 32bd f3af 1ebd
00000220: 70ed c0bb d272 783d bfd2 423d 4442 763e
00000230: 0f14 713d 8ae7 b4bd c21f 74bd 33bb 0ebc
00000240: 64ca 3c3d ee57 f93d d66c a8b8 e206 7abe
00000250: 28f0 cabd 92e9 ef3c db87 cebe af36 a83d
00000260: cd54 2f3e b142 9a3d b350 863d f75f 75be
00000270: 9040 bebd 5141 213b ccb5 423e 5808 c5bd
00000280: d8c0 ebbd f5e1 b9bd 83f9 f9bc 52ee 2a3e
00000290: 065d b9bc 1702 563e eaab 633c 09a4 9c3c
000002a0: 9be9 61be 13b8 173e b742 4e39 fe30 0fb8
000002b0: 088d 403d 6292 49bc 8909 84be 093c 193d
000002c0: d22d 23be e41f 83bd 7318 3d3d 9540 2ebe
000002d0: b10d d23d 9220 8a3c 74aa 2236 7ad3 92be
000002e0: c956 f636 aa02 ebbd 8c79 093d 8983 1a3d
000002f0: c4c8 863d 6cc3 503d 831a a8bd bdc8 acbc
00000300: 4beb 293e cf92 933c c25c e13b f2d7 793d
00000310: f343 cebd e242 2e3d c8c6 8ebd 88f5 cdbb
00000320: 5e50 0a3e e8d2 04be 6faa 003c aa12 e43d
00000330: 7ff5 95bd caa0 45be 7364 c73c 6faf 083e
00000340: a41e f9bb 5c6b beb8 986d 7bbd e5e2 6abe
00000350: be40 783e e0c3 3b3e 3608 313d a0ed bc3b
00000360: cd06 86bb 3510 5f3e 0bfd 273e ac46 6d3d
00000370: 8fdd 253e 950f 0abe dd35 0c3e 411c cc3d
00000380: b943 3fbe a690 c5b9 5ac5 deb7 0f5c e4bd
00000390: eddc 4abe 0e89 d0bd 6558 133d 0ce6 2dbd
000003a0: cb4b f2bd 3a96 a6bc 0fd4 2dbd fa4f f1b6
000003b0: 56d3 573d c50a 72bc f669 7dbb 1e53 9cbd
000003c0: 623e a03d fc4d 24bd 992a 19bd 9f47 233e
000003d0: 00de 4f3e ae1f 003e 2d70 6e3c 4e03 9bbc
000003e0: 97dd 74be 94c7 dbbd e254 04be a5ab b63d
000003f0: 04ad 25bd 284e bfba a424 2bb8 2a7a b33d
-0.00026057946 -0.20453362 -0.000101227946 -0.06689186 0.08377781 -0.29483774 0.052015293 -0.24037005
-0.23565455 0.038471457 -0.22958244 2.5988395e-05 -0.062831335 -0.041822188 -0.028827878 -9.992832e-05
1.6318739e-06 0.020961385 -8.1356084e-05 -0.0003910865 -0.023835069 -0.023614625 -0.21501231 0.0043736347
-0.16739815 -0.19185832 -0.19146708 0.2517661 -0.049242646 -0.09273887 -0.06209996 -0.024007201
0.0084858565 -0.15638156 -2.5369229e-05 -0.06368068 -0.25506333 -0.22628044 -0.020488909 -6.895991e-05
-0.30162185 0.24313295 -2.43828e-05 3.7354257e-06 -0.45635068 0.23822205 -0.13328947 -0.15482895
0.17463139 -0.17847548 -0.11625739 -0.036316495 -0.2519028 9.707792e-07 0.018640326 -0.073972635
0.012152857 -0.023254836 -0.08473296 0.13884684 -0.05604003 -0.00066163845 1.8380924e-06 0.24232955
-0.20717281 -0.030064736 -1.711408e-05 -0.3049756 -0.007176355 -0.26035526 -0.28856662 -0.2432723
-0.20097618 0.089337975 -0.14836033 -0.029517535 -0.22087501 0.03153978 -0.09930889 -0.2504598
-0.06840777 1.8582721e-05 -0.13640186 -0.07102238 -0.26342183 0.0812366 -0.21513066 -0.23440625
0.07376915 -0.12519363 -0.14502816 -0.23332325 -0.062974766 -0.028267115 -0.158618 -0.003377441
0.22591381 0.00020498902 -0.21782431 -0.212838 -0.19186184 -0.17150727 -0.2400123 -0.101305544
-0.1810767 0.00012366395 -0.08828017 1.2927998e-05 0.0052829855 0.06279362 -0.041490156 -0.00014859108
-0.0329869 -1.6921515e-05 -0.2253215 0.0037492039 0.024454176 0.047665678 -0.049574073 0.036387686
-9.490463e-06 -0.060293976 -0.19167951 -0.1405881 -0.10921493 -0.24982938 0.25119042 -0.08795908
0.1517568 0.07412874 -0.15936102 0.16232164 -0.005419895 0.086213656 -0.043677617 -0.038742017
-0.0058876798 0.060656376 0.047564264 0.24048716 0.05885702 -0.08833225 -0.0596006 -0.008711624
0.046091452 0.121749744 -8.0311365e-05 -0.24416688 -0.099090874 0.02928618 -0.40338024 0.08213555
0.17122193 0.075322516 0.06558361 -0.23962389 -0.09289658 0.0024605582 0.19014663 -0.09620732
-0.115113914 -0.09076301 -0.030514484 0.16692474 -0.022627365 0.20899235 0.013895968 0.019121187
-0.2206177 0.14816312 0.00019670544 -3.4139484e-05 0.047009498 -0.012302967 -0.25788525 0.03741077
-0.15935448 -0.06402567 0.046165895 -0.17016824 0.10256518 0.016861234 2.4239098e-06 -0.2867697
7.3414744e-06 -0.114751175 0.03356318 0.037723098 0.06581262 0.05096762 -0.08208182 -0.021091813
0.16593663 0.01801434 0.0068775127 0.060996957 -0.10071554 0.042544253 -0.06971508 -0.006285373
0.1350722 -0.1297108 0.007853135 0.111363724 -0.07322215 -0.19299617 0.02433989 0.13348173
-0.0076025296 -9.079903e-05 -0.061383814 -0.22938116 0.24243447 0.18336439 0.04322072 0.005765632
-0.004090166 0.21783526 0.16405122 0.057928726 0.16197799 -0.13482507 0.13692422 0.099663265
-0.18678178 -0.0003768254 -2.6556361e-05 -0.11150371 -0.19810839 -0.10182391 0.03597297 -0.042455718
-0.118308626 -0.020335305 -0.042438563 -7.19167e-06 0.05269178 -0.0147730755 -0.0038667894 -0.07633041
0.078243986 -0.040113434 -0.03739414 0.1594529 0.2029953 0.12512085 0.014553112 -0.018922474
-0.23912655 -0.10731426 -0.12923005 0.08919457 -0.040448204 -0.0014595436 -4.08037e-05 0.08763535

network.6.bias f4 [39]
00000000: 6538 38bd 5ad7 c13b 8818 513d 9897 103c
00000010: 9d6d bdba 846c 01bc c51b 963c 1c25 edbb
00000020: 20c1 0b3c 8fa3 9ebc 46ce 68bd cb40 6fbc
00000030: fd6d f83b 409b a5bc 1493 ca3c a8bc a53c
00000040: c438 8a3c e0ef f0bc 1652 2c3b d9db 123d
00000050: 80e4 8d3b f6a3 813c 5b69 a7bc d158 dc3c
00000060: 1b3f 6abd 1ea1 ca3c 9b5b 50bd 1c17 2dbc
00000070: bdc5 823b c4da 893c 506e f7bb 5911 5ebc
00000080: c1e5 a9bc fd9c 29bd 4c70 16bd 50e0 3abd
00000090: 7efd 4dbd 0865 64bd ecd0 06bd
-0.044975657 0.0059155645 0.051048785 0.008825205 -0.0014452223 -0.007899407 0.018323788 -0.00723709
0.008529931 -0.0193651 -0.056837343 -0.01460285 0.007581471 -0.02021563 0.024728335 0.02023156
0.016872771 -0.029411256 0.0026294044 0.035854194 0.004330218 0.015825253 -0.02043598 0.02689782
-0.05718909 0.02473503 -0.05086861 -0.010564592 0.0039908574 0.016827948 -0.007550992 -0.013553941
-0.020739438 -0.04140948 -0.03672819 -0.045624077 -0.050290577 -0.055760413 -0.032914087
