Homework/HW2/results/binary_real.pt (torch, 220037 bytes, 8 tensors)

network.0.weight f4 [128, 256]
000000 f1 b6 90 bc 00 4e 06 bd ba 55 00 3b 5a fc a3 3d
       -0.017665358 -0.03278923 0.0019582347 0.080071166
000010 07 40 76 3d fb 92 21 bd 4c be fa bd 6f 67 07 be
       0.060119655 -0.039446812 -0.122433275 -0.1322305
000020 57 18 58 3d 6c c9 01 3d b3 2a b5 bd 17 1c 6d bd
       0.052757587 0.03168623 -0.08846035 -0.057888117
000030 ff f1 3c bd 07 97 13 be d2 94 d9 3d d8 d6 7e 3d
       -0.046129223 -0.14413081 0.10624088 0.06221661
000040 d5 c0 9a bd 82 8c ef bc 0e 05 a9 3d 9a cd 0c be
       -0.07556311 -0.029241804 0.08252917 -0.13750306
000050 88 ae e9 3d f4 13 8b bd 75 62 27 bd d3 2b 92 bd
       0.11410242 -0.06790915 -0.04086538 -0.07137265
000060 ed de ec bb 2f 2a 9a 3d 07 bf 0e 3d 7a 4a 65 3c
       -0.0072287233 0.07527577 0.034850147 0.013994807
000070 67 40 85 bc b8 6a 83 3d d2 84 91 bd 56 b1 f1 bc
       -0.016266061 0.06416839 -0.071054116 -0.029503506
000080 5b ec cc ba 4e 39 c3 bd 81 48 e4 3d 01 14 fe 3c
       -0.0015634404 -0.095324144 0.111466415 0.031015398
000090 a5 fd ed 3c 2f b3 64 bd d8 49 27 b9 75 c4 eb 3c
       0.029051611 -0.055834945 -0.0001595387 0.028780201
0000a0 32 28 1a 3e c3 af a2 bc c0 e7 1d be c7 24 82 3c
       0.15054396 -0.0198592 -0.15420437 0.015886677
0000b0 ed 57 32 3e 18 52 13 bd 45 a5 86 bd ea fa 46 3d
       0.17416354 -0.035966963 -0.065744914 0.048579134
0000c0 1a ff f4 bc d4 65 dd bc f1 a0 2f bc c4 25 e9 bd
       -0.029906798 -0.027026094 -0.010719524 -0.11384156
0000d0 26 27 4f 3d 4c 22 17 bc 44 f7 1b bc 05 b8 16 3d
       0.050574444 -0.009224486 -0.009519402 0.03679659
0000e0 57 c9 87 3b a5 9c c8 3d 9c bf 23 bd 69 61 8d 3d
       0.0041438746 0.097955026 -0.039977655 0.06903345
0000f0 a2 30 17 be 06 7b d8 3c bb 09 97 3c 30 d9 41 bd
       -0.14764646 0.02642585 0.018437257 -0.047326267
000100 51 e6 0a bc 17 03 c0 3d 7b f1 30 bd 10 f9 14 bd
       -0.008477763 0.09375589 -0.043199044 -0.036370337
000110 25 78 61 bd 6a 36 1e 3d ab e5 06 be f6 b6 88 bd
       -0.05504622 0.038626112 -0.13173549 -0.06675522
000120 71 6d 47 3d c1 a4 d4 3d b7 14 8e 3c 1c f7 05 be
       0.048688356 0.10382987 0.017343862 -0.13082546
000130 51 25 03 3d 31 44 f0 bc 57 1c bb bc 51 d6 eb 3d
       0.03201801 -0.029329391 -0.022840662 0.11515487
000140 88 33 84 3d 35 4c 7b bc dd 2c 8e bd b0 1d 83 bd
       0.06455141 -0.015337993 -0.06942151 -0.06402147
000150 73 47 23 bc d2 4b 4e 3d c0 71 a4 3c 68 6f 9a 3d
       -0.009965765 0.050365277 0.020073771 0.0754078
000160 1c a2 5d bd 53 ba e1 bb 1b a9 44 bb 8b 11 b4 3d
       -0.054109678 -0.0068886667 -0.0030008021 0.087924086
000170 79 04 c9 bd 62 c8 b4 bd 86 d6 fa bd 16 56 12 3d
       -0.09815306 -0.088272825 -0.12247948 0.03572663
000180 f5 a9 d6 bc 1f 98 22 bd 0c 24 03 be b1 18 97 3d
       -0.026204089 -0.039695855 -0.1280672 0.073777564
000190 c4 5d 0a bd c4 92 4a 3d e6 4f 3a 3d a5 f7 36 be
       -0.033780828 0.049456373 0.045486353 -0.17867906
0001a0 22 fe 81 bd db 32 f4 bd 92 7c cf b8 c1 59 28 3d
       -0.063473 -0.119237624 -9.893732e-05 0.04110122
0001b0 d6 9d 91 3d df dc 16 3d 9a dd 2f bc b3 5c f5 3d
       0.07110183 0.036831733 -0.010733986 0.119805716
0001c0 f1 23 fd bc b8 44 39 3d 06 64 bc 3b d2 42 93 3d
       -0.030900927 0.04523155 0.0057492284 0.07190479
0001d0 03 0c 9b 3c 68 aa b5 bc 58 dc b8 39 10 54 df bd
       0.018926626 -0.022175983 0.00035259384 -0.109047055
0001e0 95 df 20 bd 2d 08 df 3d 84 cf aa bd 87 5f f4 bd
       -0.039275724 0.10890231 -0.08340362 -0.11932283
0001f0 a9 de 8a bd e9 e8 0a 3c 0c 6a f2 3d a3 6f 07 3d
       -0.0678075 0.008478382 0.11836633 0.03306545
000200 ac 0f 0d bd e4 a3 a0 3d 8c b2 95 bd c0 ae a6 3b
       -0.034438774 0.0784376 -0.07309446 0.00508675
000210 df ad 8e 3d a7 ee c9 ba 0e 4d 5a bc dd ff 35 3d
       0.06966757 -0.0015406207 -0.013324035 0.044433463
000220 e8 ea 6d 3c d3 2c 93 bd 09 81 b5 3c 30 4f a3 3c
       0.014521338 -0.07186284 0.022156255 0.01993522
000230 27 e9 80 bd ea 18 a8 bd 50 0f 2b bd 96 4e c8 3c
       -0.0629447 -0.08207877 -0.04176265 0.024451535
000240 87 b5 59 bd 2e 53 3c bc 89 1c 03 3b d7 78 cb ba
       -0.053151634 -0.011494441 0.0020006022 -0.0015523684
000250 96 8c c3 3b ca 49 82 3c 30 d7 2a bd 90 88 a0 3d
       0.005967687 0.015904326 -0.041709125 0.07838547
000260 f6 84 ae bd eb 28 d2 bd bf 4a b5 3b 54 30 fe 3c
       -0.08521454 -0.10261711 0.005532592 0.031028904
000270 02 d6 92 bd 71 ad 93 3d 7e ef 0a 3d fe 1c a9 3b
       -0.07169725 0.07210816 0.033919804 0.005160927
000280 04 d3 7d 3c bc a2 53 3d 8e ff b0 3c 2e 14 e5 bc
       0.015492205 0.051668867 0.021606233 -0.027963724
000290 38 1d 82 3d 3a 66 61 bd 70 ef 93 bd 81 2a 9a 3c
       0.06353229 -0.05502913 -0.072234035 0.018819096
0002a0 0f 87 be 3d 47 26 ff 3d 2c e2 54 3d f8 e4 6f 3c
       0.09303104 0.12458473 0.051973507 0.014641993
0002b0 de 26 ee bd 08 2e c5 bc 54 17 85 bc e9 7f 4e 3e
       -0.11628507 -0.024069801 -0.016246475 0.20165981
0002c0 07 04 d4 bc 05 b0 8a bd e3 c8 ea 3d de 06 09 3e
       -0.025880827 -0.06771854 0.11464097 0.13381526
0002d0 7d 2e ef 3c 1c d2 3f bd 71 87 97 3d f8 ff 36 bd
       0.029196972 -0.046831235 0.0739888 -0.044677705
0002e0 8f 45 71 bd 32 0a 58 3d 99 35 40 3d a7 1c c6 bd
       -0.058904227 0.052744098 0.046926115 -0.09673434
0002f0 5f 94 98 bb 22 ad 50 3c 89 7d 67 3d 7a de 99 bc
       -0.004656359 0.012736591 0.056516204 -0.018782843
000300 35 6b 38 3b 26 65 2f bc ce 59 69 3c 7e e7 6a bc
       0.0028140072 -0.010705268 0.0142426025 -0.014337419
000310 fc 51 c4 3d b3 48 68 bc 69 be 28 bd 73 f1 93 bd
       0.0958595 -0.014177489 -0.041197214 -0.07223787
000320 c3 5e 56 3d ff b9 57 bd 63 de e4 bc 19 9f 34 bd
       0.052336466 -0.052667614 -0.027938074 -0.04409704
000330 74 3a aa bd 12 2d 1f 3c c4 1a 98 3d 8e 3b cd bd
       -0.0831193 0.009715335 0.0742698 -0.10021125
000340 b1 f5 cc 3d ff d6 5a bd 13 2c a9 bc 13 31 bb bd
       0.100077994 -0.053427693 -0.020650899 -0.091402195
000350 6d 3c 06 3d 08 85 67 3d f4 73 c4 bd df f6 af bd
       0.03277247 0.056523353 -0.09592429 -0.08592009
000360 3f 51 89 3c 74 f9 3e bd 91 0e b9 bc 19 03 2e bd
       0.016762374 -0.046624616 -0.022589954 -0.042483423
000370 f5 cc 8f bd 1b 0d 35 bd 02 6d 5e bd 94 fa 6d bd
       -0.07021514 -0.04420195 -0.054303177 -0.058100298
000380 aa ee 85 bd f0 35 a1 bd 47 44 10 be 87 25 82 3c
       -0.06539662 -0.07871616 -0.14088546 0.015887035
000390 be e5 82 3d 06 49 df 3d f2 fe a4 3d e3 df 50 bc
       0.06391476 0.109026 0.080564395 -0.012748691
0003a0 d1 34 a8 bd c2 c7 b7 3c 06 a1 1c 3c a9 35 75 bc
       -0.08213199 0.02243412 0.009559875 -0.014966407
0003b0 f1 c7 2d 3c a0 95 a5 3d c5 85 66 3d 1f eb 90 3d
       0.010606752 0.08085179 0.056279916 0.07076096
0003c0 f9 a7 22 3e f6 d2 31 3d 3d 05 c1 bb 09 a6 39 3d
       0.15884389 0.04341408 -0.005890517 0.04532436
0003d0 db b3 f4 3b 1f d5 5b bd 1b 07 f4 bd df b2 5d bd
       0.0074677295 -0.053670045 -0.11915418 -0.054125663
0003e0 23 aa 08 be 7d e4 4e bd 41 48 06 bc 87 30 07 bd
       -0.13346152 -0.050510872 -0.008195938 -0.033005264
0003f0 69 70 db bd a2 05 0f 3c a5 9b 95 bd d6 6a 95 3d
       -0.107148 0.00872937 -0.073050775 0.07295768

network.0.bias f4 [128]
000000 0f f2 71 bc 19 4b 12 b9 5c b9 08 3d f7 a3 ef 3b
       -0.014767184 -0.00013951621 0.033379897 0.0073132473
000010 94 8e 48 bb d3 2b 99 3c 50 be 1c 3c 46 5f 9e bc
       -0.0030602561 0.018697655 0.009566858 -0.01933254
000020 a0 bf 9b bc 76 36 69 bc e7 a5 8b 3c a1 46 f3 bb
       -0.019012272 -0.014234176 0.017046882 -0.007424191
000030 68 33 00 bb 9d ce 87 bc 10 2a 17 3c 61 ce a0 3b
       -0.001956189 -0.016578013 0.009226337 0.004907415
000040 ae e7 bb bc 93 c1 cc bc 73 a1 8f bc 47 73 ae bc
       -0.022937622 -0.024994647 -0.01753304 -0.021295203
000050 24 97 0f 3c a7 20 49 bc ad a1 d7 3c 45 d4 85 3c
       0.008764062 -0.012275851 0.02632221 0.01633657
000060 ec 60 a3 3b c4 9b cd bb 21 84 49 bc 80 8e b6 3c
       0.004985919 -0.006274672 -0.012299568 0.022284746
000070 ce 8b d8 3b e3 aa 86 bb df 0e b0 bb 93 cb e0 bc
       0.006608463 -0.0041097268 -0.0053728665 -0.027440822
000080 02 6d 90 bc bb 63 c4 bc f9 4f 76 bc 6c ec ce bc
       -0.017630104 -0.023973336 -0.015033715 -0.02525922
000090 ed a0 57 bc 0a 09 83 bc 2d 80 18 bc 91 41 4a 3b
       -0.013160926 -0.015995521 -0.009307903 0.0030861835
0000a0 7d 5e 75 bc c3 48 cc 3c b0 4c 8f bc 58 69 68 3b
       -0.014976141 0.02493704 -0.017492622 0.003546318
0000b0 50 2d 05 bd 07 f0 86 bc b7 20 b7 3b 43 4c 6f 3b
       -0.032513916 -0.016471876 0.0055886167 0.0036513961
0000c0 e7 6c dc bc 3f 21 28 3d 26 9c 86 3c 67 ce 11 3b
       -0.026907397 0.04104733 0.01643188 0.002224827
0000d0 44 fc a0 bc 68 60 c2 3c 7b b5 75 bc e1 bd ec 3c
       -0.01965154 0.02372761 -0.014996882 0.028899135
0000e0 8c d2 df bb 46 f9 a9 3b 12 20 17 bd b8 f2 87 bc
       -0.006830519 0.0051871864 -0.03689582 -0.01659523
0000f0 8c 56 26 bd c1 9e 0b bd 74 d1 0e bb 9a e4 88 bc
       -0.04060988 -0.034086946 -0.0021792324 -0.016710568
000100 21 0f 2c bc 3e 40 40 bd 39 02 c7 bc 53 83 04 bd
       -0.010501654 -0.046936266 -0.024293052 -0.032351803
000110 91 37 5f bc 5d 2f bf bb 73 27 b6 3c 00 d5 6e 3c
       -0.013624088 -0.0058345036 0.022235608 0.01457715
000120 af cd db bb d7 4e e3 bc 31 e4 d6 3c 63 0e 3c 3b
       -0.006707869 -0.027747555 0.026231857 0.0028695099
000130 bf 74 13 bc 82 02 1c bb 54 f8 0a bd 06 59 39 3c
       -0.009000002 -0.0023805206 -0.03392823 0.011312729
000140 18 e2 14 bd cc ae 02 bd 3b 15 b2 bc 58 68 e6 bc
       -0.036348432 -0.03190498 -0.02173864 -0.028125927
000150 05 9f 94 bc 59 47 91 bb 94 de 08 bd 7e e9 2d 3a
       -0.018142233 -0.004433554 -0.033415392 0.00066342193
000160 29 91 d4 bb 66 f5 77 3c 38 f2 f6 bc cf 1a 16 bd
       -0.006487031 0.015134191 -0.030144796 -0.03664666
000170 18 f3 c6 bc bc cf e5 bc 3f bc e9 3c 81 f4 23 3c
       -0.024285838 -0.028053157 0.028532146 0.010007025
000180 49 19 aa 3c d0 9f 2d bb 36 6c 77 3b db 8c d0 bc
       0.02076401 -0.002649296 0.0037753708 -0.02545779
000190 d3 00 f1 bc 68 cc 9d bc 73 ed 9d bc 25 16 ce bc
       -0.029419338 -0.019262508 -0.019278264 -0.025157044
0001a0 ad f8 ba 3c 2c 19 98 bc 09 68 cf bc 81 a0 cd bb
       0.022823656 -0.01856669 -0.025318163 -0.006275237
0001b0 f3 27 e6 bc 52 b4 a7 bc 59 4d 82 bb 94 d9 04 bb
       -0.028095221 -0.020471726 -0.0039765057 -0.0020271288
0001c0 1b 77 cc 3c 5d 77 62 bb 84 67 ca ba 09 6c 23 bd
       0.024959138 -0.003455601 -0.0015442227 -0.039897952
0001d0 6d a8 40 3c 34 56 a4 3c 4a 1e ce bc df 26 84 bb
       0.011758906 0.020060636 -0.025160927 -0.004032954
0001e0 b9 9f d6 bc 5f f2 a6 bc b5 e1 46 3c d3 d4 a9 bc
       -0.026199209 -0.020379243 0.012138774 -0.020731365
0001f0 78 61 d3 bb 3b b5 11 bc fd 3b 8c bc 2c 3c f9 bc
       -0.006450828 -0.008893306 -0.017118448 -0.0304242

network.2.weight f4 [96, 128]
000000 e5 39 f2 38 1b 7a 03 3d ba 0e 8f 3e b3 0d b8 bd
       0.00011550243 0.03209887 0.27940923 -0.08986988
000010 da 7a 1d ba 6c ba 15 be 6b 0c 8f bd 71 1c 8d 3d
       -0.0006007381 -0.14621896 -0.069847904 0.068901904
000020 8b a8 9d bc cd ae 6b bd 35 9e a0 bd bf cf 16 be
       -0.019245407 -0.05753975 -0.078426756 -0.14727686
000030 79 5b c4 3d d6 43 b4 3d d5 1d 2c 3d 23 ed a0 bd
       0.095877595 0.08802001 0.042020638 -0.0785773
000040 9a 78 77 bc ea cb 61 bd 4f 59 2e 3d 30 8d 99 3c
       -0.015104437 -0.05512611 0.04256564 0.018744081
000050 62 ff af bc 55 89 ad bb 9c c1 af bd 93 66 f1 3b
       -0.02148408 -0.0052959123 -0.0858185 0.007366964
000060 a7 54 45 3d 4c 6b 95 be 0b be 8d 3d 13 9e 09 bd
       0.048176434 -0.29183424 0.069210134 -0.033598017
000070 ad a7 ae bd e6 22 01 3e 7c 23 1c be 82 05 3b 3d
       -0.08528075 0.12610969 -0.15247911 0.04565955
000080 88 e5 c3 3c 6b 28 42 bd 0b 92 31 3e d9 78 6d 3d
       0.02391316 -0.047401827 0.17340867 0.057976577
000090 d6 47 95 3d 28 06 5a 3d 8f 5e 4e 3d a0 ee a7 ba
       0.07289092 0.053228527 0.050383147 -0.0012812205
0000a0 e8 5f 15 3d 58 e1 33 bd 60 e2 80 bd 9c b4 6d be
       0.036468416 -0.043916076 -0.062931776 -0.23213428
0000b0 96 f0 94 bc e7 9b f3 bd c1 78 d3 bb ed 32 01 3e
       -0.018181127 -0.118949704 -0.006453604 0.12617083
0000c0 14 67 47 bc cc b6 5f 3e 35 2b cc bd b6 6b 54 be
       -0.012170572 0.21847075 -0.099691786 -0.20744213
0000d0 0e b0 2d 3d fc 41 11 bd 65 7d 9e 3d 42 a7 61 bd
       0.042404227 -0.03546332 0.07738761 -0.05509115
0000e0 9f be 07 be ed 76 6f 3c 10 0d 80 3d ef 4c 70 bc
       -0.1325631 0.014615756 0.062524915 -0.01466678
0000f0 9a 77 3b 3e aa 96 d1 bb 7b 8b 1a be 44 f3 c6 bd
       0.18307343 -0.0063961344 -0.1509227 -0.09714368
000100 3d 0e af 3c 02 b9 8c 3c b9 ec 7d bd 08 e5 a2 3d
       0.021369094 0.017178062 -0.061993334 0.079538405
000110 de 35 66 be d7 d0 ab 3d 00 4e 10 be 56 5e 20 3e
       -0.22481486 0.083894424 -0.14092255 0.15660986
000120 6d 0c 84 bd 79 8d a6 bd 10 8f c7 bd bf a6 fb bd
       -0.064476825 -0.081324525 -0.09744084 -0.12287664
000130 19 47 5a bd 27 f9 9d bd ad 67 ac bd dc 58 04 be
       -0.05329046 -0.07713538 -0.08418212 -0.12924522
000140 77 8b 6b 3c 7f 22 f1 3d 2e 45 c6 3d 93 52 e8 bd
       0.014376513 0.11774158 0.09681164 -0.11343875
000150 5e dd b7 3c f2 0a 89 bd c6 0c 05 3c 4c c7 23 3e
       0.022444423 -0.06691541 0.008120721 0.15993994
000160 11 78 0e 3d 6b cc ea bd 5b 89 ff 3d c8 f2 00 3e
       0.034782473 -0.11464771 0.1247737 0.12592614
000170 bd b8 fd 3d 5e 46 10 3a 4a 18 7f be 02 59 05 3e
       0.12388752 0.00055036496 -0.2491161 0.13022235
000180 56 0b b6 bc 7e 37 86 3c 49 f0 7b 3c 8d 94 c2 3d
       -0.022222202 0.016383883 0.015377113 0.0950099
000190 15 88 d7 bd cf af 1e bd 42 0c b9 bd b4 a4 ef 3c
       -0.105240025 -0.038741883 -0.09035541 0.029253341
0001a0 4a 34 63 be 23 fa c6 bc 03 28 b7 bd 83 ec 25 3e
       -0.22187915 -0.024289196 -0.089431785 0.16203503
0001b0 e1 26 96 bd bb 3b a2 3b a5 88 80 be ab 2b 01 be
       -0.07331634 0.004950968 -0.25104252 -0.12614314
0001c0 9a 23 18 bd 52 df 03 3e 28 51 64 bd 7c a9 0e 3d
       -0.037143327 0.12878159 -0.05574146 0.0348296
0001d0 18 6a 1f bd 7c 39 c7 ba 7d 4a a3 3d 11 87 e0 3b
       -0.03891954 -0.0015199627 0.07973192 0.0068520387
0001e0 f2 97 7f 3c 9b d3 97 bd 47 45 17 be 6d 30 26 be
       0.015600191 -0.074134074 -0.14772521 -0.1622941
0001f0 91 9a 78 bd 8e ee ba bc 08 e4 6f 39 2b 43 6b 3d
       -0.06069428 -0.02281883 0.00022877764 0.057437103
000200 aa f3 14 be 65 0b 45 bc 63 e0 17 bd 27 44 a2 bd
       -0.14546075 -0.012026642 -0.037079226 -0.07923155
000210 42 ca d9 bc 49 c9 90 3d c7 1d aa bc b3 f1 b6 3c
       -0.026585702 0.07069642 -0.020766152 0.022332048
000220 83 29 5d 3d 64 58 c7 3d 1b 8c ee 3d 6a 83 67 bd
       0.053994667 0.09733656 0.11647817 -0.05652181
000230 98 96 14 bd 4d b8 a2 bd f6 62 0d bd a0 36 23 3d
       -0.03627643 -0.07945309 -0.034518205 0.039847016
000240 5b 63 69 3d 20 8e 0c 3d ca 30 c5 3d e5 f1 31 bd
       0.05697952 0.03431523 0.096284464 -0.04344358
000250 bb 4c 7b ba 99 56 06 bd 63 0e b4 bd 51 dc c4 3d
       -0.0009586324 -0.03279743 -0.087918065 0.096123345
000260 60 6f 38 be cc e3 7c 3e 09 2b 8d bc 54 cd de bc
       -0.18011236 0.24696273 -0.017232435 -0.027197517
000270 07 13 f0 bd 72 8d 0c 3d 75 f0 04 3d 5f 4f 56 be
       -0.11722379 0.03431458 0.03245588 -0.20928715
000280 c0 33 91 3d 22 7a 4b 3d 93 2c d4 3b 9d 1f 51 3d
       0.07089949 0.04967702 0.00647504 0.05105554
000290 76 aa 98 bd 35 f3 c6 3d 58 b1 cc ba 2c 96 1f bd
       -0.07454388 0.09714357 -0.0015616817 -0.038961574
0002a0 c1 2e b7 bd bb bb 6f bb d7 b4 50 3c ad c4 b1 bd
       -0.089444645 -0.0036580402 0.012738428 -0.08680091
0002b0 1c 90 a9 3d 2e 0a ab 3c 22 2c e2 3c db af d4 3d
       0.0827944 0.020878877 0.027608935 0.10385104
0002c0 94 fd 0d 3e d0 eb b9 3d 8a 57 08 be ac 9f fb 3d
       0.13866264 0.09078181 -0.13314644 0.12286314
0002d0 75 96 73 bd d7 8e 5c b5 19 a0 68 3c c2 8e 22 bd
       -0.05946966 -8.2164246e-07 0.0141983265 -0.039686926
0002e0 71 d1 82 bd 4a 31 b4 bc 51 94 b7 3c 20 a2 14 be
       -0.06387604 -0.02199616 0.02240959 -0.14514971
0002f0 2b dc 5f 3d 60 00 1e 3d f8 47 00 3d 28 a1 00 be
       0.054653328 0.038574576 0.031318635 -0.12561476
000300 49 11 c5 3c fc ed f0 bc 1f c9 b6 3b 96 54 73 3d
       0.024056094 -0.029410355 0.0055781747 0.05940684
000310 36 31 26 bc 80 61 eb 3d dd 40 7f bd d8 88 86 bd
       -0.010143569 0.11493206 -0.062317718 -0.065690696
000320 9f c5 83 3d 7d 40 c0 bd 43 34 9f bd 49 cc 52 3d
       0.064341776 -0.093873 -0.0777364 0.051464353
000330 46 c7 86 3d 62 41 8b bc c5 34 2d bd fd be 17 bd
       0.06580977 -0.01699895 -0.042286653 -0.037047375
000340 85 76 0d be 15 c3 92 3d a0 1d 66 3b 59 b4 18 be
       -0.13814743 0.07166115 0.0035112873 -0.14912547
000350 46 dd 31 3e 8a 13 41 bc c5 64 b1 bd 4e ff 2f 3e
       0.17369565 -0.011784444 -0.086617984 0.17187235
000360 c4 6f 23 bd 3a ef b0 bc 5c 99 2e 3e bd 69 1d bd
       -0.03990151 -0.021598447 0.1705069 -0.038430918
000370 f7 98 ef 3c ab 8d 96 bd b2 5d 18 bd 20 67 b0 3c
       0.029247744 -0.0735124 -0.03719873 0.021533549
000380 0c 11 a8 3d 27 fc f3 bd 5e 60 af bd 12 ae 89 bd
       0.082063764 -0.119133286 -0.085633025 -0.067226544
000390 91 e7 01 bb 7f b6 d2 bd 69 88 5e 3d f8 3b b4 bb
       -0.0019821862 -0.102887146 0.05432931 -0.005500313
0003a0 15 00 7c 3d 4e 22 0c bd d2 b3 b3 3c ce b6 b8 bd
       0.061523516 -0.034212403 0.021936331 -0.09019242
0003b0 d8 64 f2 3b 4c e8 0f 3c a3 03 d8 bd 07 8e c4 bb
       0.0073972754 0.008783411 -0.10547569 -0.0059983763
0003c0 12 f9 d5 bd f9 73 70 bd a6 0e e7 3b ee a4 a8 bd
       -0.10447897 -0.05870435 0.007051307 -0.08234583
0003d0 dd 25 03 be 2a d3 84 3d 24 b5 95 bd 7f 69 88 bd
       -0.12807412 0.06485589 -0.073099405 -0.06660747
0003e0 cb 09 b9 b9 85 10 13 be 15 50 b0 3e dc 53 3d bd
       -0.00035293246 -0.1436177 0.34436098 -0.046222553
0003f0 14 57 f0 bd f8 2e e3 bd 76 11 83 bc 28 bf 4b 3c
       -0.11735359 -0.11092943 -0.015999537 0.012435712

network.2.bias f4 [96]
000000 93 58 e3 bc c9 5e d8 bc 42 1a 4c 3c d4 2f e6 bc
       -0.027752196 -0.026412385 0.012457432 -0.028098978
000010 48 dd 16 bd 83 5c 9d bc d3 0a c0 bc c9 30 b5 bc
       -0.036832124 -0.019209152 -0.023442661 -0.02211799
000020 8c 3a bb bc 69 36 99 bc 04 37 43 bd e4 1b eb bb
       -0.022855066 -0.018702703 -0.04765989 -0.0071749557
000030 0c 09 14 bb fd c8 f7 bc 59 97 b1 bc 47 a3 40 bc
       -0.00225884 -0.030247206 -0.021678613 -0.011757678
000040 ff 3a 9f bc 0b 10 21 bb cd f3 99 bc 64 a7 0d 3d
       -0.019437311 -0.0024576213 -0.018793011 0.034583464
000050 3b a3 a6 bc 11 37 bc 3c 6a 4e 09 bd bd 1f b3 bc
       -0.020341506 0.022975476 -0.033522047 -0.02186572
000060 ec 43 98 bc be 8c 58 bc e9 1f ae bc d9 8d 9a bc
       -0.018587075 -0.013217149 -0.02125545 -0.018866466
000070 7a 6d df bc 26 86 bb 3c 8d 43 59 bc 43 d9 05 3c
       -0.027273882 0.022891115 -0.013260734 0.008169475
000080 22 fd b0 3a 65 4e 92 bc 47 99 e3 bc 76 33 b3 3c
       0.0013503174 -0.017859647 -0.02778305 0.021875124
000090 75 67 ac bc 14 ff 4f bc 09 49 a6 bc 23 83 aa bc
       -0.021045426 -0.012695093 -0.020298498 -0.020814484
0000a0 49 5a bb bc 0c 0b 06 bd 09 1e 57 bc d9 a6 23 bc
       -0.0228702 -0.03272538 -0.0131297195 -0.00998851
0000b0 b3 f3 e6 bc 77 df 1f 3c 18 93 d9 bc be 92 8a 3c
       -0.028192377 0.009757868 -0.026559398 0.016915675
0000c0 a0 e1 ac bc 8e 9f ec 3b 1c b4 04 bc f0 37 1a bd
       -0.02110368 0.007221169 -0.008099582 -0.037651002
0000d0 4e d7 a1 bc ac a1 65 bc 79 6a a2 bc 6c 10 c0 3c
       -0.019755986 -0.014015596 -0.01982616 0.02344533
0000e0 04 73 19 bd 3a 32 c3 bb c4 eb fa bb 2c 23 7d 3b
       -0.037463203 -0.005956915 -0.0076575 0.00386257
0000f0 e3 e5 78 bc 5c e4 bc bc b7 c1 cc bc 0f ec 23 bb
       -0.015191528 -0.023058109 -0.024994714 -0.0025012528
000100 7f 6b 64 3c c9 f8 28 bb 98 8f 4e 3d 03 d0 13 bd
       0.013941645 -0.0025783053 0.05042991 -0.036087047
000110 cf 16 9f bc 62 14 b7 bc 47 3e 09 bd df f9 bc bc
       -0.019420056 -0.022348586 -0.033506658 -0.023068367
000120 cc 17 d0 bb d1 50 09 bd fe 88 0a bd 99 91 de bc
       -0.006350493 -0.03352434 -0.033822052 -0.027169036
000130 93 19 77 3c 63 7d 4a 3d 5c da 99 bb 95 0c 94 bb
       0.015081781 0.049435984 -0.00469522 -0.0045181015
000140 f8 28 0a 3c 1e f9 43 bc 30 fc 49 3c ee 46 50 3c
       0.008432619 -0.01196125 0.012328193 0.012712223
000150 84 62 c2 bc 56 1f 12 bd 6f 83 10 bd fa a4 a8 bc
       -0.023728617 -0.035674416 -0.035281595 -0.02058648
000160 27 e1 9e bc 46 91 c8 3c 15 8b 7a bc 4b 4d d9 bb
       -0.01939447 0.024483334 -0.015291949 -0.0066315285
000170 80 ea 03 bd a0 d8 2c bd c4 ab 98 3c d2 59 e9 bc
       -0.03220606 -0.042198777 0.018636592 -0.028485212

network.4.weight f4 [64, 96]
000000 ff 89 12 be a8 58 2f 3e 43 e0 dd b9 3e 69 b6 bd
       -0.14310454 0.17123663 -0.00042319493 -0.08906792
000010 60 5e 27 be 28 68 da bc 1a 5d a4 bd 5b d0 f1 bd
       -0.16344595 -0.026660994 -0.0802557 -0.11807319
000020 f2 80 b3 3d b1 c2 17 bd ce e9 b5 3e e5 4d e3 3d
       0.08764829 -0.037050907 0.3552994 0.110988416
000030 6f 64 08 be a0 0c b5 3d f1 49 0f be 91 e3 f7 bd
       -0.13319562 0.08840299 -0.1399305 -0.12103952
000040 b1 9f 12 be c3 05 4b bd f9 1e 95 bd 58 49 e5 3d
       -0.1431873 -0.04956604 -0.07281298 0.1119563
000050 e7 c9 6d 3e af 4a 0a 3e e5 76 4b 3c 36 b5 37 bb
       0.23221551 0.13505052 0.012418483 -0.0028031594
000060 e3 49 7d 3c d0 9a 84 be 60 bb bd 3d 5c e4 9a 3d
       0.0154595105 -0.25899363 0.092642546 0.07563087
000070 1b ae 0c 3c 67 c2 86 be b4 87 d0 3d fa 17 c6 bd
       0.008586432 -0.26320192 0.10182133 -0.09672542
000080 9e d7 aa 3c 17 0e 4f be c2 22 37 bd 0d 97 4f bd
       0.020854767 -0.20220219 -0.044710882 -0.050681163
000090 c4 ea 73 3d 99 51 27 3e bc e5 f4 bd 62 2b 29 bd
       0.05955006 0.16339721 -0.11957881 -0.04130114
0000a0 23 6c 09 bc fc e7 fd bc fb 7a 59 bb ce 50 06 be
       -0.008387598 -0.030994408 -0.0033184874 -0.13116762
0000b0 21 fe be bc 5d 82 d8 bd 02 5e b7 bd 48 79 57 bd
       -0.023314537 -0.1057174 -0.089534774 -0.052605897
0000c0 79 4f d4 bc 52 4f a5 be ac 8a 89 bd 46 e4 a6 3d
       -0.025916802 -0.3228708 -0.06715903 0.081490085
0000d0 4c 23 8f bc bc 3f 80 3d 93 6b 90 3d 61 80 66 3d
       -0.017472886 0.06262156 0.07051768 0.056274775
0000e0 04 67 07 bd e4 d4 d1 3d 9a b3 82 3d f1 ee bc 3b
       -0.033057228 0.10245684 0.063819125 0.0057657887
0000f0 32 6e e5 3d 08 72 bd bd af bd 19 3d 6a f6 ef bd
       0.11202659 -0.09250265 0.037534412 -0.11716922
000100 8c fb b1 bc ee 62 17 3e cb 0c a0 bb e9 70 0f bb
       -0.021726392 0.14783832 -0.0048843375 -0.0021887368
000110 20 36 47 be f1 3a ab bc da 2d 54 3c f8 85 19 3e
       -0.19454241 -0.020902129 0.012950385 0.14992511
000120 8d 4b 1d bd f0 74 c2 3d 58 3f 63 bd f5 88 23 3e
       -0.03840213 0.0949496 -0.05548033 0.15970214
000130 fa 91 30 be 70 2c 19 3d cf e1 0c 3e e0 fd 81 be
       -0.17243186 0.037395895 0.13758014 -0.25389004
000140 75 03 22 3e a2 24 d5 3d 9a 98 10 bc e5 1e 18 3d
       0.15821631 0.10407378 -0.008825446 0.03713884
000150 35 95 7c be ed 41 e4 bd 94 bc c2 bd 60 e3 9f 3c
       -0.24666293 -0.11145387 -0.09508625 0.0195176
000160 b4 5e 06 bd 0a aa 6a be 24 6c 54 be 9b 43 61 be
       -0.03280516 -0.22916427 -0.20744377 -0.21998446
000170 0d a8 07 bd a2 1d 96 3c 0c 6a df bc 98 02 12 bd
       -0.03311925 0.018324677 -0.027272247 -0.035647005
000180 1f 21 7d 3d 16 f5 53 3d 46 95 0e be bb c3 0e 3d
       0.061799165 0.051747404 -0.13924131 0.034854632
000190 2c 10 2f 3c a8 16 ab 3d 68 05 04 3c 43 07 37 bd
       0.010685008 0.08353931 0.00805793 -0.04468466
0001a0 2b c8 9b 3d 4d ff 06 3e c7 1e cd bd 76 db 35 bd
       0.076065384 0.13183327 -0.10015636 -0.044398747
0001b0 1e 8e e8 bd a5 8d 3f 3e c6 67 8c 3b 69 5e 4f 3c
       -0.11355232 0.18706377 0.0042848317 0.0126567865
0001c0 a1 1e 89 3d 52 cd 24 bc 69 19 65 bd e0 68 e1 bd
       0.06695295 -0.010058718 -0.055932436 -0.110063314
0001d0 33 87 86 bc 0b f1 57 be f1 bc cc 3d 9f 6c df bd
       -0.01642189 -0.21088044 0.09996975 -0.1090939
0001e0 c7 9a dd 3d eb 9f d7 3d 9b 7f cc bd 80 6c a5 bd
       0.10820537 0.10528549 -0.09985276 -0.08077335
0001f0 ff af 00 be 9c 87 30 be d2 3a 01 3e f4 dc f3 3c
       -0.12567137 -0.17239231 0.12620094 0.029768445
000200 85 00 50 bd 80 28 74 bb 5d 44 10 3e 7e f3 86 3c
       -0.050781745 -0.0037255585 0.14088579 0.016473528
000210 74 3f 41 bd 1d e2 79 3e aa 39 6d bd 83 c5 d4 bd
       -0.047179654 0.24402662 -0.05791632 -0.10389235
000220 df e1 82 bd 4d 63 c0 bd 26 1b 09 3e de 40 62 bb
       -0.06390738 -0.0939394 0.13389263 -0.0034523527
000230 59 0e fa bd c7 e4 19 3e 62 d6 b0 3d bc f4 e0 bd
       -0.12209768 0.15028678 0.0863464 -0.109841794
000240 53 b7 92 3d 8b a7 cb bd 80 da 96 bc 7d 14 b7 bd
       0.071638726 -0.09944066 -0.018414736 -0.08939455
000250 06 e7 55 3c 56 00 f1 3d 8c 92 03 3c aa 13 26 bb
       0.013055569 0.11767642 0.008030545 -0.002534131
000260 0f db f6 bd 48 6e 99 bd e6 fb 3a 3d 9c 88 b4 3d
       -0.12053501 -0.074917376 0.045650385 0.08815119
000270 d9 03 88 bd 7a 64 45 3e 88 97 e4 bd 2e f9 77 b9
       -0.06641359 0.1927661 -0.11161715 -0.00023648582
000280 1d e6 2f bd 8a 54 23 be 2f 99 0e be c4 35 37 bd
       -0.042944063 -0.15950218 -0.13925622 -0.04472901
000290 97 39 88 3c 0a 46 48 bd ec 0d 24 3d 54 c3 4e b9
       0.016629023 -0.04889492 0.04005234 -0.00019718456
0002a0 fe 64 af 3d d2 29 6a 3d a8 cc 2f be 75 36 0a 3e
       0.085641846 0.05716879 -0.17167914 0.13497336
0002b0 64 51 99 3e c7 ec 06 be 97 9e 41 be 87 e3 ba ba
       0.2994491 -0.13176261 -0.18908153 -0.0014258482
0002c0 87 30 9b bd f0 ba 06 3e 20 b6 18 3d 03 13 1c be
       -0.07577615 0.13157248 0.037283063 -0.15241627
0002d0 66 50 fb 3c 45 06 9d 3d d6 8a 0e be c2 08 3f be
       0.030677985 0.076672114 -0.13920149 -0.18655685
0002e0 55 5f 13 be 3c 26 6d be dc bd 3c bd dd 77 ff 3b
       -0.14391835 -0.23159117 -0.0460795 0.0077962712
0002f0 1a 67 17 3d 82 b7 b5 3b af 4b b8 bd cc 58 a9 3d
       0.03696356 0.0055455575 -0.089988105 0.0826889
000300 50 7f bf 3c 06 1a 8c be 98 df 09 3e 9d f0 44 bd
       0.023376137 -0.27363604 0.134642 -0.04808103
000310 c8 73 f1 bd b7 fa 00 3d 2a 26 a3 3d 37 14 28 be
       -0.11789662 0.0314891 0.079662636 -0.16413961
000320 d3 06 16 3d 21 9b b9 bd a2 34 70 3d d4 4a 96 3d
       0.0366276 -0.090627916 0.058643945 0.07338491
000330 3a 0b d9 bd 5f 32 e1 bd 53 ea b8 bc 03 10 90 3c
       -0.105978444 -0.10995936 -0.022572672 0.01758576
000340 f2 cb b2 ba 74 80 35 3e 03 5b 4a 3d 4c 7d cc bc
       -0.0013641103 0.17724782 0.0494032 -0.02496209
000350 64 68 51 3d c3 32 99 3d 07 82 72 bd eb a4 24 3e
       0.051124945 0.07480385 -0.059206035 0.16078536
000360 d2 2b ac bd de 47 2a be 35 b7 46 3e aa ed 3c be
       -0.084067956 -0.16628978 0.19405825 -0.18450037
000370 36 a6 ed 3d 7a 36 f3 3d 70 d9 0d 3c be 3b 90 bd
       0.11603968 0.11875625 0.008657798 -0.07042645
000380 11 a9 0f be fc 6f b9 bd a5 15 3e 3c bc 94 c6 bd
       -0.14029337 -0.090545624 0.01160184 -0.096963376
000390 16 b0 05 be 82 16 2a 3d 94 8e a4 bd fe 24 17 bd
       -0.13055453 0.04152537 -0.08035007 -0.036900513
0003a0 f1 8e e3 bc 8e fa b6 bc c9 8e 16 3d ef d4 5a 3e
       -0.02777812 -0.02233627 0.036757264 0.2137029
0003b0 c5 f1 d2 3d 69 de d8 bd e1 76 83 3e 3e d8 9b 3c
       0.1030002 -0.10589296 0.25676635 0.01902401
0003c0 6b 31 96 be 5c a2 2a 3c 30 2a 85 bb 3f 13 f9 3d
       -0.29334578 0.010414686 -0.004063867 0.12161874
0003d0 6b ef 03 3a 9f 05 23 ba 12 95 b0 bd b9 a0 5f 3d
       0.00050329295 -0.0006218794 -0.08622183 0.054596636
0003e0 1a 96 4d 3e 44 f9 08 3e 7d 62 9c bb f5 4e 91 ba
       0.2007679 0.13376337 -0.004772483 -0.0011086153
0003f0 a0 43 3b 3e ed f5 bf 3d 6e 6f 16 3d 64 1e b1 bc
       0.18287516 0.093730785 0.03672736 -0.021620937

network.4.bias f4 [64]
000000 09 39 04 bd 72 4b 5a bd 2a 17 b1 bc c7 ac 2a bd
       -0.032280955 -0.053294607 -0.02161749 -0.04166868
000010 bc f3 96 bc 25 aa 42 bd c6 60 f0 bc bf 44 01 bd
       -0.018426768 -0.047525544 -0.02934302 -0.031559702
000020 28 6a 45 bd 27 71 5b bd 5c 23 5d bd cb b0 63 bd
       -0.04819694 -0.053574707 -0.0539888 -0.055588525
000030 e9 ea 39 bd e8 4a 0c bd f0 a1 3c bd e0 5f 13 bd
       -0.045390043 -0.034251124 -0.046052873 -0.035980105
000040 d5 43 5b bd 49 f0 ff bc 73 7d 69 bd 2d 5f eb bc
       -0.053531487 -0.031242507 -0.057004403 -0.028731907
000050 3e 29 d1 bc be 28 bd ba 61 cf 47 bd ed 08 56 bb
       -0.025532361 -0.0014431698 -0.048781756 -0.0032659129
000060 42 84 c8 bc d7 86 0e bd eb 69 e9 bc e8 d9 98 bd
       -0.024477128 -0.034796562 -0.028492888 -0.07463437
000070 42 e4 3c bd 5f ab 14 bd df 5c 8c bd 6c f1 10 bd
       -0.04611612 -0.036296245 -0.06853651 -0.035386488
000080 a1 59 f1 bc 40 45 96 bc 1b 31 78 bd c0 18 26 bd
       -0.029461684 -0.018343568 -0.060593706 -0.040550947
000090 1e bc e2 bc 9b 20 60 bd 57 a2 08 bd d9 a7 06 bd
       -0.027677592 -0.054718595 -0.033357944 -0.032874916
0000a0 c2 3d 2f bd 66 81 41 bd 6d a0 78 bc 67 ba 1c bd
       -0.042783506 -0.047242545 -0.015174967 -0.038263705
0000b0 e2 2c 49 bd b5 4f 9c bc 11 42 e2 bc 53 c8 2c bd
       -0.04911507 -0.019080976 -0.027619394 -0.04218323
0000c0 99 28 33 bd dc fa 01 bd 21 32 9f bb 75 8a 13 bd
       -0.04373989 -0.03173338 -0.0048582708 -0.036020715
0000d0 5c 5f d8 bc 44 a7 02 bd 3a 9b 29 bd ed 84 5f bd
       -0.026412658 -0.0318978 -0.0414078 -0.054570127
0000e0 35 3a 00 bd 0c 66 cf bc 7c c9 ba bc 2a bb 09 bd
       -0.03130551 -0.025317214 -0.022801153 -0.03362576
0000f0 47 0d 47 bd 09 ee b1 bc c2 61 cd bc 49 24 04 bd
       -0.048596647 -0.02171995 -0.025071029 -0.032261167

network.6.weight f4 [39, 64]
000000 54 53 d3 3c a8 ca bc 3d 97 86 37 be 73 57 45 3d
       0.02579657 0.09218341 -0.17922436 0.0481791
000010 43 bf 02 be bf 70 da bc 7c 5d a5 3d b9 7b ec 3d
       -0.12768273 -0.02666509 0.08074471 0.11547036
000020 e2 0a a6 bd 12 6a 86 be 18 8d 42 be e4 28 50 3e
       -0.081075445 -0.262528 -0.18999135 0.20328099
000030 7e 47 f8 3d 4e 58 68 bc 87 f5 4e bb d4 32 ab 3b
       0.12123011 -0.01418121 -0.0031579451 0.005224565
000040 6d c0 f6 3d cd 5a b4 be f0 9b aa 3d 99 2f c6 be
       0.12048421 -0.35225525 0.08330524 -0.3870819
000050 ad c1 2f 3e c0 c9 98 3a b9 64 f1 bd b4 c0 56 3e
       0.17163725 0.0011656806 -0.117867894 0.20971948
000060 f1 eb 8b 3c 44 4c de bd 31 75 bb 3e 1d e8 86 bd
       0.017080279 -0.1085439 0.36612847 -0.06587241
000070 ea 94 0e be b3 9b 33 3e cc e5 e0 bb f8 83 f1 bd
       -0.13923994 0.17539863 -0.0068633314 -0.11792749
000080 6a 6b 43 be 22 8e 34 bd b4 77 a0 ba fb f5 55 be
       -0.19083944 -0.04408086 -0.0012242706 -0.20894615
000090 67 89 f0 b9 e7 c7 0d b9 2e 6a e1 bd 7e ee 00 bd
       -0.0004587874 -0.00013521277 -0.1100658 -0.031477444
0000a0 c2 de 2c bc e6 d7 34 be ec c0 ad bd b2 d4 a2 be
       -0.0105511565 -0.17660484 -0.084840626 -0.318029
0000b0 ca a4 a2 3b 25 f8 8c be 62 cf 07 bd 28 1f 0f be
       0.004963492 -0.2753307 -0.03315676 -0.13976729
0000c0 68 1f 05 be 19 95 7b bd f0 04 41 3e e0 05 d2 bd
       -0.13000262 -0.061421487 0.1884954 -0.10255027
0000d0 a8 25 06 be 47 91 1e bd ed b1 0b 3e d5 ee 7c bd
       -0.13100302 -0.038712766 0.13642092 -0.061751205
0000e0 fe b7 fa 3c b7 c5 84 3d 7a 35 03 3d be f6 81 bd
       0.030605312 0.064830236 0.03203342 -0.063458905
0000f0 0f 45 87 ba d6 de 22 bc 83 b2 4e be 13 41 48 bd
       -0.0010320264 -0.009940824 -0.20185284 -0.048890185
000100 1b 1d 0f 3d 06 a6 43 be 58 dc 88 bd 4b 28 0d 3c
       0.034939867 -0.19106302 -0.06682652 0.008615564
000110 7f 43 90 be a6 1d 26 3e 7d 49 5e 3e 13 99 af bd
       -0.28176495 0.16222247 0.21707721 -0.085741185
000120 09 e4 f9 3c b2 9c c4 bb 3f 69 8d 3c f7 5f 62 3e
       0.030504243 -0.006000125 0.0172621 0.2210692
000130 53 88 69 3e d8 14 8c bc 0b b4 bd 3d 45 25 84 3d
       0.2280591 -0.017099783 0.09262856 0.06452421
000140 f8 6b 4b ba 8e f7 f0 3d 0f 82 94 3d d6 6f 95 bc
       -0.0007759924 0.11765967 0.07251369 -0.018241804
000150 1e 82 17 b9 73 b8 b9 3e 47 57 b0 bd 68 5f b1 bd
       -0.00014448955 0.36273536 -0.08610397 -0.086607754
000160 fd cb 44 bd d1 e8 15 3e 44 bb 1a 3e 66 e2 8c 3d
       -0.0480461 0.14639594 0.15110499 0.068791196
000170 03 e1 31 3d 53 20 04 be 18 09 ab 37 2a 11 dd bc
       0.04342748 -0.12902956 2.0389023e-05 -0.026985724
000180 ac 22 8f bb c0 0c 98 3d 63 ac 1f b7 98 96 b5 be
       -0.004368147 0.07424307 -9.517275e-06 -0.35466456
000190 a5 de 0d 3d 2c 4d f9 3c 19 24 ba 3d 7f 5f ad 3e
       0.03463616 0.030432306 0.09088916 0.3386192
0001a0 e8 47 cb 3c 6a e8 1b 3e 01 81 f9 3a 70 3e 90 bd
       0.024814561 0.15225378 0.0019035639 -0.07043159
0001b0 08 dd 4b bd 88 21 38 bb e9 16 16 3e 3e bf ea 3d
       -0.04977134 -0.0028096158 0.14657177 0.11462258
0001c0 2b 0b 8a ba c3 d1 75 bd 34 dc 09 bd 2e 9c ba 3d
       -0.0010531893 -0.060014497 -0.033657268 0.0911182
0001d0 44 92 d4 3d 94 1a 1a be 02 af c7 bd bb 42 19 be
       0.103794605 -0.15049201 -0.09750177 -0.14966862
0001e0 c5 7c bd 3d ab 89 84 be 87 95 3c bd 99 1a 2f 3e
       0.092523135 -0.25886282 -0.046041038 0.1709999
0001f0 63 8b d6 bd 62 35 4c 3e cb 3c cc 37 3f 72 5f 3c
       -0.10475805 0.19942239 2.4347004e-05 0.013638078
000200 23 a8 61 3e 61 b6 07 be 5d c5 2b be f8 4a ff 3d
       0.22036795 -0.13253166 -0.16774507 0.12465471
000210 6a 6d 3e 3d 15 14 58 3e b4 05 a9 38 d9 ac 5e be
       0.046491064 0.2110141 8.05961e-05 -0.21745624
000220 2e fd 20 3e 6a 45 86 3d bc f3 7e 3e 31 86 6f 3d
       0.1572158 0.065562084 0.24897665 0.058477584
000230 e3 f8 83 3d a5 dd 78 bd cb 47 96 bc 09 73 36 bd
       0.06443956 -0.06075825 -0.01834478 -0.0445433
000240 b4 49 4c 3e b3 07 2e 3e 8f de f2 3c 59 1f 81 3d
       0.1994999 0.16995125 0.02964714 0.06304807
000250 ec 7e 2c be 07 33 60 bd b9 55 90 bc 3a 0d 06 3e
       -0.16845292 -0.054736163 -0.017619 0.13090983
000260 d4 64 71 bd 6e 31 e7 3d 22 ed 44 be 97 42 14 3e
       -0.058934048 0.11288725 -0.19231084 0.14478527
000270 4f 05 b5 3d 73 65 be 3d af a4 03 be 39 12 30 3e
       0.08838903 0.09296694 -0.1285579 0.17194451
000280 08 a5 78 be 9c 9c b9 bd 33 12 ca 3c ce f4 75 bd
       -0.24281704 -0.09063074 0.024666881 -0.060047917
000290 66 4d 9b 3c 05 57 17 3e ec 78 b4 3c cc 50 e8 3c
       0.018957805 0.14779289 0.022030316 0.02835884
0002a0 9f 85 67 3e 2c fc 38 bd 90 97 3d be 43 2e c7 3e
       0.22609566 -0.045162365 -0.18514848 0.38902482
0002b0 0d 9e 6c 3d b0 ed 3b be 86 54 bf bb b3 ad 75 b5
       0.057767916 -0.1835239 -0.0058389334 -9.152238e-07
0002c0 90 21 8b bb 6e b0 bc bd 94 f9 03 3e b9 00 43 be
       -0.0042459443 -0.09213339 0.12888175 -0.19043244
0002d0 eb 17 47 3d 7a df 02 3e 75 2a f7 bb f7 d5 97 3a
       0.048606794 0.12780562 -0.007542903 0.0011584152
0002e0 17 19 29 3e 71 1a 89 3c 42 68 56 be 11 b3 a3 be
       0.16513477 0.016736241 -0.20938209 -0.31972554
0002f0 18 32 a1 be 62 27 d1 3d 1d 11 23 3d b7 fc 26 3d
       -0.3148353 0.1021259 0.039811242 0.04076835
000300 e8 74 23 3e bb 59 8c 3e b4 55 82 3d 98 4c ad 3b
       0.15962565 0.2741221 0.06364003 0.0052886717
000310 2a 54 7a bc c8 85 7b 3d 7a 84 1a 3e 15 32 1e be
       -0.015278855 0.06140688 0.15089598 -0.15448792
000320 f3 7f 9e 3d 3d 92 59 bd 3c fb 00 3d 5d 09 3c 3e
       0.07739248 -0.05311798 0.031489596 0.18362947
000330 02 05 7f bd ad 74 27 3d 25 19 9d b9 82 77 dc bc
       -0.062260635 0.040882755 -0.00029964108 -0.026912455
000340 21 97 46 3e 51 38 03 3d 13 39 d9 bd d4 33 a0 bd
       0.19393589 0.03203613 -0.10606589 -0.078223854
000350 61 55 ad 3c 41 a4 2e 3e 5c df 58 be 94 e4 3e be
       0.021158876 0.17054845 -0.21178955 -0.18641883
000360 e2 45 d0 bd ad 40 80 3d d9 97 9e be ee d9 20 3d
       -0.10169579 0.06262336 -0.30975226 0.039270334
000370 6d 1e 4a bd a8 5c 39 3e 28 16 81 bd d8 07 8d bd
       -0.049345423 0.18101752 -0.06303054 -0.06886262
000380 59 48 d6 3d e6 2f 24 3e e4 37 86 3e ff 5b c0 bd
       0.10463018 0.16033897 0.26214516 -0.09392547
000390 17 60 ea bd 30 65 98 3d f9 93 2e 3d 07 16 b0 bd
       -0.11444109 0.07441175 0.042621586 -0.085979514
0003a0 60 97 b1 3e 91 85 db 3d 96 6d 36 3c ef c5 90 3d
       0.34685802 0.10718835 0.011134526 0.07069003
0003b0 40 37 32 be a4 c1 66 3b f0 01 d4 3d 07 ed da 3c
       -0.17403889 0.0035210634 0.10351932 0.026724352
0003c0 b3 f6 ea bd 59 57 67 bb 8b b7 97 3e 54 83 a2 3b
       -0.114728354 -0.0035299866 0.2963222 0.004959503
0003d0 b8 94 b6 bc a5 f3 93 3d d4 06 37 3e 86 db ec 3d
       -0.022287712 0.07224206 0.17873698 0.11565308
0003e0 da 17 12 b8 08 8e ec 3d 4b 9d fc bd b7 36 4f be
       -3.4831326e-05 0.11550528 -0.12334689 -0.20235716
0003f0 31 0d 0d 3c 0b b4 01 bd e9 f9 91 3d 64 32 12 bd
       0.008609102 -0.031665843 0.07127745 -0.035692587

network.6.bias f4 [39]
000000 81 88 35 be a2 0f d9 3b c3 55 38 bd 42 48 bc bc
       -0.17727853 0.006624178 -0.045003664 -0.022983674
000010 13 36 d8 3c d1 e5 a4 bd 0e 75 08 bd 9b 8f 42 bc
       0.026392972 -0.080516465 -0.033314757 -0.0118750585
000020 fe 4d f3 3c 1a 8f 69 3d 40 41 28 be 81 5a 6b bc
       0.029700276 0.057021238 -0.16431141 -0.0143648395
000030 d6 a4 e2 bc 1c 96 ab 3d 97 45 e7 3d 0b 16 95 3d
       -0.02766649 0.083782405 0.1129257 0.07279595
000040 6a 36 05 be 53 3f 16 be 8d 14 44 3d 50 32 c9 3c
       -0.13009039 -0.14672594 0.04787116 0.024560124
000050 ca b5 00 bd ed 5a 07 bd 66 42 ed bd 5a 7d d1 3d
       -0.031423368 -0.033045698 -0.1158493 0.10228987
000060 80 cf 2e be e6 f4 c1 3d 1a 4e 24 be 85 af 00 be
       -0.17071342 0.09470539 -0.16045418 -0.12566955
000070 66 00 79 bd b1 5d d8 bd f1 67 1b be cf 56 c5 bd
       -0.060791396 -0.10564745 -0.15176369 -0.09635698
000080 98 6c 09 be d6 78 00 be 26 7f 09 be 6f 8c 2a be
       -0.13420331 -0.12546095 -0.1342741 -0.16655134
000090 75 90 06 be 1b de 1f be af f0 13 be
       -0.13141043 -0.1561207 -0.14447282
