Homework/HW2/results/binary_model.pt (torch, 8145 bytes, 6 tensors)

network.0.weight f4 [16, 64]
00000000: 4800 a33e 42ab b93d 1233 353e a191 743d
00000010: fa24 23be 4dd2 08be e747 553b e274 aabe
00000020: a794 7b3d bef0 7cbe 5f93 88bd fa7e fe3d
00000030: e55c 86bd 6d38 03bd 8e98 213d 1f6d a9be
00000040: 572b 24be b454 0f3e 56ee 6cbe e094 e7bc
00000050: c833 26ba 9116 66be 0c10 39bc 65c6 183c
00000060: 5f6f c43d 6bcf 01be 6181 82bd f046 863e
00000070: 17ff 5bbd 63d3 0ebe 6f5e 5ebe 3017 cb3a
00000080: 2fe2 0abe 77ad 603c 8bfc bebc c187 d43d
00000090: 19c4 a83e a0dd 1bbd c576 ea3c 6f6b 383e
000000a0: 011d f73d cc1b 4d3e ee83 d43c ecec 1ebe
000000b0: 041b 1439 ba96 673e f57c 0ebd 972f 2dbe
000000c0: 43c4 3b3e ef76 74bd e48e 93bd 5f35 8a39
000000d0: 8bec 46be 72c4 babc 7a39 1d3c 0741 453c
000000e0: 2339 98bd e989 4d3c c430 023d 1894 07be
000000f0: 90b9 d9bc ae85 283e 034e 3ebe 750a 963d
00000100: 4b60 fe3d 4abf 1abe 0016 f2bb f3c7 ea3c
00000110: d660 a83c 1b5b ab3b a1e3 8fbd 0fc8 193d
00000120: f768 ff3d 995d aabb 3c8e d63d ee28 793e
00000130: 2ff0 4b3e 3e09 a83d 4614 a53d c6a4 1ebe
00000140: 91f7 1dbb c3ff cc3b a967 1d3e e69c 3cbd
00000150: 9a5c a33d 2b04 ad3d fd5a 6ebe e779 9fbd
00000160: 0bad 873e 6aaf 8d3d bb2e bdbd 3614 873e
00000170: 7d42 dfbc 373c 84be 8d70 9bbd 43fa 403e
00000180: c27e 223e 0aa5 b23d bb07 3e3d 4a6a 353d
00000190: c249 663e 42a1 94bd d9e4 18be 4f30 a43d
000001a0: 0e21 d6bd dc55 dc3d d864 96be 07d3 7dbd
000001b0: 1da5 2a3e bf83 46bd 6131 2e3e e68e 943b
000001c0: ef9a e6bd fa8a 2f3e 952a 1ebd cf31 063d
000001d0: ddcd b6bd bd6f 0abe a931 f03d 645e 1c3e
000001e0: aca8 9abd 64a2 0dbd 6370 01be 4866 733c
000001f0: 7d82 c7bd 03d9 8b3e f182 843d 9e42 b6be
00000200: 1a0c 06be e49d bebc 38f7 32ba cf66 04be
00000210: c72f 923e 680b 623e cd7e a5bc eefc 50bc
00000220: d783 5abd e2dd 44bc d61c b03c b51f b5bd
00000230: 682a 953e daa6 4d3e f9d7 f9bb 6efa 023d
00000240: 98da 8cb9 c22b 63bd e38a ee3a 1adb 70bd
00000250: a01f b73d 167d 2c3c 3e88 40bc 5ca3 16bd
00000260: 1663 c7bd 897b fbbd d6aa 973a 064d 70bd
00000270: 242c bdbd 92f7 06b9 337a 07be 5d98 8bbd
00000280: ca9c 8e3e 2295 b23b 04ac a0be 8f16 41bb
00000290: 706d 103e e6e6 4f3e dd5a 373e 9503 c2bd
000002a0: 2af6 abbc ed4f 4cbd 35ce e13c 32f0 2f3e
000002b0: 4873 e03d 231b 8bbb f653 6d3a ebf5 813d
000002c0: b7ab c13d faa3 bbbe 692e 87bb a8b5 c83d
000002d0: 7221 0c3c cd55 db3d 4f64 92be aa0d 563e
000002e0: 19bb c53d 771d c33e bb29 03be bb81 53bd
000002f0: 0da8 ec3c 133c 95ba 6cfc 13bd 157c 883e
00000300: f354 01be ca28 87bd 0712 05be 4ddc 9bbd
00000310: 3773 f7bb 989e 56be 876f bf3d 346a 813e
00000320: ba27 50bd 2933 9d3d 2829 473d 2d0b 9a3e
00000330: d82d 0fbe 683c 53bd 086c b4bd 7be4 34b9
00000340: 4487 333e 5817 cf3d c632 603e 039f 6bbe
00000350: c0c9 123e 67ae 66be 99c7 803e 5b75 b6be
00000360: bdb2 903e faea 0d3e ce6a b83c dd05 2fbe
00000370: 06ef 283d ab75 26ba da24 bebe 3393 91be
00000380: 380f d2bc 7725 66bc 1638 24b9 6106 093e
00000390: 2a5d d4bd eb2e b4bd 936a 3ebe 6954 ad3c
000003a0: 1e54 833a f0c1 af3c 618b f03d 5505 8abe
000003b0: 8744 163e af2e 02bd c55f 713b b877 033e
000003c0: 8c4e 5ebe 7f88 6dbe 1d50 dfbb 9ec1 14be
000003d0: a233 75bb 5e87 aabd 5566 1f3d 11f2 363e
000003e0: 2413 54bd 00be a1b6 e127 943b cab6 9b3e
000003f0: 2a1d 5ebe c3b0 6fbe 34a4 863d f7c0 0ebe
0.31836152 0.09065868 0.17695263 0.059709195 -0.15932074 -0.13361473 0.0032544078 -0.332923
0.061421063 -0.24701211 -0.06668734 0.124265626 -0.06560687 -0.032036234 0.039452128 -0.33091065
-0.16032158 0.13997155 -0.23137793 -0.028269231 -0.00063401135 -0.22469546 -0.01129533 0.009324645
0.09591555 -0.1267678 -0.06372333 0.26225996 -0.05371007 -0.13947825 -0.21715711 0.0015494581
-0.13562845 0.013713232 -0.023313781 0.103774555 0.3296211 -0.038053155 0.028621087 0.18009733
0.12066079 0.20030135 0.025941815 -0.15520066 0.00014124444 0.22616091 -0.034787137 -0.16912685
0.18336587 -0.059683736 -0.072049886 0.00026361176 -0.19426171 -0.02279875 0.009596223 0.0120394295
-0.07432773 0.012545087 0.031784788 -0.13240087 -0.02657774 0.16457245 -0.18584447 0.07326213
0.1242071 -0.15112033 -0.0073878765 0.028659796 0.020553987 0.0052293665 -0.07025839 0.037544306
0.12471192 -0.005199146 0.10476348 0.2433202 0.19915842 0.08204888 0.080605075 -0.15492544
-0.002410386 0.006256075 0.15371574 -0.046048068 0.07976647 0.084480606 -0.23276897 -0.07786923
0.2649921 0.06918223 -0.09237429 0.26382607 -0.027253384 -0.2582719 -0.07589827 0.18845467
0.15868667 0.08722885 0.04639409 0.04429082 0.22489074 -0.0725732 -0.14931048 0.08017027
-0.104555234 0.10758564 -0.29373813 -0.06196883 0.16664548 -0.048465487 0.17011024 0.0045336364
-0.1126002 0.17142859 -0.03861483 0.032762345 -0.08925984 -0.13519187 0.11728222 0.15270382
-0.07551703 -0.034578696 -0.12640528 0.014855929 -0.097416855 0.27314004 0.064702876 -0.355977
-0.13090554 -0.023268647 -0.00068269996 -0.12929843 0.28552076 0.22074664 -0.020202065 -0.012755616
-0.05334839 -0.012015792 0.021498125 -0.08843938 0.29133916 0.2008318 -0.007624623 0.03197711
-0.00026865746 -0.055461653 0.001819935 -0.0588027 0.08941579 0.01052787 -0.011751233 -0.036776885
-0.09735696 -0.12279422 0.0011571299 -0.058667205 -0.09236935 -0.00012871463 -0.13230209 -0.0681617
0.27853996 0.005449907 -0.31381238 -0.002946291 0.14104247 0.20302925 0.17905755 -0.094733395
-0.020991404 -0.04988091 0.027564147 0.17181471 0.10959488 -0.0042451783 0.00090533437 0.06345733
0.0945658 -0.36648542 -0.0041254056 0.09800273 0.008552896 0.107097246 -0.28592154 0.2090365
0.09654827 0.38108417 -0.12808888 -0.051637392 0.028888727 -0.0011385701 -0.0361294 0.26657167
-0.12630062 -0.06599577 -0.12995158 -0.076103784 -0.0075515765 -0.20958936 0.09347444 0.2527634
-0.050819136 0.07675774 0.048623234 0.3008665 -0.13982332 -0.05157128 -0.08809668 -0.00017251253
0.17532068 0.10111874 0.21894369 -0.23009877 0.14334774 -0.22527467 0.2515228 -0.3563641
0.28261366 0.13859168 0.022511866 -0.1709208 0.041243576 -0.00063499314 -0.3713749 -0.28432617
-0.025642022 -0.014047018 -0.00015661152 0.1338134 -0.10369332 -0.087980114 -0.18595342 0.021158414
0.0010019576 0.021454781 0.117453344 -0.26957193 0.14674579 -0.031782802 0.0036830765 0.12838638
-0.21709651 -0.231966 -0.00681497 -0.14526984 -0.0037414809 -0.083266005 0.03891595 0.17865779
-0.051776066 -4.820293e-06 0.0045213555 0.30412894 -0.21690813 -0.23407273 0.06574288 -0.13940798

network.0.bias f4 [16]
00000000: 8e2e 85bc 824b 11be 70b0 e3bd 31e4 b8bd
00000010: 876b 4fbe c9fb 3dbd 892e 733e 6c7a 433d
00000020: cd9c 7f3e 4033 6dbe 3742 0fbd 33d7 45be
00000030: 59b3 833e dd97 31be e63f 653d 938f a4bc
-0.01625755 -0.1418896 -0.11117637 -0.09027899 -0.20255862 -0.0463827 0.2374822 0.047724172
0.24962159 -0.23164082 -0.034975257 -0.19320373 0.2572277 -0.17343087 0.05596914 -0.020087993

network.2.weight f4 [8, 16]
00000000: 3cde 9bbc 7146 d23d 95dd 8fbe 6bb4 46be
00000010: b69a 8a3c 6997 12bd 3c0f 34bf 6e11 1a3d
00000020: 7584 2ebe 57b5 4a3d bf5d 28bf 6255 fb3c
00000030: 3271 3abf 6904 b5bc a81a faba ffed 18bf
00000040: 0335 e3be e853 13bf 8d00 e2bc 08f6 49be
00000050: 7740 9c3c 9261 783e 3cc5 a73c 738d aa3c
00000060: 546f 84be 562b 343e 8d0e 02be bdd4 d9be
00000070: 4e86 89be f6ec e13d 582b 08bf edfe 2cbe
00000080: 9423 11be a0cc bc3c ef08 8f3d 0b33 c2be
00000090: 0c5e 0e3f b0af 2fbd f70f f1bd 8cfd 63bd
000000a0: b55f 02bf a02f b73e 9979 51be 07fb a6be
000000b0: abaa 7dbc b2f7 84ba cc6e 9ebe fe99 c1be
000000c0: dc3a 9fbe e36a c6bc bdb0 0e3e 3834 ee3e
000000d0: 1418 d7bb 5825 78bd 766e b9be 3fcd bcbe
000000e0: 0307 b1be 827d 223e ef31 ae3b 3d15 e93c
000000f0: dacd 48be 9211 a6be b1a9 24bf daf3 4e3e
00000100: 5976 f3be ec1c a9be 6965 b9be 76a6 083e
00000110: 3b62 dcbc 7019 b2bd 8b18 29be 33f1 d0be
00000120: 1edf c8be 2c25 3abe 5e0b 653c a3d5 4cbe
00000130: 65a7 83be 322a 8f3e 6cd3 44be b092 5d3d
00000140: 4771 59bb fd47 05bf 0467 b7be c6c5 fa3d
00000150: 7ece c0be 02bd 49be 9cba ccbe 1185 0ebf
00000160: 4cb2 a8be 0bb1 49bf 0c11 38ba 1405 37be
00000170: d977 1dbe 2b93 e33c 53f7 ce3e 9ba4 c7be
00000180: ae7d e7ba 5f10 99be 278f b7be d06e 1abf
00000190: 20b0 9bbe 38db 57bc 32ba acbe 5758 89be
000001a0: ed88 953e 5322 06bf 7ee8 9abd c97a eebe
000001b0: 04eb 46be 3222 40ba 90b5 17bf 9d8d e83c
000001c0: af6e e93c d386 83be eda6 80ba eb14 b13e
000001d0: 65b6 dabb 7bf9 0fbe fa2a 41bd c222 6cbe
000001e0: a533 1dbe 46c2 13bf f9b9 73be 58cb 6a3e
000001f0: 0b0c 0ebf 5212 003e 9c41 46bd 266d cebe
-0.019026868 0.10267342 -0.2809874 -0.19404761 0.016919475 -0.035788927 -0.70335746 0.03761428
-0.17042716 0.049489345 -0.65768045 0.030680362 -0.7282897 -0.02209683 -0.001908143 -0.59738153
-0.44376382 -0.57549906 -0.027588153 -0.1972276 0.019073708 0.2425597 0.02047979 0.020819401
-0.25866187 0.17594656 -0.12700863 -0.4254512 -0.2686028 0.11031525 -0.5319114 -0.16894121
-0.14173728 0.023046792 0.06984126 -0.37929568 0.55612254 -0.042892158 -0.11770623 -0.055661723
-0.5092729 0.35778522 -0.20456542 -0.32613394 -0.015482585 -0.001014462 -0.30943906 -0.378128
-0.31099594 -0.02422089 0.13934608 0.46524215 -0.0065641496 -0.06058249 -0.36217088 -0.3687534
-0.34575662 0.1586819 0.005316011 0.02845251 -0.19609776 -0.3243528 -0.6432143 0.2021021
-0.4755123 -0.33029878 -0.36210182 0.1334475 -0.026902309 -0.08696258 -0.16513269 -0.4080902
-0.39232725 -0.18178242 0.013979761 -0.20003371 -0.2571365 0.2796188 -0.19221276 0.05409497
-0.003317909 -0.5206297 -0.35820782 0.122447535 -0.3765754 -0.19701007 -0.39986122 -0.55671793
-0.3294853 -0.7878577 -0.0007021583 -0.17873031 -0.1537775 0.027780136 0.40423068 -0.38992772
-0.0017661357 -0.29895303 -0.35851404 -0.60325336 -0.3040781 -0.013174824 -0.33735806 -0.2682521
0.2920603 -0.52396125 -0.075638756 -0.46578053 -0.19425589 -0.0007329314 -0.5926142 0.028387839
0.02849516 -0.256888 -0.0009815373 0.34586272 -0.006674575 -0.14060013 -0.047160126 -0.23060134
-0.15351732 -0.5771831 -0.23801412 0.22929132 -0.55487126 0.12506989 -0.048402414 -0.4031765

network.2.bias f4 [8]
00000000: 6934 75be a89b 52be 4d12 1ebe be59 74be
00000010: 3400 f5bd 244e 65be 7813 26be d227 28be
-0.23945774 -0.2056719 -0.15436669 -0.23862359 -0.11962929 -0.2239309 -0.16218364 -0.1642144

network.4.weight f4 [10, 8]
00000000: b0c1 6e38 c832 f03e 6e66 113f 2f9e 933e
00000010: a9f9 2c3f af75 6839 bc43 d7be 9548 05b9
00000020: 57ac 3c3e 66c4 833e 55a1 783e 9924 81be
00000030: b94e aabe 3c1f 143f dc28 db3a e331 e63d
00000040: 5dc6 b0b8 9066 a43a 5fe6 183f d5ac dab8
00000050: 97ca 823e 878a bfbe 21f4 b9bb 556f b33e
00000060: 7669 7638 38b1 ad3d 53f5 bdb7 72b8 bb3d
00000070: a2be e13e dcf2 1d3e d06b 1bbf 0250 773e
00000080: 1395 883e 6c45 d7be 517c 9a3e 6e04 1037
00000090: fec7 9db9 92a9 c13d 6631 e03e 19a7 91bd
000000a0: 778a d3be 904a 273e b4e5 c83e cb12 b4be
000000b0: b7cc f6bd 9aca 38bf b5d7 0bbf c3f7 51be
000000c0: 392a b8bc ae03 923e d296 d7b9 67dd ad3e
000000d0: d38b 8c3e 27e7 51be bd12 cdbd bbe7 cd3d
000000e0: 392c 3e3d f512 f7bd cb6c b03e cf9c 49be
000000f0: a60e f3bd ec40 9e3e 5988 883e 4b4e 213f
00000100: 6adb 9fbd 5b47 b03e d4b4 74bc f307 edb9
00000110: 87b9 86be c239 a83e 6df5 85ba 0925 d2bd
00000120: 655c a63d c330 053e bf10 6ebe bd53 2ebe
00000130: 1395 243e d814 e3bd 6ccd a33d cd20 833d
5.6924007e-05 0.46913743 0.5679692 0.28831622 0.6756845 0.00022169085 -0.42043865 -0.00012710907
0.18425117 0.25735778 0.24280293 -0.25223234 -0.33263186 0.5786016 0.0016720551 0.11239984
-8.429282e-05 0.0012542773 0.5972652 -0.000104272425 0.2554519 -0.37410375 -0.0056748544 0.35045877
5.874919e-05 0.084810674 -2.2644794e-05 0.091660395 0.44090754 0.15424675 -0.60711384 0.24151614
0.26676235 -0.42045152 0.3017297 8.5841e-06 -0.0003009438 0.09456171 0.43787688 -0.071119495
-0.41316578 0.16337037 0.3923775 -0.35170588 -0.12050765 -0.72184145 -0.5462602 -0.2050467
-0.02248107 0.28518432 -0.00041120365 0.3395798 0.27450427 -0.20498334 -0.1001334 0.10053965
0.046428893 -0.12064163 0.34458002 -0.19688724 -0.11868028 0.30908906 0.26666525 0.6301009
-0.07805522 0.3442944 -0.014935691 -0.00045210085 -0.2631342 0.32856566 -0.0010220237 -0.1026097
0.081230916 0.13006882 -0.23248576 -0.17024131 0.16072492 -0.1108796 0.079981655 0.06402741

network.4.bias f4 [10]
00000000: 4639 a4bd cd8c 0dbe e7e6 453d 4990 dabd
00000010: b69c 843d 2e30 213e 1d67 153d 83ad 6b3d
00000020: 252e d03d 6aad ad3d
-0.080187365 -0.13823242 0.04831591 -0.106720515 0.06475203 0.15741035 0.03647529 0.05753852
0.10165051 0.08480342
