Homework/HW2/results/pruned_model.pt (torch, 8980 bytes, 6 tensors)

network.0.weight f4 [16, 64]
00000000: cebc 6cbd 8867 a1be 7820 34bd 1025 8ebd
00000010: be65 abbe 4db8 533e fe1f 4bbe fb84 853e
00000020: 6abd 953a 3439 573e 5b9a 813d ce5f 08be
00000030: df95 633e 36d4 8bbd 7796 de3b 4e1f 5d3e
00000040: 9025 9fbe 992d 5e3e 4d2e 2f3e 5050 293e
00000050: 91c0 94be dca1 a33c a429 1abd c80e 34bd
00000060: 4c82 eb3d 0a40 0c3d 0a3b 8ebd 0da8 6b3d
00000070: ead4 f83c 1bd7 5e3d 6810 fcbd 49ad 973c
00000080: 4401 20be e43c af3c 12ee 643e 27cb 153e
00000090: 1dd4 ffbd 0b55 203e b81d 9abe d216 383e
000000a0: c276 9ebd 659f 803e 8b7d 493e 8edd afbe
000000b0: c44c 9ebd dbd5 b1bc c926 07bd 8442 3bbe
000000c0: 7669 00be 2cc4 8c3d 9714 7abd e0fc 6ebe
000000d0: 4ff5 34be ddf7 a2be 0d03 ccbd f79f c6bc
000000e0: aaca fabd f5ee 24be 8f29 4bbe ddb9 043e
000000f0: 0f7b 4dbe 7ee1 7e3d 1b85 393e 78ff 613e
00000100: 5444 a2bd 33eb 013c 3f08 9d3e 6926 94bd
00000110: 49c7 f8bd 7dcf 653d 5275 babd 67f8 7a3d
00000120: ff11 123e d578 323c fd63 453d aa70 0dbd
00000130: d5c8 e4bd 7bf0 51be 7c9f 6ebc b078 17be
00000140: fdd8 d23b 7a74 593e ede7 193e 4979 563e
00000150: 1295 2fbe 7a48 b8bd e01d ca3e 162f 523e
00000160: 87b7 2dbe f15c eb3d 5a08 1fbd 886d 4cbd
00000170: 6ad9 e13c b433 9b3c 71bf 45be ca2d 223e
00000180: 12be bbbe b426 28be 713d 5d3d 79fe 143e
00000190: 1c2f 78bd 43dc a8bd 202e 89be 7776 903b
000001a0: 8210 c33d e6c9 913d abdf b33d 2749 d53d
000001b0: d5fb 3d3e 414f 293e f19a 9abd 3586 803d
000001c0: 3eb9 3c3d 42e1 07be 3987 01be a7be 1ebe
000001d0: 31f2 f13c 96b2 9e3d 97e7 e63b 8f78 a33e
000001e0: 07cc c2be 0ae1 633e c0c4 2ebd 77f0 2d3d
000001f0: e670 383c 924b 4e3e 954f 033e ec98 40bd
00000200: ab8b b63b ade6 3bbe b403 6cbd 309c b73d
00000210: 5be9 7d3d 63d3 3cbe 32b0 6cbe 66d0 d6bd
00000220: 2f73 4d3e 6967 243e 371f 66be 78ba 97bd
00000230: 7909 3d3d c4d1 20be a7ea 7dbd 1270 0abe
00000240: 2d30 04bd f2a7 21bd 2c35 a2bd 14ac 0abe
00000250: e3a6 99bd 96dc 98be a6b6 57be c1ab 543e
00000260: 53d7 0b3e c03f 1e3e 177c 54bc e959 d33d
00000270: 4991 9abc c9f0 b3bd 5039 d3bc 85a2 083e
00000280: ce0d b6be 2c2c eebd 6178 1a3e 5189 4d3d
00000290: 8ef1 373d c0e8 d03c 5d4f 663e e855 f0bd
000002a0: bdec 223e 377f cfbd 7728 e53d 946c 62bc
000002b0: 3566 a0be b780 dabd 6451 1d3e 4f94 443e
000002c0: 713d 1f3b 9714 ad3d ef7b cabd 8274 dabd
000002d0: b719 413d ab5d 02bd d266 ee3d 4f2f 893e
000002e0: 1669 66bd 7523 e6bc a60c 8d3d 2bde 403d
000002f0: 20d2 b33e a2b8 8d3e b8e8 acbc 673b 36be
00000300: 2e8c a73d 1dfd 493e d46a 10be db0a 9e3d
00000310: e293 7fbd bfe7 94bc 7c7c 073e 2f00 45be
00000320: 6d76 8d3c 5556 a03d f58e 3bbe b179 c03c
00000330: 081a e43c 2dc2 c53c 5c25 16bd 57c4 65bd
00000340: 1926 4abe 13ba 9bbe 3454 873e a513 f239
00000350: 3de6 10be 2a2e b7be c291 e23d 6ede 85be
00000360: 1171 86bd 8202 0f3d 5a42 34bd 2145 b7be
00000370: 5ee8 cabd 5db1 8c3e 4bca 6ebd 5d9e 40bd
00000380: fcb4 29bd c4c1 24be 31de 273b e0ad f3bd
00000390: b8d1 18b9 5fb7 5e3e c9b6 5c3e 774b d7bd
000003a0: 28ec 2b3e 2acd 953d 9ccf 3f3e 64a4 06bd
000003b0: 695a 71be 8c60 873c a80c 84bd c7b0 0d3e
000003c0: 31f9 d6bc 04af 92be 984b bf3d d56b b1be
000003d0: 88c7 553c d536 4abd 5383 33be 60fd ae3c
000003e0: cd8b 963e e6bf cd3d 87b1 2a3e 551e ac3c
000003f0: cfb3 503d 2871 a6bd a3a4 53bd 2b15 ae3d
-0.057797246 -0.315243 -0.043976277 -0.06940663 -0.3347606 0.20675774 -0.19836423 0.2607802
0.0011424248 0.21017915 0.06328269 -0.13317797 0.2222514 -0.068275854 0.006792839 0.21593973
-0.31083345 0.21697082 0.17107506 0.16534543 -0.29053167 0.019974642 -0.037637368 -0.04395941
0.114994615 0.03424076 -0.069448546 0.057533313 0.030374963 0.05440436 -0.12307817 0.018515246
-0.15625483 0.02139134 0.22356442 0.14628278 -0.12491629 0.15657441 -0.301008 0.17977455
-0.07737495 0.25121608 0.19676797 -0.3434872 -0.07729486 -0.02170842 -0.032995973 -0.18287092
-0.1254023 0.06873354 -0.061054792 -0.23338652 -0.17671703 -0.3182973 -0.099615194 -0.024246199
-0.12245686 -0.1610678 -0.19840072 0.12961526 -0.20066474 0.062226765 0.18117182 0.2207011
-0.07923189 0.007929611 0.30670354 -0.07233889 -0.121473856 0.05610608 -0.09104408 0.06127205
0.14264677 0.010893066 0.04819106 -0.034531273 -0.11171118 -0.20501892 -0.014564391 -0.14792132
0.0064345584 0.21235839 0.15029879 0.20944704 -0.1714671 -0.08998199 0.39475918 0.20525774
-0.16964541 0.114923365 -0.038826324 -0.049909145 0.027569491 0.018945552 -0.1931131 0.1583778
-0.3666845 -0.16421014 0.054013673 0.14550199 -0.060591802 -0.082451366 -0.26793003 0.0044086534
0.09524633 0.07118587 0.08782896 0.10414343 0.18553098 0.16534139 -0.07549084 0.06275598
0.0460751 -0.13269523 -0.1264924 -0.15502416 0.029534431 0.07748906 0.0070466506 0.31927916
-0.38046286 0.22253814 -0.042668104 0.042465653 0.011257386 0.20146015 0.12823327 -0.047020838
0.005570849 -0.18349715 -0.05762072 0.08965337 0.061990123 -0.18440013 -0.23114088 -0.104889676
0.2006347 0.16055073 -0.22472845 -0.07408613 0.046151612 -0.15705019 -0.06199136 -0.13519314
-0.032272507 -0.039466806 -0.07920298 -0.13542205 -0.07502534 -0.29855794 -0.21065769 0.20768644
0.13656358 0.15454006 -0.012969038 0.103198834 -0.018868105 -0.087861605 -0.025784165 0.13343246
-0.35557407 -0.11629519 0.15084983 0.050179783 0.0449081 0.025501609 0.22491212 -0.11735135
0.15910621 -0.10131686 0.11189359 -0.013819832 -0.31327978 -0.10669082 0.1536308 0.191972
0.0024298097 0.08451193 -0.0988692 -0.10666753 0.047143664 -0.03182761 0.11640705 0.26793906
-0.05625256 -0.02809308 0.06887178 0.047086876 0.3512125 0.27679926 -0.021107063 -0.17796098
0.08181034 0.19725461 -0.14103252 0.07716914 -0.06239689 -0.018176911 0.13231081 -0.19238351
0.017268384 0.078289665 -0.18316253 0.023495527 0.027844444 0.024140442 -0.036656722 -0.056095447
-0.19741096 -0.304154 0.2643143 0.00046172473 -0.14150329 -0.35777408 0.11062957 -0.26146263
-0.065645345 0.0349145 -0.04400859 -0.3579493 -0.09907602 0.27479067 -0.05829839 -0.047026027
-0.041432366 -0.1608954 0.0025614614 -0.118983984 -0.00014573976 0.21749638 0.21554102 -0.10512441
0.16789305 0.073145226 0.1873154 -0.03287162 -0.23569645 0.01652553 -0.064477265 0.13836966
-0.02624187 -0.2864915 0.0934059 -0.34652582 0.01304806 -0.0493687 -0.17530565 0.021361053
0.29403535 0.10046367 0.16669284 0.021010557 0.05095273 -0.081270516 -0.05167068 0.08500131

network.0.bias f4 [16]
00000000: 36c1 e33a 70d8 1abc 8465 11bd 81ea f53c
00000010: d1e0 733c 5dda c6bc 59cf 13bd 4726 163c
00000020: e6d0 71ba f974 b8bb 2b05 57bd f25e d3bb
00000030: db41 a3bc ef0e bcbc 20b1 59bd e620 1ebd
0.0017376307 -0.009451017 -0.035497203 0.030019047 0.014885143 -0.024274046 -0.036086414 0.0091643995
-0.00092245487 -0.0056291786 -0.052495163 -0.0064505273 -0.019928863 -0.02295634 -0.053147435 -0.038605593

network.2.weight f4 [8, 16]
00000000: b35b f53d d5cd 79be 160e 74bd 78cd 8fbe
00000010: 74cd 893c 8c77 353c b5c8 df3e 41e8 0e3e
00000020: 474f 07be 5e08 4c3e 06d3 083f dd72 12be
00000030: d36b 4f3e d576 6bbd bd9b 813c 4f65 a8bd
00000040: 2add 843e ce38 85be c48e 813e fba3 84bd
00000050: 80a2 adbe e3c7 45be 703a 1d3d c3e2 1dbe
00000060: 88ec 803e 4874 bebd 476e 0abe 0b93 20be
00000070: 00bd c7bd ef41 1dbe c855 d53e cb69 b6be
00000080: f9ac 8fbe 4b47 c73d 7741 10be c500 02be
00000090: 6020 17be 79d3 5cbe bdb0 333e e79d 5ebe
000000a0: d6bd 73bd 91c8 023e b4fe 4abe 0b4b 8fbd
000000b0: 5aa2 1cbe 034d 083e 14ab 253f 27f5 ca3e
000000c0: a28d 9d3d 6d52 8d3e 9371 c3be 4ac1 653d
000000d0: 7f52 203e ec85 0dbf 7c0d 843e 4b0d dd3d
000000e0: 8075 4cbe 2f3a d13e 974d a13d 34dc 12be
000000f0: 0855 d8be 11b6 793d a9f2 e93b 765c f93e
00000100: ddbb af3c e68a c3bc 04fe e1be 7916 8f3c
00000110: 3183 a0ba 4cdf b1be f9b0 a23e 6885 b03e
00000120: 73e9 b33e 6c36 36bc 5cbc 40be dd58 103c
00000130: f424 6cbe 7502 acbe 4da9 c9bd c548 513d
00000140: 970f 42be 7107 b9bd 3ac4 bd3e f525 d3bd
00000150: bf82 cbbe 04e4 7bbd dd03 94bd 1bc7 49be
00000160: 30e3 403d 986b 2fbe 1c64 893d fcf5 02be
00000170: 7529 f2bd db26 bebe 5ebf 823e e25a 633c
00000180: bb80 563e 2186 a8bd 2aa0 0f3f cf43 00bd
00000190: 266e dbbd 8937 483e b7d4 47be 8640 843e
000001a0: eb44 df3c 1f32 fcbc 07ae e1bd 9176 1abc
000001b0: 2aa9 87be 58d3 a6bd 94d9 7e3e 00db c73e
000001c0: e4d3 7dbd f6d1 ca3e 6104 81be 52b8 febd
000001d0: 7c5b 33be 154c 38be 5d5f 623e 08b1 e9bc
000001e0: 81ad 86be 2b47 d0be 753c 1cbd 6c28 383e
000001f0: 8b48 893c e195 7b3e 94f3 2a3e e7ac 82be
0.11980381 -0.24394925 -0.059583746 -0.28086448 0.0168216 0.0110758655 0.43707815 0.13955785
-0.13213836 0.19925067 0.53446996 -0.1430163 0.20255975 -0.057486374 0.015821332 -0.08222448
0.25949985 -0.260199 0.25304234 -0.06476589 -0.3391304 -0.19314532 0.03838581 -0.15418534
0.2518046 -0.09299523 -0.1351863 -0.15681092 -0.09752846 -0.15357183 0.41667008 -0.3562759
-0.28061655 0.09730395 -0.14087473 -0.12695606 -0.14758444 -0.21565045 0.17547889 -0.21739922
-0.059507214 0.12771823 -0.19823724 -0.06996735 -0.15296307 0.13310628 0.6471417 0.3964016
0.0769303 0.27601948 -0.38172588 0.056092538 0.1565647 -0.55282474 0.25791538 0.10793551
-0.19966698 0.40864703 0.07876127 -0.14341813 -0.42252374 0.060964648 0.007139523 0.48703355
0.021451885 -0.023869943 -0.4413911 0.01746677 -0.0012246129 -0.34740674 0.31775644 0.3447678
0.35139045 -0.011121374 -0.18821853 0.008810249 -0.23060971 -0.33595625 -0.09846745 0.05109479
-0.1895126 -0.090346225 0.3706377 -0.10309974 -0.3974819 -0.06149675 -0.07227299 -0.19704859
0.047091663 -0.17130888 0.067085475 -0.12789148 -0.118243136 -0.3713902 0.25536627 0.013876649
0.20947544 -0.08228708 0.56103766 -0.031314667 -0.107143685 0.19552435 -0.19514738 0.25830477
0.027254542 -0.030785618 -0.11019521 -0.0094276825 -0.2649625 -0.08145779 0.24887687 0.3903427
-0.061969653 0.39613312 -0.25198653 -0.124375 -0.17515367 -0.17997773 0.2210669 -0.028526798
-0.26304248 -0.40679297 -0.038143594 0.1798417 0.016758224 0.24568893 0.1669448 -0.2552254

network.2.bias f4 [8]
00000000: 9e99 14bd 11c4 1a3c f5d8 30bd 9725 563c
00000010: f88a 013c 2a96 ed3b f119 25bd 762f 90bc
-0.036279313 0.00944616 -0.043175656 0.013070486 0.007906668 0.007250567 -0.040307943 -0.017600756

network.4.weight f4 [10, 8]
00000000: 5830 90bd 378d 1abe b008 20bd 549f c23e
00000010: 4db0 383e 9da6 1b3f 34f2 7d3e 580c d1be
00000020: 7504 b23e 79f9 40bd c61c 383d 5681 a7be
00000030: 27e0 843e 9ee5 973e 71ae cebe 9ce1 93be
00000040: bf2d e7be ac31 833e 1456 bc3e 8e38 cd3e
00000050: ca96 ab3e af68 2cbe 90ef 83be 215e 3b3e
00000060: 1b41 813e 1420 8abe d09b 6e3e d404 f6be
00000070: f0f9 2a3c a4bf 98be 2928 9d3e 58c4 213d
00000080: bb06 5cbe 139f e13d 3bf2 b43d 5f52 a63e
00000090: ffe7 193e 1536 863e b4b2 dcbe 1416 d0be
000000a0: fbb8 87be fba7 5d3d 5470 fcbe ee0a 63bd
000000b0: 5ca8 2e3e 6cb3 6fbe 3486 8b3e a88d 003f
000000c0: 047b 2c3e 848f 4ebe f672 7c3e 9384 2e3d
000000d0: e269 7e3d f3e2 c83c a4db 523e cdfb c93e
000000e0: bc7a 41bf 8f6d 7abe ab72 9abd 8db0 c73e
000000f0: 0b25 f43e 9813 41bc 546c dbbe a19d 693e
00000100: 976f 0ebe 4795 84be dd9e ecbe 5a32 13be
00000110: 8f2f e43d eb67 4ebe 88b4 d8be 0a95 09bf
00000120: 6543 7f3e 6fd1 dfbe 8e0c 4b3d 7970 cf3e
00000130: ab4f 233d f939 c4be 3ee8 28be 774f 2ebe
-0.07040471 -0.15092932 -0.039070785 0.38012183 0.18036003 0.60801107 0.24799424 -0.4082973
0.34769025 -0.047112916 0.044949315 -0.32715863 0.25952265 0.29667372 -0.40367463 -0.28883064
-0.4515209 0.25623834 0.36784422 0.4008221 0.3351348 -0.16836809 -0.2576871 0.18297626
0.25244984 -0.269776 0.23301625 -0.4805056 0.010435566 -0.2983371 0.30694702 0.03949389
-0.21486942 0.11016669 0.08835264 0.3248472 0.15029906 0.26213136 -0.4310509 -0.40641844
-0.26508316 0.054115277 -0.4930445 -0.055430345 0.17056412 -0.23408288 0.27250826 0.5021615
0.16843802 -0.20171934 0.24653229 0.0426069 0.062112696 0.02452228 0.20591599 0.3944992
-0.755779 -0.24455856 -0.075414024 0.39001885 0.47684512 -0.011784457 -0.42856085 0.22814037
-0.13909756 -0.2589514 -0.46214953 -0.14374676 0.111418836 -0.20156829 -0.42325234 -0.5374304
0.24928053 -0.43714473 0.04957252 0.40515497 0.0398709 -0.3832548 -0.16494843 -0.17022501

network.4.bias f4 [10]
00000000: ec5e 1cbd 39d5 ad3c 3e79 403c 055d dbbc
00000010: 073c ff3c eb1f 7dbc 9711 8fbc fb68 313d
00000020: 95f3 86bb 42ee 843c
-0.038176462 0.021219837 0.011747656 -0.026777754 0.031156553 -0.015449504 -0.017464442 0.043313008
-0.0041183927 0.016226891
