Homework/HW2/results/pruned_real.pt (torch, 221063 bytes, 8 tensors)

network.0.weight f4 [128, 256]
0.0063872947 0.18569964 -0.14231664 0.12796804 -0.12369607 -0.048138935 -0.13371499 -0.17519933
0.13018446 -0.05243965 0.052305948 0.015384991 -0.093685366 0.15776725 -0.0069797416 -0.03180563
0.087741986 0.03369562 -0.028891059 0.0030185478 0.13017993 0.15586857 0.05102613 0.1326712
0.026717013 -0.16215815 0.12127421 0.023341566 0.033192076 0.013766189 -0.107282 -0.046264373
-0.15538463 0.12952916 -0.052393887 0.16239433 -0.08363576 0.08529492 -0.04425544 -0.021196738
0.07258784 -0.105994195 -0.089115076 -0.04028447 0.117024675 0.0904809 -0.033685904 -0.0036293776
-0.0072237565 -0.09743874 -0.0017866701 -0.049978096 -0.0863514 -0.007214802 0.045356162 -0.020128764
-0.12508018 -0.10275989 0.04885376 0.05415075 0.07608207 -0.040788382 0.074879445 -0.019889276
-0.01173116 -0.088392355 0.026135355 -0.04384893 0.12981836 -0.13073437 0.10084659 -0.065961815
-0.033513993 0.10627221 0.1594091 0.12994197 0.06537422 -0.08803223 -0.024715276 0.0457317
0.06279256 0.0006602674 0.036332153 0.10429593 -0.004025808 -0.0574564 -0.18096666 -0.22847122
0.103688695 0.08821628 0.104443274 0.13133323 0.13031688 -0.10686921 0.09572942 -0.019150645
0.0715252 0.0846768 -0.085452035 -0.013215109 -0.14932135 -0.061207697 0.09834528 0.120666556
0.0808713 0.053937063 0.061131667 0.10955343 -0.07771646 -0.0589904 -0.021842325 -0.005304485
0.050390203 0.1172719 -0.08685074 -0.061182726 -0.07847498 0.0742202 0.06166559 -0.10607748
0.08560426 0.09291711 -0.067402065 0.035759185 0.11204776 -0.12881921 -0.043034624 0.20566808
-2.3509165e-05 1.1405718e-06 -0.26026347 1.2151868e-06 0.2601084 3.9801424e-05 -0.00015816267 1.3312329e-06
0.26025176 6.634512e-05 -3.3043067e-05 -7.7844335e-05 -0.26031864 -0.0001235744 -0.26005837 0.26016107
2.267063e-05 -0.00014160355 7.819205e-05 -2.0318443e-05 -0.2601231 0.1869543 0.00032048352 -0.26003382
2.7382544e-05 -2.9549174e-06 0.00011501932 -4.7738176e-05 8.55801e-05 5.893119e-05 -0.2602672 1.6645572e-08
-0.26026577 5.3080963e-05 -0.00010843361 -1.619312e-05 1.7676286e-05 0.00010201485 -0.26019466 0.26017532
-7.4435047e-06 0.2602733 0.2603495 -7.5281914e-06 -0.26041207 -4.634793e-05 -0.00017284117 -5.073577e-05
2.8173845e-06 -0.00022339322 1.9001884e-05 -0.2603713 0.00018850534 -0.26028442 -6.3117564e-05 7.71318e-05
4.392418e-05 0.21151981 -0.00011097357 -2.8461596e-05 8.230186e-05 -0.26013005 7.131096e-05 7.2458934e-06
-0.26035964 -0.00012890967 2.4953813e-05 -2.190048e-05 -0.26002815 -0.26015776 6.022433e-05 0.00010547458
-1.7585868e-05 3.2479817e-05 0.2601727 -0.00018151103 0.2599724 -0.00019272757 -1.9350282e-06 -0.2601966
0.00021756743 0.26018554 0.26019686 0.26014376 3.5023044e-05 0.26023552 -0.26029435 -1.2823446e-05
0.26005265 -1.45534505e-05 -8.943641e-05 0.00012424368 -7.2740775e-05 0.26003423 -0.2601789 0.26018596
0.2604165 -0.26019412 1.7755126e-05 -9.5109426e-05 -4.1597865e-05 5.268715e-05 0.00018851971 0.000121315374
-3.4290053e-05 0.00029411895 0.00011840503 -8.871872e-05 -0.26029104 -8.9771755e-05 -0.00020270931 0.25997722
0.2601981 4.7521607e-06 4.448198e-05 0.25977612 -4.576451e-05 -0.26014552 0.2602023 6.7524394e-05
0.00028586749 -6.45419e-05 -4.3031687e-06 -6.342697e-05 -9.259933e-05 0.00023897787 -3.096401e-05 5.2404182e-05
00000000: 834c d13b 0c28 3e3e 74bb 11be 0e0a 033e
00000010: 5d54 fdbd 552d 45bd 95ec 08be 7467 33be
00000020: 134f 053e f5ca 56bd c33e 563d 5411 7c3c
00000030: 1dde bfbd bd8d 213e 51b6 e4bb 9f46 02bd
00000040: 12b2 b33d 6b04 0a3d f1ac ecbc d4d2 453b
00000050: e34d 053e 039c 1f3e c600 513d f6da 073e
00000060: a3dd da3c c90c 26be 9d5e f83d d036 bf3c
00000070: 6af4 073d 958b 613c aab6 dbbd b67f 3dbd
00000080: 261d 1fbe 4ba3 043e f99a 56bd b34a 263e
00000090: 3a49 abbd 1aaf ae3d 3145 35bd c8a4 adbc
000000a0: efa8 943d 7c13 d9bd f781 b6bd 5401 25bd
000000b0: a2aa ef3d 0d4e b93d 3bfa 09bd dada 6dbb
000000c0: 43b5 ecbb f68d c7bd b32e eaba d5b5 4cbd
000000d0: 01d9 b0bd 256a ecbb 62c7 393d 14e5 a4bc
000000e0: 0515 00be c773 d2bd e11a 483d 2dcd 5d3d
000000f0: ebd0 9b3d b811 27bd 655a 993d d6ee a2bc
00000100: 0d34 40bc 0d07 b5bd d019 d63c f09a 33bd
00000110: 1bef 043e 3bdf 05be a888 ce3d fd16 87bd
00000120: f845 09bd 3fa5 d93d 243c 233e 820f 053e
00000130: ebe2 853d 3e4a b4bd b177 cabc 2a51 3b3d
00000140: 6399 803d cc15 2d3a 06d1 143d 1b99 d53d
00000150: edea 83bb 6757 6bbd 534f 39be 5cf4 69be
00000160: bd5a d43d bdaa b43d 5be6 d53d 387c 063e
00000170: ca71 053e 3fde dabd c90d c43d d0e1 9cbc
00000180: ce7b 923d 086b ad3d 7a01 afbd 2f84 58bc
00000190: b2e7 18be ecb4 7abd 4069 c93d 0720 f73d
000001a0: da9f a53d 1ced 5c3d 3365 7a3d 8c5d e03d
000001b0: cf29 9fbd eb9f 71bd adee b2bc 3fd1 adbb
000001c0: f565 4e3d 402c f03d cdde b1bd bd9a 7abd
000001d0: 7eb7 a0bd c300 983d 0f95 7c3d 263f d9bd
000001e0: 4951 af3d 534b be3d 180a 8abd 3978 123d
000001f0: 4c79 e53d 2fe9 03be 1345 30bd a79a 523e
00000200: 8c35 c5b7 c015 9935 4141 85be 8019 a335
00000210: ee2c 853e 74f0 2638 78d8 25b9 d0ac b235
00000220: b83f 853e c422 8b38 b997 0ab8 5c40 a3b8
00000230: 7c48 85be c093 01b9 5f26 85be d533 853e
00000240: cf2c be37 6a7b 14b9 0afb a338 8671 aab7
00000250: db2e 85be f370 3f3e 9206 a839 2723 85be
00000260: 91b3 e537 184d 46b6 8736 f138 7a3a 48b8
00000270: 7779 b338 e22c 7738 be41 85be 00fc 8e32
00000280: 8e41 85be 40a3 5e38 da66 e3b8 76d6 87b7
00000290: 8947 9437 cef0 d538 3c38 85be b335 853e
000002a0: 38c3 f9b6 8b42 853e 884c 853e ac9a fcb6
000002b0: bb54 85be b665 42b8 b33c 35b9 1ecd 54b8
000002c0: 4c12 3d36 a93e 6ab9 3c66 9f37 634f 85be
000002d0: 84a9 4539 0044 85be fc5d 84b8 d2c1 a138
000002e0: 3b3b 3838 a698 583e 7bba e8b8 d0c0 eeb7
000002f0: 7a99 ac38 c42f 85be c88c 9538 c021 f336
00000300: dc4d 85be ed2b 07b9 e853 d137 ecb6 b7b7
00000310: 6922 85be 6633 85be 6299 7c38 3c32 dd38
00000320: 5d85 93b7 f03a 0838 5b35 853e ff53 3eb9
00000330: 1a1b 853e ea16 4ab9 88db 01b6 7d38 85be
00000340: d022 6439 0a37 853e 8638 853e 9031 853e
00000350: b5e5 1238 973d 853e 4d45 85be 4824 57b7
00000360: 9f25 853e 982a 74b7 cf8f bbb8 6947 0239
00000370: 688c 98b8 3523 853e 2b36 85be 1837 853e
00000380: 5055 853e 2a38 85be d8f0 9437 7c75 c7b8
00000390: 5e79 2eb8 66fc 5c38 60ad 4539 b26a fe38
000003a0: aad2 0fb8 fa33 9a39 3750 f838 800e bab8
000003b0: de44 85be d843 bcb8 5e8e 54b9 bc1b 853e
000003c0: af38 853e c074 9f36 2a92 3a38 6001 853e
000003d0: 45f3 3fb8 cb31 85be 3c39 853e e29b 8d38
000003e0: 7ce0 9539 ab5a 87b8 f063 90b6 1804 85b8
000003f0: e331 c2b8 2296 7a39 5adf 01b8 90cc 5b38

network.0.bias f4 [128]
0.024438355 -9.196471e-05 0.035205968 0.06038851 0.05086338 0.07815645 0.032949865 0.040756833
0.06268978 0.007552567 0.059165392 0.037319433 0.0463691 -0.014358381 0.034228142 0.030053811
0.04618334 0.09849761 0.044568554 0.04932466 -0.015822776 0.058798894 0.008138862 0.049633928
0.039786898 0.06273062 0.063969985 0.008775085 0.0043356894 0.04306316 0.0683901 0.11641948
0.006066626 0.046615608 0.04917868 0.019015511 0.005128957 0.07356344 0.09052936 0.018637305
0.048215736 -0.014294758 0.03681178 0.025711251 0.0138943475 0.013057357 0.074936695 0.04878662
0.002738569 0.15093765 0.021351231 0.05966987 0.016041618 0.032917533 0.067950755 0.034454953
0.07557157 0.038718168 0.02867766 0.020359531 0.003914791 0.045118373 0.09713136 0.013756249
0.03409688 -0.017608004 0.0049517103 0.05847783 0.013649393 0.12565346 0.037981458 0.059798576
0.06716907 0.06525682 0.021359414 0.028486464 0.075432695 -0.0024273926 0.07243736 0.053386293
-0.02782284 0.03675837 0.08240142 0.0048980988 0.04068898 0.04644347 0.0006133413 0.01274887
0.019831106 0.047461614 0.10349938 0.03545083 0.044572964 0.07489538 0.04220054 0.06669061
0.049584273 0.042998586 0.055735845 0.015602114 0.005328142 0.04597122 -4.0176557e-05 0.08612288
0.059855416 0.08919749 0.041604806 0.058522675 0.025041902 0.06078935 0.010630891 0.05496904
-0.0002972086 0.028332211 0.0129292635 0.09722318 0.07790383 0.017665364 0.09443997 0.045487076
0.027763857 0.030693144 0.07538879 0.04930285 -0.00016957211 -0.0008295755 0.05430691 -0.0004565295
00000000: f232 c83c 2ddd c0b8 2234 103d f159 773d
00000010: 1f56 503d 7d10 a03d 70f6 063d a3f0 263d
00000020: 8063 803d 867b f73b 6957 723d 43dc 183d
00000030: 87ed 3d3d 6a3f 6bbc cf32 0c3d 6933 f63c
00000040: be2a 3d3d 1db9 c93d 848d 363d a808 4a3d
00000050: c49e 81bc 1cd7 703d dd58 053c f24c 4b3d
00000060: 96f7 223d e978 803d b202 833d 60c5 0f3c
00000070: 6612 8e3b ff62 303d 1c10 8c3d 566d ee3d
00000080: 8cca c63b 02f0 3e3d 956f 493d 6bc6 9b3c
00000090: cf10 a83b 6ea8 963d 7567 b93d 43ad 983c
000000a0: dd7d 453d 9034 6abc f3c7 163d 67a0 d23c
000000b0: 1ea5 633c 86ee 553c 6978 993d 7bd4 473d
000000c0: 9079 333b 668f 1a3e c7e8 ae3c 6568 743d
000000d0: b669 833c 89d4 063d c429 8b3d a320 0d3d
000000e0: 44c5 9a3d f196 1e3d 69ed ea3c 08c9 a63c
000000f0: a647 803b 0bce 383d ceec c63d e461 613c
00000100: 2ca9 0b3d a93e 90bc f541 a23b 7386 6f3d
00000110: b4a1 5f3c 4dab 003e 7292 1b3d 5aef 743d
00000120: f08f 893d 5ea5 853d f0f9 ae3c 725c e93c
00000130: 757c 9a3d e414 1fbb 0a5a 943d 96ab 5a3d
00000140: b9ec e3bc f28f 163d 13c2 a83d 3b80 a03b
00000150: 7da9 263d 823b 3e3d a3c8 203a a3e0 503c
00000160: d874 a23c 1c67 423d 7cf7 d33d e434 113d
00000170: 2492 363d c062 993d 79da 2c3d 1695 883d
00000180: e118 4b3d 491f 303d 454b 643d 02a0 7f3c
00000190: b297 ae3b 514c 3c3d 4083 28b8 3161 b03d
000001a0: f42a 753d 2cad b63d cd69 2a3d 79b5 6f3d
000001b0: ad24 cd3c 41fe 783d 302d 2e3c 3727 613d
000001c0: aad2 9bb9 f418 e83c 43d5 533c f21c c73d
000001d0: 0b8c 9f3d f4b6 903c be69 c13d a850 3a3d
000001e0: 0771 e33c 3070 fb3c 7065 9a3d c9f1 493d
000001f0: 2bcf 31b9 df77 59ba ec70 5e3d 5a5a efb9

network.2.weight f4 [96, 128]
-0.028858677 0.006715907 0.09641378 -0.024086932 -0.0038060362 0.0080078505 0.025401866 0.1453393
-0.12464026 -0.024695162 0.078479916 0.14128971 0.006044052 -0.18409985 -0.013829853 0.11703543
-0.07276116 -0.0014812703 -0.042655047 0.041864283 0.09649763 -0.054737724 -0.1157997 0.14184004
-0.081848495 0.06630229 0.040396143 -0.10257822 0.107063666 0.05624645 -0.0016148101 0.038189746
0.065380044 -0.07632131 0.07107898 0.07502454 0.09735768 -0.03276297 -0.042231888 -0.09365044
0.1712148 -0.056069985 -0.09365108 0.082652986 0.0010926077 0.05929435 -0.0028967592 -0.022752546
-0.10029524 0.0038010834 -0.06812551 0.10575512 -0.05596263 0.059920263 0.0038771408 0.0018203993
0.16044138 -0.15228464 0.21274148 0.105310634 -0.03184098 -0.010342172 0.074409366 -0.086509764
0.18679489 0.24008873 0.057191774 -0.116971016 0.0478459 -0.006948092 -0.14536753 -0.080292016
0.038831126 -0.010620268 0.016897358 -0.10554918 -0.02862972 0.051607367 -0.030680535 -0.11920267
-0.16352922 -0.06251167 0.114187054 -0.08560271 0.014981119 -0.087456256 -0.0317973 0.08026048
-0.22116119 0.0875685 0.123333044 0.067029655 0.10877658 0.07894677 0.08897361 0.037577398
0.08061601 0.041336276 -0.025459586 -0.003994345 0.029582707 0.21427594 0.08933617 -0.062648274
0.115441695 -0.19668527 -0.010236437 -0.0070289695 -0.04082135 -0.08870025 0.06465401 -0.06800779
0.049515195 -0.0009972511 0.050818436 -0.056610283 0.0033712008 0.18719074 -0.045478117 0.097260274
0.12220262 0.08283721 0.15270472 0.053527366 -0.06362601 -0.002854656 -0.026023148 0.18545881
0.19318317 0.166043 0.06951733 0.2502427 0.0019355259 -0.03198441 -0.0938392 -0.028292187
-0.05118028 0.14314942 0.050765067 0.13025117 -0.0072139064 -0.010870315 -0.09679623 0.13023764
0.075873904 -0.11420876 0.2070001 0.062138367 0.16311496 0.0101667745 -0.024180256 0.04851245
0.17333083 -0.02463243 0.06597105 -0.026815426 -0.13502257 0.100047134 0.037833825 -0.067289606
0.07031165 -0.07534214 0.20583579 0.17537369 0.11272528 -0.026880648 -0.0042880666 0.09336423
0.10654794 -0.04764704 0.07312625 0.020534819 -0.0024279978 0.13651262 -0.07681519 -0.10535481
-0.0479035 -0.11099722 0.10820116 0.05433696 -0.043146625 0.081074364 0.11060984 0.03981124
0.11222272 0.17670219 -0.06612984 0.072226144 0.033283506 -0.1110692 -0.023385707 -0.1484259
-0.039784312 0.15248404 -0.038927745 0.05455301 -0.02779787 0.02341233 0.08553382 -0.10918367
0.063052446 0.04814406 0.18191694 0.13785665 0.018762855 -0.074067205 -0.01476551 0.08459663
0.0064392313 0.047121644 -0.16513532 0.03905118 -0.06420714 0.095186666 -0.041118097 0.132144
0.1485072 -0.0940031 -0.10055534 0.054707464 -0.079656385 0.034389313 0.032893058 0.18029748
0.09586336 0.032909296 0.0919612 0.0557027 0.10385061 -0.14831838 0.040054943 -0.004599235
0.093335316 -0.11209335 0.1915238 -0.056928057 -0.16254278 -0.10210924 -0.022577066 -0.04730224
0.029597677 -0.08983881 -0.09340921 0.085764214 0.11880752 0.08313437 -0.0016511661 -0.03287018
0.15086241 0.1910757 -0.04618991 -0.07175881 -0.092493266 0.03697419 0.07947264 0.21328634
00000000: 0869 ecbc 1c11 dc3b 9674 c53d f551 c5bc
00000010: b16e 79bb 5c33 033c 9317 d03c d3d3 143e
00000020: 6543 ffbd 824d cabc 14ba a03d 40ae 103e
00000030: 2f0d c63b ac84 3cbe 9c96 62bc 46b0 ef3d
00000040: ce03 95bd 2f27 c2ba 0fb7 2ebd e279 2b3d
00000050: 8da0 c53d aa34 60bd 6528 edbd 843e 113e
00000060: 2fa0 a7bd 7fc9 873d 6d76 253d 8814 d2bd
00000070: 3244 db3d ad62 663d 09a8 d3ba da6c 1c3d
00000080: f9e5 853d 594e 9cbd db91 913d 77a6 993d
00000090: 7763 c73d 7732 06bd 58fb 2cbd cdcb bfbd
000000a0: ef52 2f3e a4a9 65bd 23cc bfbd f845 a93d
000000b0: d535 8f3a a2de 723d 8ed7 3dbb 8c63 babc
000000c0: 9767 cdbd 991b 793b 6385 8bbd 2496 d83d
000000d0: 1239 65bd f36e 753d a117 7e3b 779a ee3a
000000e0: bf4a 243e 81f0 1bbe e7d8 593e 1aad d73d
000000f0: b06b 02bd 3772 29bc f063 983d 082c b1bd
00000100: 2947 3f3e d2d9 753e ec41 6a3d 808e efbd
00000110: 10fa 433d d2ac e3bb 3adb 14be 2470 a4bd
00000120: 630d 1f3d a200 2ebc 546c 8a3c 2b2a d8bd
00000130: e088 eabc 3f62 533d bf55 fbbc 8820 f4bd
00000140: 3474 27be 1e06 80bd e7da e93d 7950 afbd
00000150: 5e73 753c 441c b3bd e33d 02bd 9b5f a43d
00000160: 1478 62be 1d57 b33d 0996 fc3d d846 893d
00000170: 41c6 de3d d8ae a13d cc37 b63d c2ea 193d
00000180: 021a a53d 3a50 293d 9f90 d0bc ffe2 82bb
00000190: 6f57 f23c 276b 5b3e e2f5 b63d bd4d 80bd
000001a0: b26c ec3d dd67 49be bbb6 27bc 4553 e6bb
000001b0: 4a34 27bd 7aa8 b5bd 5269 843d ab47 8bbd
000001c0: 72d0 4a3d 32b6 82ba fe26 503d 2fe0 67bd
000001d0: 5def 5c3b eeae 3f3e 4347 3abd 6530 c73d
000001e0: 5e45 fa3d 8ea6 a93d a05e 1c3e 833f 5b3d
000001f0: 5b4e 82bd 2e15 3bbb 7f2e d5bc eae8 3d3e
00000200: cfd1 453e 2d07 2a3e 1a5f 8e3d d01f 803e
00000210: 79b1 fd3a 1602 03bd c42e c0bd 04c5 e7bc
00000220: 6aa2 51bd c395 123e 08ef 4f3d 9060 053e
00000230: a262 ecbb 6819 32bc 1a3d c6bd 045d 053e
00000240: c763 9b3d 48e6 e9bd d6f7 533e cd84 7e3d
00000250: 9c07 273e 8b92 263c ac15 c6bc feb4 463d
00000260: a37d 313e f3c9 c9bc d41b 873d 06ac dbbc
00000270: 5b43 0abe 83e5 cc3d a4f7 1a3d 22cf 89bd
00000280: 8eff 8f3d fb4c 9abd 9ec6 523e 2995 333e
00000290: 83dc e63d ce34 dcbc e982 8cbb bf35 bf3d
000002a0: ce35 da3d 8b29 43bd 37c3 953d a338 a83c
000002b0: 0b1f 1fbb f7c9 0b3e 4851 9dbd 43c4 d7bd
000002c0: 7636 44bd 8352 e3bd 9298 dd3d 6f90 5e3d
000002d0: 84ba 30bd 510a a63d 6987 e23d 1c11 233d
000002e0: 07d5 e53d 6bf1 343e 156f 87bd 4deb 933d
000002f0: 4954 083d 4078 e3bd 6293 bfbc f6fc 17be
00000300: e0f4 22bd c724 1c3e b372 1fbd fa72 5f3d
00000310: 5cb8 e3bc 37cb bf3c 5b2c af3d b09b dfbd
00000320: a421 813d b532 453d 6f48 3a3e 4b2a 0d3e
00000330: 8fb4 993c 8cb0 97bd 0aeb 71bc ff40 ad3d
00000340: 3000 d33b a002 413d 3c19 29be 21f4 1f3d
00000350: 087f 83bd 3af1 c23d 736b 28bd c250 073e
00000360: 4512 183e b384 c0bd f5ef cdbd ef14 603d
00000370: e322 a3bd cfdb 0c3d dfba 063d e79f 383e
00000380: 0254 c43d e6cb 063d 2756 bc3d 8428 643d
00000390: a1af d43d c6e0 17be a710 243d 2eb5 96bb
000003a0: 9626 bf3d 3391 e5bd d11e 443e 652d 69bd
000003b0: 9d71 26be a61e d1bd 8af3 b8bc febf 41bd
000003c0: d476 f23c 69fd b7bd 544d bfbd 26a5 af3d
000003d0: 5b51 f33d 5a42 aa3d f16b d8ba e2a2 06bd
000003e0: ad7b 1a3e 59a9 433e a231 3dbd 48f6 92bd
000003f0: 1c6d bdbd 4072 173d 8dc2 a23d bc67 5a3e

network.2.bias f4 [96]
0.043656323 0.019737888 0.045131452 0.025306065 0.041814495 0.019176839 0.028678322 0.003245435
0.024344698 0.037037272 0.0296993 0.044587214 0.049462974 0.027362745 0.013083682 0.0048678536
0.03525839 0.0169642 0.02551411 0.03720028 0.030519294 0.021259382 0.0016689327 0.057346236
0.0129365055 0.01689911 0.026276171 0.028680375 0.042973842 0.02553009 0.028591342 0.045281235
0.025197979 0.04466145 0.048343685 0.035242558 0.0393106 0.027899465 0.011017008 0.03632444
0.037299655 0.004689735 0.028189346 0.017501246 0.016906498 0.026034538 0.016530234 0.024723034
0.036315866 0.029558912 0.029450364 0.016501881 0.026940253 0.03633257 0.0695035 -0.0018196914
0.049003042 0.0064426684 0.06257544 0.04856368 -0.028793428 0.034771238 0.0463805 0.046289045
0.019402336 0.02971061 0.045084756 0.07659427 0.053101502 0.056907397 0.043276813 0.06801896
0.04397656 0.033574276 0.03790521 0.04598127 0.027608573 0.07940406 0.018080972 0.03359984
0.039813817 0.06972557 0.0098921275 0.056728978 0.0387058 0.043253746 0.08963987 0.04188732
0.04340506 0.021552468 0.04293541 0.045219425 0.05981763 0.0230087 0.0133217 0.048867043
00000000: f9d0 323d 5ab1 a13c c2db 383d aa4e cf3c
00000010: ad45 2b3d bf18 9d3c cdee ea3c 5db1 543b
00000020: 886e c73c 65b4 173d f24b f33c 15a1 363d
00000030: b099 4a3d d627 e03c f15c 563c 8482 9f3b
00000040: 1a6b 103d 82f8 8a3c f802 d13c 525f 183d
00000050: 9903 fa3c 2828 ae3c 17c0 da3a e3e3 6a3d
00000060: a3f3 533c 0170 8a3c 2041 d73c 1bf3 ea3c
00000070: 5705 303d 7b24 d13c 6438 ea3c d178 393d
00000080: fe6b ce3c edee 363d 0704 463d 805a 103d
00000090: 2704 213d 6b8d e43c ae80 343c f0c8 143d
000000a0: 86c7 183d 59ac 993b 58ed e63c c65e 8f3c
000000b0: 7f7f 8a3c 6246 d53c 6a6a 873c f687 ca3c
000000c0: f2bf 143d 8825 f23c e441 f13c f42e 873c
000000d0: ceb1 dc3c 76d1 143d da57 8e3d b682 eeba
000000e0: 6ab7 483d 051d d33b 8d27 803d b6ea 463d
000000f0: 32e0 ebbc 496c 0e3d 7bf9 3d3d 9599 3d3d
00000100: a6f1 9e3c aa63 f33c cbaa 383d 75dd 9c3d
00000110: f680 593d bb17 693d 0743 313d 864d 8b3d
00000120: c420 343d 2e85 093d 7e42 1b3d db56 3c3d
00000130: 602b e23c 999e a23d 8c1e 943c fc9f 093d
00000140: d013 233d 48cc 8e3d 9712 223c a55c 683d
00000150: f989 1e3d d72a 313d 1c95 b73d 0a92 2b3d
00000160: 81c9 313d cd8e b03c 0add 2f3d 0138 393d
00000170: 5503 753d be7c bc3c 4243 5a3c cf28 483d

network.4.weight f4 [64, 96]
-0.07667601 0.108632565 0.047282036 0.016349463 1.3623994e-05 -0.068073995 -0.07996413 -0.12054985
0.047258798 -0.08373027 -0.07373857 0.0058271405 -0.052998707 -0.015740352 0.28595898 -0.03086972
-0.032235768 -0.017763386 -0.14244667 -0.026779778 -0.06064442 0.17053522 0.07832745 0.16688663
0.14445864 -0.2134351 -0.099065006 -0.02668995 0.2534998 -0.018836189 -0.06195475 0.06391934
-0.11953572 0.017394086 -0.005637399 0.08428659 0.030918963 0.19479012 -0.14238816 -0.0803128
0.009760121 -0.004860646 0.0844636 0.09130573 -0.26666763 -0.07033059 0.033122703 0.07440891
0.047606938 -0.015113826 -0.039686162 0.14630406 -0.05868678 0.13286513 0.16537204 0.031746786
0.17496045 0.051642325 -0.08511675 0.06376844 -0.122198425 0.0833918 -0.14477277 0.06619937
-0.14327444 -0.13340104 0.07313951 0.16391376 0.086157806 -0.03634803 0.12960242 0.2026762
0.1381771 -0.08328771 0.14070874 -0.089103006 -0.18276471 0.1910142 0.089910924 -0.116801284
0.110507585 0.004796893 -0.09067809 -0.00011044038 -0.029777136 -0.013204009 0.27524334 -0.054452457
0.018401736 0.15596884 0.1319303 -0.0101834005 -0.15646072 0.09086439 0.11370457 -0.10714035
-0.07417424 0.08644638 0.07745594 0.18417233 -0.017716052 -0.16167848 -0.1921329 0.08833674
-0.03816104 0.049059577 0.047154963 -0.0020598941 0.1670624 0.047348853 0.21361384 -0.0450303
0.08201905 -0.02963591 0.08576062 -0.18129276 0.09403274 0.19402063 0.13156103 0.039617155
-0.085317664 0.098596044 -0.11523405 -0.22436309 0.12136689 -0.05971405 -0.06489075 0.21199313
-0.06819093 -0.104488514 0.10583926 -0.1282626 -0.1627828 0.1173189 -0.0671233 0.19591872
0.036701534 -0.055249672 -0.022337396 -0.009055483 0.13201466 -0.18402255 -0.017244471 0.07458533
0.015428687 -0.12811434 0.21727937 -0.16710706 0.06984784 0.045971278 0.21276706 0.0680773
0.012951049 -0.034754813 -0.02554519 0.1017349 -0.042593658 -0.14468381 0.110962525 0.18706864
0.061727174 0.16910718 0.027948428 0.06213018 0.1591695 -0.09408171 0.074794136 0.10817072
0.031051293 0.029865764 -0.017602857 -0.019980878 -0.017344907 0.1202312 -0.10819248 -0.044270456
0.10567171 0.020174589 -0.1469841 0.048832096 0.008443675 -0.14354935 0.14659952 0.07199612
0.0454491 0.16742761 -0.04163698 0.11801034 -0.001554383 0.11862295 0.10983905 0.064242736
0.10565452 0.050633535 -0.25751954 0.16071616 0.11155638 0.15653971 -0.06384329 0.017361613
-0.046056233 0.17191723 -0.078148134 0.024589097 -0.10950507 -0.07559467 0.016219037 0.07747006
-0.14890487 0.0055912863 0.13903935 -0.09496798 0.10362532 0.007445218 0.13444293 0.014879263
-0.07533218 -0.009879003 0.12411087 0.14403723 -0.008536693 0.069312386 -0.004224913 0.038035035
-0.10425784 0.13626158 0.052025832 -0.026820565 -0.010266109 -0.016237436 0.037609447 0.06907338
0.179919 -0.0029640086 -0.10581167 -0.101522885 0.027913135 0.12770079 0.07070875 -0.11889198
0.07917414 0.10269382 0.12860985 0.24778004 0.15386762 0.040416185 0.02532263 0.0902302
0.1048927 -0.020439541 0.0040907236 0.042920865 -0.010701746 0.10295199 0.122910604 -0.11753656
00000000: 5008 9dbd c07a de3d cfaa 413d 4fef 853c
00000010: 9c92 6437 616a 8bbd 3cc4 a3bd d7e2 f6bd
00000020: 7192 413d c77a abbd 3f04 97bd 99f1 be3b
00000030: 2c15 59bd e9f1 80bc 3769 923e 7fe2 fcbc
00000040: a709 04bd 8584 91bc 8add 11be 4461 dbbc
00000050: 4966 78bd c9a0 2e3e 246a a03d 54e4 2a3e
00000060: f7ec 133e bb8e 5abe 98e2 cabd e2a4 dabc
00000070: baca 813e 5a4e 9abc 44c4 7dbd 25e8 823d
00000080: 25cf f4bd 0b7e 8e3c eeb9 b8bb 739e ac3d
00000090: c449 fd3c 1077 473e 34ce 11be 0a7b a4bd
000000a0: eae8 1f3c 0e46 9fbb 40fb ac3d 80fe ba3d
000000b0: a988 88be 7c09 90bd acab 073d b363 983d
000000c0: 7eff 423d fb9f 77bc f58d 22bd bbd0 153e
000000d0: 8d61 70bd cc0d 083e 4a57 293e eb08 023d
000000e0: d528 333e e786 533d b151 aebd 0799 823d
000000f0: 2b43 fabd 52c9 aa3d 503f 14be 8993 873d
00000100: 89b6 12be 489a 08be 2bca 953d 02d9 273e
00000110: 8173 b03d ace1 14bd 7fb6 043e 5a8a 4f3e
00000120: 4c7e 0d3e bf92 aabd f415 103e a37b b6bd
00000130: ac26 3bbe 3a99 433e 3823 b83d 8335 efbd
00000140: cd51 e23d 412f 9d3b 6fb5 b9bd 3a9c e7b8
00000150: 2eef f3bc a155 58bc b2ec 8c3e 8a09 5fbd
00000160: 3dbf 963c 4cb6 1f3e bd18 073e 47d8 26bc
00000170: 3d37 20be 1c17 ba3d f1dd e83d 666c dbbd
00000180: aae8 97bd cd0a b13d 38a1 9e3d ac97 3c3e
00000190: 4121 91bc 0b8f 25be 7dbe 44be e5e9 b43d
000001a0: c04e 1cbd b2f2 483d 9025 413d 4aff 06bb
000001b0: 6812 2b3e dff0 413d 96bd 5a3e b171 38bd
000001c0: 9bf9 a73d 02c7 f2bc 44a3 af3d cfa4 39be
000001d0: 3d94 c03d 58ad 463e efb7 063e 9945 223d
000001e0: 07bb aebd b9ec c93d d4ff ebbd 70bf 65be
000001f0: 348f f83d b896 74bd 71e5 84bd ba14 593e
00000200: b0a7 8bbd 13fe d5bd 41c2 d83d 4557 03be
00000210: 89b0 26be e444 f03d f177 89bd eb9e 483e
00000220: 5954 163d 7b4d 62bd eafc b6bc 735d 14bc
00000230: da2e 073e 6870 3cbe 4744 8dbc 32c0 983d
00000240: 9bc8 7c3c 6830 03be 7c7e 5e3e 1d1e 2bbe
00000250: 620c 8f3d 614c 3c3d 9cdf 593e 1d6c 8b3d
00000260: a330 543c 105b 0ebd 2544 d1bc 635a d03d
00000270: b076 2ebd fe27 14be 5240 e33d ec8e 3f3e
00000280: a2d5 7c3d 6f2a 2d3e 1af4 e43c 377c 7e3d
00000290: 54fd 223e e9ad c0bd ab2d 993d 9c88 dd3d
000002a0: 485f fe3c 0ca9 f43c de33 90bc f0ae a3bc
000002b0: e816 8ebc c63b f63d 0594 ddbd f054 35bd
000002c0: 696a d83d 2e45 a53c 0083 16be 2a04 483d
000002d0: 5757 0a3c 9afe 12be 2f1e 163e b472 933d
000002e0: d628 3a3d 2572 2b3e 8a8b 2abd 68af f13d
000002f0: 70bc cbba 97f0 f23d 4cf3 e03d b291 833d
00000300: 6661 d83d 1c65 4f3d 9ad9 83be c792 243e
00000310: ac77 e43d f24b 203e 45c0 82bd f139 8e3c
00000320: 76a5 3cbd 120b 303e 210c a0bd 136f c93c
00000330: 3244 e0bd 61d1 9abd c9dd 843c 9fa8 9e3d
00000340: 857a 18be 1c37 b73b 5560 0e3e 937e c2bd
00000350: 8339 d43d 04f7 f33b 68ab 093e 27c8 733c
00000360: c247 9abd 8bdb 21bc d72d fe3d 7f7e 133e
00000370: 7cdd 0bbc a7f3 8d3d 2471 8abb a0ca 1b3d
00000380: 2285 d5bd 2888 0b3e 0a19 553d cdb6 dbbc
00000390: 2f33 28bc 5f04 85bc 5d0c 1a3d 5876 8d3d
000003a0: b03c 383e d03f 42bb cab3 d8bd 3beb cfbd
000003b0: 16aa e43c ffc3 023e c0cf 903d a37d f3bd
000003c0: 0d26 a23d 2351 d23d 4db2 033e 0dba 7d3e
000003d0: 798f 1d3e 718b 253d 6771 cf3c 9cca b83d
000003e0: fcd1 d63d d370 a7bc 7a0b 863b cacd 2f3d
000003f0: 6056 2fbc 7ed8 d23d 8eb8 fb3d 02b7 f0bd

network.4.bias f4 [64]
0.06879349 0.025881615 0.030046454 0.016334739 0.031723924 0.030362379 -0.015534784 0.019544777
0.055832405 0.008986002 0.007465531 0.036400106 0.0070561725 0.016052695 0.015821107 0.031183254
0.014700817 0.032183852 0.028249687 -0.012019861 0.018759117 0.015236709 0.04324334 0.017702773
0.010859546 0.051381312 0.03058819 0.040286943 -0.0038017314 -0.0016884254 0.030748418 0.014940726
0.0041028922 0.03416563 0.01021135 0.06360207 0.008247372 0.023774445 0.0064514703 0.020913389
0.039181575 0.025256729 0.038258422 0.047596797 0.03724851 0.034599006 0.0027664907 0.0236757
0.021718936 0.028288396 0.014317435 0.013273857 0.028310623 0.00434188 0.004545658 0.041700646
0.043399733 0.008402157 0.04325522 0.033659667 0.032743126 0.012057372 0.022507899 0.0073065213
00000000: 9ae3 8c3d ae05 d43c fb23 f63c 6ed0 853c
00000010: f2f0 013d 86ba f83c 9b85 7ebc 5e1c a03c
00000020: 85b0 643d 063a 133c 6aa1 f43b 4718 153d
00000030: 7737 e73b f180 833c 449b 813c 0674 ff3c
00000040: b2db 703c 37d3 033d e36b e73c f3ee 44bc
00000050: b8ac 993c 64a3 793c ee1f 313d 6805 913c
00000060: 3dec 313c 3675 523d 1594 fa3c ec03 253d
00000070: 7826 79bb 284e ddba 1be4 fb3c f2c9 743c
00000080: 8e71 863b 42f1 0b3d 824d 273c cd41 823d
00000090: fc1f 073c a0c2 c23c db66 d33b 8e52 ab3c
000000a0: dc7c 203d 33e7 ce3c ddb4 1c3d dcf4 423d
000000b0: e591 183d b0b7 0d3d 034e 353b 8bf3 c13c
000000c0: e9eb b13c 11bd e73c ad93 6a3c 977a 593c
000000d0: aeeb e73c 5446 8e3b bef3 943b 4cce 2a3d
000000e0: ebc3 313d 33a9 093c 632c 313d b8de 093d
000000f0: a81d 063d 498c 453c 7c62 b83c 8b6b ef3b

network.6.weight f4 [39, 64]
-0.3872334 0.016121902 -0.19027531 -0.31987748 -0.24059685 -0.14834873 -0.0008985741 -0.32002252
-0.07201922 -0.03331848 0.1155415 -0.1831218 -0.14232439 -0.34382302 -0.16030364 -0.042919107
-0.097850695 -0.18147364 -0.32447496 -0.26519713 -0.017141584 -0.106781125 -0.14275932 -0.09662153
-0.06936936 -0.323052 -0.32594767 -0.21005884 -0.22171636 -0.06413644 -0.13190629 -0.21790868
-0.19587223 -0.07131816 -0.1463539 -0.11608372 -0.0915879 0.011762734 -0.05729069 -0.26546305
-0.39994857 -0.21769643 0.121860534 -0.25785568 -0.33743522 -0.2532508 -0.15555207 -0.21522729
-0.16327983 -0.13882698 -0.036155548 -0.13626292 -0.17041244 -0.17309996 -0.08689261 -0.3105308
-0.18475093 -0.20047426 -0.15049894 -0.26376253 -0.13212323 -0.14540814 -0.34265214 -0.11296784
-0.062984586 0.050293237 -0.1778713 -0.04778276 -0.08790351 0.21285726 -0.004032585 -0.23164211
-0.01848158 -0.04710843 0.07403133 -0.010179389 -0.14317401 0.1108334 -0.19685997 0.07227676
0.10154434 0.20069946 -0.08263459 -0.17817701 0.13244367 -0.10667675 0.06110076 -0.082857385
-0.08400318 -0.3529699 0.041504063 -0.034414273 0.016905086 0.06803861 0.35082883 0.014745841
0.13958737 0.02421644 -0.0038353025 0.08125778 -0.087828495 0.18585306 -0.12265887 -0.14687672
0.15017402 0.23271188 0.027353592 0.2553349 -0.071511835 -0.25434142 0.16192883 -0.107348494
0.044821996 0.06621027 0.20449674 -0.15450943 -0.0054206043 0.052500483 -0.19061929 0.047322355
0.12750931 0.10276412 0.054112997 -0.122397944 0.20359905 -0.043709733 -0.20176958 -0.038986124
0.27302524 -0.052531607 0.15544909 0.18696396 0.06962812 -0.046073034 -0.0016281442 0.11318321
0.21010993 -0.10809763 0.061295837 0.18621664 0.11084062 0.040387314 -0.16972157 -0.18161124
0.27933672 -0.052807868 -0.33162227 -0.05263686 -0.06214843 0.08470359 0.13864912 -0.07405014
-0.22038357 0.040627073 0.1200553 -0.12154929 0.00639077 -0.20922314 0.19854777 0.10332377
0.05006279 -0.14509231 0.31340516 0.10249689 -0.12469029 -0.20729522 -0.08295378 0.056655303
0.060248557 0.22311807 0.080093995 -0.054653488 -0.30292997 0.03828454 -0.16667545 -0.010862812
0.011275899 -0.1863994 -0.008131779 -0.10346425 0.052744452 0.21788329 -0.12793726 0.29384515
0.09312268 -0.10656001 -0.037991296 0.040645104 -0.42428052 0.07581051 0.1278242 0.06950003
0.073039114 0.13960175 0.039259538 -0.28026515 -0.010240829 -0.010244908 0.21844648 -0.18366142
0.15219235 0.023844432 -0.03423265 -0.05799652 0.07071706 -0.068370715 0.26263353 0.085142255
0.014873807 0.14954318 -0.0981565 -0.083984315 -0.1660437 0.30341303 0.022558726 -0.086758174
0.049734164 -0.16752632 0.028992355 -0.0664567 0.017414799 -0.18684247 -0.09428425 -0.086643785
-0.008536962 -0.15361069 0.050336357 0.10249291 -0.16132839 -0.06911216 0.0057119 0.049774926
-0.047967326 -0.021378465 -0.0412994 0.17613927 0.10758483 -0.09756705 -0.15444069 0.0020845828
0.07844378 -0.05970502 -0.0165228 -0.016649036 -0.009895851 0.09842138 0.09298418 0.049321122
-0.059638083 -0.09281905 0.060935054 0.15446074 -0.026504401 -0.1450927 -0.0018712261 0.1408279
00000000: 7543 c6be 1412 843c 88d7 42be fbc6 a3be
00000010: 055f 76be bbe8 17be 498e 6bba fed9 a3be
00000020: d07e 93bd f578 08bd 06a1 ec3d 4884 3bbe
00000030: 7cbd 11be 9209 b0be a326 24be f2cb 2fbd
00000040: f265 c8bd 3ad4 39be 9521 a6be ebc7 87be
00000050: 826c 8cbc 10b0 dabd 802f 12be 82e1 c5bd
00000060: 8611 8ebd 1267 a5be 9de2 a6be aa19 57be
00000070: 9d09 63be f759 83bd 7112 07be 7423 5fbe
00000080: bb92 48be 410f 92bd ccdd 15be 4dbd edbd
00000090: 7092 bbbd 7bb8 403c a4a9 6abd c6ea 87be
000000a0: 0fc6 ccbe d0eb 5ebe 0492 f93d a905 84be
000000b0: 4fc4 acbe 17aa 81be 0b49 1fbe 8b64 5cbe
000000c0: d432 27be a928 0ebe d717 14bd 8288 0bbe
000000d0: 9980 2ebe 1e41 31be c1f4 b1bd e5fd 9ebe
000000e0: 592f 3dbe 2049 4dbe 651c 1abe e20b 87be
000000f0: 504b 07be dfe5 14be 1a70 afbe af5b e7bd
00000100: 10fe 80bd 4800 4e3d e523 36be dbb7 43bd
00000110: c106 b4bd 41f7 593e c623 84bb 9733 6dbe
00000120: af66 97bc c5f4 40bd bd9d 973d 74c7 26bc
00000130: 359c 12be 9ffc e23d a995 49be d705 943d
00000140: 7bf6 cf3d 2984 4d3e 533c a9bd 0974 36be
00000150: 509f 073e 5779 dabd ca44 7a3d 22b1 a9bd
00000160: dc09 acbd 79b8 b4be 2a00 2a3d fbf5 0cbd
00000170: 897c 8a3c d457 8b3d d69f b33e 8a98 713c
00000180: feef 0e3e 8e61 c63c b359 7bbb 7b6a a63d
00000190: 6ddf b3bd 4450 3e3e 9334 fbbd da66 16be
000001a0: 38c7 193e 064c 6e3e a414 e03c 42bb 823e
000001b0: cc74 92bd 0a39 82be acd0 253e 87d9 dbbd
000001c0: 4597 373d 4099 873d 9867 513e b837 1ebe
000001d0: 539f b1bb bf0a 573d b431 43be 16d5 413d
000001e0: cd91 023e ff75 d23d 97a5 5d3d c6ab fabd
000001f0: 457c 503e fa08 33bd af9c 4ebe eaaf 1fbd
00000200: f7c9 8b3e 622b 57bd 0c2e 1f3e 7b73 3f3e
00000210: 3099 8e3d 14b7 3cbd 7467 d5ba 99cc e73d
00000220: 0f27 573e 4a62 ddbd 5811 7b3d 93af 3e3e
00000230: 6800 e33d 2b6d 253d 7ecb 2dbe 4cf8 39be
00000240: 3905 8f3e 104d 58bd 65ca a9be c099 57bd
00000250: 5a8f 7ebd 1379 ad3d 09fa 0d3e 9aa7 97bd
00000260: 3bac 61be 9368 263d 8edf f53d d6ee f8bd
00000270: aa69 d13b 973e 56be 1b50 4b3e 6a9b d33d
00000280: a40e 4d3d 1493 14be a476 a03e e4e9 d13d
00000290: 9f5d ffbd 3345 54be ace3 a9bd 640f 683d
000002a0: 31c7 763d 1079 643e 5208 a43d 56dc 5fbd
000002b0: a319 9bbe 40d0 1c3d f8ac 2abe f0f9 31bc
000002c0: 8cbe 383c 7cdf 3ebe 273b 05bc 11e5 d3bd
000002d0: 910a 583d cc1c 5f3e fc01 03be df72 963e
000002e0: 1bb7 be3d 223c dabd c39c 1bbd 7b7b 263d
000002f0: 4c3b d9be 8a42 9b3d 59e4 023e 0856 8e3d
00000300: 8895 953d c3f3 0e3e 9cce 203d ea7e 8fbe
00000310: 26c9 27bc 42da 27bc 6fb0 5f3e bd11 3cbe
00000320: 50d8 1b3e 6655 c33c 8937 0cbd c28d 6dbd
00000330: 1bd4 903d f205 8cbd e777 863e 105f ae3d
00000340: 45b1 733c d921 193e 4606 c9bd f8ff abbd
00000350: 5c07 2abe f458 9b3e 14cd b83c 45ae b1bd
00000360: 0db6 4b3d 058c 2bbe 6081 ed3c 731a 88bd
00000370: 7ba9 8e3c a253 3fbe 1a18 c1bd 4c72 b1bd
00000380: 9dde 0bbc 1f4c 1dbe 7f2d 4e3d cee7 d13d
00000390: 4533 25be ad8a 8dbd e42a bb3b cbe0 4b3d
000003a0: 6379 44bd e421 afbc 8f29 29bd da5d 343e
000003b0: 6f55 dc3d 3cd1 c7bd b325 1ebe 7f9d 083b
000003c0: 22a7 a03d 408d 74bd d35a 87bc 8f63 88bc
000003d0: 3522 22bc 2691 c93d 7d6e be3d f204 4a3d
000003e0: 1047 74bd ea17 bebd 0997 793d f52a 1e3e
000003f0: c21f d9bc 2e93 14be ee43 f5ba 3035 103e

network.6.bias f4 [39]
-0.077492714 0.018697973 0.062159218 0.0067058196 0.00068814284 -0.018855425 -0.0073583038 -0.010344657
-0.0003675281 -0.008542976 -0.088766076 0.017266912 -0.024619168 -0.0020824932 0.015701827 0.010309908
0.013175366 -0.042090364 0.023250755 0.015547508 0.0406233 0.04811455 -0.03859922 0.045381792
-0.07658825 0.0018646242 -0.07583861 -0.027119596 -0.0011673248 -0.029962584 -0.023315161 -0.0110339755
-0.030554224 -0.055810217 -0.060641147 -0.07795125 -0.08392397 -0.092209645 -0.03428975
00000000: 80b4 9ebd 7e2c 993c aa9a 7e3d 7ebc db3b
00000010: 7c64 343a b176 9abc ed1d f1bb a37c 29bc
00000020: c9b0 c0b9 d7f7 0bbc fdca b5bd 5773 8d3c
00000030: 23ae c9bc 707a 08bb 1ea1 803c e3ea 283c
00000040: 7edd 573c f266 2cbd 5e78 be3c faba 7e3c
00000050: 9e64 263d c313 453d 371a 1ebd 42e2 393d
00000060: 4dda 9cbd 6866 f43a 4651 9bbd ea29 debc
00000070: ec00 99ba 1874 f5bc 70ff bebc d9c7 34bc
00000080: da4c fabc 4199 64bd da62 78bd e8a4 9fbd
00000090: 55e0 abbd 69d8 bcbd 6973 0cbd
